#loc = loc("/orcd/home/002/osbo/ondemand/fluid-sim/Assets/Scripts/.torch_inductor_cache/er/cert6mgre3ruyn3vqlstbnqyxbmztd6i4tyqyqe5boul3orgnnsc.py":18:0)
module {
  tt.func public @triton_(%arg0: !tt.ptr<f32> {tt.divisibility = 16 : i32} loc("/orcd/home/002/osbo/ondemand/fluid-sim/Assets/Scripts/.torch_inductor_cache/er/cert6mgre3ruyn3vqlstbnqyxbmztd6i4tyqyqe5boul3orgnnsc.py":18:0), %arg1: !tt.ptr<f32> {tt.divisibility = 16 : i32} loc("/orcd/home/002/osbo/ondemand/fluid-sim/Assets/Scripts/.torch_inductor_cache/er/cert6mgre3ruyn3vqlstbnqyxbmztd6i4tyqyqe5boul3orgnnsc.py":18:0), %arg2: !tt.ptr<f32> {tt.divisibility = 16 : i32} loc("/orcd/home/002/osbo/ondemand/fluid-sim/Assets/Scripts/.torch_inductor_cache/er/cert6mgre3ruyn3vqlstbnqyxbmztd6i4tyqyqe5boul3orgnnsc.py":18:0), %arg3: i32 {tt.divisibility = 16 : i32} loc("/orcd/home/002/osbo/ondemand/fluid-sim/Assets/Scripts/.torch_inductor_cache/er/cert6mgre3ruyn3vqlstbnqyxbmztd6i4tyqyqe5boul3orgnnsc.py":18:0), %arg4: i32 {tt.divisibility = 16 : i32} loc("/orcd/home/002/osbo/ondemand/fluid-sim/Assets/Scripts/.torch_inductor_cache/er/cert6mgre3ruyn3vqlstbnqyxbmztd6i4tyqyqe5boul3orgnnsc.py":18:0)) attributes {noinline = false} {
    %cst = arith.constant dense<16384> : tensor<1x32xi32> loc(#loc1)
    %cst_0 = arith.constant dense<131072> : tensor<1x32xi32> loc(#loc1)
    %cst_1 = arith.constant dense<8> : tensor<32x1xi32> loc(#loc1)
    %cst_2 = arith.constant dense<8> : tensor<1x32xi32> loc(#loc1)
    %c32_i32 = arith.constant 32 : i32 loc(#loc1)
    %0 = tt.get_program_id y : i32 loc(#loc2)
    %1 = arith.muli %0, %c32_i32 : i32 loc(#loc3)
    %2 = tt.make_range {end = 32 : i32, start = 0 : i32} : tensor<32xi32> loc(#loc4)
    %3 = tt.expand_dims %2 {axis = 0 : i32} : tensor<32xi32> -> tensor<1x32xi32> loc(#loc5)
    %4 = tt.splat %1 : i32 -> tensor<1x32xi32> loc(#loc6)
    %5 = arith.addi %4, %3 : tensor<1x32xi32> loc(#loc6)
    %6 = tt.get_program_id x : i32 loc(#loc7)
    %7 = arith.muli %6, %c32_i32 : i32 loc(#loc8)
    %8 = tt.expand_dims %2 {axis = 1 : i32} : tensor<32xi32> -> tensor<32x1xi32> loc(#loc9)
    %9 = tt.splat %7 : i32 -> tensor<32x1xi32> loc(#loc10)
    %10 = arith.addi %9, %8 : tensor<32x1xi32> loc(#loc10)
    %11 = arith.remsi %5, %cst_2 : tensor<1x32xi32> loc(#loc11)
    %12 = arith.divsi %5, %cst_2 : tensor<1x32xi32> loc(#loc12)
    %13 = arith.muli %10, %cst_1 : tensor<32x1xi32> loc(#loc13)
    %14 = tt.broadcast %11 : tensor<1x32xi32> -> tensor<32x32xi32> loc(#loc14)
    %15 = tt.broadcast %13 : tensor<32x1xi32> -> tensor<32x32xi32> loc(#loc14)
    %16 = arith.addi %14, %15 : tensor<32x32xi32> loc(#loc14)
    %17 = arith.muli %12, %cst_0 : tensor<1x32xi32> loc(#loc15)
    %18 = tt.broadcast %17 : tensor<1x32xi32> -> tensor<32x32xi32> loc(#loc16)
    %19 = arith.addi %16, %18 : tensor<32x32xi32> loc(#loc16)
    %20 = tt.splat %arg0 : !tt.ptr<f32> -> tensor<32x32x!tt.ptr<f32>> loc(#loc17)
    %21 = tt.addptr %20, %19 : tensor<32x32x!tt.ptr<f32>>, tensor<32x32xi32> loc(#loc17)
    %22 = tt.load %21 evictionPolicy = evict_last : tensor<32x32x!tt.ptr<f32>> loc(#loc18)
    %23 = tt.splat %arg1 : !tt.ptr<f32> -> tensor<1x32x!tt.ptr<f32>> loc(#loc19)
    %24 = tt.addptr %23, %11 : tensor<1x32x!tt.ptr<f32>>, tensor<1x32xi32> loc(#loc19)
    %25 = tt.load %24 evictionPolicy = evict_last : tensor<1x32x!tt.ptr<f32>> loc(#loc20)
    %26 = tt.broadcast %25 : tensor<1x32xf32> -> tensor<32x32xf32> loc(#loc21)
    %27 = arith.addf %22, %26 : tensor<32x32xf32> loc(#loc21)
    %28 = arith.muli %5, %cst : tensor<1x32xi32> loc(#loc22)
    %29 = tt.broadcast %10 : tensor<32x1xi32> -> tensor<32x32xi32> loc(#loc23)
    %30 = tt.broadcast %28 : tensor<1x32xi32> -> tensor<32x32xi32> loc(#loc23)
    %31 = arith.addi %29, %30 : tensor<32x32xi32> loc(#loc23)
    %32 = tt.splat %arg2 : !tt.ptr<f32> -> tensor<32x32x!tt.ptr<f32>> loc(#loc24)
    %33 = tt.addptr %32, %31 : tensor<32x32x!tt.ptr<f32>>, tensor<32x32xi32> loc(#loc24)
    tt.store %33, %27 : tensor<32x32x!tt.ptr<f32>> loc(#loc25)
    tt.return loc(#loc26)
  } loc(#loc)
} loc(#loc)
#loc1 = loc(unknown)
#loc2 = loc("/orcd/home/002/osbo/ondemand/fluid-sim/Assets/Scripts/.torch_inductor_cache/er/cert6mgre3ruyn3vqlstbnqyxbmztd6i4tyqyqe5boul3orgnnsc.py":21:28)
#loc3 = loc("/orcd/home/002/osbo/ondemand/fluid-sim/Assets/Scripts/.torch_inductor_cache/er/cert6mgre3ruyn3vqlstbnqyxbmztd6i4tyqyqe5boul3orgnnsc.py":21:33)
#loc4 = loc("/orcd/home/002/osbo/ondemand/fluid-sim/Assets/Scripts/.torch_inductor_cache/er/cert6mgre3ruyn3vqlstbnqyxbmztd6i4tyqyqe5boul3orgnnsc.py":22:36)
#loc5 = loc("/orcd/home/002/osbo/ondemand/fluid-sim/Assets/Scripts/.torch_inductor_cache/er/cert6mgre3ruyn3vqlstbnqyxbmztd6i4tyqyqe5boul3orgnnsc.py":22:44)
#loc6 = loc("/orcd/home/002/osbo/ondemand/fluid-sim/Assets/Scripts/.torch_inductor_cache/er/cert6mgre3ruyn3vqlstbnqyxbmztd6i4tyqyqe5boul3orgnnsc.py":22:23)
#loc7 = loc("/orcd/home/002/osbo/ondemand/fluid-sim/Assets/Scripts/.torch_inductor_cache/er/cert6mgre3ruyn3vqlstbnqyxbmztd6i4tyqyqe5boul3orgnnsc.py":24:28)
#loc8 = loc("/orcd/home/002/osbo/ondemand/fluid-sim/Assets/Scripts/.torch_inductor_cache/er/cert6mgre3ruyn3vqlstbnqyxbmztd6i4tyqyqe5boul3orgnnsc.py":24:33)
#loc9 = loc("/orcd/home/002/osbo/ondemand/fluid-sim/Assets/Scripts/.torch_inductor_cache/er/cert6mgre3ruyn3vqlstbnqyxbmztd6i4tyqyqe5boul3orgnnsc.py":25:44)
#loc10 = loc("/orcd/home/002/osbo/ondemand/fluid-sim/Assets/Scripts/.torch_inductor_cache/er/cert6mgre3ruyn3vqlstbnqyxbmztd6i4tyqyqe5boul3orgnnsc.py":25:23)
#loc11 = loc("/orcd/home/002/osbo/ondemand/fluid-sim/Assets/Scripts/.torch_inductor_cache/er/cert6mgre3ruyn3vqlstbnqyxbmztd6i4tyqyqe5boul3orgnnsc.py":28:18)
#loc12 = loc("/orcd/home/002/osbo/ondemand/fluid-sim/Assets/Scripts/.torch_inductor_cache/er/cert6mgre3ruyn3vqlstbnqyxbmztd6i4tyqyqe5boul3orgnnsc.py":29:20)
#loc13 = loc("/orcd/home/002/osbo/ondemand/fluid-sim/Assets/Scripts/.torch_inductor_cache/er/cert6mgre3ruyn3vqlstbnqyxbmztd6i4tyqyqe5boul3orgnnsc.py":31:38)
#loc14 = loc("/orcd/home/002/osbo/ondemand/fluid-sim/Assets/Scripts/.torch_inductor_cache/er/cert6mgre3ruyn3vqlstbnqyxbmztd6i4tyqyqe5boul3orgnnsc.py":31:36)
#loc15 = loc("/orcd/home/002/osbo/ondemand/fluid-sim/Assets/Scripts/.torch_inductor_cache/er/cert6mgre3ruyn3vqlstbnqyxbmztd6i4tyqyqe5boul3orgnnsc.py":31:52)
#loc16 = loc("/orcd/home/002/osbo/ondemand/fluid-sim/Assets/Scripts/.torch_inductor_cache/er/cert6mgre3ruyn3vqlstbnqyxbmztd6i4tyqyqe5boul3orgnnsc.py":31:45)
#loc17 = loc("/orcd/home/002/osbo/ondemand/fluid-sim/Assets/Scripts/.torch_inductor_cache/er/cert6mgre3ruyn3vqlstbnqyxbmztd6i4tyqyqe5boul3orgnnsc.py":31:30)
#loc18 = loc("/orcd/home/002/osbo/ondemand/fluid-sim/Assets/Scripts/.torch_inductor_cache/er/cert6mgre3ruyn3vqlstbnqyxbmztd6i4tyqyqe5boul3orgnnsc.py":31:58)
#loc19 = loc("/orcd/home/002/osbo/ondemand/fluid-sim/Assets/Scripts/.torch_inductor_cache/er/cert6mgre3ruyn3vqlstbnqyxbmztd6i4tyqyqe5boul3orgnnsc.py":32:30)
#loc20 = loc("/orcd/home/002/osbo/ondemand/fluid-sim/Assets/Scripts/.torch_inductor_cache/er/cert6mgre3ruyn3vqlstbnqyxbmztd6i4tyqyqe5boul3orgnnsc.py":32:35)
#loc21 = loc("/orcd/home/002/osbo/ondemand/fluid-sim/Assets/Scripts/.torch_inductor_cache/er/cert6mgre3ruyn3vqlstbnqyxbmztd6i4tyqyqe5boul3orgnnsc.py":33:18)
#loc22 = loc("/orcd/home/002/osbo/ondemand/fluid-sim/Assets/Scripts/.torch_inductor_cache/er/cert6mgre3ruyn3vqlstbnqyxbmztd6i4tyqyqe5boul3orgnnsc.py":34:37)
#loc23 = loc("/orcd/home/002/osbo/ondemand/fluid-sim/Assets/Scripts/.torch_inductor_cache/er/cert6mgre3ruyn3vqlstbnqyxbmztd6i4tyqyqe5boul3orgnnsc.py":34:31)
#loc24 = loc("/orcd/home/002/osbo/ondemand/fluid-sim/Assets/Scripts/.torch_inductor_cache/er/cert6mgre3ruyn3vqlstbnqyxbmztd6i4tyqyqe5boul3orgnnsc.py":34:25)
#loc25 = loc("/orcd/home/002/osbo/ondemand/fluid-sim/Assets/Scripts/.torch_inductor_cache/er/cert6mgre3ruyn3vqlstbnqyxbmztd6i4tyqyqe5boul3orgnnsc.py":34:49)
#loc26 = loc("/orcd/home/002/osbo/ondemand/fluid-sim/Assets/Scripts/.torch_inductor_cache/er/cert6mgre3ruyn3vqlstbnqyxbmztd6i4tyqyqe5boul3orgnnsc.py":34:4)
