#loc = loc("/orcd/home/002/osbo/ondemand/fluid-sim/Assets/Scripts/.torch_inductor_cache/ht/chtvg2l35tuxhczdscxv43xstijveirgzkgbjmnjgbzyhyl3yxni.py":18:0)
module {
  tt.func public @triton_(%arg0: !tt.ptr<f32> {tt.divisibility = 16 : i32} loc("/orcd/home/002/osbo/ondemand/fluid-sim/Assets/Scripts/.torch_inductor_cache/ht/chtvg2l35tuxhczdscxv43xstijveirgzkgbjmnjgbzyhyl3yxni.py":18:0), %arg1: !tt.ptr<f32> {tt.divisibility = 16 : i32} loc("/orcd/home/002/osbo/ondemand/fluid-sim/Assets/Scripts/.torch_inductor_cache/ht/chtvg2l35tuxhczdscxv43xstijveirgzkgbjmnjgbzyhyl3yxni.py":18:0), %arg2: !tt.ptr<f32> {tt.divisibility = 16 : i32} loc("/orcd/home/002/osbo/ondemand/fluid-sim/Assets/Scripts/.torch_inductor_cache/ht/chtvg2l35tuxhczdscxv43xstijveirgzkgbjmnjgbzyhyl3yxni.py":18:0), %arg3: i32 {tt.divisibility = 16 : i32} loc("/orcd/home/002/osbo/ondemand/fluid-sim/Assets/Scripts/.torch_inductor_cache/ht/chtvg2l35tuxhczdscxv43xstijveirgzkgbjmnjgbzyhyl3yxni.py":18:0)) attributes {noinline = false} {
    %cst = arith.constant dense<0.000000e+00> : tensor<1024xf32> loc(#loc1)
    %cst_0 = arith.constant dense<4096> : tensor<1024xi32> loc(#loc1)
    %cst_1 = arith.constant dense<32> : tensor<1024xi64> loc(#loc1)
    %cst_2 = arith.constant dense<4224> : tensor<1024xi32> loc(#loc1)
    %cst_3 = arith.constant dense<33> : tensor<1024xi32> loc(#loc1)
    %cst_4 = arith.constant dense<128> : tensor<1024xi32> loc(#loc1)
    %c1024_i32 = arith.constant 1024 : i32 loc(#loc1)
    %0 = tt.get_program_id x : i32 loc(#loc2)
    %1 = arith.muli %0, %c1024_i32 : i32 loc(#loc3)
    %2 = tt.make_range {end = 1024 : i32, start = 0 : i32} : tensor<1024xi32> loc(#loc4)
    %3 = tt.splat %1 : i32 -> tensor<1024xi32> loc(#loc5)
    %4 = arith.addi %3, %2 : tensor<1024xi32> loc(#loc5)
    %5 = arith.divsi %4, %cst_4 : tensor<1024xi32> loc(#loc6)
    %6 = arith.remsi %5, %cst_3 : tensor<1024xi32> loc(#loc7)
    %7 = arith.remsi %4, %cst_4 : tensor<1024xi32> loc(#loc8)
    %8 = arith.divsi %4, %cst_2 : tensor<1024xi32> loc(#loc9)
    %9 = arith.extsi %6 : tensor<1024xi32> to tensor<1024xi64> loc(#loc10)
    %10 = arith.cmpi slt, %9, %cst_1 : tensor<1024xi64> loc(#loc10)
    %11 = arith.muli %6, %cst_4 : tensor<1024xi32> loc(#loc11)
    %12 = arith.addi %7, %11 : tensor<1024xi32> loc(#loc12)
    %13 = arith.muli %8, %cst_0 : tensor<1024xi32> loc(#loc13)
    %14 = arith.addi %12, %13 : tensor<1024xi32> loc(#loc14)
    %15 = tt.splat %arg0 : !tt.ptr<f32> -> tensor<1024x!tt.ptr<f32>> loc(#loc15)
    %16 = tt.addptr %15, %14 : tensor<1024x!tt.ptr<f32>>, tensor<1024xi32> loc(#loc15)
    %17 = tt.load %16, %10, %cst : tensor<1024x!tt.ptr<f32>> loc(#loc16)
    %18 = arith.cmpi sge, %9, %cst_1 : tensor<1024xi64> loc(#loc17)
    %19 = arith.muli %8, %cst_2 : tensor<1024xi32> loc(#loc18)
    %20 = arith.addi %7, %19 : tensor<1024xi32> loc(#loc19)
    %21 = tt.splat %arg1 : !tt.ptr<f32> -> tensor<1024x!tt.ptr<f32>> loc(#loc20)
    %22 = tt.addptr %21, %20 : tensor<1024x!tt.ptr<f32>>, tensor<1024xi32> loc(#loc20)
    %23 = tt.load %22, %18, %cst evictionPolicy = evict_last : tensor<1024x!tt.ptr<f32>> loc(#loc21)
    %24 = arith.select %10, %17, %23 : tensor<1024xi1>, tensor<1024xf32> loc(#loc22)
    %25 = tt.splat %arg2 : !tt.ptr<f32> -> tensor<1024x!tt.ptr<f32>> loc(#loc23)
    %26 = tt.addptr %25, %4 : tensor<1024x!tt.ptr<f32>>, tensor<1024xi32> loc(#loc23)
    tt.store %26, %24 : tensor<1024x!tt.ptr<f32>> loc(#loc24)
    tt.return loc(#loc25)
  } loc(#loc)
} loc(#loc)
#loc1 = loc(unknown)
#loc2 = loc("/orcd/home/002/osbo/ondemand/fluid-sim/Assets/Scripts/.torch_inductor_cache/ht/chtvg2l35tuxhczdscxv43xstijveirgzkgbjmnjgbzyhyl3yxni.py":20:28)
#loc3 = loc("/orcd/home/002/osbo/ondemand/fluid-sim/Assets/Scripts/.torch_inductor_cache/ht/chtvg2l35tuxhczdscxv43xstijveirgzkgbjmnjgbzyhyl3yxni.py":20:33)
#loc4 = loc("/orcd/home/002/osbo/ondemand/fluid-sim/Assets/Scripts/.torch_inductor_cache/ht/chtvg2l35tuxhczdscxv43xstijveirgzkgbjmnjgbzyhyl3yxni.py":21:36)
#loc5 = loc("/orcd/home/002/osbo/ondemand/fluid-sim/Assets/Scripts/.torch_inductor_cache/ht/chtvg2l35tuxhczdscxv43xstijveirgzkgbjmnjgbzyhyl3yxni.py":21:23)
#loc6 = loc("/orcd/home/002/osbo/ondemand/fluid-sim/Assets/Scripts/.torch_inductor_cache/ht/chtvg2l35tuxhczdscxv43xstijveirgzkgbjmnjgbzyhyl3yxni.py":23:20)
#loc7 = loc("/orcd/home/002/osbo/ondemand/fluid-sim/Assets/Scripts/.torch_inductor_cache/ht/chtvg2l35tuxhczdscxv43xstijveirgzkgbjmnjgbzyhyl3yxni.py":23:27)
#loc8 = loc("/orcd/home/002/osbo/ondemand/fluid-sim/Assets/Scripts/.torch_inductor_cache/ht/chtvg2l35tuxhczdscxv43xstijveirgzkgbjmnjgbzyhyl3yxni.py":24:18)
#loc9 = loc("/orcd/home/002/osbo/ondemand/fluid-sim/Assets/Scripts/.torch_inductor_cache/ht/chtvg2l35tuxhczdscxv43xstijveirgzkgbjmnjgbzyhyl3yxni.py":25:20)
#loc10 = loc("/orcd/home/002/osbo/ondemand/fluid-sim/Assets/Scripts/.torch_inductor_cache/ht/chtvg2l35tuxhczdscxv43xstijveirgzkgbjmnjgbzyhyl3yxni.py":31:18)
#loc11 = loc("/orcd/home/002/osbo/ondemand/fluid-sim/Assets/Scripts/.torch_inductor_cache/ht/chtvg2l35tuxhczdscxv43xstijveirgzkgbjmnjgbzyhyl3yxni.py":32:40)
#loc12 = loc("/orcd/home/002/osbo/ondemand/fluid-sim/Assets/Scripts/.torch_inductor_cache/ht/chtvg2l35tuxhczdscxv43xstijveirgzkgbjmnjgbzyhyl3yxni.py":32:36)
#loc13 = loc("/orcd/home/002/osbo/ondemand/fluid-sim/Assets/Scripts/.torch_inductor_cache/ht/chtvg2l35tuxhczdscxv43xstijveirgzkgbjmnjgbzyhyl3yxni.py":32:52)
#loc14 = loc("/orcd/home/002/osbo/ondemand/fluid-sim/Assets/Scripts/.torch_inductor_cache/ht/chtvg2l35tuxhczdscxv43xstijveirgzkgbjmnjgbzyhyl3yxni.py":32:47)
#loc15 = loc("/orcd/home/002/osbo/ondemand/fluid-sim/Assets/Scripts/.torch_inductor_cache/ht/chtvg2l35tuxhczdscxv43xstijveirgzkgbjmnjgbzyhyl3yxni.py":32:30)
#loc16 = loc("/orcd/home/002/osbo/ondemand/fluid-sim/Assets/Scripts/.torch_inductor_cache/ht/chtvg2l35tuxhczdscxv43xstijveirgzkgbjmnjgbzyhyl3yxni.py":32:58)
#loc17 = loc("/orcd/home/002/osbo/ondemand/fluid-sim/Assets/Scripts/.torch_inductor_cache/ht/chtvg2l35tuxhczdscxv43xstijveirgzkgbjmnjgbzyhyl3yxni.py":33:19)
#loc18 = loc("/orcd/home/002/osbo/ondemand/fluid-sim/Assets/Scripts/.torch_inductor_cache/ht/chtvg2l35tuxhczdscxv43xstijveirgzkgbjmnjgbzyhyl3yxni.py":36:41)
#loc19 = loc("/orcd/home/002/osbo/ondemand/fluid-sim/Assets/Scripts/.torch_inductor_cache/ht/chtvg2l35tuxhczdscxv43xstijveirgzkgbjmnjgbzyhyl3yxni.py":36:36)
#loc20 = loc("/orcd/home/002/osbo/ondemand/fluid-sim/Assets/Scripts/.torch_inductor_cache/ht/chtvg2l35tuxhczdscxv43xstijveirgzkgbjmnjgbzyhyl3yxni.py":36:30)
#loc21 = loc("/orcd/home/002/osbo/ondemand/fluid-sim/Assets/Scripts/.torch_inductor_cache/ht/chtvg2l35tuxhczdscxv43xstijveirgzkgbjmnjgbzyhyl3yxni.py":36:47)
#loc22 = loc("/orcd/home/002/osbo/ondemand/fluid-sim/Assets/Scripts/.torch_inductor_cache/ht/chtvg2l35tuxhczdscxv43xstijveirgzkgbjmnjgbzyhyl3yxni.py":37:33)
#loc23 = loc("/orcd/home/002/osbo/ondemand/fluid-sim/Assets/Scripts/.torch_inductor_cache/ht/chtvg2l35tuxhczdscxv43xstijveirgzkgbjmnjgbzyhyl3yxni.py":38:25)
#loc24 = loc("/orcd/home/002/osbo/ondemand/fluid-sim/Assets/Scripts/.torch_inductor_cache/ht/chtvg2l35tuxhczdscxv43xstijveirgzkgbjmnjgbzyhyl3yxni.py":38:37)
#loc25 = loc("/orcd/home/002/osbo/ondemand/fluid-sim/Assets/Scripts/.torch_inductor_cache/ht/chtvg2l35tuxhczdscxv43xstijveirgzkgbjmnjgbzyhyl3yxni.py":38:4)
