#loc = loc("/orcd/home/002/osbo/ondemand/fluid-sim/Assets/Scripts/.torch_inductor_cache/bq/cbqznjcwpet5vp7jkb6x4chclbycebgnvgdrow3gwn25xmvadu76.py":18:0)
module {
  tt.func public @triton_(%arg0: !tt.ptr<f32> {tt.divisibility = 16 : i32} loc("/orcd/home/002/osbo/ondemand/fluid-sim/Assets/Scripts/.torch_inductor_cache/bq/cbqznjcwpet5vp7jkb6x4chclbycebgnvgdrow3gwn25xmvadu76.py":18:0), %arg1: !tt.ptr<f32> {tt.divisibility = 16 : i32} loc("/orcd/home/002/osbo/ondemand/fluid-sim/Assets/Scripts/.torch_inductor_cache/bq/cbqznjcwpet5vp7jkb6x4chclbycebgnvgdrow3gwn25xmvadu76.py":18:0), %arg2: !tt.ptr<f32> {tt.divisibility = 16 : i32} loc("/orcd/home/002/osbo/ondemand/fluid-sim/Assets/Scripts/.torch_inductor_cache/bq/cbqznjcwpet5vp7jkb6x4chclbycebgnvgdrow3gwn25xmvadu76.py":18:0), %arg3: i32 {tt.divisibility = 16 : i32} loc("/orcd/home/002/osbo/ondemand/fluid-sim/Assets/Scripts/.torch_inductor_cache/bq/cbqznjcwpet5vp7jkb6x4chclbycebgnvgdrow3gwn25xmvadu76.py":18:0), %arg4: i32 loc("/orcd/home/002/osbo/ondemand/fluid-sim/Assets/Scripts/.torch_inductor_cache/bq/cbqznjcwpet5vp7jkb6x4chclbycebgnvgdrow3gwn25xmvadu76.py":18:0)) attributes {noinline = false} {
    %c1536_i32 = arith.constant 1536 : i32 loc(#loc1)
    %c33_i32 = arith.constant 33 : i32 loc(#loc1)
    %cst = arith.constant dense<33> : tensor<1x1024xi32> loc(#loc1)
    %cst_0 = arith.constant dense<50688> : tensor<1x1024xi32> loc(#loc1)
    %cst_1 = arith.constant dense<512> : tensor<1x1024xi32> loc(#loc1)
    %cst_2 = arith.constant dense<9728> : tensor<1x1024xi32> loc(#loc1)
    %c1024_i32 = arith.constant 1024 : i32 loc(#loc1)
    %0 = tt.get_program_id y : i32 loc(#loc2)
    %1 = arith.muli %0, %c1024_i32 : i32 loc(#loc3)
    %2 = tt.make_range {end = 1024 : i32, start = 0 : i32} : tensor<1024xi32> loc(#loc4)
    %3 = tt.expand_dims %2 {axis = 0 : i32} : tensor<1024xi32> -> tensor<1x1024xi32> loc(#loc5)
    %4 = tt.splat %1 : i32 -> tensor<1x1024xi32> loc(#loc6)
    %5 = arith.addi %4, %3 : tensor<1x1024xi32> loc(#loc6)
    %6 = arith.cmpi slt, %5, %cst_2 : tensor<1x1024xi32> loc(#loc7)
    %7 = tt.get_program_id x : i32 loc(#loc8)
    %8 = arith.cmpi slt, %7, %c33_i32 : i32 loc(#loc9)
    %9 = arith.remsi %5, %cst_1 : tensor<1x1024xi32> loc(#loc10)
    %10 = arith.divsi %5, %cst_1 : tensor<1x1024xi32> loc(#loc11)
    %11 = arith.addi %9, %cst_1 : tensor<1x1024xi32> loc(#loc12)
    %12 = arith.muli %7, %c1536_i32 : i32 loc(#loc13)
    %13 = tt.splat %12 : i32 -> tensor<1x1024xi32> loc(#loc14)
    %14 = arith.addi %11, %13 : tensor<1x1024xi32> loc(#loc14)
    %15 = arith.muli %10, %cst_0 : tensor<1x1024xi32> loc(#loc15)
    %16 = arith.addi %14, %15 : tensor<1x1024xi32> loc(#loc16)
    %17 = tt.splat %arg0 : !tt.ptr<f32> -> tensor<1x1024x!tt.ptr<f32>> loc(#loc17)
    %18 = tt.addptr %17, %16 : tensor<1x1024x!tt.ptr<f32>>, tensor<1x1024xi32> loc(#loc17)
    %19 = tt.splat %8 : i1 -> tensor<1x1024xi1> loc(#loc18)
    %20 = arith.andi %19, %6 : tensor<1x1024xi1> loc(#loc18)
    %21 = tt.load %18, %20 evictionPolicy = evict_last : tensor<1x1024x!tt.ptr<f32>> loc(#loc19)
    %22 = tt.splat %arg1 : !tt.ptr<f32> -> tensor<1x1024x!tt.ptr<f32>> loc(#loc20)
    %23 = tt.addptr %22, %11 : tensor<1x1024x!tt.ptr<f32>>, tensor<1x1024xi32> loc(#loc20)
    %24 = tt.load %23, %6 evictionPolicy = evict_last : tensor<1x1024x!tt.ptr<f32>> loc(#loc21)
    %25 = arith.addf %21, %24 : tensor<1x1024xf32> loc(#loc22)
    %26 = arith.muli %5, %cst : tensor<1x1024xi32> loc(#loc23)
    %27 = tt.splat %7 : i32 -> tensor<1x1024xi32> loc(#loc24)
    %28 = arith.addi %27, %26 : tensor<1x1024xi32> loc(#loc24)
    %29 = tt.splat %arg2 : !tt.ptr<f32> -> tensor<1x1024x!tt.ptr<f32>> loc(#loc25)
    %30 = tt.addptr %29, %28 : tensor<1x1024x!tt.ptr<f32>>, tensor<1x1024xi32> loc(#loc25)
    tt.store %30, %25, %20 : tensor<1x1024x!tt.ptr<f32>> loc(#loc26)
    tt.return loc(#loc27)
  } loc(#loc)
} loc(#loc)
#loc1 = loc(unknown)
#loc2 = loc("/orcd/home/002/osbo/ondemand/fluid-sim/Assets/Scripts/.torch_inductor_cache/bq/cbqznjcwpet5vp7jkb6x4chclbycebgnvgdrow3gwn25xmvadu76.py":21:28)
#loc3 = loc("/orcd/home/002/osbo/ondemand/fluid-sim/Assets/Scripts/.torch_inductor_cache/bq/cbqznjcwpet5vp7jkb6x4chclbycebgnvgdrow3gwn25xmvadu76.py":21:33)
#loc4 = loc("/orcd/home/002/osbo/ondemand/fluid-sim/Assets/Scripts/.torch_inductor_cache/bq/cbqznjcwpet5vp7jkb6x4chclbycebgnvgdrow3gwn25xmvadu76.py":22:36)
#loc5 = loc("/orcd/home/002/osbo/ondemand/fluid-sim/Assets/Scripts/.torch_inductor_cache/bq/cbqznjcwpet5vp7jkb6x4chclbycebgnvgdrow3gwn25xmvadu76.py":22:44)
#loc6 = loc("/orcd/home/002/osbo/ondemand/fluid-sim/Assets/Scripts/.torch_inductor_cache/bq/cbqznjcwpet5vp7jkb6x4chclbycebgnvgdrow3gwn25xmvadu76.py":22:23)
#loc7 = loc("/orcd/home/002/osbo/ondemand/fluid-sim/Assets/Scripts/.torch_inductor_cache/bq/cbqznjcwpet5vp7jkb6x4chclbycebgnvgdrow3gwn25xmvadu76.py":23:21)
#loc8 = loc("/orcd/home/002/osbo/ondemand/fluid-sim/Assets/Scripts/.torch_inductor_cache/bq/cbqznjcwpet5vp7jkb6x4chclbycebgnvgdrow3gwn25xmvadu76.py":24:28)
#loc9 = loc("/orcd/home/002/osbo/ondemand/fluid-sim/Assets/Scripts/.torch_inductor_cache/bq/cbqznjcwpet5vp7jkb6x4chclbycebgnvgdrow3gwn25xmvadu76.py":26:21)
#loc10 = loc("/orcd/home/002/osbo/ondemand/fluid-sim/Assets/Scripts/.torch_inductor_cache/bq/cbqznjcwpet5vp7jkb6x4chclbycebgnvgdrow3gwn25xmvadu76.py":28:18)
#loc11 = loc("/orcd/home/002/osbo/ondemand/fluid-sim/Assets/Scripts/.torch_inductor_cache/bq/cbqznjcwpet5vp7jkb6x4chclbycebgnvgdrow3gwn25xmvadu76.py":29:20)
#loc12 = loc("/orcd/home/002/osbo/ondemand/fluid-sim/Assets/Scripts/.torch_inductor_cache/bq/cbqznjcwpet5vp7jkb6x4chclbycebgnvgdrow3gwn25xmvadu76.py":31:36)
#loc13 = loc("/orcd/home/002/osbo/ondemand/fluid-sim/Assets/Scripts/.torch_inductor_cache/bq/cbqznjcwpet5vp7jkb6x4chclbycebgnvgdrow3gwn25xmvadu76.py":31:47)
#loc14 = loc("/orcd/home/002/osbo/ondemand/fluid-sim/Assets/Scripts/.torch_inductor_cache/bq/cbqznjcwpet5vp7jkb6x4chclbycebgnvgdrow3gwn25xmvadu76.py":31:42)
#loc15 = loc("/orcd/home/002/osbo/ondemand/fluid-sim/Assets/Scripts/.torch_inductor_cache/bq/cbqznjcwpet5vp7jkb6x4chclbycebgnvgdrow3gwn25xmvadu76.py":31:60)
#loc16 = loc("/orcd/home/002/osbo/ondemand/fluid-sim/Assets/Scripts/.torch_inductor_cache/bq/cbqznjcwpet5vp7jkb6x4chclbycebgnvgdrow3gwn25xmvadu76.py":31:54)
#loc17 = loc("/orcd/home/002/osbo/ondemand/fluid-sim/Assets/Scripts/.torch_inductor_cache/bq/cbqznjcwpet5vp7jkb6x4chclbycebgnvgdrow3gwn25xmvadu76.py":31:30)
#loc18 = loc("/orcd/home/002/osbo/ondemand/fluid-sim/Assets/Scripts/.torch_inductor_cache/bq/cbqznjcwpet5vp7jkb6x4chclbycebgnvgdrow3gwn25xmvadu76.py":31:74)
#loc19 = loc("/orcd/home/002/osbo/ondemand/fluid-sim/Assets/Scripts/.torch_inductor_cache/bq/cbqznjcwpet5vp7jkb6x4chclbycebgnvgdrow3gwn25xmvadu76.py":31:66)
#loc20 = loc("/orcd/home/002/osbo/ondemand/fluid-sim/Assets/Scripts/.torch_inductor_cache/bq/cbqznjcwpet5vp7jkb6x4chclbycebgnvgdrow3gwn25xmvadu76.py":32:30)
#loc21 = loc("/orcd/home/002/osbo/ondemand/fluid-sim/Assets/Scripts/.torch_inductor_cache/bq/cbqznjcwpet5vp7jkb6x4chclbycebgnvgdrow3gwn25xmvadu76.py":32:41)
#loc22 = loc("/orcd/home/002/osbo/ondemand/fluid-sim/Assets/Scripts/.torch_inductor_cache/bq/cbqznjcwpet5vp7jkb6x4chclbycebgnvgdrow3gwn25xmvadu76.py":33:18)
#loc23 = loc("/orcd/home/002/osbo/ondemand/fluid-sim/Assets/Scripts/.torch_inductor_cache/bq/cbqznjcwpet5vp7jkb6x4chclbycebgnvgdrow3gwn25xmvadu76.py":34:34)
#loc24 = loc("/orcd/home/002/osbo/ondemand/fluid-sim/Assets/Scripts/.torch_inductor_cache/bq/cbqznjcwpet5vp7jkb6x4chclbycebgnvgdrow3gwn25xmvadu76.py":34:31)
#loc25 = loc("/orcd/home/002/osbo/ondemand/fluid-sim/Assets/Scripts/.torch_inductor_cache/bq/cbqznjcwpet5vp7jkb6x4chclbycebgnvgdrow3gwn25xmvadu76.py":34:25)
#loc26 = loc("/orcd/home/002/osbo/ondemand/fluid-sim/Assets/Scripts/.torch_inductor_cache/bq/cbqznjcwpet5vp7jkb6x4chclbycebgnvgdrow3gwn25xmvadu76.py":34:46)
#loc27 = loc("/orcd/home/002/osbo/ondemand/fluid-sim/Assets/Scripts/.torch_inductor_cache/bq/cbqznjcwpet5vp7jkb6x4chclbycebgnvgdrow3gwn25xmvadu76.py":34:4)
