#loc = loc("/orcd/home/002/osbo/ondemand/fluid-sim/Assets/Scripts/.torch_inductor_cache/ha/chasyimdkgliuhr4rrdvmbztbcop6arbrhbzj5bzj2sp4ypvjnbm.py":18:0)
#loc1 = loc(unknown)
module {
  tt.func public @triton_(%arg0: !tt.ptr<f32> {tt.divisibility = 16 : i32} loc("/orcd/home/002/osbo/ondemand/fluid-sim/Assets/Scripts/.torch_inductor_cache/ha/chasyimdkgliuhr4rrdvmbztbcop6arbrhbzj5bzj2sp4ypvjnbm.py":18:0), %arg1: !tt.ptr<f32> {tt.divisibility = 16 : i32} loc("/orcd/home/002/osbo/ondemand/fluid-sim/Assets/Scripts/.torch_inductor_cache/ha/chasyimdkgliuhr4rrdvmbztbcop6arbrhbzj5bzj2sp4ypvjnbm.py":18:0), %arg2: !tt.ptr<i64> {tt.divisibility = 16 : i32} loc("/orcd/home/002/osbo/ondemand/fluid-sim/Assets/Scripts/.torch_inductor_cache/ha/chasyimdkgliuhr4rrdvmbztbcop6arbrhbzj5bzj2sp4ypvjnbm.py":18:0), %arg3: !tt.ptr<f32> {tt.divisibility = 16 : i32} loc("/orcd/home/002/osbo/ondemand/fluid-sim/Assets/Scripts/.torch_inductor_cache/ha/chasyimdkgliuhr4rrdvmbztbcop6arbrhbzj5bzj2sp4ypvjnbm.py":18:0), %arg4: i32 {tt.divisibility = 16 : i32} loc("/orcd/home/002/osbo/ondemand/fluid-sim/Assets/Scripts/.torch_inductor_cache/ha/chasyimdkgliuhr4rrdvmbztbcop6arbrhbzj5bzj2sp4ypvjnbm.py":18:0), %arg5: i32 {tt.divisibility = 16 : i32} loc("/orcd/home/002/osbo/ondemand/fluid-sim/Assets/Scripts/.torch_inductor_cache/ha/chasyimdkgliuhr4rrdvmbztbcop6arbrhbzj5bzj2sp4ypvjnbm.py":18:0)) attributes {noinline = false} {
    %c4096_i32 = arith.constant 4096 : i32 loc(#loc1)
    %c128_i32 = arith.constant 128 : i32 loc(#loc1)
    %cst = arith.constant dense<3.200000e+01> : tensor<1x1xf32> loc(#loc1)
    %cst_0 = arith.constant dense<128> : tensor<1x32xi32> loc(#loc1)
    %0 = tt.get_program_id x : i32 loc(#loc2)
    %1 = tt.make_range {end = 32 : i32, start = 0 : i32} : tensor<32xi32> loc(#loc3)
    %2 = tt.expand_dims %1 {axis = 0 : i32} : tensor<32xi32> -> tensor<1x32xi32> loc(#loc4)
    %3 = arith.remsi %0, %c128_i32 : i32 loc(#loc5)
    %4 = arith.divsi %0, %c128_i32 : i32 loc(#loc6)
    %5 = arith.muli %2, %cst_0 : tensor<1x32xi32> loc(#loc7)
    %6 = tt.splat %3 : i32 -> tensor<1x32xi32> loc(#loc8)
    %7 = arith.addi %6, %5 : tensor<1x32xi32> loc(#loc8)
    %8 = arith.muli %4, %c4096_i32 : i32 loc(#loc9)
    %9 = tt.splat %8 : i32 -> tensor<1x32xi32> loc(#loc10)
    %10 = arith.addi %7, %9 : tensor<1x32xi32> loc(#loc10)
    %11 = tt.splat %arg1 : !tt.ptr<f32> -> tensor<1x32x!tt.ptr<f32>> loc(#loc11)
    %12 = tt.addptr %11, %10 : tensor<1x32x!tt.ptr<f32>>, tensor<1x32xi32> loc(#loc11)
    %13 = tt.load %12 : tensor<1x32x!tt.ptr<f32>> loc(#loc12)
    %14 = tt.addptr %arg2, %4 : !tt.ptr<i64>, i32 loc(#loc13)
    %15 = tt.splat %14 : !tt.ptr<i64> -> tensor<1x1x!tt.ptr<i64>> loc(#loc13)
    %16 = tt.load %15 evictionPolicy = evict_last : tensor<1x1x!tt.ptr<i64>> loc(#loc14)
    %17 = tt.splat %arg3 : !tt.ptr<f32> -> tensor<1x32x!tt.ptr<f32>> loc(#loc15)
    %18 = tt.addptr %17, %10 : tensor<1x32x!tt.ptr<f32>>, tensor<1x32xi32> loc(#loc15)
    %19 = tt.load %18 : tensor<1x32x!tt.ptr<f32>> loc(#loc16)
    %20 = arith.sitofp %16 : tensor<1x1xi64> to tensor<1x1xf32> loc(#loc17)
    %21 = tt.broadcast %20 : tensor<1x1xf32> -> tensor<1x32xf32> loc(#loc18)
    %22 = arith.divf %13, %21 : tensor<1x32xf32> loc(#loc18)
    %23 = arith.divf %19, %21 : tensor<1x32xf32> loc(#loc19)
    %24 = arith.addf %22, %23 : tensor<1x32xf32> loc(#loc20)
    %25 = "tt.reduce"(%24) <{axis = 1 : i32}> ({
    ^bb0(%arg6: f32 loc(unknown), %arg7: f32 loc(unknown)):
      %30 = arith.addf %arg6, %arg7 : f32 loc(#loc32)
      tt.reduce.return %30 : f32 loc(#loc30)
    }) : (tensor<1x32xf32>) -> tensor<1xf32> loc(#loc30)
    %26 = tt.expand_dims %25 {axis = 1 : i32} : tensor<1xf32> -> tensor<1x1xf32> loc(#loc24)
    %27 = arith.divf %26, %cst : tensor<1x1xf32> loc(#loc25)
    gpu.barrier loc(#loc26)
    %28 = tt.addptr %arg0, %0 : !tt.ptr<f32>, i32 loc(#loc27)
    %29 = tt.splat %28 : !tt.ptr<f32> -> tensor<1x1x!tt.ptr<f32>> loc(#loc27)
    tt.store %29, %27 : tensor<1x1x!tt.ptr<f32>> loc(#loc28)
    tt.return loc(#loc29)
  } loc(#loc)
} loc(#loc)
#loc2 = loc("/orcd/home/002/osbo/ondemand/fluid-sim/Assets/Scripts/.torch_inductor_cache/ha/chasyimdkgliuhr4rrdvmbztbcop6arbrhbzj5bzj2sp4ypvjnbm.py":22:28)
#loc3 = loc("/orcd/home/002/osbo/ondemand/fluid-sim/Assets/Scripts/.torch_inductor_cache/ha/chasyimdkgliuhr4rrdvmbztbcop6arbrhbzj5bzj2sp4ypvjnbm.py":25:26)
#loc4 = loc("/orcd/home/002/osbo/ondemand/fluid-sim/Assets/Scripts/.torch_inductor_cache/ha/chasyimdkgliuhr4rrdvmbztbcop6arbrhbzj5bzj2sp4ypvjnbm.py":25:34)
#loc5 = loc("/orcd/home/002/osbo/ondemand/fluid-sim/Assets/Scripts/.torch_inductor_cache/ha/chasyimdkgliuhr4rrdvmbztbcop6arbrhbzj5bzj2sp4ypvjnbm.py":29:18)
#loc6 = loc("/orcd/home/002/osbo/ondemand/fluid-sim/Assets/Scripts/.torch_inductor_cache/ha/chasyimdkgliuhr4rrdvmbztbcop6arbrhbzj5bzj2sp4ypvjnbm.py":30:20)
#loc7 = loc("/orcd/home/002/osbo/ondemand/fluid-sim/Assets/Scripts/.torch_inductor_cache/ha/chasyimdkgliuhr4rrdvmbztbcop6arbrhbzj5bzj2sp4ypvjnbm.py":32:40)
#loc8 = loc("/orcd/home/002/osbo/ondemand/fluid-sim/Assets/Scripts/.torch_inductor_cache/ha/chasyimdkgliuhr4rrdvmbztbcop6arbrhbzj5bzj2sp4ypvjnbm.py":32:36)
#loc9 = loc("/orcd/home/002/osbo/ondemand/fluid-sim/Assets/Scripts/.torch_inductor_cache/ha/chasyimdkgliuhr4rrdvmbztbcop6arbrhbzj5bzj2sp4ypvjnbm.py":32:52)
#loc10 = loc("/orcd/home/002/osbo/ondemand/fluid-sim/Assets/Scripts/.torch_inductor_cache/ha/chasyimdkgliuhr4rrdvmbztbcop6arbrhbzj5bzj2sp4ypvjnbm.py":32:47)
#loc11 = loc("/orcd/home/002/osbo/ondemand/fluid-sim/Assets/Scripts/.torch_inductor_cache/ha/chasyimdkgliuhr4rrdvmbztbcop6arbrhbzj5bzj2sp4ypvjnbm.py":32:30)
#loc12 = loc("/orcd/home/002/osbo/ondemand/fluid-sim/Assets/Scripts/.torch_inductor_cache/ha/chasyimdkgliuhr4rrdvmbztbcop6arbrhbzj5bzj2sp4ypvjnbm.py":32:58)
#loc13 = loc("/orcd/home/002/osbo/ondemand/fluid-sim/Assets/Scripts/.torch_inductor_cache/ha/chasyimdkgliuhr4rrdvmbztbcop6arbrhbzj5bzj2sp4ypvjnbm.py":33:30)
#loc14 = loc("/orcd/home/002/osbo/ondemand/fluid-sim/Assets/Scripts/.torch_inductor_cache/ha/chasyimdkgliuhr4rrdvmbztbcop6arbrhbzj5bzj2sp4ypvjnbm.py":33:35)
#loc15 = loc("/orcd/home/002/osbo/ondemand/fluid-sim/Assets/Scripts/.torch_inductor_cache/ha/chasyimdkgliuhr4rrdvmbztbcop6arbrhbzj5bzj2sp4ypvjnbm.py":34:30)
#loc16 = loc("/orcd/home/002/osbo/ondemand/fluid-sim/Assets/Scripts/.torch_inductor_cache/ha/chasyimdkgliuhr4rrdvmbztbcop6arbrhbzj5bzj2sp4ypvjnbm.py":34:58)
#loc17 = loc("/orcd/home/002/osbo/ondemand/fluid-sim/Assets/Scripts/.torch_inductor_cache/ha/chasyimdkgliuhr4rrdvmbztbcop6arbrhbzj5bzj2sp4ypvjnbm.py":35:19)
#loc18 = loc("/orcd/home/002/osbo/ondemand/fluid-sim/Assets/Scripts/.torch_inductor_cache/ha/chasyimdkgliuhr4rrdvmbztbcop6arbrhbzj5bzj2sp4ypvjnbm.py":36:18)
#loc19 = loc("/orcd/home/002/osbo/ondemand/fluid-sim/Assets/Scripts/.torch_inductor_cache/ha/chasyimdkgliuhr4rrdvmbztbcop6arbrhbzj5bzj2sp4ypvjnbm.py":37:18)
#loc20 = loc("/orcd/home/002/osbo/ondemand/fluid-sim/Assets/Scripts/.torch_inductor_cache/ha/chasyimdkgliuhr4rrdvmbztbcop6arbrhbzj5bzj2sp4ypvjnbm.py":38:18)
#loc21 = loc("/home/osbo/.conda/envs/fluid/lib/python3.12/site-packages/triton/language/standard.py":267:36)
#loc22 = loc("/orcd/home/002/osbo/ondemand/fluid-sim/Assets/Scripts/.torch_inductor_cache/ha/chasyimdkgliuhr4rrdvmbztbcop6arbrhbzj5bzj2sp4ypvjnbm.py":40:24)
#loc23 = loc("/home/osbo/.conda/envs/fluid/lib/python3.12/site-packages/triton/language/standard.py":256:15)
#loc24 = loc("/orcd/home/002/osbo/ondemand/fluid-sim/Assets/Scripts/.torch_inductor_cache/ha/chasyimdkgliuhr4rrdvmbztbcop6arbrhbzj5bzj2sp4ypvjnbm.py":40:27)
#loc25 = loc("/orcd/home/002/osbo/ondemand/fluid-sim/Assets/Scripts/.torch_inductor_cache/ha/chasyimdkgliuhr4rrdvmbztbcop6arbrhbzj5bzj2sp4ypvjnbm.py":42:19)
#loc26 = loc("/orcd/home/002/osbo/ondemand/fluid-sim/Assets/Scripts/.torch_inductor_cache/ha/chasyimdkgliuhr4rrdvmbztbcop6arbrhbzj5bzj2sp4ypvjnbm.py":43:4)
#loc27 = loc("/orcd/home/002/osbo/ondemand/fluid-sim/Assets/Scripts/.torch_inductor_cache/ha/chasyimdkgliuhr4rrdvmbztbcop6arbrhbzj5bzj2sp4ypvjnbm.py":44:28)
#loc28 = loc("/orcd/home/002/osbo/ondemand/fluid-sim/Assets/Scripts/.torch_inductor_cache/ha/chasyimdkgliuhr4rrdvmbztbcop6arbrhbzj5bzj2sp4ypvjnbm.py":44:40)
#loc29 = loc("/orcd/home/002/osbo/ondemand/fluid-sim/Assets/Scripts/.torch_inductor_cache/ha/chasyimdkgliuhr4rrdvmbztbcop6arbrhbzj5bzj2sp4ypvjnbm.py":44:4)
#loc30 = loc(callsite(#loc21 at #loc22))
#loc31 = loc(callsite(#loc23 at #loc21))
#loc32 = loc(callsite(#loc31 at #loc22))
