#loc = loc("/orcd/home/002/osbo/ondemand/fluid-sim/Assets/Scripts/.torch_inductor_cache/oa/coa5kauhg7wt46ym6e32l325xeyb2zikppe7v4cdpxicnmkkps4k.py":18:0)
module {
  tt.func public @triton_(%arg0: !tt.ptr<f32> {tt.divisibility = 16 : i32} loc("/orcd/home/002/osbo/ondemand/fluid-sim/Assets/Scripts/.torch_inductor_cache/oa/coa5kauhg7wt46ym6e32l325xeyb2zikppe7v4cdpxicnmkkps4k.py":18:0), %arg1: !tt.ptr<f32> {tt.divisibility = 16 : i32} loc("/orcd/home/002/osbo/ondemand/fluid-sim/Assets/Scripts/.torch_inductor_cache/oa/coa5kauhg7wt46ym6e32l325xeyb2zikppe7v4cdpxicnmkkps4k.py":18:0), %arg2: i32 {tt.divisibility = 16 : i32} loc("/orcd/home/002/osbo/ondemand/fluid-sim/Assets/Scripts/.torch_inductor_cache/oa/coa5kauhg7wt46ym6e32l325xeyb2zikppe7v4cdpxicnmkkps4k.py":18:0)) attributes {noinline = false} {
    %cst = arith.constant dense<1.000000e+00> : tensor<256xf32> loc(#loc1)
    %cst_0 = arith.constant dense<0.707106769> : tensor<256xf32> loc(#loc1)
    %cst_1 = arith.constant dense<5.000000e-01> : tensor<256xf32> loc(#loc1)
    %cst_2 = arith.constant dense<128> : tensor<256xi32> loc(#loc1)
    %cst_3 = arith.constant dense<18048> : tensor<256xi32> loc(#loc1)
    %c256_i32 = arith.constant 256 : i32 loc(#loc1)
    %0 = tt.get_program_id x : i32 loc(#loc2)
    %1 = arith.muli %0, %c256_i32 : i32 loc(#loc3)
    %2 = tt.make_range {end = 256 : i32, start = 0 : i32} : tensor<256xi32> loc(#loc4)
    %3 = tt.splat %1 : i32 -> tensor<256xi32> loc(#loc5)
    %4 = arith.addi %3, %2 : tensor<256xi32> loc(#loc5)
    %5 = arith.cmpi slt, %4, %cst_3 : tensor<256xi32> loc(#loc6)
    %6 = arith.remsi %4, %cst_2 : tensor<256xi32> loc(#loc7)
    %7 = tt.splat %arg0 : !tt.ptr<f32> -> tensor<256x!tt.ptr<f32>> loc(#loc8)
    %8 = tt.addptr %7, %4 : tensor<256x!tt.ptr<f32>>, tensor<256xi32> loc(#loc8)
    %9 = tt.load %8, %5 : tensor<256x!tt.ptr<f32>> loc(#loc9)
    %10 = tt.splat %arg1 : !tt.ptr<f32> -> tensor<256x!tt.ptr<f32>> loc(#loc10)
    %11 = tt.addptr %10, %6 : tensor<256x!tt.ptr<f32>>, tensor<256xi32> loc(#loc10)
    %12 = tt.load %11, %5 evictionPolicy = evict_last : tensor<256x!tt.ptr<f32>> loc(#loc11)
    %13 = arith.addf %9, %12 : tensor<256xf32> loc(#loc12)
    %14 = arith.mulf %13, %cst_1 : tensor<256xf32> loc(#loc13)
    %15 = arith.mulf %13, %cst_0 : tensor<256xf32> loc(#loc14)
    %16 = tt.extern_elementwise %15 {libname = "", libpath = "", pure = true, symbol = "__nv_erff"} : (tensor<256xf32>) -> tensor<256xf32> loc(#loc15)
    %17 = arith.addf %16, %cst : tensor<256xf32> loc(#loc16)
    %18 = arith.mulf %14, %17 : tensor<256xf32> loc(#loc17)
    tt.store %8, %18, %5 : tensor<256x!tt.ptr<f32>> loc(#loc18)
    tt.return loc(#loc19)
  } loc(#loc)
} loc(#loc)
#loc1 = loc(unknown)
#loc2 = loc("/orcd/home/002/osbo/ondemand/fluid-sim/Assets/Scripts/.torch_inductor_cache/oa/coa5kauhg7wt46ym6e32l325xeyb2zikppe7v4cdpxicnmkkps4k.py":20:28)
#loc3 = loc("/orcd/home/002/osbo/ondemand/fluid-sim/Assets/Scripts/.torch_inductor_cache/oa/coa5kauhg7wt46ym6e32l325xeyb2zikppe7v4cdpxicnmkkps4k.py":20:33)
#loc4 = loc("/orcd/home/002/osbo/ondemand/fluid-sim/Assets/Scripts/.torch_inductor_cache/oa/coa5kauhg7wt46ym6e32l325xeyb2zikppe7v4cdpxicnmkkps4k.py":21:36)
#loc5 = loc("/orcd/home/002/osbo/ondemand/fluid-sim/Assets/Scripts/.torch_inductor_cache/oa/coa5kauhg7wt46ym6e32l325xeyb2zikppe7v4cdpxicnmkkps4k.py":21:23)
#loc6 = loc("/orcd/home/002/osbo/ondemand/fluid-sim/Assets/Scripts/.torch_inductor_cache/oa/coa5kauhg7wt46ym6e32l325xeyb2zikppe7v4cdpxicnmkkps4k.py":22:21)
#loc7 = loc("/orcd/home/002/osbo/ondemand/fluid-sim/Assets/Scripts/.torch_inductor_cache/oa/coa5kauhg7wt46ym6e32l325xeyb2zikppe7v4cdpxicnmkkps4k.py":24:18)
#loc8 = loc("/orcd/home/002/osbo/ondemand/fluid-sim/Assets/Scripts/.torch_inductor_cache/oa/coa5kauhg7wt46ym6e32l325xeyb2zikppe7v4cdpxicnmkkps4k.py":25:34)
#loc9 = loc("/orcd/home/002/osbo/ondemand/fluid-sim/Assets/Scripts/.torch_inductor_cache/oa/coa5kauhg7wt46ym6e32l325xeyb2zikppe7v4cdpxicnmkkps4k.py":25:39)
#loc10 = loc("/orcd/home/002/osbo/ondemand/fluid-sim/Assets/Scripts/.torch_inductor_cache/oa/coa5kauhg7wt46ym6e32l325xeyb2zikppe7v4cdpxicnmkkps4k.py":26:30)
#loc11 = loc("/orcd/home/002/osbo/ondemand/fluid-sim/Assets/Scripts/.torch_inductor_cache/oa/coa5kauhg7wt46ym6e32l325xeyb2zikppe7v4cdpxicnmkkps4k.py":26:35)
#loc12 = loc("/orcd/home/002/osbo/ondemand/fluid-sim/Assets/Scripts/.torch_inductor_cache/oa/coa5kauhg7wt46ym6e32l325xeyb2zikppe7v4cdpxicnmkkps4k.py":27:18)
#loc13 = loc("/orcd/home/002/osbo/ondemand/fluid-sim/Assets/Scripts/.torch_inductor_cache/oa/coa5kauhg7wt46ym6e32l325xeyb2zikppe7v4cdpxicnmkkps4k.py":29:18)
#loc14 = loc("/orcd/home/002/osbo/ondemand/fluid-sim/Assets/Scripts/.torch_inductor_cache/oa/coa5kauhg7wt46ym6e32l325xeyb2zikppe7v4cdpxicnmkkps4k.py":31:18)
#loc15 = loc("/orcd/home/002/osbo/ondemand/fluid-sim/Assets/Scripts/.torch_inductor_cache/oa/coa5kauhg7wt46ym6e32l325xeyb2zikppe7v4cdpxicnmkkps4k.py":32:25)
#loc16 = loc("/orcd/home/002/osbo/ondemand/fluid-sim/Assets/Scripts/.torch_inductor_cache/oa/coa5kauhg7wt46ym6e32l325xeyb2zikppe7v4cdpxicnmkkps4k.py":34:18)
#loc17 = loc("/orcd/home/002/osbo/ondemand/fluid-sim/Assets/Scripts/.torch_inductor_cache/oa/coa5kauhg7wt46ym6e32l325xeyb2zikppe7v4cdpxicnmkkps4k.py":35:19)
#loc18 = loc("/orcd/home/002/osbo/ondemand/fluid-sim/Assets/Scripts/.torch_inductor_cache/oa/coa5kauhg7wt46ym6e32l325xeyb2zikppe7v4cdpxicnmkkps4k.py":36:40)
#loc19 = loc("/orcd/home/002/osbo/ondemand/fluid-sim/Assets/Scripts/.torch_inductor_cache/oa/coa5kauhg7wt46ym6e32l325xeyb2zikppe7v4cdpxicnmkkps4k.py":36:4)
