#loc = loc("/orcd/home/002/osbo/ondemand/fluid-sim/Assets/Scripts/.torch_inductor_cache/h6/ch6kp6mtsa5isurfyj7bnmemcq5xvnwwhha3rc76fomx3gr3ornw.py":18:0)
#loc1 = loc(unknown)
module {
  tt.func public @triton_(%arg0: !tt.ptr<f32> {tt.divisibility = 16 : i32} loc("/orcd/home/002/osbo/ondemand/fluid-sim/Assets/Scripts/.torch_inductor_cache/h6/ch6kp6mtsa5isurfyj7bnmemcq5xvnwwhha3rc76fomx3gr3ornw.py":18:0), %arg1: !tt.ptr<f32> {tt.divisibility = 16 : i32} loc("/orcd/home/002/osbo/ondemand/fluid-sim/Assets/Scripts/.torch_inductor_cache/h6/ch6kp6mtsa5isurfyj7bnmemcq5xvnwwhha3rc76fomx3gr3ornw.py":18:0), %arg2: !tt.ptr<f32> {tt.divisibility = 16 : i32} loc("/orcd/home/002/osbo/ondemand/fluid-sim/Assets/Scripts/.torch_inductor_cache/h6/ch6kp6mtsa5isurfyj7bnmemcq5xvnwwhha3rc76fomx3gr3ornw.py":18:0), %arg3: !tt.ptr<f32> {tt.divisibility = 16 : i32} loc("/orcd/home/002/osbo/ondemand/fluid-sim/Assets/Scripts/.torch_inductor_cache/h6/ch6kp6mtsa5isurfyj7bnmemcq5xvnwwhha3rc76fomx3gr3ornw.py":18:0), %arg4: i32 {tt.divisibility = 16 : i32} loc("/orcd/home/002/osbo/ondemand/fluid-sim/Assets/Scripts/.torch_inductor_cache/h6/ch6kp6mtsa5isurfyj7bnmemcq5xvnwwhha3rc76fomx3gr3ornw.py":18:0), %arg5: i32 {tt.divisibility = 16 : i32} loc("/orcd/home/002/osbo/ondemand/fluid-sim/Assets/Scripts/.torch_inductor_cache/h6/ch6kp6mtsa5isurfyj7bnmemcq5xvnwwhha3rc76fomx3gr3ornw.py":18:0)) attributes {noinline = false} {
    %cst = arith.constant dense<4096> : tensor<128x1xi32> loc(#loc1)
    %cst_0 = arith.constant dense<128> : tensor<1x32xi32> loc(#loc1)
    %cst_1 = arith.constant dense<128> : tensor<128x1xi32> loc(#loc1)
    %c128_i32 = arith.constant 128 : i32 loc(#loc1)
    %0 = tt.get_program_id x : i32 loc(#loc2)
    %1 = arith.muli %0, %c128_i32 : i32 loc(#loc3)
    %2 = tt.make_range {end = 128 : i32, start = 0 : i32} : tensor<128xi32> loc(#loc4)
    %3 = tt.expand_dims %2 {axis = 1 : i32} : tensor<128xi32> -> tensor<128x1xi32> loc(#loc5)
    %4 = tt.splat %1 : i32 -> tensor<128x1xi32> loc(#loc6)
    %5 = arith.addi %4, %3 : tensor<128x1xi32> loc(#loc6)
    %6 = tt.make_range {end = 32 : i32, start = 0 : i32} : tensor<32xi32> loc(#loc7)
    %7 = tt.expand_dims %6 {axis = 0 : i32} : tensor<32xi32> -> tensor<1x32xi32> loc(#loc8)
    %8 = arith.remsi %5, %cst_1 : tensor<128x1xi32> loc(#loc9)
    %9 = arith.divsi %5, %cst_1 : tensor<128x1xi32> loc(#loc10)
    %10 = arith.muli %7, %cst_0 : tensor<1x32xi32> loc(#loc11)
    %11 = tt.broadcast %8 : tensor<128x1xi32> -> tensor<128x32xi32> loc(#loc12)
    %12 = tt.broadcast %10 : tensor<1x32xi32> -> tensor<128x32xi32> loc(#loc12)
    %13 = arith.addi %11, %12 : tensor<128x32xi32> loc(#loc12)
    %14 = arith.muli %9, %cst : tensor<128x1xi32> loc(#loc13)
    %15 = tt.broadcast %14 : tensor<128x1xi32> -> tensor<128x32xi32> loc(#loc14)
    %16 = arith.addi %13, %15 : tensor<128x32xi32> loc(#loc14)
    %17 = tt.splat %arg0 : !tt.ptr<f32> -> tensor<128x32x!tt.ptr<f32>> loc(#loc15)
    %18 = tt.addptr %17, %16 : tensor<128x32x!tt.ptr<f32>>, tensor<128x32xi32> loc(#loc15)
    %19 = tt.load %18 : tensor<128x32x!tt.ptr<f32>> loc(#loc16)
    %20 = tt.splat %arg1 : !tt.ptr<f32> -> tensor<128x32x!tt.ptr<f32>> loc(#loc17)
    %21 = tt.addptr %20, %16 : tensor<128x32x!tt.ptr<f32>>, tensor<128x32xi32> loc(#loc17)
    %22 = tt.load %21 : tensor<128x32x!tt.ptr<f32>> loc(#loc18)
    %23 = tt.splat %arg2 : !tt.ptr<f32> -> tensor<128x1x!tt.ptr<f32>> loc(#loc19)
    %24 = tt.addptr %23, %8 : tensor<128x1x!tt.ptr<f32>>, tensor<128x1xi32> loc(#loc19)
    %25 = tt.load %24 evictionPolicy = evict_last : tensor<128x1x!tt.ptr<f32>> loc(#loc20)
    %26 = tt.broadcast %25 : tensor<128x1xf32> -> tensor<128x32xf32> loc(#loc21)
    %27 = arith.addf %22, %26 : tensor<128x32xf32> loc(#loc21)
    %28 = arith.addf %19, %27 : tensor<128x32xf32> loc(#loc22)
    %29 = "tt.reduce"(%28) <{axis = 1 : i32}> ({
    ^bb0(%arg6: f32 loc(unknown), %arg7: f32 loc(unknown)):
      %33 = arith.addf %arg6, %arg7 : f32 loc(#loc32)
      tt.reduce.return %33 : f32 loc(#loc30)
    }) : (tensor<128x32xf32>) -> tensor<128xf32> loc(#loc30)
    %30 = tt.expand_dims %29 {axis = 1 : i32} : tensor<128xf32> -> tensor<128x1xf32> loc(#loc26)
    %31 = tt.splat %arg3 : !tt.ptr<f32> -> tensor<128x1x!tt.ptr<f32>> loc(#loc27)
    %32 = tt.addptr %31, %5 : tensor<128x1x!tt.ptr<f32>>, tensor<128x1xi32> loc(#loc27)
    tt.store %32, %30 : tensor<128x1x!tt.ptr<f32>> loc(#loc28)
    tt.return loc(#loc29)
  } loc(#loc)
} loc(#loc)
#loc2 = loc("/orcd/home/002/osbo/ondemand/fluid-sim/Assets/Scripts/.torch_inductor_cache/h6/ch6kp6mtsa5isurfyj7bnmemcq5xvnwwhha3rc76fomx3gr3ornw.py":22:28)
#loc3 = loc("/orcd/home/002/osbo/ondemand/fluid-sim/Assets/Scripts/.torch_inductor_cache/h6/ch6kp6mtsa5isurfyj7bnmemcq5xvnwwhha3rc76fomx3gr3ornw.py":22:33)
#loc4 = loc("/orcd/home/002/osbo/ondemand/fluid-sim/Assets/Scripts/.torch_inductor_cache/h6/ch6kp6mtsa5isurfyj7bnmemcq5xvnwwhha3rc76fomx3gr3ornw.py":23:36)
#loc5 = loc("/orcd/home/002/osbo/ondemand/fluid-sim/Assets/Scripts/.torch_inductor_cache/h6/ch6kp6mtsa5isurfyj7bnmemcq5xvnwwhha3rc76fomx3gr3ornw.py":23:44)
#loc6 = loc("/orcd/home/002/osbo/ondemand/fluid-sim/Assets/Scripts/.torch_inductor_cache/h6/ch6kp6mtsa5isurfyj7bnmemcq5xvnwwhha3rc76fomx3gr3ornw.py":23:23)
#loc7 = loc("/orcd/home/002/osbo/ondemand/fluid-sim/Assets/Scripts/.torch_inductor_cache/h6/ch6kp6mtsa5isurfyj7bnmemcq5xvnwwhha3rc76fomx3gr3ornw.py":25:26)
#loc8 = loc("/orcd/home/002/osbo/ondemand/fluid-sim/Assets/Scripts/.torch_inductor_cache/h6/ch6kp6mtsa5isurfyj7bnmemcq5xvnwwhha3rc76fomx3gr3ornw.py":25:34)
#loc9 = loc("/orcd/home/002/osbo/ondemand/fluid-sim/Assets/Scripts/.torch_inductor_cache/h6/ch6kp6mtsa5isurfyj7bnmemcq5xvnwwhha3rc76fomx3gr3ornw.py":29:18)
#loc10 = loc("/orcd/home/002/osbo/ondemand/fluid-sim/Assets/Scripts/.torch_inductor_cache/h6/ch6kp6mtsa5isurfyj7bnmemcq5xvnwwhha3rc76fomx3gr3ornw.py":30:20)
#loc11 = loc("/orcd/home/002/osbo/ondemand/fluid-sim/Assets/Scripts/.torch_inductor_cache/h6/ch6kp6mtsa5isurfyj7bnmemcq5xvnwwhha3rc76fomx3gr3ornw.py":32:40)
#loc12 = loc("/orcd/home/002/osbo/ondemand/fluid-sim/Assets/Scripts/.torch_inductor_cache/h6/ch6kp6mtsa5isurfyj7bnmemcq5xvnwwhha3rc76fomx3gr3ornw.py":32:36)
#loc13 = loc("/orcd/home/002/osbo/ondemand/fluid-sim/Assets/Scripts/.torch_inductor_cache/h6/ch6kp6mtsa5isurfyj7bnmemcq5xvnwwhha3rc76fomx3gr3ornw.py":32:52)
#loc14 = loc("/orcd/home/002/osbo/ondemand/fluid-sim/Assets/Scripts/.torch_inductor_cache/h6/ch6kp6mtsa5isurfyj7bnmemcq5xvnwwhha3rc76fomx3gr3ornw.py":32:47)
#loc15 = loc("/orcd/home/002/osbo/ondemand/fluid-sim/Assets/Scripts/.torch_inductor_cache/h6/ch6kp6mtsa5isurfyj7bnmemcq5xvnwwhha3rc76fomx3gr3ornw.py":32:30)
#loc16 = loc("/orcd/home/002/osbo/ondemand/fluid-sim/Assets/Scripts/.torch_inductor_cache/h6/ch6kp6mtsa5isurfyj7bnmemcq5xvnwwhha3rc76fomx3gr3ornw.py":32:58)
#loc17 = loc("/orcd/home/002/osbo/ondemand/fluid-sim/Assets/Scripts/.torch_inductor_cache/h6/ch6kp6mtsa5isurfyj7bnmemcq5xvnwwhha3rc76fomx3gr3ornw.py":33:30)
#loc18 = loc("/orcd/home/002/osbo/ondemand/fluid-sim/Assets/Scripts/.torch_inductor_cache/h6/ch6kp6mtsa5isurfyj7bnmemcq5xvnwwhha3rc76fomx3gr3ornw.py":33:58)
#loc19 = loc("/orcd/home/002/osbo/ondemand/fluid-sim/Assets/Scripts/.torch_inductor_cache/h6/ch6kp6mtsa5isurfyj7bnmemcq5xvnwwhha3rc76fomx3gr3ornw.py":34:30)
#loc20 = loc("/orcd/home/002/osbo/ondemand/fluid-sim/Assets/Scripts/.torch_inductor_cache/h6/ch6kp6mtsa5isurfyj7bnmemcq5xvnwwhha3rc76fomx3gr3ornw.py":34:35)
#loc21 = loc("/orcd/home/002/osbo/ondemand/fluid-sim/Assets/Scripts/.torch_inductor_cache/h6/ch6kp6mtsa5isurfyj7bnmemcq5xvnwwhha3rc76fomx3gr3ornw.py":35:18)
#loc22 = loc("/orcd/home/002/osbo/ondemand/fluid-sim/Assets/Scripts/.torch_inductor_cache/h6/ch6kp6mtsa5isurfyj7bnmemcq5xvnwwhha3rc76fomx3gr3ornw.py":36:18)
#loc23 = loc("/home/osbo/.conda/envs/fluid/lib/python3.12/site-packages/triton/language/standard.py":267:36)
#loc24 = loc("/orcd/home/002/osbo/ondemand/fluid-sim/Assets/Scripts/.torch_inductor_cache/h6/ch6kp6mtsa5isurfyj7bnmemcq5xvnwwhha3rc76fomx3gr3ornw.py":38:24)
#loc25 = loc("/home/osbo/.conda/envs/fluid/lib/python3.12/site-packages/triton/language/standard.py":256:15)
#loc26 = loc("/orcd/home/002/osbo/ondemand/fluid-sim/Assets/Scripts/.torch_inductor_cache/h6/ch6kp6mtsa5isurfyj7bnmemcq5xvnwwhha3rc76fomx3gr3ornw.py":38:27)
#loc27 = loc("/orcd/home/002/osbo/ondemand/fluid-sim/Assets/Scripts/.torch_inductor_cache/h6/ch6kp6mtsa5isurfyj7bnmemcq5xvnwwhha3rc76fomx3gr3ornw.py":39:25)
#loc28 = loc("/orcd/home/002/osbo/ondemand/fluid-sim/Assets/Scripts/.torch_inductor_cache/h6/ch6kp6mtsa5isurfyj7bnmemcq5xvnwwhha3rc76fomx3gr3ornw.py":39:36)
#loc29 = loc("/orcd/home/002/osbo/ondemand/fluid-sim/Assets/Scripts/.torch_inductor_cache/h6/ch6kp6mtsa5isurfyj7bnmemcq5xvnwwhha3rc76fomx3gr3ornw.py":39:4)
#loc30 = loc(callsite(#loc23 at #loc24))
#loc31 = loc(callsite(#loc25 at #loc23))
#loc32 = loc(callsite(#loc31 at #loc24))
