#loc = loc("/orcd/home/002/osbo/ondemand/fluid-sim/Assets/Scripts/.torch_inductor_cache/ux/cuxas5smet5irzbutm5mlikntnfb7p2cnw37ue4dj3uszieztsgd.py":18:0)
module {
  tt.func public @triton_(%arg0: !tt.ptr<f32> {tt.divisibility = 16 : i32} loc("/orcd/home/002/osbo/ondemand/fluid-sim/Assets/Scripts/.torch_inductor_cache/ux/cuxas5smet5irzbutm5mlikntnfb7p2cnw37ue4dj3uszieztsgd.py":18:0), %arg1: !tt.ptr<f32> {tt.divisibility = 16 : i32} loc("/orcd/home/002/osbo/ondemand/fluid-sim/Assets/Scripts/.torch_inductor_cache/ux/cuxas5smet5irzbutm5mlikntnfb7p2cnw37ue4dj3uszieztsgd.py":18:0), %arg2: !tt.ptr<f32> {tt.divisibility = 16 : i32} loc("/orcd/home/002/osbo/ondemand/fluid-sim/Assets/Scripts/.torch_inductor_cache/ux/cuxas5smet5irzbutm5mlikntnfb7p2cnw37ue4dj3uszieztsgd.py":18:0), %arg3: i32 {tt.divisibility = 16 : i32} loc("/orcd/home/002/osbo/ondemand/fluid-sim/Assets/Scripts/.torch_inductor_cache/ux/cuxas5smet5irzbutm5mlikntnfb7p2cnw37ue4dj3uszieztsgd.py":18:0)) attributes {noinline = false} {
    %cst = arith.constant dense<-6> : tensor<512xi32> loc(#loc1)
    %cst_0 = arith.constant dense<0.000000e+00> : tensor<512xf32> loc(#loc1)
    %cst_1 = arith.constant dense<3> : tensor<512xi32> loc(#loc1)
    %cst_2 = arith.constant dense<9> : tensor<512xi32> loc(#loc1)
    %cst_3 = arith.constant dense<6> : tensor<512xi64> loc(#loc1)
    %cst_4 = arith.constant dense<18> : tensor<512xi64> loc(#loc1)
    %cst_5 = arith.constant dense<20> : tensor<512xi32> loc(#loc1)
    %cst_6 = arith.constant dense<148480> : tensor<512xi32> loc(#loc1)
    %c512_i32 = arith.constant 512 : i32 loc(#loc1)
    %0 = tt.get_program_id x : i32 loc(#loc2)
    %1 = arith.muli %0, %c512_i32 : i32 loc(#loc3)
    %2 = tt.make_range {end = 512 : i32, start = 0 : i32} : tensor<512xi32> loc(#loc4)
    %3 = tt.splat %1 : i32 -> tensor<512xi32> loc(#loc5)
    %4 = arith.addi %3, %2 : tensor<512xi32> loc(#loc5)
    %5 = arith.cmpi slt, %4, %cst_6 : tensor<512xi32> loc(#loc6)
    %6 = arith.remsi %4, %cst_5 : tensor<512xi32> loc(#loc7)
    %7 = arith.divsi %4, %cst_5 : tensor<512xi32> loc(#loc8)
    %8 = arith.extsi %6 : tensor<512xi32> to tensor<512xi64> loc(#loc9)
    %9 = arith.cmpi slt, %8, %cst_4 : tensor<512xi64> loc(#loc9)
    %10 = arith.cmpi slt, %8, %cst_3 : tensor<512xi64> loc(#loc10)
    %11 = arith.andi %10, %9 : tensor<512xi1> loc(#loc11)
    %12 = arith.muli %7, %cst_2 : tensor<512xi32> loc(#loc12)
    %13 = arith.addi %12, %cst_1 : tensor<512xi32> loc(#loc13)
    %14 = arith.addi %13, %6 : tensor<512xi32> loc(#loc14)
    %15 = tt.splat %arg0 : !tt.ptr<f32> -> tensor<512x!tt.ptr<f32>> loc(#loc15)
    %16 = tt.addptr %15, %14 : tensor<512x!tt.ptr<f32>>, tensor<512xi32> loc(#loc15)
    %17 = arith.andi %11, %5 : tensor<512xi1> loc(#loc16)
    %18 = tt.load %16, %17, %cst_0 evictionPolicy = evict_last : tensor<512x!tt.ptr<f32>> loc(#loc17)
    %19 = arith.cmpi sge, %8, %cst_3 : tensor<512xi64> loc(#loc18)
    %20 = arith.andi %19, %9 : tensor<512xi1> loc(#loc19)
    %21 = arith.addi %6, %cst : tensor<512xi32> loc(#loc20)
    %22 = tt.splat %arg1 : !tt.ptr<f32> -> tensor<512x!tt.ptr<f32>> loc(#loc21)
    %23 = tt.addptr %22, %21 : tensor<512x!tt.ptr<f32>>, tensor<512xi32> loc(#loc21)
    %24 = arith.andi %20, %5 : tensor<512xi1> loc(#loc22)
    %25 = tt.load %23, %24, %cst_0 evictionPolicy = evict_last : tensor<512x!tt.ptr<f32>> loc(#loc23)
    %26 = arith.select %10, %18, %25 : tensor<512xi1>, tensor<512xf32> loc(#loc24)
    %27 = arith.select %9, %26, %cst_0 : tensor<512xi1>, tensor<512xf32> loc(#loc30)
    %28 = tt.splat %arg2 : !tt.ptr<f32> -> tensor<512x!tt.ptr<f32>> loc(#loc27)
    %29 = tt.addptr %28, %4 : tensor<512x!tt.ptr<f32>>, tensor<512xi32> loc(#loc27)
    tt.store %29, %27, %5 : tensor<512x!tt.ptr<f32>> loc(#loc28)
    tt.return loc(#loc29)
  } loc(#loc)
} loc(#loc)
#loc1 = loc(unknown)
#loc2 = loc("/orcd/home/002/osbo/ondemand/fluid-sim/Assets/Scripts/.torch_inductor_cache/ux/cuxas5smet5irzbutm5mlikntnfb7p2cnw37ue4dj3uszieztsgd.py":20:28)
#loc3 = loc("/orcd/home/002/osbo/ondemand/fluid-sim/Assets/Scripts/.torch_inductor_cache/ux/cuxas5smet5irzbutm5mlikntnfb7p2cnw37ue4dj3uszieztsgd.py":20:33)
#loc4 = loc("/orcd/home/002/osbo/ondemand/fluid-sim/Assets/Scripts/.torch_inductor_cache/ux/cuxas5smet5irzbutm5mlikntnfb7p2cnw37ue4dj3uszieztsgd.py":21:36)
#loc5 = loc("/orcd/home/002/osbo/ondemand/fluid-sim/Assets/Scripts/.torch_inductor_cache/ux/cuxas5smet5irzbutm5mlikntnfb7p2cnw37ue4dj3uszieztsgd.py":21:23)
#loc6 = loc("/orcd/home/002/osbo/ondemand/fluid-sim/Assets/Scripts/.torch_inductor_cache/ux/cuxas5smet5irzbutm5mlikntnfb7p2cnw37ue4dj3uszieztsgd.py":22:21)
#loc7 = loc("/orcd/home/002/osbo/ondemand/fluid-sim/Assets/Scripts/.torch_inductor_cache/ux/cuxas5smet5irzbutm5mlikntnfb7p2cnw37ue4dj3uszieztsgd.py":23:18)
#loc8 = loc("/orcd/home/002/osbo/ondemand/fluid-sim/Assets/Scripts/.torch_inductor_cache/ux/cuxas5smet5irzbutm5mlikntnfb7p2cnw37ue4dj3uszieztsgd.py":24:20)
#loc9 = loc("/orcd/home/002/osbo/ondemand/fluid-sim/Assets/Scripts/.torch_inductor_cache/ux/cuxas5smet5irzbutm5mlikntnfb7p2cnw37ue4dj3uszieztsgd.py":30:18)
#loc10 = loc("/orcd/home/002/osbo/ondemand/fluid-sim/Assets/Scripts/.torch_inductor_cache/ux/cuxas5smet5irzbutm5mlikntnfb7p2cnw37ue4dj3uszieztsgd.py":32:18)
#loc11 = loc("/orcd/home/002/osbo/ondemand/fluid-sim/Assets/Scripts/.torch_inductor_cache/ux/cuxas5smet5irzbutm5mlikntnfb7p2cnw37ue4dj3uszieztsgd.py":33:18)
#loc12 = loc("/orcd/home/002/osbo/ondemand/fluid-sim/Assets/Scripts/.torch_inductor_cache/ux/cuxas5smet5irzbutm5mlikntnfb7p2cnw37ue4dj3uszieztsgd.py":34:37)
#loc13 = loc("/orcd/home/002/osbo/ondemand/fluid-sim/Assets/Scripts/.torch_inductor_cache/ux/cuxas5smet5irzbutm5mlikntnfb7p2cnw37ue4dj3uszieztsgd.py":34:35)
#loc14 = loc("/orcd/home/002/osbo/ondemand/fluid-sim/Assets/Scripts/.torch_inductor_cache/ux/cuxas5smet5irzbutm5mlikntnfb7p2cnw37ue4dj3uszieztsgd.py":34:43)
#loc15 = loc("/orcd/home/002/osbo/ondemand/fluid-sim/Assets/Scripts/.torch_inductor_cache/ux/cuxas5smet5irzbutm5mlikntnfb7p2cnw37ue4dj3uszieztsgd.py":34:30)
#loc16 = loc("/orcd/home/002/osbo/ondemand/fluid-sim/Assets/Scripts/.torch_inductor_cache/ux/cuxas5smet5irzbutm5mlikntnfb7p2cnw37ue4dj3uszieztsgd.py":34:55)
#loc17 = loc("/orcd/home/002/osbo/ondemand/fluid-sim/Assets/Scripts/.torch_inductor_cache/ux/cuxas5smet5irzbutm5mlikntnfb7p2cnw37ue4dj3uszieztsgd.py":34:48)
#loc18 = loc("/orcd/home/002/osbo/ondemand/fluid-sim/Assets/Scripts/.torch_inductor_cache/ux/cuxas5smet5irzbutm5mlikntnfb7p2cnw37ue4dj3uszieztsgd.py":35:19)
#loc19 = loc("/orcd/home/002/osbo/ondemand/fluid-sim/Assets/Scripts/.torch_inductor_cache/ux/cuxas5smet5irzbutm5mlikntnfb7p2cnw37ue4dj3uszieztsgd.py":36:19)
#loc20 = loc("/orcd/home/002/osbo/ondemand/fluid-sim/Assets/Scripts/.torch_inductor_cache/ux/cuxas5smet5irzbutm5mlikntnfb7p2cnw37ue4dj3uszieztsgd.py":37:38)
#loc21 = loc("/orcd/home/002/osbo/ondemand/fluid-sim/Assets/Scripts/.torch_inductor_cache/ux/cuxas5smet5irzbutm5mlikntnfb7p2cnw37ue4dj3uszieztsgd.py":37:31)
#loc22 = loc("/orcd/home/002/osbo/ondemand/fluid-sim/Assets/Scripts/.torch_inductor_cache/ux/cuxas5smet5irzbutm5mlikntnfb7p2cnw37ue4dj3uszieztsgd.py":37:51)
#loc23 = loc("/orcd/home/002/osbo/ondemand/fluid-sim/Assets/Scripts/.torch_inductor_cache/ux/cuxas5smet5irzbutm5mlikntnfb7p2cnw37ue4dj3uszieztsgd.py":37:43)
#loc24 = loc("/orcd/home/002/osbo/ondemand/fluid-sim/Assets/Scripts/.torch_inductor_cache/ux/cuxas5smet5irzbutm5mlikntnfb7p2cnw37ue4dj3uszieztsgd.py":38:33)
#loc25 = loc("/orcd/home/002/osbo/ondemand/fluid-sim/Assets/Scripts/.torch_inductor_cache/ux/cuxas5smet5irzbutm5mlikntnfb7p2cnw37ue4dj3uszieztsgd.py":47:34)
#loc26 = loc("/orcd/home/002/osbo/ondemand/fluid-sim/Assets/Scripts/.torch_inductor_cache/ux/cuxas5smet5irzbutm5mlikntnfb7p2cnw37ue4dj3uszieztsgd.py":40:34)
#loc27 = loc("/orcd/home/002/osbo/ondemand/fluid-sim/Assets/Scripts/.torch_inductor_cache/ux/cuxas5smet5irzbutm5mlikntnfb7p2cnw37ue4dj3uszieztsgd.py":48:25)
#loc28 = loc("/orcd/home/002/osbo/ondemand/fluid-sim/Assets/Scripts/.torch_inductor_cache/ux/cuxas5smet5irzbutm5mlikntnfb7p2cnw37ue4dj3uszieztsgd.py":48:37)
#loc29 = loc("/orcd/home/002/osbo/ondemand/fluid-sim/Assets/Scripts/.torch_inductor_cache/ux/cuxas5smet5irzbutm5mlikntnfb7p2cnw37ue4dj3uszieztsgd.py":48:4)
#loc30 = loc(fused[#loc25, #loc26])
