#loc = loc("/orcd/home/002/osbo/ondemand/fluid-sim/Assets/Scripts/.torch_inductor_cache/fq/cfqa5doxuhxy6bn6ahwiti5c2zpaemamwr4mvrg33z234dudcdyu.py":18:0)
#loc1 = loc(unknown)
module {
  tt.func public @triton_(%arg0: !tt.ptr<f32> {tt.divisibility = 16 : i32} loc("/orcd/home/002/osbo/ondemand/fluid-sim/Assets/Scripts/.torch_inductor_cache/fq/cfqa5doxuhxy6bn6ahwiti5c2zpaemamwr4mvrg33z234dudcdyu.py":18:0), %arg1: !tt.ptr<f32> {tt.divisibility = 16 : i32} loc("/orcd/home/002/osbo/ondemand/fluid-sim/Assets/Scripts/.torch_inductor_cache/fq/cfqa5doxuhxy6bn6ahwiti5c2zpaemamwr4mvrg33z234dudcdyu.py":18:0), %arg2: i32 {tt.divisibility = 16 : i32} loc("/orcd/home/002/osbo/ondemand/fluid-sim/Assets/Scripts/.torch_inductor_cache/fq/cfqa5doxuhxy6bn6ahwiti5c2zpaemamwr4mvrg33z234dudcdyu.py":18:0), %arg3: i32 loc("/orcd/home/002/osbo/ondemand/fluid-sim/Assets/Scripts/.torch_inductor_cache/fq/cfqa5doxuhxy6bn6ahwiti5c2zpaemamwr4mvrg33z234dudcdyu.py":18:0)) attributes {noinline = false} {
    %cst = arith.constant dense<132096> : tensor<16x1xi32> loc(#loc1)
    %cst_0 = arith.constant dense<16512> : tensor<16x1xi32> loc(#loc1)
    %cst_1 = arith.constant dense<129> : tensor<16x1xi32> loc(#loc1)
    %cst_2 = arith.constant dense<129> : tensor<1x256xi32> loc(#loc1)
    %cst_3 = arith.constant dense<0.000000e+00> : tensor<16x256xf32> loc(#loc1)
    %cst_4 = arith.constant dense<1024> : tensor<16x1xi32> loc(#loc1)
    %cst_5 = arith.constant dense<128> : tensor<16x1xi32> loc(#loc1)
    %cst_6 = arith.constant dense<8> : tensor<16x1xi32> loc(#loc1)
    %c16_i32 = arith.constant 16 : i32 loc(#loc1)
    %0 = tt.get_program_id x : i32 loc(#loc2)
    %1 = arith.muli %0, %c16_i32 : i32 loc(#loc3)
    %2 = tt.make_range {end = 16 : i32, start = 0 : i32} : tensor<16xi32> loc(#loc4)
    %3 = tt.expand_dims %2 {axis = 1 : i32} : tensor<16xi32> -> tensor<16x1xi32> loc(#loc5)
    %4 = tt.splat %1 : i32 -> tensor<16x1xi32> loc(#loc6)
    %5 = arith.addi %4, %3 : tensor<16x1xi32> loc(#loc6)
    %6 = tt.make_range {end = 256 : i32, start = 0 : i32} : tensor<256xi32> loc(#loc7)
    %7 = tt.expand_dims %6 {axis = 0 : i32} : tensor<256xi32> -> tensor<1x256xi32> loc(#loc8)
    %8 = arith.remsi %5, %cst_6 : tensor<16x1xi32> loc(#loc9)
    %9 = arith.divsi %5, %cst_6 : tensor<16x1xi32> loc(#loc10)
    %10 = arith.remsi %9, %cst_5 : tensor<16x1xi32> loc(#loc11)
    %11 = arith.divsi %5, %cst_4 : tensor<16x1xi32> loc(#loc12)
    %12 = arith.cmpi slt, %7, %cst_2 : tensor<1x256xi32> loc(#loc13)
    %13 = arith.muli %10, %cst_1 : tensor<16x1xi32> loc(#loc14)
    %14 = tt.broadcast %7 : tensor<1x256xi32> -> tensor<16x256xi32> loc(#loc15)
    %15 = tt.broadcast %13 : tensor<16x1xi32> -> tensor<16x256xi32> loc(#loc15)
    %16 = arith.addi %14, %15 : tensor<16x256xi32> loc(#loc15)
    %17 = arith.muli %8, %cst_0 : tensor<16x1xi32> loc(#loc16)
    %18 = tt.broadcast %17 : tensor<16x1xi32> -> tensor<16x256xi32> loc(#loc17)
    %19 = arith.addi %16, %18 : tensor<16x256xi32> loc(#loc17)
    %20 = arith.muli %11, %cst : tensor<16x1xi32> loc(#loc18)
    %21 = tt.broadcast %20 : tensor<16x1xi32> -> tensor<16x256xi32> loc(#loc19)
    %22 = arith.addi %19, %21 : tensor<16x256xi32> loc(#loc19)
    %23 = tt.splat %arg0 : !tt.ptr<f32> -> tensor<16x256x!tt.ptr<f32>> loc(#loc20)
    %24 = tt.addptr %23, %22 : tensor<16x256x!tt.ptr<f32>>, tensor<16x256xi32> loc(#loc20)
    %25 = tt.broadcast %12 : tensor<1x256xi1> -> tensor<16x256xi1> loc(#loc21)
    %26 = tt.load %24, %25, %cst_3 evictionPolicy = evict_last : tensor<16x256x!tt.ptr<f32>> loc(#loc21)
    %27 = arith.addf %26, %cst_3 : tensor<16x256xf32> loc(#loc22)
    %28 = arith.select %25, %27, %cst_3 : tensor<16x256xi1>, tensor<16x256xf32> loc(#loc23)
    %29 = "tt.reduce"(%28) <{axis = 1 : i32}> ({
    ^bb0(%arg4: f32 loc(unknown), %arg5: f32 loc(unknown)):
      %33 = arith.addf %arg4, %arg5 : f32 loc(#loc33)
      tt.reduce.return %33 : f32 loc(#loc31)
    }) : (tensor<16x256xf32>) -> tensor<16xf32> loc(#loc31)
    %30 = tt.expand_dims %29 {axis = 1 : i32} : tensor<16xf32> -> tensor<16x1xf32> loc(#loc27)
    %31 = tt.splat %arg1 : !tt.ptr<f32> -> tensor<16x1x!tt.ptr<f32>> loc(#loc28)
    %32 = tt.addptr %31, %5 : tensor<16x1x!tt.ptr<f32>>, tensor<16x1xi32> loc(#loc28)
    tt.store %32, %30 : tensor<16x1x!tt.ptr<f32>> loc(#loc29)
    tt.return loc(#loc30)
  } loc(#loc)
} loc(#loc)
#loc2 = loc("/orcd/home/002/osbo/ondemand/fluid-sim/Assets/Scripts/.torch_inductor_cache/fq/cfqa5doxuhxy6bn6ahwiti5c2zpaemamwr4mvrg33z234dudcdyu.py":21:28)
#loc3 = loc("/orcd/home/002/osbo/ondemand/fluid-sim/Assets/Scripts/.torch_inductor_cache/fq/cfqa5doxuhxy6bn6ahwiti5c2zpaemamwr4mvrg33z234dudcdyu.py":21:33)
#loc4 = loc("/orcd/home/002/osbo/ondemand/fluid-sim/Assets/Scripts/.torch_inductor_cache/fq/cfqa5doxuhxy6bn6ahwiti5c2zpaemamwr4mvrg33z234dudcdyu.py":22:36)
#loc5 = loc("/orcd/home/002/osbo/ondemand/fluid-sim/Assets/Scripts/.torch_inductor_cache/fq/cfqa5doxuhxy6bn6ahwiti5c2zpaemamwr4mvrg33z234dudcdyu.py":22:44)
#loc6 = loc("/orcd/home/002/osbo/ondemand/fluid-sim/Assets/Scripts/.torch_inductor_cache/fq/cfqa5doxuhxy6bn6ahwiti5c2zpaemamwr4mvrg33z234dudcdyu.py":22:23)
#loc7 = loc("/orcd/home/002/osbo/ondemand/fluid-sim/Assets/Scripts/.torch_inductor_cache/fq/cfqa5doxuhxy6bn6ahwiti5c2zpaemamwr4mvrg33z234dudcdyu.py":24:25)
#loc8 = loc("/orcd/home/002/osbo/ondemand/fluid-sim/Assets/Scripts/.torch_inductor_cache/fq/cfqa5doxuhxy6bn6ahwiti5c2zpaemamwr4mvrg33z234dudcdyu.py":24:33)
#loc9 = loc("/orcd/home/002/osbo/ondemand/fluid-sim/Assets/Scripts/.torch_inductor_cache/fq/cfqa5doxuhxy6bn6ahwiti5c2zpaemamwr4mvrg33z234dudcdyu.py":25:18)
#loc10 = loc("/orcd/home/002/osbo/ondemand/fluid-sim/Assets/Scripts/.torch_inductor_cache/fq/cfqa5doxuhxy6bn6ahwiti5c2zpaemamwr4mvrg33z234dudcdyu.py":26:20)
#loc11 = loc("/orcd/home/002/osbo/ondemand/fluid-sim/Assets/Scripts/.torch_inductor_cache/fq/cfqa5doxuhxy6bn6ahwiti5c2zpaemamwr4mvrg33z234dudcdyu.py":26:25)
#loc12 = loc("/orcd/home/002/osbo/ondemand/fluid-sim/Assets/Scripts/.torch_inductor_cache/fq/cfqa5doxuhxy6bn6ahwiti5c2zpaemamwr4mvrg33z234dudcdyu.py":27:20)
#loc13 = loc("/orcd/home/002/osbo/ondemand/fluid-sim/Assets/Scripts/.torch_inductor_cache/fq/cfqa5doxuhxy6bn6ahwiti5c2zpaemamwr4mvrg33z234dudcdyu.py":32:25)
#loc14 = loc("/orcd/home/002/osbo/ondemand/fluid-sim/Assets/Scripts/.torch_inductor_cache/fq/cfqa5doxuhxy6bn6ahwiti5c2zpaemamwr4mvrg33z234dudcdyu.py":34:44)
#loc15 = loc("/orcd/home/002/osbo/ondemand/fluid-sim/Assets/Scripts/.torch_inductor_cache/fq/cfqa5doxuhxy6bn6ahwiti5c2zpaemamwr4mvrg33z234dudcdyu.py":34:40)
#loc16 = loc("/orcd/home/002/osbo/ondemand/fluid-sim/Assets/Scripts/.torch_inductor_cache/fq/cfqa5doxuhxy6bn6ahwiti5c2zpaemamwr4mvrg33z234dudcdyu.py":34:57)
#loc17 = loc("/orcd/home/002/osbo/ondemand/fluid-sim/Assets/Scripts/.torch_inductor_cache/fq/cfqa5doxuhxy6bn6ahwiti5c2zpaemamwr4mvrg33z234dudcdyu.py":34:51)
#loc18 = loc("/orcd/home/002/osbo/ondemand/fluid-sim/Assets/Scripts/.torch_inductor_cache/fq/cfqa5doxuhxy6bn6ahwiti5c2zpaemamwr4mvrg33z234dudcdyu.py":34:71)
#loc19 = loc("/orcd/home/002/osbo/ondemand/fluid-sim/Assets/Scripts/.torch_inductor_cache/fq/cfqa5doxuhxy6bn6ahwiti5c2zpaemamwr4mvrg33z234dudcdyu.py":34:64)
#loc20 = loc("/orcd/home/002/osbo/ondemand/fluid-sim/Assets/Scripts/.torch_inductor_cache/fq/cfqa5doxuhxy6bn6ahwiti5c2zpaemamwr4mvrg33z234dudcdyu.py":34:34)
#loc21 = loc("/orcd/home/002/osbo/ondemand/fluid-sim/Assets/Scripts/.torch_inductor_cache/fq/cfqa5doxuhxy6bn6ahwiti5c2zpaemamwr4mvrg33z234dudcdyu.py":34:77)
#loc22 = loc("/orcd/home/002/osbo/ondemand/fluid-sim/Assets/Scripts/.torch_inductor_cache/fq/cfqa5doxuhxy6bn6ahwiti5c2zpaemamwr4mvrg33z234dudcdyu.py":36:23)
#loc23 = loc("/orcd/home/002/osbo/ondemand/fluid-sim/Assets/Scripts/.torch_inductor_cache/fq/cfqa5doxuhxy6bn6ahwiti5c2zpaemamwr4mvrg33z234dudcdyu.py":37:38)
#loc24 = loc("/home/osbo/.conda/envs/fluid/lib/python3.12/site-packages/triton/language/standard.py":267:36)
#loc25 = loc("/orcd/home/002/osbo/ondemand/fluid-sim/Assets/Scripts/.torch_inductor_cache/fq/cfqa5doxuhxy6bn6ahwiti5c2zpaemamwr4mvrg33z234dudcdyu.py":38:25)
#loc26 = loc("/home/osbo/.conda/envs/fluid/lib/python3.12/site-packages/triton/language/standard.py":256:15)
#loc27 = loc("/orcd/home/002/osbo/ondemand/fluid-sim/Assets/Scripts/.torch_inductor_cache/fq/cfqa5doxuhxy6bn6ahwiti5c2zpaemamwr4mvrg33z234dudcdyu.py":38:28)
#loc28 = loc("/orcd/home/002/osbo/ondemand/fluid-sim/Assets/Scripts/.torch_inductor_cache/fq/cfqa5doxuhxy6bn6ahwiti5c2zpaemamwr4mvrg33z234dudcdyu.py":39:25)
#loc29 = loc("/orcd/home/002/osbo/ondemand/fluid-sim/Assets/Scripts/.torch_inductor_cache/fq/cfqa5doxuhxy6bn6ahwiti5c2zpaemamwr4mvrg33z234dudcdyu.py":39:36)
#loc30 = loc("/orcd/home/002/osbo/ondemand/fluid-sim/Assets/Scripts/.torch_inductor_cache/fq/cfqa5doxuhxy6bn6ahwiti5c2zpaemamwr4mvrg33z234dudcdyu.py":39:4)
#loc31 = loc(callsite(#loc24 at #loc25))
#loc32 = loc(callsite(#loc26 at #loc24))
#loc33 = loc(callsite(#loc32 at #loc25))
