#loc = loc("/orcd/home/002/osbo/ondemand/fluid-sim/Assets/Scripts/.torch_inductor_cache/o5/co5xjbzmbj5xnjdwatpecvjtt6kt7qhkhyktyavixsantcqrkrdp.py":18:0)
module {
  tt.func public @triton_(%arg0: !tt.ptr<f32> {tt.divisibility = 16 : i32} loc("/orcd/home/002/osbo/ondemand/fluid-sim/Assets/Scripts/.torch_inductor_cache/o5/co5xjbzmbj5xnjdwatpecvjtt6kt7qhkhyktyavixsantcqrkrdp.py":18:0), %arg1: !tt.ptr<f32> {tt.divisibility = 16 : i32} loc("/orcd/home/002/osbo/ondemand/fluid-sim/Assets/Scripts/.torch_inductor_cache/o5/co5xjbzmbj5xnjdwatpecvjtt6kt7qhkhyktyavixsantcqrkrdp.py":18:0), %arg2: !tt.ptr<f32> {tt.divisibility = 16 : i32} loc("/orcd/home/002/osbo/ondemand/fluid-sim/Assets/Scripts/.torch_inductor_cache/o5/co5xjbzmbj5xnjdwatpecvjtt6kt7qhkhyktyavixsantcqrkrdp.py":18:0), %arg3: i32 loc("/orcd/home/002/osbo/ondemand/fluid-sim/Assets/Scripts/.torch_inductor_cache/o5/co5xjbzmbj5xnjdwatpecvjtt6kt7qhkhyktyavixsantcqrkrdp.py":18:0), %arg4: i32 {tt.divisibility = 16 : i32} loc("/orcd/home/002/osbo/ondemand/fluid-sim/Assets/Scripts/.torch_inductor_cache/o5/co5xjbzmbj5xnjdwatpecvjtt6kt7qhkhyktyavixsantcqrkrdp.py":18:0)) attributes {noinline = false} {
    %c16384_i32 = arith.constant 16384 : i32 loc(#loc1)
    %c131072_i32 = arith.constant 131072 : i32 loc(#loc1)
    %c8_i32 = arith.constant 8 : i32 loc(#loc1)
    %c872_i32 = arith.constant 872 : i32 loc(#loc1)
    %cst = arith.constant dense<8> : tensor<1024x1xi32> loc(#loc1)
    %c1024_i32 = arith.constant 1024 : i32 loc(#loc1)
    %0 = tt.get_program_id y : i32 loc(#loc2)
    %1 = arith.cmpi slt, %0, %c872_i32 : i32 loc(#loc3)
    %2 = tt.splat %1 : i1 -> tensor<1x1xi1> loc(#loc3)
    %3 = tt.get_program_id x : i32 loc(#loc4)
    %4 = arith.muli %3, %c1024_i32 : i32 loc(#loc5)
    %5 = tt.make_range {end = 1024 : i32, start = 0 : i32} : tensor<1024xi32> loc(#loc6)
    %6 = tt.expand_dims %5 {axis = 1 : i32} : tensor<1024xi32> -> tensor<1024x1xi32> loc(#loc7)
    %7 = tt.splat %4 : i32 -> tensor<1024x1xi32> loc(#loc8)
    %8 = arith.addi %7, %6 : tensor<1024x1xi32> loc(#loc8)
    %9 = arith.remsi %0, %c8_i32 : i32 loc(#loc9)
    %10 = arith.divsi %0, %c8_i32 : i32 loc(#loc10)
    %11 = arith.muli %8, %cst : tensor<1024x1xi32> loc(#loc11)
    %12 = tt.splat %9 : i32 -> tensor<1024x1xi32> loc(#loc12)
    %13 = arith.addi %12, %11 : tensor<1024x1xi32> loc(#loc12)
    %14 = arith.muli %10, %c131072_i32 : i32 loc(#loc13)
    %15 = tt.splat %14 : i32 -> tensor<1024x1xi32> loc(#loc14)
    %16 = arith.addi %13, %15 : tensor<1024x1xi32> loc(#loc14)
    %17 = tt.splat %arg0 : !tt.ptr<f32> -> tensor<1024x1x!tt.ptr<f32>> loc(#loc15)
    %18 = tt.addptr %17, %16 : tensor<1024x1x!tt.ptr<f32>>, tensor<1024x1xi32> loc(#loc15)
    %19 = tt.splat %1 : i1 -> tensor<1024x1xi1> loc(#loc16)
    %20 = tt.load %18, %19 evictionPolicy = evict_last : tensor<1024x1x!tt.ptr<f32>> loc(#loc16)
    %21 = tt.addptr %arg1, %9 : !tt.ptr<f32>, i32 loc(#loc17)
    %22 = tt.splat %21 : !tt.ptr<f32> -> tensor<1x1x!tt.ptr<f32>> loc(#loc17)
    %23 = tt.load %22, %2 evictionPolicy = evict_last : tensor<1x1x!tt.ptr<f32>> loc(#loc18)
    %24 = tt.broadcast %23 : tensor<1x1xf32> -> tensor<1024x1xf32> loc(#loc19)
    %25 = arith.addf %20, %24 : tensor<1024x1xf32> loc(#loc19)
    %26 = arith.muli %0, %c16384_i32 : i32 loc(#loc20)
    %27 = tt.splat %26 : i32 -> tensor<1024x1xi32> loc(#loc21)
    %28 = arith.addi %8, %27 : tensor<1024x1xi32> loc(#loc21)
    %29 = tt.splat %arg2 : !tt.ptr<f32> -> tensor<1024x1x!tt.ptr<f32>> loc(#loc22)
    %30 = tt.addptr %29, %28 : tensor<1024x1x!tt.ptr<f32>>, tensor<1024x1xi32> loc(#loc22)
    tt.store %30, %25, %19 : tensor<1024x1x!tt.ptr<f32>> loc(#loc23)
    tt.return loc(#loc24)
  } loc(#loc)
} loc(#loc)
#loc1 = loc(unknown)
#loc2 = loc("/orcd/home/002/osbo/ondemand/fluid-sim/Assets/Scripts/.torch_inductor_cache/o5/co5xjbzmbj5xnjdwatpecvjtt6kt7qhkhyktyavixsantcqrkrdp.py":21:28)
#loc3 = loc("/orcd/home/002/osbo/ondemand/fluid-sim/Assets/Scripts/.torch_inductor_cache/o5/co5xjbzmbj5xnjdwatpecvjtt6kt7qhkhyktyavixsantcqrkrdp.py":23:21)
#loc4 = loc("/orcd/home/002/osbo/ondemand/fluid-sim/Assets/Scripts/.torch_inductor_cache/o5/co5xjbzmbj5xnjdwatpecvjtt6kt7qhkhyktyavixsantcqrkrdp.py":24:28)
#loc5 = loc("/orcd/home/002/osbo/ondemand/fluid-sim/Assets/Scripts/.torch_inductor_cache/o5/co5xjbzmbj5xnjdwatpecvjtt6kt7qhkhyktyavixsantcqrkrdp.py":24:33)
#loc6 = loc("/orcd/home/002/osbo/ondemand/fluid-sim/Assets/Scripts/.torch_inductor_cache/o5/co5xjbzmbj5xnjdwatpecvjtt6kt7qhkhyktyavixsantcqrkrdp.py":25:36)
#loc7 = loc("/orcd/home/002/osbo/ondemand/fluid-sim/Assets/Scripts/.torch_inductor_cache/o5/co5xjbzmbj5xnjdwatpecvjtt6kt7qhkhyktyavixsantcqrkrdp.py":25:44)
#loc8 = loc("/orcd/home/002/osbo/ondemand/fluid-sim/Assets/Scripts/.torch_inductor_cache/o5/co5xjbzmbj5xnjdwatpecvjtt6kt7qhkhyktyavixsantcqrkrdp.py":25:23)
#loc9 = loc("/orcd/home/002/osbo/ondemand/fluid-sim/Assets/Scripts/.torch_inductor_cache/o5/co5xjbzmbj5xnjdwatpecvjtt6kt7qhkhyktyavixsantcqrkrdp.py":28:18)
#loc10 = loc("/orcd/home/002/osbo/ondemand/fluid-sim/Assets/Scripts/.torch_inductor_cache/o5/co5xjbzmbj5xnjdwatpecvjtt6kt7qhkhyktyavixsantcqrkrdp.py":29:20)
#loc11 = loc("/orcd/home/002/osbo/ondemand/fluid-sim/Assets/Scripts/.torch_inductor_cache/o5/co5xjbzmbj5xnjdwatpecvjtt6kt7qhkhyktyavixsantcqrkrdp.py":31:38)
#loc12 = loc("/orcd/home/002/osbo/ondemand/fluid-sim/Assets/Scripts/.torch_inductor_cache/o5/co5xjbzmbj5xnjdwatpecvjtt6kt7qhkhyktyavixsantcqrkrdp.py":31:36)
#loc13 = loc("/orcd/home/002/osbo/ondemand/fluid-sim/Assets/Scripts/.torch_inductor_cache/o5/co5xjbzmbj5xnjdwatpecvjtt6kt7qhkhyktyavixsantcqrkrdp.py":31:52)
#loc14 = loc("/orcd/home/002/osbo/ondemand/fluid-sim/Assets/Scripts/.torch_inductor_cache/o5/co5xjbzmbj5xnjdwatpecvjtt6kt7qhkhyktyavixsantcqrkrdp.py":31:45)
#loc15 = loc("/orcd/home/002/osbo/ondemand/fluid-sim/Assets/Scripts/.torch_inductor_cache/o5/co5xjbzmbj5xnjdwatpecvjtt6kt7qhkhyktyavixsantcqrkrdp.py":31:30)
#loc16 = loc("/orcd/home/002/osbo/ondemand/fluid-sim/Assets/Scripts/.torch_inductor_cache/o5/co5xjbzmbj5xnjdwatpecvjtt6kt7qhkhyktyavixsantcqrkrdp.py":31:58)
#loc17 = loc("/orcd/home/002/osbo/ondemand/fluid-sim/Assets/Scripts/.torch_inductor_cache/o5/co5xjbzmbj5xnjdwatpecvjtt6kt7qhkhyktyavixsantcqrkrdp.py":32:30)
#loc18 = loc("/orcd/home/002/osbo/ondemand/fluid-sim/Assets/Scripts/.torch_inductor_cache/o5/co5xjbzmbj5xnjdwatpecvjtt6kt7qhkhyktyavixsantcqrkrdp.py":32:35)
#loc19 = loc("/orcd/home/002/osbo/ondemand/fluid-sim/Assets/Scripts/.torch_inductor_cache/o5/co5xjbzmbj5xnjdwatpecvjtt6kt7qhkhyktyavixsantcqrkrdp.py":33:18)
#loc20 = loc("/orcd/home/002/osbo/ondemand/fluid-sim/Assets/Scripts/.torch_inductor_cache/o5/co5xjbzmbj5xnjdwatpecvjtt6kt7qhkhyktyavixsantcqrkrdp.py":34:37)
#loc21 = loc("/orcd/home/002/osbo/ondemand/fluid-sim/Assets/Scripts/.torch_inductor_cache/o5/co5xjbzmbj5xnjdwatpecvjtt6kt7qhkhyktyavixsantcqrkrdp.py":34:31)
#loc22 = loc("/orcd/home/002/osbo/ondemand/fluid-sim/Assets/Scripts/.torch_inductor_cache/o5/co5xjbzmbj5xnjdwatpecvjtt6kt7qhkhyktyavixsantcqrkrdp.py":34:25)
#loc23 = loc("/orcd/home/002/osbo/ondemand/fluid-sim/Assets/Scripts/.torch_inductor_cache/o5/co5xjbzmbj5xnjdwatpecvjtt6kt7qhkhyktyavixsantcqrkrdp.py":34:49)
#loc24 = loc("/orcd/home/002/osbo/ondemand/fluid-sim/Assets/Scripts/.torch_inductor_cache/o5/co5xjbzmbj5xnjdwatpecvjtt6kt7qhkhyktyavixsantcqrkrdp.py":34:4)
