#loc = loc("/orcd/home/002/osbo/ondemand/fluid-sim/Assets/Scripts/.torch_inductor_cache/x6/cx6b7syb2vt6z6vhga3ag3xbbsvvpcapddxnlizba7oqyo7e3vgk.py":18:0)
#loc1 = loc(unknown)
module {
  tt.func public @triton_(%arg0: !tt.ptr<f32> {tt.divisibility = 16 : i32} loc("/orcd/home/002/osbo/ondemand/fluid-sim/Assets/Scripts/.torch_inductor_cache/x6/cx6b7syb2vt6z6vhga3ag3xbbsvvpcapddxnlizba7oqyo7e3vgk.py":18:0), %arg1: !tt.ptr<f32> {tt.divisibility = 16 : i32} loc("/orcd/home/002/osbo/ondemand/fluid-sim/Assets/Scripts/.torch_inductor_cache/x6/cx6b7syb2vt6z6vhga3ag3xbbsvvpcapddxnlizba7oqyo7e3vgk.py":18:0), %arg2: i32 {tt.divisibility = 16 : i32} loc("/orcd/home/002/osbo/ondemand/fluid-sim/Assets/Scripts/.torch_inductor_cache/x6/cx6b7syb2vt6z6vhga3ag3xbbsvvpcapddxnlizba7oqyo7e3vgk.py":18:0), %arg3: i32 loc("/orcd/home/002/osbo/ondemand/fluid-sim/Assets/Scripts/.torch_inductor_cache/x6/cx6b7syb2vt6z6vhga3ag3xbbsvvpcapddxnlizba7oqyo7e3vgk.py":18:0)) attributes {noinline = false} {
    %cst = arith.constant dense<0xFF800000> : tensor<8x8xf32> loc(#loc1)
    %cst_0 = arith.constant dense<0.000000e+00> : tensor<8x8xf32> loc(#loc1)
    %cst_1 = arith.constant dense<2056> : tensor<8x1xi32> loc(#loc1)
    %cst_2 = arith.constant dense<256> : tensor<1x8xi32> loc(#loc1)
    %cst_3 = arith.constant dense<257> : tensor<1x8xi32> loc(#loc1)
    %cst_4 = arith.constant dense<128> : tensor<8x1xi32> loc(#loc1)
    %c8_i32 = arith.constant 8 : i32 loc(#loc1)
    %0 = tt.get_program_id x : i32 loc(#loc2)
    %1 = arith.muli %0, %c8_i32 : i32 loc(#loc3)
    %2 = tt.make_range {end = 8 : i32, start = 0 : i32} : tensor<8xi32> loc(#loc4)
    %3 = tt.expand_dims %2 {axis = 1 : i32} : tensor<8xi32> -> tensor<8x1xi32> loc(#loc5)
    %4 = tt.splat %1 : i32 -> tensor<8x1xi32> loc(#loc6)
    %5 = arith.addi %4, %3 : tensor<8x1xi32> loc(#loc6)
    %6 = arith.cmpi slt, %5, %cst_4 : tensor<8x1xi32> loc(#loc7)
    %7 = tt.expand_dims %2 {axis = 0 : i32} : tensor<8xi32> -> tensor<1x8xi32> loc(#loc8)
    %8 = arith.muli %7, %cst_3 : tensor<1x8xi32> loc(#loc9)
    %9 = arith.addi %8, %cst_2 : tensor<1x8xi32> loc(#loc10)
    %10 = arith.muli %5, %cst_1 : tensor<8x1xi32> loc(#loc11)
    %11 = tt.broadcast %9 : tensor<1x8xi32> -> tensor<8x8xi32> loc(#loc12)
    %12 = tt.broadcast %10 : tensor<8x1xi32> -> tensor<8x8xi32> loc(#loc12)
    %13 = arith.addi %11, %12 : tensor<8x8xi32> loc(#loc12)
    %14 = tt.splat %arg0 : !tt.ptr<f32> -> tensor<8x8x!tt.ptr<f32>> loc(#loc13)
    %15 = tt.addptr %14, %13 : tensor<8x8x!tt.ptr<f32>>, tensor<8x8xi32> loc(#loc13)
    %16 = tt.broadcast %6 : tensor<8x1xi1> -> tensor<8x8xi1> loc(#loc14)
    %17 = tt.load %15, %16, %cst_0 evictionPolicy = evict_last : tensor<8x8x!tt.ptr<f32>> loc(#loc14)
    %18 = arith.select %16, %17, %cst : tensor<8x8xi1>, tensor<8x8xf32> loc(#loc15)
    %19 = "tt.reduce"(%18) <{axis = 1 : i32}> ({
    ^bb0(%arg4: f32 loc(unknown), %arg5: f32 loc(unknown)):
      %23 = arith.cmpf ogt, %arg4, %arg5 : f32 loc(#loc31)
      %24 = arith.cmpf une, %arg4, %arg4 : f32 loc(#loc32)
      %25 = arith.ori %23, %24 : i1 loc(#loc33)
      %26 = arith.select %25, %arg4, %arg5 : f32 loc(#loc34)
      tt.reduce.return %26 : f32 loc(#loc26)
    }) : (tensor<8x8xf32>) -> tensor<8xf32> loc(#loc26)
    %20 = tt.expand_dims %19 {axis = 1 : i32} : tensor<8xf32> -> tensor<8x1xf32> loc(#loc22)
    %21 = tt.splat %arg1 : !tt.ptr<f32> -> tensor<8x1x!tt.ptr<f32>> loc(#loc23)
    %22 = tt.addptr %21, %5 : tensor<8x1x!tt.ptr<f32>>, tensor<8x1xi32> loc(#loc23)
    tt.store %22, %20, %6 : tensor<8x1x!tt.ptr<f32>> loc(#loc24)
    tt.return loc(#loc25)
  } loc(#loc)
} loc(#loc)
#loc2 = loc("/orcd/home/002/osbo/ondemand/fluid-sim/Assets/Scripts/.torch_inductor_cache/x6/cx6b7syb2vt6z6vhga3ag3xbbsvvpcapddxnlizba7oqyo7e3vgk.py":22:28)
#loc3 = loc("/orcd/home/002/osbo/ondemand/fluid-sim/Assets/Scripts/.torch_inductor_cache/x6/cx6b7syb2vt6z6vhga3ag3xbbsvvpcapddxnlizba7oqyo7e3vgk.py":22:33)
#loc4 = loc("/orcd/home/002/osbo/ondemand/fluid-sim/Assets/Scripts/.torch_inductor_cache/x6/cx6b7syb2vt6z6vhga3ag3xbbsvvpcapddxnlizba7oqyo7e3vgk.py":23:36)
#loc5 = loc("/orcd/home/002/osbo/ondemand/fluid-sim/Assets/Scripts/.torch_inductor_cache/x6/cx6b7syb2vt6z6vhga3ag3xbbsvvpcapddxnlizba7oqyo7e3vgk.py":23:44)
#loc6 = loc("/orcd/home/002/osbo/ondemand/fluid-sim/Assets/Scripts/.torch_inductor_cache/x6/cx6b7syb2vt6z6vhga3ag3xbbsvvpcapddxnlizba7oqyo7e3vgk.py":23:23)
#loc7 = loc("/orcd/home/002/osbo/ondemand/fluid-sim/Assets/Scripts/.torch_inductor_cache/x6/cx6b7syb2vt6z6vhga3ag3xbbsvvpcapddxnlizba7oqyo7e3vgk.py":24:21)
#loc8 = loc("/orcd/home/002/osbo/ondemand/fluid-sim/Assets/Scripts/.torch_inductor_cache/x6/cx6b7syb2vt6z6vhga3ag3xbbsvvpcapddxnlizba7oqyo7e3vgk.py":25:34)
#loc9 = loc("/orcd/home/002/osbo/ondemand/fluid-sim/Assets/Scripts/.torch_inductor_cache/x6/cx6b7syb2vt6z6vhga3ag3xbbsvvpcapddxnlizba7oqyo7e3vgk.py":30:41)
#loc10 = loc("/orcd/home/002/osbo/ondemand/fluid-sim/Assets/Scripts/.torch_inductor_cache/x6/cx6b7syb2vt6z6vhga3ag3xbbsvvpcapddxnlizba7oqyo7e3vgk.py":30:37)
#loc11 = loc("/orcd/home/002/osbo/ondemand/fluid-sim/Assets/Scripts/.torch_inductor_cache/x6/cx6b7syb2vt6z6vhga3ag3xbbsvvpcapddxnlizba7oqyo7e3vgk.py":30:53)
#loc12 = loc("/orcd/home/002/osbo/ondemand/fluid-sim/Assets/Scripts/.torch_inductor_cache/x6/cx6b7syb2vt6z6vhga3ag3xbbsvvpcapddxnlizba7oqyo7e3vgk.py":30:48)
#loc13 = loc("/orcd/home/002/osbo/ondemand/fluid-sim/Assets/Scripts/.torch_inductor_cache/x6/cx6b7syb2vt6z6vhga3ag3xbbsvvpcapddxnlizba7oqyo7e3vgk.py":30:30)
#loc14 = loc("/orcd/home/002/osbo/ondemand/fluid-sim/Assets/Scripts/.torch_inductor_cache/x6/cx6b7syb2vt6z6vhga3ag3xbbsvvpcapddxnlizba7oqyo7e3vgk.py":30:59)
#loc15 = loc("/orcd/home/002/osbo/ondemand/fluid-sim/Assets/Scripts/.torch_inductor_cache/x6/cx6b7syb2vt6z6vhga3ag3xbbsvvpcapddxnlizba7oqyo7e3vgk.py":32:33)
#loc16 = loc("/home/osbo/.conda/envs/fluid/lib/python3.12/site-packages/torch/_inductor/runtime/triton_helpers.py":95:29)
#loc17 = loc("/orcd/home/002/osbo/ondemand/fluid-sim/Assets/Scripts/.torch_inductor_cache/x6/cx6b7syb2vt6z6vhga3ag3xbbsvvpcapddxnlizba7oqyo7e3vgk.py":33:37)
#loc18 = loc("/home/osbo/.conda/envs/fluid/lib/python3.12/site-packages/torch/_inductor/runtime/triton_helpers.py":82:15)
#loc19 = loc("/home/osbo/.conda/envs/fluid/lib/python3.12/site-packages/torch/_inductor/runtime/triton_helpers.py":84:21)
#loc20 = loc("/home/osbo/.conda/envs/fluid/lib/python3.12/site-packages/torch/_inductor/runtime/triton_helpers.py":84:16)
#loc21 = loc("/home/osbo/.conda/envs/fluid/lib/python3.12/site-packages/torch/_inductor/runtime/triton_helpers.py":85:29)
#loc22 = loc("/orcd/home/002/osbo/ondemand/fluid-sim/Assets/Scripts/.torch_inductor_cache/x6/cx6b7syb2vt6z6vhga3ag3xbbsvvpcapddxnlizba7oqyo7e3vgk.py":33:40)
#loc23 = loc("/orcd/home/002/osbo/ondemand/fluid-sim/Assets/Scripts/.torch_inductor_cache/x6/cx6b7syb2vt6z6vhga3ag3xbbsvvpcapddxnlizba7oqyo7e3vgk.py":34:25)
#loc24 = loc("/orcd/home/002/osbo/ondemand/fluid-sim/Assets/Scripts/.torch_inductor_cache/x6/cx6b7syb2vt6z6vhga3ag3xbbsvvpcapddxnlizba7oqyo7e3vgk.py":34:36)
#loc25 = loc("/orcd/home/002/osbo/ondemand/fluid-sim/Assets/Scripts/.torch_inductor_cache/x6/cx6b7syb2vt6z6vhga3ag3xbbsvvpcapddxnlizba7oqyo7e3vgk.py":34:4)
#loc26 = loc(callsite(#loc16 at #loc17))
#loc27 = loc(callsite(#loc18 at #loc16))
#loc28 = loc(callsite(#loc19 at #loc16))
#loc29 = loc(callsite(#loc20 at #loc16))
#loc30 = loc(callsite(#loc21 at #loc16))
#loc31 = loc(callsite(#loc27 at #loc17))
#loc32 = loc(callsite(#loc28 at #loc17))
#loc33 = loc(callsite(#loc29 at #loc17))
#loc34 = loc(callsite(#loc30 at #loc17))
