#loc = loc("/orcd/home/002/osbo/ondemand/fluid-sim/Assets/Scripts/.torch_inductor_cache/qo/cqonfehqqzwkrfcxa7iva3edpx3lwp7yutwmkxtux6ozfzdsc6fd.py":18:0)
#loc1 = loc(unknown)
module {
  tt.func public @triton_(%arg0: !tt.ptr<f32> {tt.divisibility = 16 : i32} loc("/orcd/home/002/osbo/ondemand/fluid-sim/Assets/Scripts/.torch_inductor_cache/qo/cqonfehqqzwkrfcxa7iva3edpx3lwp7yutwmkxtux6ozfzdsc6fd.py":18:0), %arg1: !tt.ptr<f32> {tt.divisibility = 16 : i32} loc("/orcd/home/002/osbo/ondemand/fluid-sim/Assets/Scripts/.torch_inductor_cache/qo/cqonfehqqzwkrfcxa7iva3edpx3lwp7yutwmkxtux6ozfzdsc6fd.py":18:0), %arg2: i32 {tt.divisibility = 16 : i32} loc("/orcd/home/002/osbo/ondemand/fluid-sim/Assets/Scripts/.torch_inductor_cache/qo/cqonfehqqzwkrfcxa7iva3edpx3lwp7yutwmkxtux6ozfzdsc6fd.py":18:0), %arg3: i32 {tt.divisibility = 16 : i32} loc("/orcd/home/002/osbo/ondemand/fluid-sim/Assets/Scripts/.torch_inductor_cache/qo/cqonfehqqzwkrfcxa7iva3edpx3lwp7yutwmkxtux6ozfzdsc6fd.py":18:0)) attributes {noinline = false} {
    %c516_i32 = arith.constant 516 : i32 loc(#loc1)
    %c4_i32 = arith.constant 4 : i32 loc(#loc1)
    %c32_i32 = arith.constant 32 : i32 loc(#loc1)
    %c111616_i32 = arith.constant 111616 : i32 loc(#loc1)
    %cst = arith.constant dense<0xFF800000> : tensor<1x16xf32> loc(#loc1)
    %cst_0 = arith.constant dense<0.000000e+00> : tensor<1x16xf32> loc(#loc1)
    %cst_1 = arith.constant dense<129> : tensor<1x16xi32> loc(#loc1)
    %cst_2 = arith.constant dense<4> : tensor<1x16xi32> loc(#loc1)
    %0 = tt.get_program_id x : i32 loc(#loc2)
    %1 = arith.cmpi slt, %0, %c111616_i32 : i32 loc(#loc3)
    %2 = tt.splat %1 : i1 -> tensor<1x1xi1> loc(#loc3)
    %3 = tt.make_range {end = 16 : i32, start = 0 : i32} : tensor<16xi32> loc(#loc4)
    %4 = tt.expand_dims %3 {axis = 0 : i32} : tensor<16xi32> -> tensor<1x16xi32> loc(#loc5)
    %5 = arith.remsi %4, %cst_2 : tensor<1x16xi32> loc(#loc6)
    %6 = arith.divsi %4, %cst_2 : tensor<1x16xi32> loc(#loc7)
    %7 = arith.remsi %0, %c32_i32 : i32 loc(#loc8)
    %8 = arith.divsi %0, %c32_i32 : i32 loc(#loc9)
    %9 = arith.muli %7, %c4_i32 : i32 loc(#loc10)
    %10 = tt.splat %9 : i32 -> tensor<1x16xi32> loc(#loc11)
    %11 = arith.addi %5, %10 : tensor<1x16xi32> loc(#loc11)
    %12 = arith.muli %6, %cst_1 : tensor<1x16xi32> loc(#loc12)
    %13 = arith.addi %11, %12 : tensor<1x16xi32> loc(#loc13)
    %14 = arith.muli %8, %c516_i32 : i32 loc(#loc14)
    %15 = tt.splat %14 : i32 -> tensor<1x16xi32> loc(#loc15)
    %16 = arith.addi %13, %15 : tensor<1x16xi32> loc(#loc15)
    %17 = tt.splat %arg0 : !tt.ptr<f32> -> tensor<1x16x!tt.ptr<f32>> loc(#loc16)
    %18 = tt.addptr %17, %16 : tensor<1x16x!tt.ptr<f32>>, tensor<1x16xi32> loc(#loc16)
    %19 = tt.splat %1 : i1 -> tensor<1x16xi1> loc(#loc17)
    %20 = tt.load %18, %19, %cst_0 : tensor<1x16x!tt.ptr<f32>> loc(#loc17)
    %21 = arith.select %19, %20, %cst : tensor<1x16xi1>, tensor<1x16xf32> loc(#loc18)
    %22 = "tt.reduce"(%21) <{axis = 1 : i32}> ({
    ^bb0(%arg4: f32 loc(unknown), %arg5: f32 loc(unknown)):
      %26 = arith.cmpf ogt, %arg4, %arg5 : f32 loc(#loc34)
      %27 = arith.cmpf une, %arg4, %arg4 : f32 loc(#loc35)
      %28 = arith.ori %26, %27 : i1 loc(#loc36)
      %29 = arith.select %28, %arg4, %arg5 : f32 loc(#loc37)
      tt.reduce.return %29 : f32 loc(#loc29)
    }) : (tensor<1x16xf32>) -> tensor<1xf32> loc(#loc29)
    %23 = tt.expand_dims %22 {axis = 1 : i32} : tensor<1xf32> -> tensor<1x1xf32> loc(#loc25)
    %24 = tt.addptr %arg1, %0 : !tt.ptr<f32>, i32 loc(#loc26)
    %25 = tt.splat %24 : !tt.ptr<f32> -> tensor<1x1x!tt.ptr<f32>> loc(#loc26)
    tt.store %25, %23, %2 : tensor<1x1x!tt.ptr<f32>> loc(#loc27)
    tt.return loc(#loc28)
  } loc(#loc)
} loc(#loc)
#loc2 = loc("/orcd/home/002/osbo/ondemand/fluid-sim/Assets/Scripts/.torch_inductor_cache/qo/cqonfehqqzwkrfcxa7iva3edpx3lwp7yutwmkxtux6ozfzdsc6fd.py":22:28)
#loc3 = loc("/orcd/home/002/osbo/ondemand/fluid-sim/Assets/Scripts/.torch_inductor_cache/qo/cqonfehqqzwkrfcxa7iva3edpx3lwp7yutwmkxtux6ozfzdsc6fd.py":24:21)
#loc4 = loc("/orcd/home/002/osbo/ondemand/fluid-sim/Assets/Scripts/.torch_inductor_cache/qo/cqonfehqqzwkrfcxa7iva3edpx3lwp7yutwmkxtux6ozfzdsc6fd.py":25:26)
#loc5 = loc("/orcd/home/002/osbo/ondemand/fluid-sim/Assets/Scripts/.torch_inductor_cache/qo/cqonfehqqzwkrfcxa7iva3edpx3lwp7yutwmkxtux6ozfzdsc6fd.py":25:34)
#loc6 = loc("/orcd/home/002/osbo/ondemand/fluid-sim/Assets/Scripts/.torch_inductor_cache/qo/cqonfehqqzwkrfcxa7iva3edpx3lwp7yutwmkxtux6ozfzdsc6fd.py":28:18)
#loc7 = loc("/orcd/home/002/osbo/ondemand/fluid-sim/Assets/Scripts/.torch_inductor_cache/qo/cqonfehqqzwkrfcxa7iva3edpx3lwp7yutwmkxtux6ozfzdsc6fd.py":29:20)
#loc8 = loc("/orcd/home/002/osbo/ondemand/fluid-sim/Assets/Scripts/.torch_inductor_cache/qo/cqonfehqqzwkrfcxa7iva3edpx3lwp7yutwmkxtux6ozfzdsc6fd.py":30:18)
#loc9 = loc("/orcd/home/002/osbo/ondemand/fluid-sim/Assets/Scripts/.torch_inductor_cache/qo/cqonfehqqzwkrfcxa7iva3edpx3lwp7yutwmkxtux6ozfzdsc6fd.py":31:20)
#loc10 = loc("/orcd/home/002/osbo/ondemand/fluid-sim/Assets/Scripts/.torch_inductor_cache/qo/cqonfehqqzwkrfcxa7iva3edpx3lwp7yutwmkxtux6ozfzdsc6fd.py":33:38)
#loc11 = loc("/orcd/home/002/osbo/ondemand/fluid-sim/Assets/Scripts/.torch_inductor_cache/qo/cqonfehqqzwkrfcxa7iva3edpx3lwp7yutwmkxtux6ozfzdsc6fd.py":33:36)
#loc12 = loc("/orcd/home/002/osbo/ondemand/fluid-sim/Assets/Scripts/.torch_inductor_cache/qo/cqonfehqqzwkrfcxa7iva3edpx3lwp7yutwmkxtux6ozfzdsc6fd.py":33:49)
#loc13 = loc("/orcd/home/002/osbo/ondemand/fluid-sim/Assets/Scripts/.torch_inductor_cache/qo/cqonfehqqzwkrfcxa7iva3edpx3lwp7yutwmkxtux6ozfzdsc6fd.py":33:45)
#loc14 = loc("/orcd/home/002/osbo/ondemand/fluid-sim/Assets/Scripts/.torch_inductor_cache/qo/cqonfehqqzwkrfcxa7iva3edpx3lwp7yutwmkxtux6ozfzdsc6fd.py":33:60)
#loc15 = loc("/orcd/home/002/osbo/ondemand/fluid-sim/Assets/Scripts/.torch_inductor_cache/qo/cqonfehqqzwkrfcxa7iva3edpx3lwp7yutwmkxtux6ozfzdsc6fd.py":33:56)
#loc16 = loc("/orcd/home/002/osbo/ondemand/fluid-sim/Assets/Scripts/.torch_inductor_cache/qo/cqonfehqqzwkrfcxa7iva3edpx3lwp7yutwmkxtux6ozfzdsc6fd.py":33:30)
#loc17 = loc("/orcd/home/002/osbo/ondemand/fluid-sim/Assets/Scripts/.torch_inductor_cache/qo/cqonfehqqzwkrfcxa7iva3edpx3lwp7yutwmkxtux6ozfzdsc6fd.py":33:66)
#loc18 = loc("/orcd/home/002/osbo/ondemand/fluid-sim/Assets/Scripts/.torch_inductor_cache/qo/cqonfehqqzwkrfcxa7iva3edpx3lwp7yutwmkxtux6ozfzdsc6fd.py":35:33)
#loc19 = loc("/home/osbo/.conda/envs/fluid/lib/python3.12/site-packages/torch/_inductor/runtime/triton_helpers.py":95:29)
#loc20 = loc("/orcd/home/002/osbo/ondemand/fluid-sim/Assets/Scripts/.torch_inductor_cache/qo/cqonfehqqzwkrfcxa7iva3edpx3lwp7yutwmkxtux6ozfzdsc6fd.py":36:37)
#loc21 = loc("/home/osbo/.conda/envs/fluid/lib/python3.12/site-packages/torch/_inductor/runtime/triton_helpers.py":82:15)
#loc22 = loc("/home/osbo/.conda/envs/fluid/lib/python3.12/site-packages/torch/_inductor/runtime/triton_helpers.py":84:21)
#loc23 = loc("/home/osbo/.conda/envs/fluid/lib/python3.12/site-packages/torch/_inductor/runtime/triton_helpers.py":84:16)
#loc24 = loc("/home/osbo/.conda/envs/fluid/lib/python3.12/site-packages/torch/_inductor/runtime/triton_helpers.py":85:29)
#loc25 = loc("/orcd/home/002/osbo/ondemand/fluid-sim/Assets/Scripts/.torch_inductor_cache/qo/cqonfehqqzwkrfcxa7iva3edpx3lwp7yutwmkxtux6ozfzdsc6fd.py":36:40)
#loc26 = loc("/orcd/home/002/osbo/ondemand/fluid-sim/Assets/Scripts/.torch_inductor_cache/qo/cqonfehqqzwkrfcxa7iva3edpx3lwp7yutwmkxtux6ozfzdsc6fd.py":37:25)
#loc27 = loc("/orcd/home/002/osbo/ondemand/fluid-sim/Assets/Scripts/.torch_inductor_cache/qo/cqonfehqqzwkrfcxa7iva3edpx3lwp7yutwmkxtux6ozfzdsc6fd.py":37:36)
#loc28 = loc("/orcd/home/002/osbo/ondemand/fluid-sim/Assets/Scripts/.torch_inductor_cache/qo/cqonfehqqzwkrfcxa7iva3edpx3lwp7yutwmkxtux6ozfzdsc6fd.py":37:4)
#loc29 = loc(callsite(#loc19 at #loc20))
#loc30 = loc(callsite(#loc21 at #loc19))
#loc31 = loc(callsite(#loc22 at #loc19))
#loc32 = loc(callsite(#loc23 at #loc19))
#loc33 = loc(callsite(#loc24 at #loc19))
#loc34 = loc(callsite(#loc30 at #loc20))
#loc35 = loc(callsite(#loc31 at #loc20))
#loc36 = loc(callsite(#loc32 at #loc20))
#loc37 = loc(callsite(#loc33 at #loc20))
