#loc = loc("/orcd/home/002/osbo/ondemand/fluid-sim/Assets/Scripts/.torch_inductor_cache/de/cdev32jym5hhmc7lm2dvq6ann3oewqvkwqjok7u5tkbxhcpumvui.py":18:0)
#loc1 = loc(unknown)
module {
  tt.func public @triton_(%arg0: !tt.ptr<f32> {tt.divisibility = 16 : i32} loc("/orcd/home/002/osbo/ondemand/fluid-sim/Assets/Scripts/.torch_inductor_cache/de/cdev32jym5hhmc7lm2dvq6ann3oewqvkwqjok7u5tkbxhcpumvui.py":18:0), %arg1: !tt.ptr<f32> {tt.divisibility = 16 : i32} loc("/orcd/home/002/osbo/ondemand/fluid-sim/Assets/Scripts/.torch_inductor_cache/de/cdev32jym5hhmc7lm2dvq6ann3oewqvkwqjok7u5tkbxhcpumvui.py":18:0), %arg2: !tt.ptr<i64> {tt.divisibility = 16 : i32} loc("/orcd/home/002/osbo/ondemand/fluid-sim/Assets/Scripts/.torch_inductor_cache/de/cdev32jym5hhmc7lm2dvq6ann3oewqvkwqjok7u5tkbxhcpumvui.py":18:0), %arg3: !tt.ptr<f32> {tt.divisibility = 16 : i32} loc("/orcd/home/002/osbo/ondemand/fluid-sim/Assets/Scripts/.torch_inductor_cache/de/cdev32jym5hhmc7lm2dvq6ann3oewqvkwqjok7u5tkbxhcpumvui.py":18:0), %arg4: !tt.ptr<f32> {tt.divisibility = 16 : i32} loc("/orcd/home/002/osbo/ondemand/fluid-sim/Assets/Scripts/.torch_inductor_cache/de/cdev32jym5hhmc7lm2dvq6ann3oewqvkwqjok7u5tkbxhcpumvui.py":18:0), %arg5: !tt.ptr<f32> {tt.divisibility = 16 : i32} loc("/orcd/home/002/osbo/ondemand/fluid-sim/Assets/Scripts/.torch_inductor_cache/de/cdev32jym5hhmc7lm2dvq6ann3oewqvkwqjok7u5tkbxhcpumvui.py":18:0), %arg6: !tt.ptr<f32> {tt.divisibility = 16 : i32} loc("/orcd/home/002/osbo/ondemand/fluid-sim/Assets/Scripts/.torch_inductor_cache/de/cdev32jym5hhmc7lm2dvq6ann3oewqvkwqjok7u5tkbxhcpumvui.py":18:0), %arg7: !tt.ptr<f32> {tt.divisibility = 16 : i32} loc("/orcd/home/002/osbo/ondemand/fluid-sim/Assets/Scripts/.torch_inductor_cache/de/cdev32jym5hhmc7lm2dvq6ann3oewqvkwqjok7u5tkbxhcpumvui.py":18:0), %arg8: !tt.ptr<f32> {tt.divisibility = 16 : i32} loc("/orcd/home/002/osbo/ondemand/fluid-sim/Assets/Scripts/.torch_inductor_cache/de/cdev32jym5hhmc7lm2dvq6ann3oewqvkwqjok7u5tkbxhcpumvui.py":18:0), %arg9: !tt.ptr<f32> {tt.divisibility = 16 : i32} loc("/orcd/home/002/osbo/ondemand/fluid-sim/Assets/Scripts/.torch_inductor_cache/de/cdev32jym5hhmc7lm2dvq6ann3oewqvkwqjok7u5tkbxhcpumvui.py":18:0), %arg10: !tt.ptr<f32> {tt.divisibility = 16 : i32} loc("/orcd/home/002/osbo/ondemand/fluid-sim/Assets/Scripts/.torch_inductor_cache/de/cdev32jym5hhmc7lm2dvq6ann3oewqvkwqjok7u5tkbxhcpumvui.py":18:0), %arg11: !tt.ptr<f32> {tt.divisibility = 16 : i32} loc("/orcd/home/002/osbo/ondemand/fluid-sim/Assets/Scripts/.torch_inductor_cache/de/cdev32jym5hhmc7lm2dvq6ann3oewqvkwqjok7u5tkbxhcpumvui.py":18:0), %arg12: i32 {tt.divisibility = 16 : i32} loc("/orcd/home/002/osbo/ondemand/fluid-sim/Assets/Scripts/.torch_inductor_cache/de/cdev32jym5hhmc7lm2dvq6ann3oewqvkwqjok7u5tkbxhcpumvui.py":18:0), %arg13: i32 {tt.divisibility = 16 : i32} loc("/orcd/home/002/osbo/ondemand/fluid-sim/Assets/Scripts/.torch_inductor_cache/de/cdev32jym5hhmc7lm2dvq6ann3oewqvkwqjok7u5tkbxhcpumvui.py":18:0)) attributes {noinline = false} {
    %cst = arith.constant dense<0> : tensor<8x128xi64> loc(#loc1)
    %cst_0 = arith.constant dense<9.99999974E-6> : tensor<8x1xf32> loc(#loc1)
    %cst_1 = arith.constant dense<1.280000e+02> : tensor<8x1xf32> loc(#loc1)
    %cst_2 = arith.constant dense<3.200000e+01> : tensor<8x128xf32> loc(#loc1)
    %cst_3 = arith.constant dense<4096> : tensor<8x1xi32> loc(#loc1)
    %cst_4 = arith.constant dense<32> : tensor<8x1xi64> loc(#loc1)
    %cst_5 = arith.constant dense<0.000000e+00> : tensor<8x128xf32> loc(#loc1)
    %cst_6 = arith.constant dense<128> : tensor<8x1xi32> loc(#loc1)
    %cst_7 = arith.constant dense<33> : tensor<8x1xi32> loc(#loc1)
    %cst_8 = arith.constant dense<1584> : tensor<8x1xi32> loc(#loc1)
    %c8_i32 = arith.constant 8 : i32 loc(#loc1)
    %0 = tt.get_program_id x : i32 loc(#loc2)
    %1 = arith.muli %0, %c8_i32 : i32 loc(#loc3)
    %2 = tt.make_range {end = 8 : i32, start = 0 : i32} : tensor<8xi32> loc(#loc4)
    %3 = tt.expand_dims %2 {axis = 1 : i32} : tensor<8xi32> -> tensor<8x1xi32> loc(#loc5)
    %4 = tt.splat %1 : i32 -> tensor<8x1xi32> loc(#loc6)
    %5 = arith.addi %4, %3 : tensor<8x1xi32> loc(#loc6)
    %6 = arith.cmpi slt, %5, %cst_8 : tensor<8x1xi32> loc(#loc7)
    %7 = tt.make_range {end = 128 : i32, start = 0 : i32} : tensor<128xi32> loc(#loc8)
    %8 = tt.expand_dims %7 {axis = 0 : i32} : tensor<128xi32> -> tensor<1x128xi32> loc(#loc9)
    %9 = arith.remsi %5, %cst_7 : tensor<8x1xi32> loc(#loc10)
    %10 = arith.divsi %5, %cst_7 : tensor<8x1xi32> loc(#loc11)
    %11 = arith.muli %5, %cst_6 : tensor<8x1xi32> loc(#loc12)
    %12 = tt.broadcast %8 : tensor<1x128xi32> -> tensor<8x128xi32> loc(#loc13)
    %13 = tt.broadcast %11 : tensor<8x1xi32> -> tensor<8x128xi32> loc(#loc13)
    %14 = arith.addi %12, %13 : tensor<8x128xi32> loc(#loc13)
    %15 = tt.splat %arg5 : !tt.ptr<f32> -> tensor<8x128x!tt.ptr<f32>> loc(#loc14)
    %16 = tt.addptr %15, %14 : tensor<8x128x!tt.ptr<f32>>, tensor<8x128xi32> loc(#loc14)
    %17 = tt.broadcast %6 : tensor<8x1xi1> -> tensor<8x128xi1> loc(#loc15)
    %18 = tt.load %16, %17, %cst_5 : tensor<8x128x!tt.ptr<f32>> loc(#loc15)
    %19 = tt.splat %arg6 : !tt.ptr<f32> -> tensor<8x128x!tt.ptr<f32>> loc(#loc16)
    %20 = tt.addptr %19, %14 : tensor<8x128x!tt.ptr<f32>>, tensor<8x128xi32> loc(#loc16)
    %21 = tt.load %20, %17, %cst_5 : tensor<8x128x!tt.ptr<f32>> loc(#loc17)
    %22 = tt.splat %arg7 : !tt.ptr<f32> -> tensor<1x128x!tt.ptr<f32>> loc(#loc18)
    %23 = tt.addptr %22, %8 : tensor<1x128x!tt.ptr<f32>>, tensor<1x128xi32> loc(#loc18)
    %24 = tt.load %23 evictionPolicy = evict_last : tensor<1x128x!tt.ptr<f32>> loc(#loc19)
    %25 = tt.splat %arg0 : !tt.ptr<f32> -> tensor<8x128x!tt.ptr<f32>> loc(#loc20)
    %26 = tt.addptr %25, %14 : tensor<8x128x!tt.ptr<f32>>, tensor<8x128xi32> loc(#loc20)
    %27 = tt.load %26, %17, %cst_5 : tensor<8x128x!tt.ptr<f32>> loc(#loc21)
    %28 = tt.splat %arg8 : !tt.ptr<f32> -> tensor<1x128x!tt.ptr<f32>> loc(#loc22)
    %29 = tt.addptr %28, %8 : tensor<1x128x!tt.ptr<f32>>, tensor<1x128xi32> loc(#loc22)
    %30 = tt.load %29 evictionPolicy = evict_last : tensor<1x128x!tt.ptr<f32>> loc(#loc23)
    %31 = tt.splat %arg9 : !tt.ptr<f32> -> tensor<1x128x!tt.ptr<f32>> loc(#loc24)
    %32 = tt.addptr %31, %8 : tensor<1x128x!tt.ptr<f32>>, tensor<1x128xi32> loc(#loc24)
    %33 = tt.load %32 evictionPolicy = evict_last : tensor<1x128x!tt.ptr<f32>> loc(#loc25)
    %34 = tt.splat %arg10 : !tt.ptr<f32> -> tensor<1x128x!tt.ptr<f32>> loc(#loc26)
    %35 = tt.addptr %34, %8 : tensor<1x128x!tt.ptr<f32>>, tensor<1x128xi32> loc(#loc26)
    %36 = tt.load %35 evictionPolicy = evict_last : tensor<1x128x!tt.ptr<f32>> loc(#loc27)
    %37 = arith.extsi %9 : tensor<8x1xi32> to tensor<8x1xi64> loc(#loc28)
    %38 = arith.cmpi slt, %37, %cst_4 : tensor<8x1xi64> loc(#loc28)
    %39 = arith.muli %9, %cst_6 : tensor<8x1xi32> loc(#loc29)
    %40 = tt.broadcast %39 : tensor<8x1xi32> -> tensor<8x128xi32> loc(#loc30)
    %41 = arith.addi %12, %40 : tensor<8x128xi32> loc(#loc30)
    %42 = arith.muli %10, %cst_3 : tensor<8x1xi32> loc(#loc31)
    %43 = tt.broadcast %42 : tensor<8x1xi32> -> tensor<8x128xi32> loc(#loc32)
    %44 = arith.addi %41, %43 : tensor<8x128xi32> loc(#loc32)
    %45 = tt.splat %arg1 : !tt.ptr<f32> -> tensor<8x128x!tt.ptr<f32>> loc(#loc33)
    %46 = tt.addptr %45, %44 : tensor<8x128x!tt.ptr<f32>>, tensor<8x128xi32> loc(#loc33)
    %47 = arith.andi %38, %6 : tensor<8x1xi1> loc(#loc34)
    %48 = tt.broadcast %47 : tensor<8x1xi1> -> tensor<8x128xi1> loc(#loc35)
    %49 = tt.load %46, %48, %cst_5 : tensor<8x128x!tt.ptr<f32>> loc(#loc35)
    %50 = tt.splat %arg2 : !tt.ptr<i64> -> tensor<8x1x!tt.ptr<i64>> loc(#loc36)
    %51 = tt.addptr %50, %10 : tensor<8x1x!tt.ptr<i64>>, tensor<8x1xi32> loc(#loc36)
    %52 = tt.broadcast %51 : tensor<8x1x!tt.ptr<i64>> -> tensor<8x128x!tt.ptr<i64>> loc(#loc36)
    %53 = tt.load %52, %48, %cst evictionPolicy = evict_last : tensor<8x128x!tt.ptr<i64>> loc(#loc37)
    %54 = arith.sitofp %53 : tensor<8x128xi64> to tensor<8x128xf32> loc(#loc38)
    %55 = arith.divf %49, %54 : tensor<8x128xf32> loc(#loc39)
    %56 = tt.splat %arg3 : !tt.ptr<f32> -> tensor<8x128x!tt.ptr<f32>> loc(#loc40)
    %57 = tt.addptr %56, %44 : tensor<8x128x!tt.ptr<f32>>, tensor<8x128xi32> loc(#loc40)
    %58 = tt.load %57, %48, %cst_5 : tensor<8x128x!tt.ptr<f32>> loc(#loc41)
    %59 = arith.divf %58, %54 : tensor<8x128xf32> loc(#loc42)
    %60 = arith.addf %55, %59 : tensor<8x128xf32> loc(#loc43)
    %61 = tt.broadcast %38 : tensor<8x1xi1> -> tensor<8x128xi1> loc(#loc44)
    %62 = arith.select %61, %60, %cst_5 : tensor<8x128xi1>, tensor<8x128xf32> loc(#loc44)
    %63 = arith.cmpi sge, %37, %cst_4 : tensor<8x1xi64> loc(#loc45)
    %64 = arith.muli %10, %cst_6 : tensor<8x1xi32> loc(#loc46)
    %65 = tt.broadcast %64 : tensor<8x1xi32> -> tensor<8x128xi32> loc(#loc47)
    %66 = arith.addi %12, %65 : tensor<8x128xi32> loc(#loc47)
    %67 = tt.splat %arg4 : !tt.ptr<f32> -> tensor<8x128x!tt.ptr<f32>> loc(#loc48)
    %68 = tt.addptr %67, %66 : tensor<8x128x!tt.ptr<f32>>, tensor<8x128xi32> loc(#loc48)
    %69 = arith.andi %63, %6 : tensor<8x1xi1> loc(#loc49)
    %70 = tt.broadcast %69 : tensor<8x1xi1> -> tensor<8x128xi1> loc(#loc50)
    %71 = tt.load %68, %70, %cst_5 evictionPolicy = evict_last : tensor<8x128x!tt.ptr<f32>> loc(#loc50)
    %72 = arith.divf %71, %cst_2 : tensor<8x128xf32> loc(#loc51)
    %73 = tt.broadcast %63 : tensor<8x1xi1> -> tensor<8x128xi1> loc(#loc52)
    %74 = arith.select %73, %72, %cst_5 : tensor<8x128xi1>, tensor<8x128xf32> loc(#loc52)
    %75 = arith.select %61, %62, %74 : tensor<8x128xi1>, tensor<8x128xf32> loc(#loc53)
    %76 = tt.broadcast %24 : tensor<1x128xf32> -> tensor<8x128xf32> loc(#loc54)
    %77 = arith.addf %21, %76 : tensor<8x128xf32> loc(#loc54)
    %78 = arith.addf %18, %77 : tensor<8x128xf32> loc(#loc55)
    %79 = tt.broadcast %30 : tensor<1x128xf32> -> tensor<8x128xf32> loc(#loc56)
    %80 = arith.addf %27, %79 : tensor<8x128xf32> loc(#loc56)
    %81 = arith.addf %78, %80 : tensor<8x128xf32> loc(#loc57)
    %82 = arith.addf %75, %81 : tensor<8x128xf32> loc(#loc58)
    %83 = arith.select %17, %82, %cst_5 : tensor<8x128xi1>, tensor<8x128xf32> loc(#loc59)
    %84 = "tt.reduce"(%83) <{axis = 1 : i32}> ({
    ^bb0(%arg14: f32 loc(unknown), %arg15: f32 loc(unknown)):
      %104 = arith.addf %arg14, %arg15 : f32 loc(#loc83)
      tt.reduce.return %104 : f32 loc(#loc80)
    }) : (tensor<8x128xf32>) -> tensor<8xf32> loc(#loc80)
    %85 = tt.expand_dims %84 {axis = 1 : i32} : tensor<8xf32> -> tensor<8x1xf32> loc(#loc63)
    %86 = arith.divf %85, %cst_1 : tensor<8x1xf32> loc(#loc64)
    %87 = tt.broadcast %86 : tensor<8x1xf32> -> tensor<8x128xf32> loc(#loc65)
    %88 = arith.subf %82, %87 : tensor<8x128xf32> loc(#loc65)
    %89 = arith.mulf %88, %88 : tensor<8x128xf32> loc(#loc66)
    %90 = arith.select %17, %89, %cst_5 : tensor<8x128xi1>, tensor<8x128xf32> loc(#loc67)
    %91 = "tt.reduce"(%90) <{axis = 1 : i32}> ({
    ^bb0(%arg14: f32 loc(unknown), %arg15: f32 loc(unknown)):
      %104 = arith.addf %arg14, %arg15 : f32 loc(#loc84)
      tt.reduce.return %104 : f32 loc(#loc82)
    }) : (tensor<8x128xf32>) -> tensor<8xf32> loc(#loc82)
    %92 = tt.expand_dims %91 {axis = 1 : i32} : tensor<8xf32> -> tensor<8x1xf32> loc(#loc69)
    %93 = arith.divf %92, %cst_1 : tensor<8x1xf32> loc(#loc70)
    %94 = arith.addf %93, %cst_0 : tensor<8x1xf32> loc(#loc71)
    %95 = tt.extern_elementwise %94 {libname = "", libpath = "", pure = true, symbol = "__nv_rsqrtf"} : (tensor<8x1xf32>) -> tensor<8x1xf32> loc(#loc72)
    %96 = tt.broadcast %95 : tensor<8x1xf32> -> tensor<8x128xf32> loc(#loc73)
    %97 = arith.mulf %88, %96 : tensor<8x128xf32> loc(#loc73)
    %98 = tt.broadcast %33 : tensor<1x128xf32> -> tensor<8x128xf32> loc(#loc74)
    %99 = arith.mulf %97, %98 : tensor<8x128xf32> loc(#loc74)
    %100 = tt.broadcast %36 : tensor<1x128xf32> -> tensor<8x128xf32> loc(#loc75)
    %101 = arith.addf %99, %100 : tensor<8x128xf32> loc(#loc75)
    tt.store %26, %82, %17 : tensor<8x128x!tt.ptr<f32>> loc(#loc76)
    %102 = tt.splat %arg11 : !tt.ptr<f32> -> tensor<8x128x!tt.ptr<f32>> loc(#loc77)
    %103 = tt.addptr %102, %14 : tensor<8x128x!tt.ptr<f32>>, tensor<8x128xi32> loc(#loc77)
    tt.store %103, %101, %17 : tensor<8x128x!tt.ptr<f32>> loc(#loc78)
    tt.return loc(#loc79)
  } loc(#loc)
} loc(#loc)
#loc2 = loc("/orcd/home/002/osbo/ondemand/fluid-sim/Assets/Scripts/.torch_inductor_cache/de/cdev32jym5hhmc7lm2dvq6ann3oewqvkwqjok7u5tkbxhcpumvui.py":22:28)
#loc3 = loc("/orcd/home/002/osbo/ondemand/fluid-sim/Assets/Scripts/.torch_inductor_cache/de/cdev32jym5hhmc7lm2dvq6ann3oewqvkwqjok7u5tkbxhcpumvui.py":22:33)
#loc4 = loc("/orcd/home/002/osbo/ondemand/fluid-sim/Assets/Scripts/.torch_inductor_cache/de/cdev32jym5hhmc7lm2dvq6ann3oewqvkwqjok7u5tkbxhcpumvui.py":23:36)
#loc5 = loc("/orcd/home/002/osbo/ondemand/fluid-sim/Assets/Scripts/.torch_inductor_cache/de/cdev32jym5hhmc7lm2dvq6ann3oewqvkwqjok7u5tkbxhcpumvui.py":23:44)
#loc6 = loc("/orcd/home/002/osbo/ondemand/fluid-sim/Assets/Scripts/.torch_inductor_cache/de/cdev32jym5hhmc7lm2dvq6ann3oewqvkwqjok7u5tkbxhcpumvui.py":23:23)
#loc7 = loc("/orcd/home/002/osbo/ondemand/fluid-sim/Assets/Scripts/.torch_inductor_cache/de/cdev32jym5hhmc7lm2dvq6ann3oewqvkwqjok7u5tkbxhcpumvui.py":24:21)
#loc8 = loc("/orcd/home/002/osbo/ondemand/fluid-sim/Assets/Scripts/.torch_inductor_cache/de/cdev32jym5hhmc7lm2dvq6ann3oewqvkwqjok7u5tkbxhcpumvui.py":25:26)
#loc9 = loc("/orcd/home/002/osbo/ondemand/fluid-sim/Assets/Scripts/.torch_inductor_cache/de/cdev32jym5hhmc7lm2dvq6ann3oewqvkwqjok7u5tkbxhcpumvui.py":25:34)
#loc10 = loc("/orcd/home/002/osbo/ondemand/fluid-sim/Assets/Scripts/.torch_inductor_cache/de/cdev32jym5hhmc7lm2dvq6ann3oewqvkwqjok7u5tkbxhcpumvui.py":28:18)
#loc11 = loc("/orcd/home/002/osbo/ondemand/fluid-sim/Assets/Scripts/.torch_inductor_cache/de/cdev32jym5hhmc7lm2dvq6ann3oewqvkwqjok7u5tkbxhcpumvui.py":30:20)
#loc12 = loc("/orcd/home/002/osbo/ondemand/fluid-sim/Assets/Scripts/.torch_inductor_cache/de/cdev32jym5hhmc7lm2dvq6ann3oewqvkwqjok7u5tkbxhcpumvui.py":32:41)
#loc13 = loc("/orcd/home/002/osbo/ondemand/fluid-sim/Assets/Scripts/.torch_inductor_cache/de/cdev32jym5hhmc7lm2dvq6ann3oewqvkwqjok7u5tkbxhcpumvui.py":32:37)
#loc14 = loc("/orcd/home/002/osbo/ondemand/fluid-sim/Assets/Scripts/.torch_inductor_cache/de/cdev32jym5hhmc7lm2dvq6ann3oewqvkwqjok7u5tkbxhcpumvui.py":32:31)
#loc15 = loc("/orcd/home/002/osbo/ondemand/fluid-sim/Assets/Scripts/.torch_inductor_cache/de/cdev32jym5hhmc7lm2dvq6ann3oewqvkwqjok7u5tkbxhcpumvui.py":32:47)
#loc16 = loc("/orcd/home/002/osbo/ondemand/fluid-sim/Assets/Scripts/.torch_inductor_cache/de/cdev32jym5hhmc7lm2dvq6ann3oewqvkwqjok7u5tkbxhcpumvui.py":33:31)
#loc17 = loc("/orcd/home/002/osbo/ondemand/fluid-sim/Assets/Scripts/.torch_inductor_cache/de/cdev32jym5hhmc7lm2dvq6ann3oewqvkwqjok7u5tkbxhcpumvui.py":33:47)
#loc18 = loc("/orcd/home/002/osbo/ondemand/fluid-sim/Assets/Scripts/.torch_inductor_cache/de/cdev32jym5hhmc7lm2dvq6ann3oewqvkwqjok7u5tkbxhcpumvui.py":34:31)
#loc19 = loc("/orcd/home/002/osbo/ondemand/fluid-sim/Assets/Scripts/.torch_inductor_cache/de/cdev32jym5hhmc7lm2dvq6ann3oewqvkwqjok7u5tkbxhcpumvui.py":34:36)
#loc20 = loc("/orcd/home/002/osbo/ondemand/fluid-sim/Assets/Scripts/.torch_inductor_cache/de/cdev32jym5hhmc7lm2dvq6ann3oewqvkwqjok7u5tkbxhcpumvui.py":35:35)
#loc21 = loc("/orcd/home/002/osbo/ondemand/fluid-sim/Assets/Scripts/.torch_inductor_cache/de/cdev32jym5hhmc7lm2dvq6ann3oewqvkwqjok7u5tkbxhcpumvui.py":35:51)
#loc22 = loc("/orcd/home/002/osbo/ondemand/fluid-sim/Assets/Scripts/.torch_inductor_cache/de/cdev32jym5hhmc7lm2dvq6ann3oewqvkwqjok7u5tkbxhcpumvui.py":36:31)
#loc23 = loc("/orcd/home/002/osbo/ondemand/fluid-sim/Assets/Scripts/.torch_inductor_cache/de/cdev32jym5hhmc7lm2dvq6ann3oewqvkwqjok7u5tkbxhcpumvui.py":36:36)
#loc24 = loc("/orcd/home/002/osbo/ondemand/fluid-sim/Assets/Scripts/.torch_inductor_cache/de/cdev32jym5hhmc7lm2dvq6ann3oewqvkwqjok7u5tkbxhcpumvui.py":37:31)
#loc25 = loc("/orcd/home/002/osbo/ondemand/fluid-sim/Assets/Scripts/.torch_inductor_cache/de/cdev32jym5hhmc7lm2dvq6ann3oewqvkwqjok7u5tkbxhcpumvui.py":37:36)
#loc26 = loc("/orcd/home/002/osbo/ondemand/fluid-sim/Assets/Scripts/.torch_inductor_cache/de/cdev32jym5hhmc7lm2dvq6ann3oewqvkwqjok7u5tkbxhcpumvui.py":38:31)
#loc27 = loc("/orcd/home/002/osbo/ondemand/fluid-sim/Assets/Scripts/.torch_inductor_cache/de/cdev32jym5hhmc7lm2dvq6ann3oewqvkwqjok7u5tkbxhcpumvui.py":38:36)
#loc28 = loc("/orcd/home/002/osbo/ondemand/fluid-sim/Assets/Scripts/.torch_inductor_cache/de/cdev32jym5hhmc7lm2dvq6ann3oewqvkwqjok7u5tkbxhcpumvui.py":43:18)
#loc29 = loc("/orcd/home/002/osbo/ondemand/fluid-sim/Assets/Scripts/.torch_inductor_cache/de/cdev32jym5hhmc7lm2dvq6ann3oewqvkwqjok7u5tkbxhcpumvui.py":44:40)
#loc30 = loc("/orcd/home/002/osbo/ondemand/fluid-sim/Assets/Scripts/.torch_inductor_cache/de/cdev32jym5hhmc7lm2dvq6ann3oewqvkwqjok7u5tkbxhcpumvui.py":44:36)
#loc31 = loc("/orcd/home/002/osbo/ondemand/fluid-sim/Assets/Scripts/.torch_inductor_cache/de/cdev32jym5hhmc7lm2dvq6ann3oewqvkwqjok7u5tkbxhcpumvui.py":44:52)
#loc32 = loc("/orcd/home/002/osbo/ondemand/fluid-sim/Assets/Scripts/.torch_inductor_cache/de/cdev32jym5hhmc7lm2dvq6ann3oewqvkwqjok7u5tkbxhcpumvui.py":44:47)
#loc33 = loc("/orcd/home/002/osbo/ondemand/fluid-sim/Assets/Scripts/.torch_inductor_cache/de/cdev32jym5hhmc7lm2dvq6ann3oewqvkwqjok7u5tkbxhcpumvui.py":44:30)
#loc34 = loc("/orcd/home/002/osbo/ondemand/fluid-sim/Assets/Scripts/.torch_inductor_cache/de/cdev32jym5hhmc7lm2dvq6ann3oewqvkwqjok7u5tkbxhcpumvui.py":44:65)
#loc35 = loc("/orcd/home/002/osbo/ondemand/fluid-sim/Assets/Scripts/.torch_inductor_cache/de/cdev32jym5hhmc7lm2dvq6ann3oewqvkwqjok7u5tkbxhcpumvui.py":44:58)
#loc36 = loc("/orcd/home/002/osbo/ondemand/fluid-sim/Assets/Scripts/.torch_inductor_cache/de/cdev32jym5hhmc7lm2dvq6ann3oewqvkwqjok7u5tkbxhcpumvui.py":45:30)
#loc37 = loc("/orcd/home/002/osbo/ondemand/fluid-sim/Assets/Scripts/.torch_inductor_cache/de/cdev32jym5hhmc7lm2dvq6ann3oewqvkwqjok7u5tkbxhcpumvui.py":45:70)
#loc38 = loc("/orcd/home/002/osbo/ondemand/fluid-sim/Assets/Scripts/.torch_inductor_cache/de/cdev32jym5hhmc7lm2dvq6ann3oewqvkwqjok7u5tkbxhcpumvui.py":46:19)
#loc39 = loc("/orcd/home/002/osbo/ondemand/fluid-sim/Assets/Scripts/.torch_inductor_cache/de/cdev32jym5hhmc7lm2dvq6ann3oewqvkwqjok7u5tkbxhcpumvui.py":47:18)
#loc40 = loc("/orcd/home/002/osbo/ondemand/fluid-sim/Assets/Scripts/.torch_inductor_cache/de/cdev32jym5hhmc7lm2dvq6ann3oewqvkwqjok7u5tkbxhcpumvui.py":48:30)
#loc41 = loc("/orcd/home/002/osbo/ondemand/fluid-sim/Assets/Scripts/.torch_inductor_cache/de/cdev32jym5hhmc7lm2dvq6ann3oewqvkwqjok7u5tkbxhcpumvui.py":48:58)
#loc42 = loc("/orcd/home/002/osbo/ondemand/fluid-sim/Assets/Scripts/.torch_inductor_cache/de/cdev32jym5hhmc7lm2dvq6ann3oewqvkwqjok7u5tkbxhcpumvui.py":49:19)
#loc43 = loc("/orcd/home/002/osbo/ondemand/fluid-sim/Assets/Scripts/.torch_inductor_cache/de/cdev32jym5hhmc7lm2dvq6ann3oewqvkwqjok7u5tkbxhcpumvui.py":50:19)
#loc44 = loc("/orcd/home/002/osbo/ondemand/fluid-sim/Assets/Scripts/.torch_inductor_cache/de/cdev32jym5hhmc7lm2dvq6ann3oewqvkwqjok7u5tkbxhcpumvui.py":52:34)
#loc45 = loc("/orcd/home/002/osbo/ondemand/fluid-sim/Assets/Scripts/.torch_inductor_cache/de/cdev32jym5hhmc7lm2dvq6ann3oewqvkwqjok7u5tkbxhcpumvui.py":53:20)
#loc46 = loc("/orcd/home/002/osbo/ondemand/fluid-sim/Assets/Scripts/.torch_inductor_cache/de/cdev32jym5hhmc7lm2dvq6ann3oewqvkwqjok7u5tkbxhcpumvui.py":56:41)
#loc47 = loc("/orcd/home/002/osbo/ondemand/fluid-sim/Assets/Scripts/.torch_inductor_cache/de/cdev32jym5hhmc7lm2dvq6ann3oewqvkwqjok7u5tkbxhcpumvui.py":56:37)
#loc48 = loc("/orcd/home/002/osbo/ondemand/fluid-sim/Assets/Scripts/.torch_inductor_cache/de/cdev32jym5hhmc7lm2dvq6ann3oewqvkwqjok7u5tkbxhcpumvui.py":56:31)
#loc49 = loc("/orcd/home/002/osbo/ondemand/fluid-sim/Assets/Scripts/.torch_inductor_cache/de/cdev32jym5hhmc7lm2dvq6ann3oewqvkwqjok7u5tkbxhcpumvui.py":56:55)
#loc50 = loc("/orcd/home/002/osbo/ondemand/fluid-sim/Assets/Scripts/.torch_inductor_cache/de/cdev32jym5hhmc7lm2dvq6ann3oewqvkwqjok7u5tkbxhcpumvui.py":56:47)
#loc51 = loc("/orcd/home/002/osbo/ondemand/fluid-sim/Assets/Scripts/.torch_inductor_cache/de/cdev32jym5hhmc7lm2dvq6ann3oewqvkwqjok7u5tkbxhcpumvui.py":58:20)
#loc52 = loc("/orcd/home/002/osbo/ondemand/fluid-sim/Assets/Scripts/.torch_inductor_cache/de/cdev32jym5hhmc7lm2dvq6ann3oewqvkwqjok7u5tkbxhcpumvui.py":60:35)
#loc53 = loc("/orcd/home/002/osbo/ondemand/fluid-sim/Assets/Scripts/.torch_inductor_cache/de/cdev32jym5hhmc7lm2dvq6ann3oewqvkwqjok7u5tkbxhcpumvui.py":61:34)
#loc54 = loc("/orcd/home/002/osbo/ondemand/fluid-sim/Assets/Scripts/.torch_inductor_cache/de/cdev32jym5hhmc7lm2dvq6ann3oewqvkwqjok7u5tkbxhcpumvui.py":62:20)
#loc55 = loc("/orcd/home/002/osbo/ondemand/fluid-sim/Assets/Scripts/.torch_inductor_cache/de/cdev32jym5hhmc7lm2dvq6ann3oewqvkwqjok7u5tkbxhcpumvui.py":63:20)
#loc56 = loc("/orcd/home/002/osbo/ondemand/fluid-sim/Assets/Scripts/.torch_inductor_cache/de/cdev32jym5hhmc7lm2dvq6ann3oewqvkwqjok7u5tkbxhcpumvui.py":64:20)
#loc57 = loc("/orcd/home/002/osbo/ondemand/fluid-sim/Assets/Scripts/.torch_inductor_cache/de/cdev32jym5hhmc7lm2dvq6ann3oewqvkwqjok7u5tkbxhcpumvui.py":65:20)
#loc58 = loc("/orcd/home/002/osbo/ondemand/fluid-sim/Assets/Scripts/.torch_inductor_cache/de/cdev32jym5hhmc7lm2dvq6ann3oewqvkwqjok7u5tkbxhcpumvui.py":66:20)
#loc59 = loc("/orcd/home/002/osbo/ondemand/fluid-sim/Assets/Scripts/.torch_inductor_cache/de/cdev32jym5hhmc7lm2dvq6ann3oewqvkwqjok7u5tkbxhcpumvui.py":70:35)
#loc60 = loc("/home/osbo/.conda/envs/fluid/lib/python3.12/site-packages/triton/language/standard.py":267:36)
#loc61 = loc("/orcd/home/002/osbo/ondemand/fluid-sim/Assets/Scripts/.torch_inductor_cache/de/cdev32jym5hhmc7lm2dvq6ann3oewqvkwqjok7u5tkbxhcpumvui.py":71:26)
#loc62 = loc("/home/osbo/.conda/envs/fluid/lib/python3.12/site-packages/triton/language/standard.py":256:15)
#loc63 = loc("/orcd/home/002/osbo/ondemand/fluid-sim/Assets/Scripts/.torch_inductor_cache/de/cdev32jym5hhmc7lm2dvq6ann3oewqvkwqjok7u5tkbxhcpumvui.py":71:29)
#loc64 = loc("/orcd/home/002/osbo/ondemand/fluid-sim/Assets/Scripts/.torch_inductor_cache/de/cdev32jym5hhmc7lm2dvq6ann3oewqvkwqjok7u5tkbxhcpumvui.py":74:20)
#loc65 = loc("/orcd/home/002/osbo/ondemand/fluid-sim/Assets/Scripts/.torch_inductor_cache/de/cdev32jym5hhmc7lm2dvq6ann3oewqvkwqjok7u5tkbxhcpumvui.py":75:20)
#loc66 = loc("/orcd/home/002/osbo/ondemand/fluid-sim/Assets/Scripts/.torch_inductor_cache/de/cdev32jym5hhmc7lm2dvq6ann3oewqvkwqjok7u5tkbxhcpumvui.py":76:20)
#loc67 = loc("/orcd/home/002/osbo/ondemand/fluid-sim/Assets/Scripts/.torch_inductor_cache/de/cdev32jym5hhmc7lm2dvq6ann3oewqvkwqjok7u5tkbxhcpumvui.py":78:35)
#loc68 = loc("/orcd/home/002/osbo/ondemand/fluid-sim/Assets/Scripts/.torch_inductor_cache/de/cdev32jym5hhmc7lm2dvq6ann3oewqvkwqjok7u5tkbxhcpumvui.py":79:26)
#loc69 = loc("/orcd/home/002/osbo/ondemand/fluid-sim/Assets/Scripts/.torch_inductor_cache/de/cdev32jym5hhmc7lm2dvq6ann3oewqvkwqjok7u5tkbxhcpumvui.py":79:29)
#loc70 = loc("/orcd/home/002/osbo/ondemand/fluid-sim/Assets/Scripts/.torch_inductor_cache/de/cdev32jym5hhmc7lm2dvq6ann3oewqvkwqjok7u5tkbxhcpumvui.py":82:20)
#loc71 = loc("/orcd/home/002/osbo/ondemand/fluid-sim/Assets/Scripts/.torch_inductor_cache/de/cdev32jym5hhmc7lm2dvq6ann3oewqvkwqjok7u5tkbxhcpumvui.py":84:20)
#loc72 = loc("/orcd/home/002/osbo/ondemand/fluid-sim/Assets/Scripts/.torch_inductor_cache/de/cdev32jym5hhmc7lm2dvq6ann3oewqvkwqjok7u5tkbxhcpumvui.py":85:28)
#loc73 = loc("/orcd/home/002/osbo/ondemand/fluid-sim/Assets/Scripts/.torch_inductor_cache/de/cdev32jym5hhmc7lm2dvq6ann3oewqvkwqjok7u5tkbxhcpumvui.py":86:20)
#loc74 = loc("/orcd/home/002/osbo/ondemand/fluid-sim/Assets/Scripts/.torch_inductor_cache/de/cdev32jym5hhmc7lm2dvq6ann3oewqvkwqjok7u5tkbxhcpumvui.py":87:20)
#loc75 = loc("/orcd/home/002/osbo/ondemand/fluid-sim/Assets/Scripts/.torch_inductor_cache/de/cdev32jym5hhmc7lm2dvq6ann3oewqvkwqjok7u5tkbxhcpumvui.py":88:20)
#loc76 = loc("/orcd/home/002/osbo/ondemand/fluid-sim/Assets/Scripts/.torch_inductor_cache/de/cdev32jym5hhmc7lm2dvq6ann3oewqvkwqjok7u5tkbxhcpumvui.py":89:51)
#loc77 = loc("/orcd/home/002/osbo/ondemand/fluid-sim/Assets/Scripts/.torch_inductor_cache/de/cdev32jym5hhmc7lm2dvq6ann3oewqvkwqjok7u5tkbxhcpumvui.py":90:25)
#loc78 = loc("/orcd/home/002/osbo/ondemand/fluid-sim/Assets/Scripts/.torch_inductor_cache/de/cdev32jym5hhmc7lm2dvq6ann3oewqvkwqjok7u5tkbxhcpumvui.py":90:48)
#loc79 = loc("/orcd/home/002/osbo/ondemand/fluid-sim/Assets/Scripts/.torch_inductor_cache/de/cdev32jym5hhmc7lm2dvq6ann3oewqvkwqjok7u5tkbxhcpumvui.py":90:4)
#loc80 = loc(callsite(#loc60 at #loc61))
#loc81 = loc(callsite(#loc62 at #loc60))
#loc82 = loc(callsite(#loc60 at #loc68))
#loc83 = loc(callsite(#loc81 at #loc61))
#loc84 = loc(callsite(#loc81 at #loc68))
