#loc = loc("/orcd/home/002/osbo/ondemand/fluid-sim/Assets/Scripts/.torch_inductor_cache/j3/cj3phxgvfbtchmy4ka5vgzhhjvcl4m6wlhem3gavhtf4e3k7s5yb.py":18:0)
module {
  tt.func public @triton_(%arg0: !tt.ptr<f32> {tt.divisibility = 16 : i32} loc("/orcd/home/002/osbo/ondemand/fluid-sim/Assets/Scripts/.torch_inductor_cache/j3/cj3phxgvfbtchmy4ka5vgzhhjvcl4m6wlhem3gavhtf4e3k7s5yb.py":18:0), %arg1: !tt.ptr<f32> {tt.divisibility = 16 : i32} loc("/orcd/home/002/osbo/ondemand/fluid-sim/Assets/Scripts/.torch_inductor_cache/j3/cj3phxgvfbtchmy4ka5vgzhhjvcl4m6wlhem3gavhtf4e3k7s5yb.py":18:0), %arg2: i32 {tt.divisibility = 16 : i32} loc("/orcd/home/002/osbo/ondemand/fluid-sim/Assets/Scripts/.torch_inductor_cache/j3/cj3phxgvfbtchmy4ka5vgzhhjvcl4m6wlhem3gavhtf4e3k7s5yb.py":18:0)) attributes {noinline = false} {
    %cst = arith.constant dense<1.000000e+05> : tensor<128xf32> loc(#loc1)
    %cst_0 = arith.constant dense<9.99999974E-6> : tensor<128xf32> loc(#loc1)
    %cst_1 = arith.constant dense<1.151290e+01> : tensor<128xf32> loc(#loc1)
    %cst_2 = arith.constant dense<-2.500000e+01> : tensor<128xf32> loc(#loc1)
    %c0_i32 = arith.constant 0 : i32 loc(#loc1)
    %cst_3 = arith.constant dense<512> : tensor<128xi32> loc(#loc1)
    %c128_i32 = arith.constant 128 : i32 loc(#loc1)
    %0 = tt.get_program_id x : i32 loc(#loc2)
    %1 = arith.muli %0, %c128_i32 : i32 loc(#loc3)
    %2 = tt.make_range {end = 128 : i32, start = 0 : i32} : tensor<128xi32> loc(#loc4)
    %3 = tt.splat %1 : i32 -> tensor<128xi32> loc(#loc5)
    %4 = arith.addi %3, %2 : tensor<128xi32> loc(#loc5)
    %5 = arith.cmpi slt, %4, %cst_3 : tensor<128xi32> loc(#loc6)
    %6 = tt.splat %arg0 : !tt.ptr<f32> -> tensor<128x!tt.ptr<f32>> loc(#loc7)
    %7 = tt.addptr %6, %4 : tensor<128x!tt.ptr<f32>>, tensor<128xi32> loc(#loc7)
    %8 = tt.load %7, %5 : tensor<128x!tt.ptr<f32>> loc(#loc8)
    %9 = tt.addptr %arg1, %c0_i32 : !tt.ptr<f32>, i32 loc(#loc9)
    %10 = tt.load %9 : !tt.ptr<f32> loc(#loc10)
    %11 = tt.splat %10 : f32 -> tensor<128xf32> loc(#loc11)
    %12 = arith.addf %8, %11 : tensor<128xf32> loc(#loc12)
    %13 = arith.cmpf ogt, %12, %cst_2 : tensor<128xf32> loc(#loc28)
    %14 = arith.cmpf une, %12, %12 : tensor<128xf32> loc(#loc29)
    %15 = arith.ori %13, %14 : tensor<128xi1> loc(#loc30)
    %16 = arith.select %15, %12, %cst_2 : tensor<128xi1>, tensor<128xf32> loc(#loc31)
    %17 = arith.cmpf olt, %16, %cst_1 : tensor<128xf32> loc(#loc32)
    %18 = arith.cmpf une, %16, %16 : tensor<128xf32> loc(#loc33)
    %19 = arith.ori %17, %18 : tensor<128xi1> loc(#loc34)
    %20 = arith.select %19, %16, %cst_1 : tensor<128xi1>, tensor<128xf32> loc(#loc35)
    %21 = math.exp %20 : tensor<128xf32> loc(#loc23)
    %22 = arith.cmpf ogt, %21, %cst_0 : tensor<128xf32> loc(#loc36)
    %23 = arith.cmpf une, %21, %21 : tensor<128xf32> loc(#loc37)
    %24 = arith.ori %22, %23 : tensor<128xi1> loc(#loc38)
    %25 = arith.select %24, %21, %cst_0 : tensor<128xi1>, tensor<128xf32> loc(#loc39)
    %26 = arith.cmpf olt, %25, %cst : tensor<128xf32> loc(#loc40)
    %27 = arith.cmpf une, %25, %25 : tensor<128xf32> loc(#loc41)
    %28 = arith.ori %26, %27 : tensor<128xi1> loc(#loc42)
    %29 = arith.select %28, %25, %cst : tensor<128xi1>, tensor<128xf32> loc(#loc43)
    tt.store %7, %29, %5 : tensor<128x!tt.ptr<f32>> loc(#loc26)
    tt.return loc(#loc27)
  } loc(#loc)
} loc(#loc)
#loc1 = loc(unknown)
#loc2 = loc("/orcd/home/002/osbo/ondemand/fluid-sim/Assets/Scripts/.torch_inductor_cache/j3/cj3phxgvfbtchmy4ka5vgzhhjvcl4m6wlhem3gavhtf4e3k7s5yb.py":20:28)
#loc3 = loc("/orcd/home/002/osbo/ondemand/fluid-sim/Assets/Scripts/.torch_inductor_cache/j3/cj3phxgvfbtchmy4ka5vgzhhjvcl4m6wlhem3gavhtf4e3k7s5yb.py":20:33)
#loc4 = loc("/orcd/home/002/osbo/ondemand/fluid-sim/Assets/Scripts/.torch_inductor_cache/j3/cj3phxgvfbtchmy4ka5vgzhhjvcl4m6wlhem3gavhtf4e3k7s5yb.py":21:36)
#loc5 = loc("/orcd/home/002/osbo/ondemand/fluid-sim/Assets/Scripts/.torch_inductor_cache/j3/cj3phxgvfbtchmy4ka5vgzhhjvcl4m6wlhem3gavhtf4e3k7s5yb.py":21:23)
#loc6 = loc("/orcd/home/002/osbo/ondemand/fluid-sim/Assets/Scripts/.torch_inductor_cache/j3/cj3phxgvfbtchmy4ka5vgzhhjvcl4m6wlhem3gavhtf4e3k7s5yb.py":22:21)
#loc7 = loc("/orcd/home/002/osbo/ondemand/fluid-sim/Assets/Scripts/.torch_inductor_cache/j3/cj3phxgvfbtchmy4ka5vgzhhjvcl4m6wlhem3gavhtf4e3k7s5yb.py":24:34)
#loc8 = loc("/orcd/home/002/osbo/ondemand/fluid-sim/Assets/Scripts/.torch_inductor_cache/j3/cj3phxgvfbtchmy4ka5vgzhhjvcl4m6wlhem3gavhtf4e3k7s5yb.py":24:39)
#loc9 = loc("/orcd/home/002/osbo/ondemand/fluid-sim/Assets/Scripts/.torch_inductor_cache/j3/cj3phxgvfbtchmy4ka5vgzhhjvcl4m6wlhem3gavhtf4e3k7s5yb.py":25:30)
#loc10 = loc("/orcd/home/002/osbo/ondemand/fluid-sim/Assets/Scripts/.torch_inductor_cache/j3/cj3phxgvfbtchmy4ka5vgzhhjvcl4m6wlhem3gavhtf4e3k7s5yb.py":25:19)
#loc11 = loc("/orcd/home/002/osbo/ondemand/fluid-sim/Assets/Scripts/.torch_inductor_cache/j3/cj3phxgvfbtchmy4ka5vgzhhjvcl4m6wlhem3gavhtf4e3k7s5yb.py":26:33)
#loc12 = loc("/orcd/home/002/osbo/ondemand/fluid-sim/Assets/Scripts/.torch_inductor_cache/j3/cj3phxgvfbtchmy4ka5vgzhhjvcl4m6wlhem3gavhtf4e3k7s5yb.py":27:18)
#loc13 = loc("/home/osbo/.conda/envs/fluid/lib/python3.12/site-packages/torch/_inductor/runtime/triton_helpers.py":82:15)
#loc14 = loc("/orcd/home/002/osbo/ondemand/fluid-sim/Assets/Scripts/.torch_inductor_cache/j3/cj3phxgvfbtchmy4ka5vgzhhjvcl4m6wlhem3gavhtf4e3k7s5yb.py":29:40)
#loc15 = loc("/home/osbo/.conda/envs/fluid/lib/python3.12/site-packages/torch/_inductor/runtime/triton_helpers.py":84:21)
#loc16 = loc("/home/osbo/.conda/envs/fluid/lib/python3.12/site-packages/torch/_inductor/runtime/triton_helpers.py":84:16)
#loc17 = loc("/home/osbo/.conda/envs/fluid/lib/python3.12/site-packages/torch/_inductor/runtime/triton_helpers.py":85:29)
#loc18 = loc("/home/osbo/.conda/envs/fluid/lib/python3.12/site-packages/torch/_inductor/runtime/triton_helpers.py":74:15)
#loc19 = loc("/orcd/home/002/osbo/ondemand/fluid-sim/Assets/Scripts/.torch_inductor_cache/j3/cj3phxgvfbtchmy4ka5vgzhhjvcl4m6wlhem3gavhtf4e3k7s5yb.py":31:40)
#loc20 = loc("/home/osbo/.conda/envs/fluid/lib/python3.12/site-packages/torch/_inductor/runtime/triton_helpers.py":76:21)
#loc21 = loc("/home/osbo/.conda/envs/fluid/lib/python3.12/site-packages/torch/_inductor/runtime/triton_helpers.py":76:16)
#loc22 = loc("/home/osbo/.conda/envs/fluid/lib/python3.12/site-packages/torch/_inductor/runtime/triton_helpers.py":77:29)
#loc23 = loc("/orcd/home/002/osbo/ondemand/fluid-sim/Assets/Scripts/.torch_inductor_cache/j3/cj3phxgvfbtchmy4ka5vgzhhjvcl4m6wlhem3gavhtf4e3k7s5yb.py":32:23)
#loc24 = loc("/orcd/home/002/osbo/ondemand/fluid-sim/Assets/Scripts/.torch_inductor_cache/j3/cj3phxgvfbtchmy4ka5vgzhhjvcl4m6wlhem3gavhtf4e3k7s5yb.py":34:41)
#loc25 = loc("/orcd/home/002/osbo/ondemand/fluid-sim/Assets/Scripts/.torch_inductor_cache/j3/cj3phxgvfbtchmy4ka5vgzhhjvcl4m6wlhem3gavhtf4e3k7s5yb.py":36:42)
#loc26 = loc("/orcd/home/002/osbo/ondemand/fluid-sim/Assets/Scripts/.torch_inductor_cache/j3/cj3phxgvfbtchmy4ka5vgzhhjvcl4m6wlhem3gavhtf4e3k7s5yb.py":37:40)
#loc27 = loc("/orcd/home/002/osbo/ondemand/fluid-sim/Assets/Scripts/.torch_inductor_cache/j3/cj3phxgvfbtchmy4ka5vgzhhjvcl4m6wlhem3gavhtf4e3k7s5yb.py":37:4)
#loc28 = loc(callsite(#loc13 at #loc14))
#loc29 = loc(callsite(#loc15 at #loc14))
#loc30 = loc(callsite(#loc16 at #loc14))
#loc31 = loc(callsite(#loc17 at #loc14))
#loc32 = loc(callsite(#loc18 at #loc19))
#loc33 = loc(callsite(#loc20 at #loc19))
#loc34 = loc(callsite(#loc21 at #loc19))
#loc35 = loc(callsite(#loc22 at #loc19))
#loc36 = loc(callsite(#loc13 at #loc24))
#loc37 = loc(callsite(#loc15 at #loc24))
#loc38 = loc(callsite(#loc16 at #loc24))
#loc39 = loc(callsite(#loc17 at #loc24))
#loc40 = loc(callsite(#loc18 at #loc25))
#loc41 = loc(callsite(#loc20 at #loc25))
#loc42 = loc(callsite(#loc21 at #loc25))
#loc43 = loc(callsite(#loc22 at #loc25))
