#loc = loc("/orcd/home/002/osbo/ondemand/fluid-sim/Assets/Scripts/.torch_inductor_cache/ie/ciefwc3qap2eqhokimwwqb3gt6vlwapdzwody2ui2q6do3g3rarp.py":18:0)
module {
  tt.func public @triton_(%arg0: !tt.ptr<f32> {tt.divisibility = 16 : i32} loc("/orcd/home/002/osbo/ondemand/fluid-sim/Assets/Scripts/.torch_inductor_cache/ie/ciefwc3qap2eqhokimwwqb3gt6vlwapdzwody2ui2q6do3g3rarp.py":18:0), %arg1: !tt.ptr<f32> {tt.divisibility = 16 : i32} loc("/orcd/home/002/osbo/ondemand/fluid-sim/Assets/Scripts/.torch_inductor_cache/ie/ciefwc3qap2eqhokimwwqb3gt6vlwapdzwody2ui2q6do3g3rarp.py":18:0), %arg2: i32 {tt.divisibility = 16 : i32} loc("/orcd/home/002/osbo/ondemand/fluid-sim/Assets/Scripts/.torch_inductor_cache/ie/ciefwc3qap2eqhokimwwqb3gt6vlwapdzwody2ui2q6do3g3rarp.py":18:0)) attributes {noinline = false} {
    %cst = arith.constant dense<4.000000e+00> : tensor<1024xf32> loc(#loc1)
    %cst_0 = arith.constant dense<384> : tensor<1024xi32> loc(#loc1)
    %cst_1 = arith.constant dense<256> : tensor<1024xi32> loc(#loc1)
    %cst_2 = arith.constant dense<512> : tensor<1024xi32> loc(#loc1)
    %cst_3 = arith.constant dense<128> : tensor<1024xi32> loc(#loc1)
    %c1024_i32 = arith.constant 1024 : i32 loc(#loc1)
    %0 = tt.get_program_id x : i32 loc(#loc2)
    %1 = arith.muli %0, %c1024_i32 : i32 loc(#loc3)
    %2 = tt.make_range {end = 1024 : i32, start = 0 : i32} : tensor<1024xi32> loc(#loc4)
    %3 = tt.splat %1 : i32 -> tensor<1024xi32> loc(#loc5)
    %4 = arith.addi %3, %2 : tensor<1024xi32> loc(#loc5)
    %5 = arith.remsi %4, %cst_3 : tensor<1024xi32> loc(#loc6)
    %6 = arith.divsi %4, %cst_3 : tensor<1024xi32> loc(#loc7)
    %7 = arith.muli %6, %cst_2 : tensor<1024xi32> loc(#loc8)
    %8 = arith.addi %5, %7 : tensor<1024xi32> loc(#loc9)
    %9 = tt.splat %arg0 : !tt.ptr<f32> -> tensor<1024x!tt.ptr<f32>> loc(#loc10)
    %10 = tt.addptr %9, %8 : tensor<1024x!tt.ptr<f32>>, tensor<1024xi32> loc(#loc10)
    %11 = tt.load %10 : tensor<1024x!tt.ptr<f32>> loc(#loc11)
    %12 = arith.addi %5, %cst_3 : tensor<1024xi32> loc(#loc12)
    %13 = arith.addi %12, %7 : tensor<1024xi32> loc(#loc13)
    %14 = tt.addptr %9, %13 : tensor<1024x!tt.ptr<f32>>, tensor<1024xi32> loc(#loc14)
    %15 = tt.load %14 : tensor<1024x!tt.ptr<f32>> loc(#loc15)
    %16 = arith.addi %5, %cst_1 : tensor<1024xi32> loc(#loc16)
    %17 = arith.addi %16, %7 : tensor<1024xi32> loc(#loc17)
    %18 = tt.addptr %9, %17 : tensor<1024x!tt.ptr<f32>>, tensor<1024xi32> loc(#loc18)
    %19 = tt.load %18 : tensor<1024x!tt.ptr<f32>> loc(#loc19)
    %20 = arith.addi %5, %cst_0 : tensor<1024xi32> loc(#loc20)
    %21 = arith.addi %20, %7 : tensor<1024xi32> loc(#loc21)
    %22 = tt.addptr %9, %21 : tensor<1024x!tt.ptr<f32>>, tensor<1024xi32> loc(#loc22)
    %23 = tt.load %22 : tensor<1024x!tt.ptr<f32>> loc(#loc23)
    %24 = arith.addf %11, %15 : tensor<1024xf32> loc(#loc24)
    %25 = arith.addf %24, %19 : tensor<1024xf32> loc(#loc25)
    %26 = arith.addf %25, %23 : tensor<1024xf32> loc(#loc26)
    %27 = arith.divf %26, %cst : tensor<1024xf32> loc(#loc27)
    %28 = tt.splat %arg1 : !tt.ptr<f32> -> tensor<1024x!tt.ptr<f32>> loc(#loc28)
    %29 = tt.addptr %28, %8 : tensor<1024x!tt.ptr<f32>>, tensor<1024xi32> loc(#loc28)
    tt.store %29, %27 : tensor<1024x!tt.ptr<f32>> loc(#loc29)
    tt.return loc(#loc30)
  } loc(#loc)
} loc(#loc)
#loc1 = loc(unknown)
#loc2 = loc("/orcd/home/002/osbo/ondemand/fluid-sim/Assets/Scripts/.torch_inductor_cache/ie/ciefwc3qap2eqhokimwwqb3gt6vlwapdzwody2ui2q6do3g3rarp.py":20:28)
#loc3 = loc("/orcd/home/002/osbo/ondemand/fluid-sim/Assets/Scripts/.torch_inductor_cache/ie/ciefwc3qap2eqhokimwwqb3gt6vlwapdzwody2ui2q6do3g3rarp.py":20:33)
#loc4 = loc("/orcd/home/002/osbo/ondemand/fluid-sim/Assets/Scripts/.torch_inductor_cache/ie/ciefwc3qap2eqhokimwwqb3gt6vlwapdzwody2ui2q6do3g3rarp.py":21:36)
#loc5 = loc("/orcd/home/002/osbo/ondemand/fluid-sim/Assets/Scripts/.torch_inductor_cache/ie/ciefwc3qap2eqhokimwwqb3gt6vlwapdzwody2ui2q6do3g3rarp.py":21:23)
#loc6 = loc("/orcd/home/002/osbo/ondemand/fluid-sim/Assets/Scripts/.torch_inductor_cache/ie/ciefwc3qap2eqhokimwwqb3gt6vlwapdzwody2ui2q6do3g3rarp.py":23:18)
#loc7 = loc("/orcd/home/002/osbo/ondemand/fluid-sim/Assets/Scripts/.torch_inductor_cache/ie/ciefwc3qap2eqhokimwwqb3gt6vlwapdzwody2ui2q6do3g3rarp.py":24:20)
#loc8 = loc("/orcd/home/002/osbo/ondemand/fluid-sim/Assets/Scripts/.torch_inductor_cache/ie/ciefwc3qap2eqhokimwwqb3gt6vlwapdzwody2ui2q6do3g3rarp.py":25:40)
#loc9 = loc("/orcd/home/002/osbo/ondemand/fluid-sim/Assets/Scripts/.torch_inductor_cache/ie/ciefwc3qap2eqhokimwwqb3gt6vlwapdzwody2ui2q6do3g3rarp.py":25:36)
#loc10 = loc("/orcd/home/002/osbo/ondemand/fluid-sim/Assets/Scripts/.torch_inductor_cache/ie/ciefwc3qap2eqhokimwwqb3gt6vlwapdzwody2ui2q6do3g3rarp.py":25:30)
#loc11 = loc("/orcd/home/002/osbo/ondemand/fluid-sim/Assets/Scripts/.torch_inductor_cache/ie/ciefwc3qap2eqhokimwwqb3gt6vlwapdzwody2ui2q6do3g3rarp.py":25:46)
#loc12 = loc("/orcd/home/002/osbo/ondemand/fluid-sim/Assets/Scripts/.torch_inductor_cache/ie/ciefwc3qap2eqhokimwwqb3gt6vlwapdzwody2ui2q6do3g3rarp.py":26:36)
#loc13 = loc("/orcd/home/002/osbo/ondemand/fluid-sim/Assets/Scripts/.torch_inductor_cache/ie/ciefwc3qap2eqhokimwwqb3gt6vlwapdzwody2ui2q6do3g3rarp.py":26:42)
#loc14 = loc("/orcd/home/002/osbo/ondemand/fluid-sim/Assets/Scripts/.torch_inductor_cache/ie/ciefwc3qap2eqhokimwwqb3gt6vlwapdzwody2ui2q6do3g3rarp.py":26:30)
#loc15 = loc("/orcd/home/002/osbo/ondemand/fluid-sim/Assets/Scripts/.torch_inductor_cache/ie/ciefwc3qap2eqhokimwwqb3gt6vlwapdzwody2ui2q6do3g3rarp.py":26:52)
#loc16 = loc("/orcd/home/002/osbo/ondemand/fluid-sim/Assets/Scripts/.torch_inductor_cache/ie/ciefwc3qap2eqhokimwwqb3gt6vlwapdzwody2ui2q6do3g3rarp.py":27:36)
#loc17 = loc("/orcd/home/002/osbo/ondemand/fluid-sim/Assets/Scripts/.torch_inductor_cache/ie/ciefwc3qap2eqhokimwwqb3gt6vlwapdzwody2ui2q6do3g3rarp.py":27:42)
#loc18 = loc("/orcd/home/002/osbo/ondemand/fluid-sim/Assets/Scripts/.torch_inductor_cache/ie/ciefwc3qap2eqhokimwwqb3gt6vlwapdzwody2ui2q6do3g3rarp.py":27:30)
#loc19 = loc("/orcd/home/002/osbo/ondemand/fluid-sim/Assets/Scripts/.torch_inductor_cache/ie/ciefwc3qap2eqhokimwwqb3gt6vlwapdzwody2ui2q6do3g3rarp.py":27:52)
#loc20 = loc("/orcd/home/002/osbo/ondemand/fluid-sim/Assets/Scripts/.torch_inductor_cache/ie/ciefwc3qap2eqhokimwwqb3gt6vlwapdzwody2ui2q6do3g3rarp.py":28:36)
#loc21 = loc("/orcd/home/002/osbo/ondemand/fluid-sim/Assets/Scripts/.torch_inductor_cache/ie/ciefwc3qap2eqhokimwwqb3gt6vlwapdzwody2ui2q6do3g3rarp.py":28:42)
#loc22 = loc("/orcd/home/002/osbo/ondemand/fluid-sim/Assets/Scripts/.torch_inductor_cache/ie/ciefwc3qap2eqhokimwwqb3gt6vlwapdzwody2ui2q6do3g3rarp.py":28:30)
#loc23 = loc("/orcd/home/002/osbo/ondemand/fluid-sim/Assets/Scripts/.torch_inductor_cache/ie/ciefwc3qap2eqhokimwwqb3gt6vlwapdzwody2ui2q6do3g3rarp.py":28:52)
#loc24 = loc("/orcd/home/002/osbo/ondemand/fluid-sim/Assets/Scripts/.torch_inductor_cache/ie/ciefwc3qap2eqhokimwwqb3gt6vlwapdzwody2ui2q6do3g3rarp.py":29:18)
#loc25 = loc("/orcd/home/002/osbo/ondemand/fluid-sim/Assets/Scripts/.torch_inductor_cache/ie/ciefwc3qap2eqhokimwwqb3gt6vlwapdzwody2ui2q6do3g3rarp.py":30:18)
#loc26 = loc("/orcd/home/002/osbo/ondemand/fluid-sim/Assets/Scripts/.torch_inductor_cache/ie/ciefwc3qap2eqhokimwwqb3gt6vlwapdzwody2ui2q6do3g3rarp.py":31:18)
#loc27 = loc("/orcd/home/002/osbo/ondemand/fluid-sim/Assets/Scripts/.torch_inductor_cache/ie/ciefwc3qap2eqhokimwwqb3gt6vlwapdzwody2ui2q6do3g3rarp.py":33:18)
#loc28 = loc("/orcd/home/002/osbo/ondemand/fluid-sim/Assets/Scripts/.torch_inductor_cache/ie/ciefwc3qap2eqhokimwwqb3gt6vlwapdzwody2ui2q6do3g3rarp.py":34:25)
#loc29 = loc("/orcd/home/002/osbo/ondemand/fluid-sim/Assets/Scripts/.torch_inductor_cache/ie/ciefwc3qap2eqhokimwwqb3gt6vlwapdzwody2ui2q6do3g3rarp.py":34:47)
#loc30 = loc("/orcd/home/002/osbo/ondemand/fluid-sim/Assets/Scripts/.torch_inductor_cache/ie/ciefwc3qap2eqhokimwwqb3gt6vlwapdzwody2ui2q6do3g3rarp.py":34:4)
