#loc = loc("/orcd/home/002/osbo/ondemand/fluid-sim/Assets/Scripts/.torch_inductor_cache/nh/cnhloh7l53dxfyqcbeuvfxorqhhemz232gdofzy2zyys2l2pg6vr.py":18:0)
module {
  tt.func public @triton_(%arg0: !tt.ptr<f32> {tt.divisibility = 16 : i32} loc("/orcd/home/002/osbo/ondemand/fluid-sim/Assets/Scripts/.torch_inductor_cache/nh/cnhloh7l53dxfyqcbeuvfxorqhhemz232gdofzy2zyys2l2pg6vr.py":18:0), %arg1: !tt.ptr<f32> {tt.divisibility = 16 : i32} loc("/orcd/home/002/osbo/ondemand/fluid-sim/Assets/Scripts/.torch_inductor_cache/nh/cnhloh7l53dxfyqcbeuvfxorqhhemz232gdofzy2zyys2l2pg6vr.py":18:0), %arg2: !tt.ptr<f32> {tt.divisibility = 16 : i32} loc("/orcd/home/002/osbo/ondemand/fluid-sim/Assets/Scripts/.torch_inductor_cache/nh/cnhloh7l53dxfyqcbeuvfxorqhhemz232gdofzy2zyys2l2pg6vr.py":18:0), %arg3: i32 loc("/orcd/home/002/osbo/ondemand/fluid-sim/Assets/Scripts/.torch_inductor_cache/nh/cnhloh7l53dxfyqcbeuvfxorqhhemz232gdofzy2zyys2l2pg6vr.py":18:0), %arg4: i32 {tt.divisibility = 16 : i32} loc("/orcd/home/002/osbo/ondemand/fluid-sim/Assets/Scripts/.torch_inductor_cache/nh/cnhloh7l53dxfyqcbeuvfxorqhhemz232gdofzy2zyys2l2pg6vr.py":18:0)) attributes {noinline = false} {
    %c8_i32 = arith.constant 8 : i32 loc(#loc1)
    %cst = arith.constant dense<4096> : tensor<1x1024xi32> loc(#loc1)
    %cst_0 = arith.constant dense<32768> : tensor<1x1024xi32> loc(#loc1)
    %cst_1 = arith.constant dense<8> : tensor<1x1024xi32> loc(#loc1)
    %cst_2 = arith.constant dense<872> : tensor<1x1024xi32> loc(#loc1)
    %c1024_i32 = arith.constant 1024 : i32 loc(#loc1)
    %0 = tt.get_program_id y : i32 loc(#loc2)
    %1 = arith.muli %0, %c1024_i32 : i32 loc(#loc3)
    %2 = tt.make_range {end = 1024 : i32, start = 0 : i32} : tensor<1024xi32> loc(#loc4)
    %3 = tt.expand_dims %2 {axis = 0 : i32} : tensor<1024xi32> -> tensor<1x1024xi32> loc(#loc5)
    %4 = tt.splat %1 : i32 -> tensor<1x1024xi32> loc(#loc6)
    %5 = arith.addi %4, %3 : tensor<1x1024xi32> loc(#loc6)
    %6 = arith.cmpi slt, %5, %cst_2 : tensor<1x1024xi32> loc(#loc7)
    %7 = tt.get_program_id x : i32 loc(#loc8)
    %8 = arith.remsi %5, %cst_1 : tensor<1x1024xi32> loc(#loc9)
    %9 = arith.divsi %5, %cst_1 : tensor<1x1024xi32> loc(#loc10)
    %10 = arith.muli %7, %c8_i32 : i32 loc(#loc11)
    %11 = tt.splat %10 : i32 -> tensor<1x1024xi32> loc(#loc12)
    %12 = arith.addi %8, %11 : tensor<1x1024xi32> loc(#loc12)
    %13 = arith.muli %9, %cst_0 : tensor<1x1024xi32> loc(#loc13)
    %14 = arith.addi %12, %13 : tensor<1x1024xi32> loc(#loc14)
    %15 = tt.splat %arg0 : !tt.ptr<f32> -> tensor<1x1024x!tt.ptr<f32>> loc(#loc15)
    %16 = tt.addptr %15, %14 : tensor<1x1024x!tt.ptr<f32>>, tensor<1x1024xi32> loc(#loc15)
    %17 = tt.load %16, %6 evictionPolicy = evict_last : tensor<1x1024x!tt.ptr<f32>> loc(#loc16)
    %18 = tt.splat %arg1 : !tt.ptr<f32> -> tensor<1x1024x!tt.ptr<f32>> loc(#loc17)
    %19 = tt.addptr %18, %8 : tensor<1x1024x!tt.ptr<f32>>, tensor<1x1024xi32> loc(#loc17)
    %20 = tt.load %19, %6 evictionPolicy = evict_last : tensor<1x1024x!tt.ptr<f32>> loc(#loc18)
    %21 = arith.addf %17, %20 : tensor<1x1024xf32> loc(#loc19)
    %22 = arith.muli %5, %cst : tensor<1x1024xi32> loc(#loc20)
    %23 = tt.splat %7 : i32 -> tensor<1x1024xi32> loc(#loc21)
    %24 = arith.addi %23, %22 : tensor<1x1024xi32> loc(#loc21)
    %25 = tt.splat %arg2 : !tt.ptr<f32> -> tensor<1x1024x!tt.ptr<f32>> loc(#loc22)
    %26 = tt.addptr %25, %24 : tensor<1x1024x!tt.ptr<f32>>, tensor<1x1024xi32> loc(#loc22)
    tt.store %26, %21, %6 : tensor<1x1024x!tt.ptr<f32>> loc(#loc23)
    tt.return loc(#loc24)
  } loc(#loc)
} loc(#loc)
#loc1 = loc(unknown)
#loc2 = loc("/orcd/home/002/osbo/ondemand/fluid-sim/Assets/Scripts/.torch_inductor_cache/nh/cnhloh7l53dxfyqcbeuvfxorqhhemz232gdofzy2zyys2l2pg6vr.py":21:28)
#loc3 = loc("/orcd/home/002/osbo/ondemand/fluid-sim/Assets/Scripts/.torch_inductor_cache/nh/cnhloh7l53dxfyqcbeuvfxorqhhemz232gdofzy2zyys2l2pg6vr.py":21:33)
#loc4 = loc("/orcd/home/002/osbo/ondemand/fluid-sim/Assets/Scripts/.torch_inductor_cache/nh/cnhloh7l53dxfyqcbeuvfxorqhhemz232gdofzy2zyys2l2pg6vr.py":22:36)
#loc5 = loc("/orcd/home/002/osbo/ondemand/fluid-sim/Assets/Scripts/.torch_inductor_cache/nh/cnhloh7l53dxfyqcbeuvfxorqhhemz232gdofzy2zyys2l2pg6vr.py":22:44)
#loc6 = loc("/orcd/home/002/osbo/ondemand/fluid-sim/Assets/Scripts/.torch_inductor_cache/nh/cnhloh7l53dxfyqcbeuvfxorqhhemz232gdofzy2zyys2l2pg6vr.py":22:23)
#loc7 = loc("/orcd/home/002/osbo/ondemand/fluid-sim/Assets/Scripts/.torch_inductor_cache/nh/cnhloh7l53dxfyqcbeuvfxorqhhemz232gdofzy2zyys2l2pg6vr.py":23:21)
#loc8 = loc("/orcd/home/002/osbo/ondemand/fluid-sim/Assets/Scripts/.torch_inductor_cache/nh/cnhloh7l53dxfyqcbeuvfxorqhhemz232gdofzy2zyys2l2pg6vr.py":24:28)
#loc9 = loc("/orcd/home/002/osbo/ondemand/fluid-sim/Assets/Scripts/.torch_inductor_cache/nh/cnhloh7l53dxfyqcbeuvfxorqhhemz232gdofzy2zyys2l2pg6vr.py":28:18)
#loc10 = loc("/orcd/home/002/osbo/ondemand/fluid-sim/Assets/Scripts/.torch_inductor_cache/nh/cnhloh7l53dxfyqcbeuvfxorqhhemz232gdofzy2zyys2l2pg6vr.py":29:20)
#loc11 = loc("/orcd/home/002/osbo/ondemand/fluid-sim/Assets/Scripts/.torch_inductor_cache/nh/cnhloh7l53dxfyqcbeuvfxorqhhemz232gdofzy2zyys2l2pg6vr.py":31:38)
#loc12 = loc("/orcd/home/002/osbo/ondemand/fluid-sim/Assets/Scripts/.torch_inductor_cache/nh/cnhloh7l53dxfyqcbeuvfxorqhhemz232gdofzy2zyys2l2pg6vr.py":31:36)
#loc13 = loc("/orcd/home/002/osbo/ondemand/fluid-sim/Assets/Scripts/.torch_inductor_cache/nh/cnhloh7l53dxfyqcbeuvfxorqhhemz232gdofzy2zyys2l2pg6vr.py":31:51)
#loc14 = loc("/orcd/home/002/osbo/ondemand/fluid-sim/Assets/Scripts/.torch_inductor_cache/nh/cnhloh7l53dxfyqcbeuvfxorqhhemz232gdofzy2zyys2l2pg6vr.py":31:45)
#loc15 = loc("/orcd/home/002/osbo/ondemand/fluid-sim/Assets/Scripts/.torch_inductor_cache/nh/cnhloh7l53dxfyqcbeuvfxorqhhemz232gdofzy2zyys2l2pg6vr.py":31:30)
#loc16 = loc("/orcd/home/002/osbo/ondemand/fluid-sim/Assets/Scripts/.torch_inductor_cache/nh/cnhloh7l53dxfyqcbeuvfxorqhhemz232gdofzy2zyys2l2pg6vr.py":31:57)
#loc17 = loc("/orcd/home/002/osbo/ondemand/fluid-sim/Assets/Scripts/.torch_inductor_cache/nh/cnhloh7l53dxfyqcbeuvfxorqhhemz232gdofzy2zyys2l2pg6vr.py":32:30)
#loc18 = loc("/orcd/home/002/osbo/ondemand/fluid-sim/Assets/Scripts/.torch_inductor_cache/nh/cnhloh7l53dxfyqcbeuvfxorqhhemz232gdofzy2zyys2l2pg6vr.py":32:35)
#loc19 = loc("/orcd/home/002/osbo/ondemand/fluid-sim/Assets/Scripts/.torch_inductor_cache/nh/cnhloh7l53dxfyqcbeuvfxorqhhemz232gdofzy2zyys2l2pg6vr.py":33:18)
#loc20 = loc("/orcd/home/002/osbo/ondemand/fluid-sim/Assets/Scripts/.torch_inductor_cache/nh/cnhloh7l53dxfyqcbeuvfxorqhhemz232gdofzy2zyys2l2pg6vr.py":34:36)
#loc21 = loc("/orcd/home/002/osbo/ondemand/fluid-sim/Assets/Scripts/.torch_inductor_cache/nh/cnhloh7l53dxfyqcbeuvfxorqhhemz232gdofzy2zyys2l2pg6vr.py":34:31)
#loc22 = loc("/orcd/home/002/osbo/ondemand/fluid-sim/Assets/Scripts/.torch_inductor_cache/nh/cnhloh7l53dxfyqcbeuvfxorqhhemz232gdofzy2zyys2l2pg6vr.py":34:25)
#loc23 = loc("/orcd/home/002/osbo/ondemand/fluid-sim/Assets/Scripts/.torch_inductor_cache/nh/cnhloh7l53dxfyqcbeuvfxorqhhemz232gdofzy2zyys2l2pg6vr.py":34:48)
#loc24 = loc("/orcd/home/002/osbo/ondemand/fluid-sim/Assets/Scripts/.torch_inductor_cache/nh/cnhloh7l53dxfyqcbeuvfxorqhhemz232gdofzy2zyys2l2pg6vr.py":34:4)
