#loc = loc("/orcd/home/002/osbo/ondemand/fluid-sim/Assets/Scripts/.torch_inductor_cache/25/c25faoahrqiiu3g7bm5ymxwfbq6nh5xjkgdpewbo2zubwcupgcpk.py":18:0)
module {
  tt.func public @triton_(%arg0: !tt.ptr<f32> {tt.divisibility = 16 : i32} loc("/orcd/home/002/osbo/ondemand/fluid-sim/Assets/Scripts/.torch_inductor_cache/25/c25faoahrqiiu3g7bm5ymxwfbq6nh5xjkgdpewbo2zubwcupgcpk.py":18:0), %arg1: !tt.ptr<f32> {tt.divisibility = 16 : i32} loc("/orcd/home/002/osbo/ondemand/fluid-sim/Assets/Scripts/.torch_inductor_cache/25/c25faoahrqiiu3g7bm5ymxwfbq6nh5xjkgdpewbo2zubwcupgcpk.py":18:0), %arg2: i32 {tt.divisibility = 16 : i32} loc("/orcd/home/002/osbo/ondemand/fluid-sim/Assets/Scripts/.torch_inductor_cache/25/c25faoahrqiiu3g7bm5ymxwfbq6nh5xjkgdpewbo2zubwcupgcpk.py":18:0)) attributes {noinline = false} {
    %cst = arith.constant dense<4.000000e+00> : tensor<1024xf32> loc(#loc1)
    %cst_0 = arith.constant dense<96> : tensor<1024xi32> loc(#loc1)
    %cst_1 = arith.constant dense<64> : tensor<1024xi32> loc(#loc1)
    %cst_2 = arith.constant dense<128> : tensor<1024xi32> loc(#loc1)
    %cst_3 = arith.constant dense<32> : tensor<1024xi32> loc(#loc1)
    %cst_4 = arith.constant dense<111616> : tensor<1024xi32> loc(#loc1)
    %c1024_i32 = arith.constant 1024 : i32 loc(#loc1)
    %0 = tt.get_program_id x : i32 loc(#loc2)
    %1 = arith.muli %0, %c1024_i32 : i32 loc(#loc3)
    %2 = tt.make_range {end = 1024 : i32, start = 0 : i32} : tensor<1024xi32> loc(#loc4)
    %3 = tt.splat %1 : i32 -> tensor<1024xi32> loc(#loc5)
    %4 = arith.addi %3, %2 : tensor<1024xi32> loc(#loc5)
    %5 = arith.cmpi slt, %4, %cst_4 : tensor<1024xi32> loc(#loc6)
    %6 = arith.remsi %4, %cst_3 : tensor<1024xi32> loc(#loc7)
    %7 = arith.divsi %4, %cst_3 : tensor<1024xi32> loc(#loc8)
    %8 = arith.muli %7, %cst_2 : tensor<1024xi32> loc(#loc9)
    %9 = arith.addi %6, %8 : tensor<1024xi32> loc(#loc10)
    %10 = tt.splat %arg0 : !tt.ptr<f32> -> tensor<1024x!tt.ptr<f32>> loc(#loc11)
    %11 = tt.addptr %10, %9 : tensor<1024x!tt.ptr<f32>>, tensor<1024xi32> loc(#loc11)
    %12 = tt.load %11, %5 : tensor<1024x!tt.ptr<f32>> loc(#loc12)
    %13 = arith.addi %6, %cst_3 : tensor<1024xi32> loc(#loc13)
    %14 = arith.addi %13, %8 : tensor<1024xi32> loc(#loc14)
    %15 = tt.addptr %10, %14 : tensor<1024x!tt.ptr<f32>>, tensor<1024xi32> loc(#loc15)
    %16 = tt.load %15, %5 : tensor<1024x!tt.ptr<f32>> loc(#loc16)
    %17 = arith.addi %6, %cst_1 : tensor<1024xi32> loc(#loc17)
    %18 = arith.addi %17, %8 : tensor<1024xi32> loc(#loc18)
    %19 = tt.addptr %10, %18 : tensor<1024x!tt.ptr<f32>>, tensor<1024xi32> loc(#loc19)
    %20 = tt.load %19, %5 : tensor<1024x!tt.ptr<f32>> loc(#loc20)
    %21 = arith.addi %6, %cst_0 : tensor<1024xi32> loc(#loc21)
    %22 = arith.addi %21, %8 : tensor<1024xi32> loc(#loc22)
    %23 = tt.addptr %10, %22 : tensor<1024x!tt.ptr<f32>>, tensor<1024xi32> loc(#loc23)
    %24 = tt.load %23, %5 : tensor<1024x!tt.ptr<f32>> loc(#loc24)
    %25 = arith.addf %12, %16 : tensor<1024xf32> loc(#loc25)
    %26 = arith.addf %25, %20 : tensor<1024xf32> loc(#loc26)
    %27 = arith.addf %26, %24 : tensor<1024xf32> loc(#loc27)
    %28 = arith.divf %27, %cst : tensor<1024xf32> loc(#loc28)
    %29 = arith.muli %7, %cst_0 : tensor<1024xi32> loc(#loc29)
    %30 = arith.addi %6, %29 : tensor<1024xi32> loc(#loc30)
    %31 = tt.splat %arg1 : !tt.ptr<f32> -> tensor<1024x!tt.ptr<f32>> loc(#loc31)
    %32 = tt.addptr %31, %30 : tensor<1024x!tt.ptr<f32>>, tensor<1024xi32> loc(#loc31)
    tt.store %32, %28, %5 : tensor<1024x!tt.ptr<f32>> loc(#loc32)
    tt.return loc(#loc33)
  } loc(#loc)
} loc(#loc)
#loc1 = loc(unknown)
#loc2 = loc("/orcd/home/002/osbo/ondemand/fluid-sim/Assets/Scripts/.torch_inductor_cache/25/c25faoahrqiiu3g7bm5ymxwfbq6nh5xjkgdpewbo2zubwcupgcpk.py":20:28)
#loc3 = loc("/orcd/home/002/osbo/ondemand/fluid-sim/Assets/Scripts/.torch_inductor_cache/25/c25faoahrqiiu3g7bm5ymxwfbq6nh5xjkgdpewbo2zubwcupgcpk.py":20:33)
#loc4 = loc("/orcd/home/002/osbo/ondemand/fluid-sim/Assets/Scripts/.torch_inductor_cache/25/c25faoahrqiiu3g7bm5ymxwfbq6nh5xjkgdpewbo2zubwcupgcpk.py":21:36)
#loc5 = loc("/orcd/home/002/osbo/ondemand/fluid-sim/Assets/Scripts/.torch_inductor_cache/25/c25faoahrqiiu3g7bm5ymxwfbq6nh5xjkgdpewbo2zubwcupgcpk.py":21:23)
#loc6 = loc("/orcd/home/002/osbo/ondemand/fluid-sim/Assets/Scripts/.torch_inductor_cache/25/c25faoahrqiiu3g7bm5ymxwfbq6nh5xjkgdpewbo2zubwcupgcpk.py":22:21)
#loc7 = loc("/orcd/home/002/osbo/ondemand/fluid-sim/Assets/Scripts/.torch_inductor_cache/25/c25faoahrqiiu3g7bm5ymxwfbq6nh5xjkgdpewbo2zubwcupgcpk.py":23:18)
#loc8 = loc("/orcd/home/002/osbo/ondemand/fluid-sim/Assets/Scripts/.torch_inductor_cache/25/c25faoahrqiiu3g7bm5ymxwfbq6nh5xjkgdpewbo2zubwcupgcpk.py":24:20)
#loc9 = loc("/orcd/home/002/osbo/ondemand/fluid-sim/Assets/Scripts/.torch_inductor_cache/25/c25faoahrqiiu3g7bm5ymxwfbq6nh5xjkgdpewbo2zubwcupgcpk.py":25:40)
#loc10 = loc("/orcd/home/002/osbo/ondemand/fluid-sim/Assets/Scripts/.torch_inductor_cache/25/c25faoahrqiiu3g7bm5ymxwfbq6nh5xjkgdpewbo2zubwcupgcpk.py":25:36)
#loc11 = loc("/orcd/home/002/osbo/ondemand/fluid-sim/Assets/Scripts/.torch_inductor_cache/25/c25faoahrqiiu3g7bm5ymxwfbq6nh5xjkgdpewbo2zubwcupgcpk.py":25:30)
#loc12 = loc("/orcd/home/002/osbo/ondemand/fluid-sim/Assets/Scripts/.torch_inductor_cache/25/c25faoahrqiiu3g7bm5ymxwfbq6nh5xjkgdpewbo2zubwcupgcpk.py":25:46)
#loc13 = loc("/orcd/home/002/osbo/ondemand/fluid-sim/Assets/Scripts/.torch_inductor_cache/25/c25faoahrqiiu3g7bm5ymxwfbq6nh5xjkgdpewbo2zubwcupgcpk.py":26:35)
#loc14 = loc("/orcd/home/002/osbo/ondemand/fluid-sim/Assets/Scripts/.torch_inductor_cache/25/c25faoahrqiiu3g7bm5ymxwfbq6nh5xjkgdpewbo2zubwcupgcpk.py":26:41)
#loc15 = loc("/orcd/home/002/osbo/ondemand/fluid-sim/Assets/Scripts/.torch_inductor_cache/25/c25faoahrqiiu3g7bm5ymxwfbq6nh5xjkgdpewbo2zubwcupgcpk.py":26:30)
#loc16 = loc("/orcd/home/002/osbo/ondemand/fluid-sim/Assets/Scripts/.torch_inductor_cache/25/c25faoahrqiiu3g7bm5ymxwfbq6nh5xjkgdpewbo2zubwcupgcpk.py":26:51)
#loc17 = loc("/orcd/home/002/osbo/ondemand/fluid-sim/Assets/Scripts/.torch_inductor_cache/25/c25faoahrqiiu3g7bm5ymxwfbq6nh5xjkgdpewbo2zubwcupgcpk.py":27:35)
#loc18 = loc("/orcd/home/002/osbo/ondemand/fluid-sim/Assets/Scripts/.torch_inductor_cache/25/c25faoahrqiiu3g7bm5ymxwfbq6nh5xjkgdpewbo2zubwcupgcpk.py":27:41)
#loc19 = loc("/orcd/home/002/osbo/ondemand/fluid-sim/Assets/Scripts/.torch_inductor_cache/25/c25faoahrqiiu3g7bm5ymxwfbq6nh5xjkgdpewbo2zubwcupgcpk.py":27:30)
#loc20 = loc("/orcd/home/002/osbo/ondemand/fluid-sim/Assets/Scripts/.torch_inductor_cache/25/c25faoahrqiiu3g7bm5ymxwfbq6nh5xjkgdpewbo2zubwcupgcpk.py":27:51)
#loc21 = loc("/orcd/home/002/osbo/ondemand/fluid-sim/Assets/Scripts/.torch_inductor_cache/25/c25faoahrqiiu3g7bm5ymxwfbq6nh5xjkgdpewbo2zubwcupgcpk.py":28:35)
#loc22 = loc("/orcd/home/002/osbo/ondemand/fluid-sim/Assets/Scripts/.torch_inductor_cache/25/c25faoahrqiiu3g7bm5ymxwfbq6nh5xjkgdpewbo2zubwcupgcpk.py":28:41)
#loc23 = loc("/orcd/home/002/osbo/ondemand/fluid-sim/Assets/Scripts/.torch_inductor_cache/25/c25faoahrqiiu3g7bm5ymxwfbq6nh5xjkgdpewbo2zubwcupgcpk.py":28:30)
#loc24 = loc("/orcd/home/002/osbo/ondemand/fluid-sim/Assets/Scripts/.torch_inductor_cache/25/c25faoahrqiiu3g7bm5ymxwfbq6nh5xjkgdpewbo2zubwcupgcpk.py":28:51)
#loc25 = loc("/orcd/home/002/osbo/ondemand/fluid-sim/Assets/Scripts/.torch_inductor_cache/25/c25faoahrqiiu3g7bm5ymxwfbq6nh5xjkgdpewbo2zubwcupgcpk.py":29:18)
#loc26 = loc("/orcd/home/002/osbo/ondemand/fluid-sim/Assets/Scripts/.torch_inductor_cache/25/c25faoahrqiiu3g7bm5ymxwfbq6nh5xjkgdpewbo2zubwcupgcpk.py":30:18)
#loc27 = loc("/orcd/home/002/osbo/ondemand/fluid-sim/Assets/Scripts/.torch_inductor_cache/25/c25faoahrqiiu3g7bm5ymxwfbq6nh5xjkgdpewbo2zubwcupgcpk.py":31:18)
#loc28 = loc("/orcd/home/002/osbo/ondemand/fluid-sim/Assets/Scripts/.torch_inductor_cache/25/c25faoahrqiiu3g7bm5ymxwfbq6nh5xjkgdpewbo2zubwcupgcpk.py":33:18)
#loc29 = loc("/orcd/home/002/osbo/ondemand/fluid-sim/Assets/Scripts/.torch_inductor_cache/25/c25faoahrqiiu3g7bm5ymxwfbq6nh5xjkgdpewbo2zubwcupgcpk.py":34:34)
#loc30 = loc("/orcd/home/002/osbo/ondemand/fluid-sim/Assets/Scripts/.torch_inductor_cache/25/c25faoahrqiiu3g7bm5ymxwfbq6nh5xjkgdpewbo2zubwcupgcpk.py":34:31)
#loc31 = loc("/orcd/home/002/osbo/ondemand/fluid-sim/Assets/Scripts/.torch_inductor_cache/25/c25faoahrqiiu3g7bm5ymxwfbq6nh5xjkgdpewbo2zubwcupgcpk.py":34:25)
#loc32 = loc("/orcd/home/002/osbo/ondemand/fluid-sim/Assets/Scripts/.torch_inductor_cache/25/c25faoahrqiiu3g7bm5ymxwfbq6nh5xjkgdpewbo2zubwcupgcpk.py":34:46)
#loc33 = loc("/orcd/home/002/osbo/ondemand/fluid-sim/Assets/Scripts/.torch_inductor_cache/25/c25faoahrqiiu3g7bm5ymxwfbq6nh5xjkgdpewbo2zubwcupgcpk.py":34:4)
