#loc = loc("/orcd/home/002/osbo/ondemand/fluid-sim/Assets/Scripts/.torch_inductor_cache/62/c62yyfskkrax2qfdr5waoagoc3lfksyrgegl6soewuptyrr6mysf.py":18:0)
#loc1 = loc(unknown)
module {
  tt.func public @triton_(%arg0: !tt.ptr<f32> {tt.divisibility = 16 : i32} loc("/orcd/home/002/osbo/ondemand/fluid-sim/Assets/Scripts/.torch_inductor_cache/62/c62yyfskkrax2qfdr5waoagoc3lfksyrgegl6soewuptyrr6mysf.py":18:0), %arg1: !tt.ptr<f32> {tt.divisibility = 16 : i32} loc("/orcd/home/002/osbo/ondemand/fluid-sim/Assets/Scripts/.torch_inductor_cache/62/c62yyfskkrax2qfdr5waoagoc3lfksyrgegl6soewuptyrr6mysf.py":18:0), %arg2: !tt.ptr<i64> {tt.divisibility = 16 : i32} loc("/orcd/home/002/osbo/ondemand/fluid-sim/Assets/Scripts/.torch_inductor_cache/62/c62yyfskkrax2qfdr5waoagoc3lfksyrgegl6soewuptyrr6mysf.py":18:0), %arg3: !tt.ptr<f32> {tt.divisibility = 16 : i32} loc("/orcd/home/002/osbo/ondemand/fluid-sim/Assets/Scripts/.torch_inductor_cache/62/c62yyfskkrax2qfdr5waoagoc3lfksyrgegl6soewuptyrr6mysf.py":18:0), %arg4: !tt.ptr<f32> {tt.divisibility = 16 : i32} loc("/orcd/home/002/osbo/ondemand/fluid-sim/Assets/Scripts/.torch_inductor_cache/62/c62yyfskkrax2qfdr5waoagoc3lfksyrgegl6soewuptyrr6mysf.py":18:0), %arg5: !tt.ptr<f32> {tt.divisibility = 16 : i32} loc("/orcd/home/002/osbo/ondemand/fluid-sim/Assets/Scripts/.torch_inductor_cache/62/c62yyfskkrax2qfdr5waoagoc3lfksyrgegl6soewuptyrr6mysf.py":18:0), %arg6: !tt.ptr<f32> {tt.divisibility = 16 : i32} loc("/orcd/home/002/osbo/ondemand/fluid-sim/Assets/Scripts/.torch_inductor_cache/62/c62yyfskkrax2qfdr5waoagoc3lfksyrgegl6soewuptyrr6mysf.py":18:0), %arg7: !tt.ptr<f32> {tt.divisibility = 16 : i32} loc("/orcd/home/002/osbo/ondemand/fluid-sim/Assets/Scripts/.torch_inductor_cache/62/c62yyfskkrax2qfdr5waoagoc3lfksyrgegl6soewuptyrr6mysf.py":18:0), %arg8: !tt.ptr<f32> {tt.divisibility = 16 : i32} loc("/orcd/home/002/osbo/ondemand/fluid-sim/Assets/Scripts/.torch_inductor_cache/62/c62yyfskkrax2qfdr5waoagoc3lfksyrgegl6soewuptyrr6mysf.py":18:0), %arg9: !tt.ptr<f32> {tt.divisibility = 16 : i32} loc("/orcd/home/002/osbo/ondemand/fluid-sim/Assets/Scripts/.torch_inductor_cache/62/c62yyfskkrax2qfdr5waoagoc3lfksyrgegl6soewuptyrr6mysf.py":18:0), %arg10: !tt.ptr<f32> {tt.divisibility = 16 : i32} loc("/orcd/home/002/osbo/ondemand/fluid-sim/Assets/Scripts/.torch_inductor_cache/62/c62yyfskkrax2qfdr5waoagoc3lfksyrgegl6soewuptyrr6mysf.py":18:0), %arg11: i32 {tt.divisibility = 16 : i32} loc("/orcd/home/002/osbo/ondemand/fluid-sim/Assets/Scripts/.torch_inductor_cache/62/c62yyfskkrax2qfdr5waoagoc3lfksyrgegl6soewuptyrr6mysf.py":18:0), %arg12: i32 {tt.divisibility = 16 : i32} loc("/orcd/home/002/osbo/ondemand/fluid-sim/Assets/Scripts/.torch_inductor_cache/62/c62yyfskkrax2qfdr5waoagoc3lfksyrgegl6soewuptyrr6mysf.py":18:0)) attributes {noinline = false} {
    %cst = arith.constant dense<9.99999974E-6> : tensor<32x1xf32> loc(#loc1)
    %cst_0 = arith.constant dense<1.280000e+02> : tensor<32x1xf32> loc(#loc1)
    %cst_1 = arith.constant dense<2.000000e+00> : tensor<32x128xf32> loc(#loc1)
    %cst_2 = arith.constant dense<128> : tensor<32x1xi32> loc(#loc1)
    %cst_3 = arith.constant dense<128> : tensor<1x128xi32> loc(#loc1)
    %cst_4 = arith.constant dense<0.000000e+00> : tensor<32x128xf32> loc(#loc1)
    %cst_5 = arith.constant dense<256> : tensor<32x1xi32> loc(#loc1)
    %cst_6 = arith.constant dense<64> : tensor<32x1xi32> loc(#loc1)
    %cst_7 = arith.constant dense<6976> : tensor<32x1xi32> loc(#loc1)
    %c32_i32 = arith.constant 32 : i32 loc(#loc1)
    %0 = tt.get_program_id x : i32 loc(#loc2)
    %1 = arith.muli %0, %c32_i32 : i32 loc(#loc3)
    %2 = tt.make_range {end = 32 : i32, start = 0 : i32} : tensor<32xi32> loc(#loc4)
    %3 = tt.expand_dims %2 {axis = 1 : i32} : tensor<32xi32> -> tensor<32x1xi32> loc(#loc5)
    %4 = tt.splat %1 : i32 -> tensor<32x1xi32> loc(#loc6)
    %5 = arith.addi %4, %3 : tensor<32x1xi32> loc(#loc6)
    %6 = arith.cmpi slt, %5, %cst_7 : tensor<32x1xi32> loc(#loc7)
    %7 = tt.make_range {end = 128 : i32, start = 0 : i32} : tensor<128xi32> loc(#loc8)
    %8 = tt.expand_dims %7 {axis = 0 : i32} : tensor<128xi32> -> tensor<1x128xi32> loc(#loc9)
    %9 = arith.divsi %5, %cst_6 : tensor<32x1xi32> loc(#loc10)
    %10 = arith.muli %5, %cst_5 : tensor<32x1xi32> loc(#loc11)
    %11 = tt.broadcast %8 : tensor<1x128xi32> -> tensor<32x128xi32> loc(#loc12)
    %12 = tt.broadcast %10 : tensor<32x1xi32> -> tensor<32x128xi32> loc(#loc12)
    %13 = arith.addi %11, %12 : tensor<32x128xi32> loc(#loc12)
    %14 = tt.splat %arg1 : !tt.ptr<f32> -> tensor<32x128x!tt.ptr<f32>> loc(#loc13)
    %15 = tt.addptr %14, %13 : tensor<32x128x!tt.ptr<f32>>, tensor<32x128xi32> loc(#loc13)
    %16 = tt.broadcast %6 : tensor<32x1xi1> -> tensor<32x128xi1> loc(#loc14)
    %17 = tt.load %15, %16, %cst_4 : tensor<32x128x!tt.ptr<f32>> loc(#loc14)
    %18 = tt.splat %arg2 : !tt.ptr<i64> -> tensor<32x1x!tt.ptr<i64>> loc(#loc15)
    %19 = tt.addptr %18, %9 : tensor<32x1x!tt.ptr<i64>>, tensor<32x1xi32> loc(#loc15)
    %20 = tt.load %19, %6 evictionPolicy = evict_last : tensor<32x1x!tt.ptr<i64>> loc(#loc16)
    %21 = tt.splat %arg3 : !tt.ptr<f32> -> tensor<32x128x!tt.ptr<f32>> loc(#loc17)
    %22 = tt.addptr %21, %13 : tensor<32x128x!tt.ptr<f32>>, tensor<32x128xi32> loc(#loc17)
    %23 = tt.load %22, %16, %cst_4 : tensor<32x128x!tt.ptr<f32>> loc(#loc18)
    %24 = arith.addi %8, %cst_3 : tensor<1x128xi32> loc(#loc19)
    %25 = tt.broadcast %24 : tensor<1x128xi32> -> tensor<32x128xi32> loc(#loc20)
    %26 = arith.addi %25, %12 : tensor<32x128xi32> loc(#loc20)
    %27 = tt.addptr %14, %26 : tensor<32x128x!tt.ptr<f32>>, tensor<32x128xi32> loc(#loc21)
    %28 = tt.load %27, %16, %cst_4 : tensor<32x128x!tt.ptr<f32>> loc(#loc22)
    %29 = tt.addptr %21, %26 : tensor<32x128x!tt.ptr<f32>>, tensor<32x128xi32> loc(#loc23)
    %30 = tt.load %29, %16, %cst_4 : tensor<32x128x!tt.ptr<f32>> loc(#loc24)
    %31 = arith.muli %5, %cst_2 : tensor<32x1xi32> loc(#loc25)
    %32 = tt.broadcast %31 : tensor<32x1xi32> -> tensor<32x128xi32> loc(#loc26)
    %33 = arith.addi %11, %32 : tensor<32x128xi32> loc(#loc26)
    %34 = tt.splat %arg4 : !tt.ptr<f32> -> tensor<32x128x!tt.ptr<f32>> loc(#loc27)
    %35 = tt.addptr %34, %33 : tensor<32x128x!tt.ptr<f32>>, tensor<32x128xi32> loc(#loc27)
    %36 = tt.load %35, %16, %cst_4 : tensor<32x128x!tt.ptr<f32>> loc(#loc28)
    %37 = tt.splat %arg5 : !tt.ptr<f32> -> tensor<32x128x!tt.ptr<f32>> loc(#loc29)
    %38 = tt.addptr %37, %33 : tensor<32x128x!tt.ptr<f32>>, tensor<32x128xi32> loc(#loc29)
    %39 = tt.load %38, %16, %cst_4 : tensor<32x128x!tt.ptr<f32>> loc(#loc30)
    %40 = tt.splat %arg6 : !tt.ptr<f32> -> tensor<1x128x!tt.ptr<f32>> loc(#loc31)
    %41 = tt.addptr %40, %8 : tensor<1x128x!tt.ptr<f32>>, tensor<1x128xi32> loc(#loc31)
    %42 = tt.load %41 evictionPolicy = evict_last : tensor<1x128x!tt.ptr<f32>> loc(#loc32)
    %43 = tt.splat %arg0 : !tt.ptr<f32> -> tensor<32x128x!tt.ptr<f32>> loc(#loc33)
    %44 = tt.addptr %43, %33 : tensor<32x128x!tt.ptr<f32>>, tensor<32x128xi32> loc(#loc33)
    %45 = tt.load %44, %16, %cst_4 : tensor<32x128x!tt.ptr<f32>> loc(#loc34)
    %46 = tt.splat %arg7 : !tt.ptr<f32> -> tensor<1x128x!tt.ptr<f32>> loc(#loc35)
    %47 = tt.addptr %46, %8 : tensor<1x128x!tt.ptr<f32>>, tensor<1x128xi32> loc(#loc35)
    %48 = tt.load %47 evictionPolicy = evict_last : tensor<1x128x!tt.ptr<f32>> loc(#loc36)
    %49 = tt.splat %arg8 : !tt.ptr<f32> -> tensor<1x128x!tt.ptr<f32>> loc(#loc37)
    %50 = tt.addptr %49, %8 : tensor<1x128x!tt.ptr<f32>>, tensor<1x128xi32> loc(#loc37)
    %51 = tt.load %50 evictionPolicy = evict_last : tensor<1x128x!tt.ptr<f32>> loc(#loc38)
    %52 = tt.splat %arg9 : !tt.ptr<f32> -> tensor<1x128x!tt.ptr<f32>> loc(#loc39)
    %53 = tt.addptr %52, %8 : tensor<1x128x!tt.ptr<f32>>, tensor<1x128xi32> loc(#loc39)
    %54 = tt.load %53 evictionPolicy = evict_last : tensor<1x128x!tt.ptr<f32>> loc(#loc40)
    %55 = arith.sitofp %20 : tensor<32x1xi64> to tensor<32x1xf32> loc(#loc41)
    %56 = tt.broadcast %55 : tensor<32x1xf32> -> tensor<32x128xf32> loc(#loc42)
    %57 = arith.divf %17, %56 : tensor<32x128xf32> loc(#loc42)
    %58 = arith.divf %23, %56 : tensor<32x128xf32> loc(#loc43)
    %59 = arith.addf %57, %58 : tensor<32x128xf32> loc(#loc44)
    %60 = arith.divf %28, %56 : tensor<32x128xf32> loc(#loc45)
    %61 = arith.divf %30, %56 : tensor<32x128xf32> loc(#loc46)
    %62 = arith.addf %60, %61 : tensor<32x128xf32> loc(#loc47)
    %63 = arith.addf %59, %62 : tensor<32x128xf32> loc(#loc48)
    %64 = arith.divf %63, %cst_1 : tensor<32x128xf32> loc(#loc49)
    %65 = tt.broadcast %42 : tensor<1x128xf32> -> tensor<32x128xf32> loc(#loc50)
    %66 = arith.addf %39, %65 : tensor<32x128xf32> loc(#loc50)
    %67 = arith.addf %36, %66 : tensor<32x128xf32> loc(#loc51)
    %68 = tt.broadcast %48 : tensor<1x128xf32> -> tensor<32x128xf32> loc(#loc52)
    %69 = arith.addf %45, %68 : tensor<32x128xf32> loc(#loc52)
    %70 = arith.addf %67, %69 : tensor<32x128xf32> loc(#loc53)
    %71 = arith.addf %64, %70 : tensor<32x128xf32> loc(#loc54)
    %72 = arith.select %16, %71, %cst_4 : tensor<32x128xi1>, tensor<32x128xf32> loc(#loc55)
    %73 = "tt.reduce"(%72) <{axis = 1 : i32}> ({
    ^bb0(%arg13: f32 loc(unknown), %arg14: f32 loc(unknown)):
      %93 = arith.addf %arg13, %arg14 : f32 loc(#loc79)
      tt.reduce.return %93 : f32 loc(#loc76)
    }) : (tensor<32x128xf32>) -> tensor<32xf32> loc(#loc76)
    %74 = tt.expand_dims %73 {axis = 1 : i32} : tensor<32xf32> -> tensor<32x1xf32> loc(#loc59)
    %75 = arith.divf %74, %cst_0 : tensor<32x1xf32> loc(#loc60)
    %76 = tt.broadcast %75 : tensor<32x1xf32> -> tensor<32x128xf32> loc(#loc61)
    %77 = arith.subf %71, %76 : tensor<32x128xf32> loc(#loc61)
    %78 = arith.mulf %77, %77 : tensor<32x128xf32> loc(#loc62)
    %79 = arith.select %16, %78, %cst_4 : tensor<32x128xi1>, tensor<32x128xf32> loc(#loc63)
    %80 = "tt.reduce"(%79) <{axis = 1 : i32}> ({
    ^bb0(%arg13: f32 loc(unknown), %arg14: f32 loc(unknown)):
      %93 = arith.addf %arg13, %arg14 : f32 loc(#loc80)
      tt.reduce.return %93 : f32 loc(#loc78)
    }) : (tensor<32x128xf32>) -> tensor<32xf32> loc(#loc78)
    %81 = tt.expand_dims %80 {axis = 1 : i32} : tensor<32xf32> -> tensor<32x1xf32> loc(#loc65)
    %82 = arith.divf %81, %cst_0 : tensor<32x1xf32> loc(#loc66)
    %83 = arith.addf %82, %cst : tensor<32x1xf32> loc(#loc67)
    %84 = tt.extern_elementwise %83 {libname = "", libpath = "", pure = true, symbol = "__nv_rsqrtf"} : (tensor<32x1xf32>) -> tensor<32x1xf32> loc(#loc68)
    %85 = tt.broadcast %84 : tensor<32x1xf32> -> tensor<32x128xf32> loc(#loc69)
    %86 = arith.mulf %77, %85 : tensor<32x128xf32> loc(#loc69)
    %87 = tt.broadcast %51 : tensor<1x128xf32> -> tensor<32x128xf32> loc(#loc70)
    %88 = arith.mulf %86, %87 : tensor<32x128xf32> loc(#loc70)
    %89 = tt.broadcast %54 : tensor<1x128xf32> -> tensor<32x128xf32> loc(#loc71)
    %90 = arith.addf %88, %89 : tensor<32x128xf32> loc(#loc71)
    tt.store %44, %71, %16 : tensor<32x128x!tt.ptr<f32>> loc(#loc72)
    %91 = tt.splat %arg10 : !tt.ptr<f32> -> tensor<32x128x!tt.ptr<f32>> loc(#loc73)
    %92 = tt.addptr %91, %33 : tensor<32x128x!tt.ptr<f32>>, tensor<32x128xi32> loc(#loc73)
    tt.store %92, %90, %16 : tensor<32x128x!tt.ptr<f32>> loc(#loc74)
    tt.return loc(#loc75)
  } loc(#loc)
} loc(#loc)
#loc2 = loc("/orcd/home/002/osbo/ondemand/fluid-sim/Assets/Scripts/.torch_inductor_cache/62/c62yyfskkrax2qfdr5waoagoc3lfksyrgegl6soewuptyrr6mysf.py":22:28)
#loc3 = loc("/orcd/home/002/osbo/ondemand/fluid-sim/Assets/Scripts/.torch_inductor_cache/62/c62yyfskkrax2qfdr5waoagoc3lfksyrgegl6soewuptyrr6mysf.py":22:33)
#loc4 = loc("/orcd/home/002/osbo/ondemand/fluid-sim/Assets/Scripts/.torch_inductor_cache/62/c62yyfskkrax2qfdr5waoagoc3lfksyrgegl6soewuptyrr6mysf.py":23:36)
#loc5 = loc("/orcd/home/002/osbo/ondemand/fluid-sim/Assets/Scripts/.torch_inductor_cache/62/c62yyfskkrax2qfdr5waoagoc3lfksyrgegl6soewuptyrr6mysf.py":23:44)
#loc6 = loc("/orcd/home/002/osbo/ondemand/fluid-sim/Assets/Scripts/.torch_inductor_cache/62/c62yyfskkrax2qfdr5waoagoc3lfksyrgegl6soewuptyrr6mysf.py":23:23)
#loc7 = loc("/orcd/home/002/osbo/ondemand/fluid-sim/Assets/Scripts/.torch_inductor_cache/62/c62yyfskkrax2qfdr5waoagoc3lfksyrgegl6soewuptyrr6mysf.py":24:21)
#loc8 = loc("/orcd/home/002/osbo/ondemand/fluid-sim/Assets/Scripts/.torch_inductor_cache/62/c62yyfskkrax2qfdr5waoagoc3lfksyrgegl6soewuptyrr6mysf.py":25:26)
#loc9 = loc("/orcd/home/002/osbo/ondemand/fluid-sim/Assets/Scripts/.torch_inductor_cache/62/c62yyfskkrax2qfdr5waoagoc3lfksyrgegl6soewuptyrr6mysf.py":25:34)
#loc10 = loc("/orcd/home/002/osbo/ondemand/fluid-sim/Assets/Scripts/.torch_inductor_cache/62/c62yyfskkrax2qfdr5waoagoc3lfksyrgegl6soewuptyrr6mysf.py":30:20)
#loc11 = loc("/orcd/home/002/osbo/ondemand/fluid-sim/Assets/Scripts/.torch_inductor_cache/62/c62yyfskkrax2qfdr5waoagoc3lfksyrgegl6soewuptyrr6mysf.py":31:40)
#loc12 = loc("/orcd/home/002/osbo/ondemand/fluid-sim/Assets/Scripts/.torch_inductor_cache/62/c62yyfskkrax2qfdr5waoagoc3lfksyrgegl6soewuptyrr6mysf.py":31:36)
#loc13 = loc("/orcd/home/002/osbo/ondemand/fluid-sim/Assets/Scripts/.torch_inductor_cache/62/c62yyfskkrax2qfdr5waoagoc3lfksyrgegl6soewuptyrr6mysf.py":31:30)
#loc14 = loc("/orcd/home/002/osbo/ondemand/fluid-sim/Assets/Scripts/.torch_inductor_cache/62/c62yyfskkrax2qfdr5waoagoc3lfksyrgegl6soewuptyrr6mysf.py":31:46)
#loc15 = loc("/orcd/home/002/osbo/ondemand/fluid-sim/Assets/Scripts/.torch_inductor_cache/62/c62yyfskkrax2qfdr5waoagoc3lfksyrgegl6soewuptyrr6mysf.py":32:30)
#loc16 = loc("/orcd/home/002/osbo/ondemand/fluid-sim/Assets/Scripts/.torch_inductor_cache/62/c62yyfskkrax2qfdr5waoagoc3lfksyrgegl6soewuptyrr6mysf.py":32:35)
#loc17 = loc("/orcd/home/002/osbo/ondemand/fluid-sim/Assets/Scripts/.torch_inductor_cache/62/c62yyfskkrax2qfdr5waoagoc3lfksyrgegl6soewuptyrr6mysf.py":33:30)
#loc18 = loc("/orcd/home/002/osbo/ondemand/fluid-sim/Assets/Scripts/.torch_inductor_cache/62/c62yyfskkrax2qfdr5waoagoc3lfksyrgegl6soewuptyrr6mysf.py":33:46)
#loc19 = loc("/orcd/home/002/osbo/ondemand/fluid-sim/Assets/Scripts/.torch_inductor_cache/62/c62yyfskkrax2qfdr5waoagoc3lfksyrgegl6soewuptyrr6mysf.py":34:36)
#loc20 = loc("/orcd/home/002/osbo/ondemand/fluid-sim/Assets/Scripts/.torch_inductor_cache/62/c62yyfskkrax2qfdr5waoagoc3lfksyrgegl6soewuptyrr6mysf.py":34:42)
#loc21 = loc("/orcd/home/002/osbo/ondemand/fluid-sim/Assets/Scripts/.torch_inductor_cache/62/c62yyfskkrax2qfdr5waoagoc3lfksyrgegl6soewuptyrr6mysf.py":34:30)
#loc22 = loc("/orcd/home/002/osbo/ondemand/fluid-sim/Assets/Scripts/.torch_inductor_cache/62/c62yyfskkrax2qfdr5waoagoc3lfksyrgegl6soewuptyrr6mysf.py":34:52)
#loc23 = loc("/orcd/home/002/osbo/ondemand/fluid-sim/Assets/Scripts/.torch_inductor_cache/62/c62yyfskkrax2qfdr5waoagoc3lfksyrgegl6soewuptyrr6mysf.py":35:30)
#loc24 = loc("/orcd/home/002/osbo/ondemand/fluid-sim/Assets/Scripts/.torch_inductor_cache/62/c62yyfskkrax2qfdr5waoagoc3lfksyrgegl6soewuptyrr6mysf.py":35:52)
#loc25 = loc("/orcd/home/002/osbo/ondemand/fluid-sim/Assets/Scripts/.torch_inductor_cache/62/c62yyfskkrax2qfdr5waoagoc3lfksyrgegl6soewuptyrr6mysf.py":36:41)
#loc26 = loc("/orcd/home/002/osbo/ondemand/fluid-sim/Assets/Scripts/.torch_inductor_cache/62/c62yyfskkrax2qfdr5waoagoc3lfksyrgegl6soewuptyrr6mysf.py":36:37)
#loc27 = loc("/orcd/home/002/osbo/ondemand/fluid-sim/Assets/Scripts/.torch_inductor_cache/62/c62yyfskkrax2qfdr5waoagoc3lfksyrgegl6soewuptyrr6mysf.py":36:31)
#loc28 = loc("/orcd/home/002/osbo/ondemand/fluid-sim/Assets/Scripts/.torch_inductor_cache/62/c62yyfskkrax2qfdr5waoagoc3lfksyrgegl6soewuptyrr6mysf.py":36:47)
#loc29 = loc("/orcd/home/002/osbo/ondemand/fluid-sim/Assets/Scripts/.torch_inductor_cache/62/c62yyfskkrax2qfdr5waoagoc3lfksyrgegl6soewuptyrr6mysf.py":37:31)
#loc30 = loc("/orcd/home/002/osbo/ondemand/fluid-sim/Assets/Scripts/.torch_inductor_cache/62/c62yyfskkrax2qfdr5waoagoc3lfksyrgegl6soewuptyrr6mysf.py":37:47)
#loc31 = loc("/orcd/home/002/osbo/ondemand/fluid-sim/Assets/Scripts/.torch_inductor_cache/62/c62yyfskkrax2qfdr5waoagoc3lfksyrgegl6soewuptyrr6mysf.py":38:31)
#loc32 = loc("/orcd/home/002/osbo/ondemand/fluid-sim/Assets/Scripts/.torch_inductor_cache/62/c62yyfskkrax2qfdr5waoagoc3lfksyrgegl6soewuptyrr6mysf.py":38:36)
#loc33 = loc("/orcd/home/002/osbo/ondemand/fluid-sim/Assets/Scripts/.torch_inductor_cache/62/c62yyfskkrax2qfdr5waoagoc3lfksyrgegl6soewuptyrr6mysf.py":39:35)
#loc34 = loc("/orcd/home/002/osbo/ondemand/fluid-sim/Assets/Scripts/.torch_inductor_cache/62/c62yyfskkrax2qfdr5waoagoc3lfksyrgegl6soewuptyrr6mysf.py":39:51)
#loc35 = loc("/orcd/home/002/osbo/ondemand/fluid-sim/Assets/Scripts/.torch_inductor_cache/62/c62yyfskkrax2qfdr5waoagoc3lfksyrgegl6soewuptyrr6mysf.py":40:31)
#loc36 = loc("/orcd/home/002/osbo/ondemand/fluid-sim/Assets/Scripts/.torch_inductor_cache/62/c62yyfskkrax2qfdr5waoagoc3lfksyrgegl6soewuptyrr6mysf.py":40:36)
#loc37 = loc("/orcd/home/002/osbo/ondemand/fluid-sim/Assets/Scripts/.torch_inductor_cache/62/c62yyfskkrax2qfdr5waoagoc3lfksyrgegl6soewuptyrr6mysf.py":41:31)
#loc38 = loc("/orcd/home/002/osbo/ondemand/fluid-sim/Assets/Scripts/.torch_inductor_cache/62/c62yyfskkrax2qfdr5waoagoc3lfksyrgegl6soewuptyrr6mysf.py":41:36)
#loc39 = loc("/orcd/home/002/osbo/ondemand/fluid-sim/Assets/Scripts/.torch_inductor_cache/62/c62yyfskkrax2qfdr5waoagoc3lfksyrgegl6soewuptyrr6mysf.py":42:31)
#loc40 = loc("/orcd/home/002/osbo/ondemand/fluid-sim/Assets/Scripts/.torch_inductor_cache/62/c62yyfskkrax2qfdr5waoagoc3lfksyrgegl6soewuptyrr6mysf.py":42:36)
#loc41 = loc("/orcd/home/002/osbo/ondemand/fluid-sim/Assets/Scripts/.torch_inductor_cache/62/c62yyfskkrax2qfdr5waoagoc3lfksyrgegl6soewuptyrr6mysf.py":43:19)
#loc42 = loc("/orcd/home/002/osbo/ondemand/fluid-sim/Assets/Scripts/.torch_inductor_cache/62/c62yyfskkrax2qfdr5waoagoc3lfksyrgegl6soewuptyrr6mysf.py":44:18)
#loc43 = loc("/orcd/home/002/osbo/ondemand/fluid-sim/Assets/Scripts/.torch_inductor_cache/62/c62yyfskkrax2qfdr5waoagoc3lfksyrgegl6soewuptyrr6mysf.py":45:18)
#loc44 = loc("/orcd/home/002/osbo/ondemand/fluid-sim/Assets/Scripts/.torch_inductor_cache/62/c62yyfskkrax2qfdr5waoagoc3lfksyrgegl6soewuptyrr6mysf.py":46:18)
#loc45 = loc("/orcd/home/002/osbo/ondemand/fluid-sim/Assets/Scripts/.torch_inductor_cache/62/c62yyfskkrax2qfdr5waoagoc3lfksyrgegl6soewuptyrr6mysf.py":47:18)
#loc46 = loc("/orcd/home/002/osbo/ondemand/fluid-sim/Assets/Scripts/.torch_inductor_cache/62/c62yyfskkrax2qfdr5waoagoc3lfksyrgegl6soewuptyrr6mysf.py":48:19)
#loc47 = loc("/orcd/home/002/osbo/ondemand/fluid-sim/Assets/Scripts/.torch_inductor_cache/62/c62yyfskkrax2qfdr5waoagoc3lfksyrgegl6soewuptyrr6mysf.py":49:19)
#loc48 = loc("/orcd/home/002/osbo/ondemand/fluid-sim/Assets/Scripts/.torch_inductor_cache/62/c62yyfskkrax2qfdr5waoagoc3lfksyrgegl6soewuptyrr6mysf.py":50:19)
#loc49 = loc("/orcd/home/002/osbo/ondemand/fluid-sim/Assets/Scripts/.torch_inductor_cache/62/c62yyfskkrax2qfdr5waoagoc3lfksyrgegl6soewuptyrr6mysf.py":52:20)
#loc50 = loc("/orcd/home/002/osbo/ondemand/fluid-sim/Assets/Scripts/.torch_inductor_cache/62/c62yyfskkrax2qfdr5waoagoc3lfksyrgegl6soewuptyrr6mysf.py":53:20)
#loc51 = loc("/orcd/home/002/osbo/ondemand/fluid-sim/Assets/Scripts/.torch_inductor_cache/62/c62yyfskkrax2qfdr5waoagoc3lfksyrgegl6soewuptyrr6mysf.py":54:20)
#loc52 = loc("/orcd/home/002/osbo/ondemand/fluid-sim/Assets/Scripts/.torch_inductor_cache/62/c62yyfskkrax2qfdr5waoagoc3lfksyrgegl6soewuptyrr6mysf.py":55:20)
#loc53 = loc("/orcd/home/002/osbo/ondemand/fluid-sim/Assets/Scripts/.torch_inductor_cache/62/c62yyfskkrax2qfdr5waoagoc3lfksyrgegl6soewuptyrr6mysf.py":56:20)
#loc54 = loc("/orcd/home/002/osbo/ondemand/fluid-sim/Assets/Scripts/.torch_inductor_cache/62/c62yyfskkrax2qfdr5waoagoc3lfksyrgegl6soewuptyrr6mysf.py":57:20)
#loc55 = loc("/orcd/home/002/osbo/ondemand/fluid-sim/Assets/Scripts/.torch_inductor_cache/62/c62yyfskkrax2qfdr5waoagoc3lfksyrgegl6soewuptyrr6mysf.py":61:35)
#loc56 = loc("/home/osbo/.conda/envs/fluid/lib/python3.12/site-packages/triton/language/standard.py":267:36)
#loc57 = loc("/orcd/home/002/osbo/ondemand/fluid-sim/Assets/Scripts/.torch_inductor_cache/62/c62yyfskkrax2qfdr5waoagoc3lfksyrgegl6soewuptyrr6mysf.py":62:26)
#loc58 = loc("/home/osbo/.conda/envs/fluid/lib/python3.12/site-packages/triton/language/standard.py":256:15)
#loc59 = loc("/orcd/home/002/osbo/ondemand/fluid-sim/Assets/Scripts/.torch_inductor_cache/62/c62yyfskkrax2qfdr5waoagoc3lfksyrgegl6soewuptyrr6mysf.py":62:29)
#loc60 = loc("/orcd/home/002/osbo/ondemand/fluid-sim/Assets/Scripts/.torch_inductor_cache/62/c62yyfskkrax2qfdr5waoagoc3lfksyrgegl6soewuptyrr6mysf.py":65:20)
#loc61 = loc("/orcd/home/002/osbo/ondemand/fluid-sim/Assets/Scripts/.torch_inductor_cache/62/c62yyfskkrax2qfdr5waoagoc3lfksyrgegl6soewuptyrr6mysf.py":66:20)
#loc62 = loc("/orcd/home/002/osbo/ondemand/fluid-sim/Assets/Scripts/.torch_inductor_cache/62/c62yyfskkrax2qfdr5waoagoc3lfksyrgegl6soewuptyrr6mysf.py":67:20)
#loc63 = loc("/orcd/home/002/osbo/ondemand/fluid-sim/Assets/Scripts/.torch_inductor_cache/62/c62yyfskkrax2qfdr5waoagoc3lfksyrgegl6soewuptyrr6mysf.py":69:35)
#loc64 = loc("/orcd/home/002/osbo/ondemand/fluid-sim/Assets/Scripts/.torch_inductor_cache/62/c62yyfskkrax2qfdr5waoagoc3lfksyrgegl6soewuptyrr6mysf.py":70:26)
#loc65 = loc("/orcd/home/002/osbo/ondemand/fluid-sim/Assets/Scripts/.torch_inductor_cache/62/c62yyfskkrax2qfdr5waoagoc3lfksyrgegl6soewuptyrr6mysf.py":70:29)
#loc66 = loc("/orcd/home/002/osbo/ondemand/fluid-sim/Assets/Scripts/.torch_inductor_cache/62/c62yyfskkrax2qfdr5waoagoc3lfksyrgegl6soewuptyrr6mysf.py":73:20)
#loc67 = loc("/orcd/home/002/osbo/ondemand/fluid-sim/Assets/Scripts/.torch_inductor_cache/62/c62yyfskkrax2qfdr5waoagoc3lfksyrgegl6soewuptyrr6mysf.py":75:20)
#loc68 = loc("/orcd/home/002/osbo/ondemand/fluid-sim/Assets/Scripts/.torch_inductor_cache/62/c62yyfskkrax2qfdr5waoagoc3lfksyrgegl6soewuptyrr6mysf.py":76:28)
#loc69 = loc("/orcd/home/002/osbo/ondemand/fluid-sim/Assets/Scripts/.torch_inductor_cache/62/c62yyfskkrax2qfdr5waoagoc3lfksyrgegl6soewuptyrr6mysf.py":77:20)
#loc70 = loc("/orcd/home/002/osbo/ondemand/fluid-sim/Assets/Scripts/.torch_inductor_cache/62/c62yyfskkrax2qfdr5waoagoc3lfksyrgegl6soewuptyrr6mysf.py":78:20)
#loc71 = loc("/orcd/home/002/osbo/ondemand/fluid-sim/Assets/Scripts/.torch_inductor_cache/62/c62yyfskkrax2qfdr5waoagoc3lfksyrgegl6soewuptyrr6mysf.py":79:20)
#loc72 = loc("/orcd/home/002/osbo/ondemand/fluid-sim/Assets/Scripts/.torch_inductor_cache/62/c62yyfskkrax2qfdr5waoagoc3lfksyrgegl6soewuptyrr6mysf.py":80:51)
#loc73 = loc("/orcd/home/002/osbo/ondemand/fluid-sim/Assets/Scripts/.torch_inductor_cache/62/c62yyfskkrax2qfdr5waoagoc3lfksyrgegl6soewuptyrr6mysf.py":81:25)
#loc74 = loc("/orcd/home/002/osbo/ondemand/fluid-sim/Assets/Scripts/.torch_inductor_cache/62/c62yyfskkrax2qfdr5waoagoc3lfksyrgegl6soewuptyrr6mysf.py":81:48)
#loc75 = loc("/orcd/home/002/osbo/ondemand/fluid-sim/Assets/Scripts/.torch_inductor_cache/62/c62yyfskkrax2qfdr5waoagoc3lfksyrgegl6soewuptyrr6mysf.py":81:4)
#loc76 = loc(callsite(#loc56 at #loc57))
#loc77 = loc(callsite(#loc58 at #loc56))
#loc78 = loc(callsite(#loc56 at #loc64))
#loc79 = loc(callsite(#loc77 at #loc57))
#loc80 = loc(callsite(#loc77 at #loc64))
