#loc = loc("/orcd/home/002/osbo/ondemand/fluid-sim/Assets/Scripts/.torch_inductor_cache/gp/cgpdmmqcslawkfd4gvn67nu65gsuxc7ln42x5xxcv7gq3qpj2jvq.py":18:0)
module {
  tt.func public @triton_(%arg0: !tt.ptr<f32> {tt.divisibility = 16 : i32} loc("/orcd/home/002/osbo/ondemand/fluid-sim/Assets/Scripts/.torch_inductor_cache/gp/cgpdmmqcslawkfd4gvn67nu65gsuxc7ln42x5xxcv7gq3qpj2jvq.py":18:0), %arg1: !tt.ptr<f32> {tt.divisibility = 16 : i32} loc("/orcd/home/002/osbo/ondemand/fluid-sim/Assets/Scripts/.torch_inductor_cache/gp/cgpdmmqcslawkfd4gvn67nu65gsuxc7ln42x5xxcv7gq3qpj2jvq.py":18:0), %arg2: !tt.ptr<f32> {tt.divisibility = 16 : i32} loc("/orcd/home/002/osbo/ondemand/fluid-sim/Assets/Scripts/.torch_inductor_cache/gp/cgpdmmqcslawkfd4gvn67nu65gsuxc7ln42x5xxcv7gq3qpj2jvq.py":18:0), %arg3: i32 {tt.divisibility = 16 : i32} loc("/orcd/home/002/osbo/ondemand/fluid-sim/Assets/Scripts/.torch_inductor_cache/gp/cgpdmmqcslawkfd4gvn67nu65gsuxc7ln42x5xxcv7gq3qpj2jvq.py":18:0), %arg4: i32 loc("/orcd/home/002/osbo/ondemand/fluid-sim/Assets/Scripts/.torch_inductor_cache/gp/cgpdmmqcslawkfd4gvn67nu65gsuxc7ln42x5xxcv7gq3qpj2jvq.py":18:0)) attributes {noinline = false} {
    %cst = arith.constant dense<65> : tensor<1x32xi32> loc(#loc1)
    %cst_0 = arith.constant dense<12480> : tensor<1x32xi32> loc(#loc1)
    %cst_1 = arith.constant dense<192> : tensor<32x1xi32> loc(#loc1)
    %cst_2 = arith.constant dense<64> : tensor<1x32xi32> loc(#loc1)
    %cst_3 = arith.constant dense<65> : tensor<32x1xi32> loc(#loc1)
    %cst_4 = arith.constant dense<6976> : tensor<1x32xi32> loc(#loc1)
    %c32_i32 = arith.constant 32 : i32 loc(#loc1)
    %0 = tt.get_program_id y : i32 loc(#loc2)
    %1 = arith.muli %0, %c32_i32 : i32 loc(#loc3)
    %2 = tt.make_range {end = 32 : i32, start = 0 : i32} : tensor<32xi32> loc(#loc4)
    %3 = tt.expand_dims %2 {axis = 0 : i32} : tensor<32xi32> -> tensor<1x32xi32> loc(#loc5)
    %4 = tt.splat %1 : i32 -> tensor<1x32xi32> loc(#loc6)
    %5 = arith.addi %4, %3 : tensor<1x32xi32> loc(#loc6)
    %6 = arith.cmpi slt, %5, %cst_4 : tensor<1x32xi32> loc(#loc7)
    %7 = tt.get_program_id x : i32 loc(#loc8)
    %8 = arith.muli %7, %c32_i32 : i32 loc(#loc9)
    %9 = tt.expand_dims %2 {axis = 1 : i32} : tensor<32xi32> -> tensor<32x1xi32> loc(#loc10)
    %10 = tt.splat %8 : i32 -> tensor<32x1xi32> loc(#loc11)
    %11 = arith.addi %10, %9 : tensor<32x1xi32> loc(#loc11)
    %12 = arith.cmpi slt, %11, %cst_3 : tensor<32x1xi32> loc(#loc12)
    %13 = arith.remsi %5, %cst_2 : tensor<1x32xi32> loc(#loc13)
    %14 = arith.divsi %5, %cst_2 : tensor<1x32xi32> loc(#loc14)
    %15 = arith.addi %13, %cst_2 : tensor<1x32xi32> loc(#loc15)
    %16 = arith.muli %11, %cst_1 : tensor<32x1xi32> loc(#loc16)
    %17 = tt.broadcast %15 : tensor<1x32xi32> -> tensor<32x32xi32> loc(#loc17)
    %18 = tt.broadcast %16 : tensor<32x1xi32> -> tensor<32x32xi32> loc(#loc17)
    %19 = arith.addi %17, %18 : tensor<32x32xi32> loc(#loc17)
    %20 = arith.muli %14, %cst_0 : tensor<1x32xi32> loc(#loc18)
    %21 = tt.broadcast %20 : tensor<1x32xi32> -> tensor<32x32xi32> loc(#loc19)
    %22 = arith.addi %19, %21 : tensor<32x32xi32> loc(#loc19)
    %23 = tt.splat %arg0 : !tt.ptr<f32> -> tensor<32x32x!tt.ptr<f32>> loc(#loc20)
    %24 = tt.addptr %23, %22 : tensor<32x32x!tt.ptr<f32>>, tensor<32x32xi32> loc(#loc20)
    %25 = tt.broadcast %12 : tensor<32x1xi1> -> tensor<32x32xi1> loc(#loc21)
    %26 = tt.broadcast %6 : tensor<1x32xi1> -> tensor<32x32xi1> loc(#loc21)
    %27 = arith.andi %25, %26 : tensor<32x32xi1> loc(#loc21)
    %28 = tt.load %24, %27 evictionPolicy = evict_last : tensor<32x32x!tt.ptr<f32>> loc(#loc22)
    %29 = tt.splat %arg1 : !tt.ptr<f32> -> tensor<1x32x!tt.ptr<f32>> loc(#loc23)
    %30 = tt.addptr %29, %15 : tensor<1x32x!tt.ptr<f32>>, tensor<1x32xi32> loc(#loc23)
    %31 = tt.load %30, %6 evictionPolicy = evict_last : tensor<1x32x!tt.ptr<f32>> loc(#loc24)
    %32 = tt.broadcast %31 : tensor<1x32xf32> -> tensor<32x32xf32> loc(#loc25)
    %33 = arith.addf %28, %32 : tensor<32x32xf32> loc(#loc25)
    %34 = arith.muli %5, %cst : tensor<1x32xi32> loc(#loc26)
    %35 = tt.broadcast %11 : tensor<32x1xi32> -> tensor<32x32xi32> loc(#loc27)
    %36 = tt.broadcast %34 : tensor<1x32xi32> -> tensor<32x32xi32> loc(#loc27)
    %37 = arith.addi %35, %36 : tensor<32x32xi32> loc(#loc27)
    %38 = tt.splat %arg2 : !tt.ptr<f32> -> tensor<32x32x!tt.ptr<f32>> loc(#loc28)
    %39 = tt.addptr %38, %37 : tensor<32x32x!tt.ptr<f32>>, tensor<32x32xi32> loc(#loc28)
    tt.store %39, %33, %27 : tensor<32x32x!tt.ptr<f32>> loc(#loc29)
    tt.return loc(#loc30)
  } loc(#loc)
} loc(#loc)
#loc1 = loc(unknown)
#loc2 = loc("/orcd/home/002/osbo/ondemand/fluid-sim/Assets/Scripts/.torch_inductor_cache/gp/cgpdmmqcslawkfd4gvn67nu65gsuxc7ln42x5xxcv7gq3qpj2jvq.py":21:28)
#loc3 = loc("/orcd/home/002/osbo/ondemand/fluid-sim/Assets/Scripts/.torch_inductor_cache/gp/cgpdmmqcslawkfd4gvn67nu65gsuxc7ln42x5xxcv7gq3qpj2jvq.py":21:33)
#loc4 = loc("/orcd/home/002/osbo/ondemand/fluid-sim/Assets/Scripts/.torch_inductor_cache/gp/cgpdmmqcslawkfd4gvn67nu65gsuxc7ln42x5xxcv7gq3qpj2jvq.py":22:36)
#loc5 = loc("/orcd/home/002/osbo/ondemand/fluid-sim/Assets/Scripts/.torch_inductor_cache/gp/cgpdmmqcslawkfd4gvn67nu65gsuxc7ln42x5xxcv7gq3qpj2jvq.py":22:44)
#loc6 = loc("/orcd/home/002/osbo/ondemand/fluid-sim/Assets/Scripts/.torch_inductor_cache/gp/cgpdmmqcslawkfd4gvn67nu65gsuxc7ln42x5xxcv7gq3qpj2jvq.py":22:23)
#loc7 = loc("/orcd/home/002/osbo/ondemand/fluid-sim/Assets/Scripts/.torch_inductor_cache/gp/cgpdmmqcslawkfd4gvn67nu65gsuxc7ln42x5xxcv7gq3qpj2jvq.py":23:21)
#loc8 = loc("/orcd/home/002/osbo/ondemand/fluid-sim/Assets/Scripts/.torch_inductor_cache/gp/cgpdmmqcslawkfd4gvn67nu65gsuxc7ln42x5xxcv7gq3qpj2jvq.py":24:28)
#loc9 = loc("/orcd/home/002/osbo/ondemand/fluid-sim/Assets/Scripts/.torch_inductor_cache/gp/cgpdmmqcslawkfd4gvn67nu65gsuxc7ln42x5xxcv7gq3qpj2jvq.py":24:33)
#loc10 = loc("/orcd/home/002/osbo/ondemand/fluid-sim/Assets/Scripts/.torch_inductor_cache/gp/cgpdmmqcslawkfd4gvn67nu65gsuxc7ln42x5xxcv7gq3qpj2jvq.py":25:44)
#loc11 = loc("/orcd/home/002/osbo/ondemand/fluid-sim/Assets/Scripts/.torch_inductor_cache/gp/cgpdmmqcslawkfd4gvn67nu65gsuxc7ln42x5xxcv7gq3qpj2jvq.py":25:23)
#loc12 = loc("/orcd/home/002/osbo/ondemand/fluid-sim/Assets/Scripts/.torch_inductor_cache/gp/cgpdmmqcslawkfd4gvn67nu65gsuxc7ln42x5xxcv7gq3qpj2jvq.py":26:21)
#loc13 = loc("/orcd/home/002/osbo/ondemand/fluid-sim/Assets/Scripts/.torch_inductor_cache/gp/cgpdmmqcslawkfd4gvn67nu65gsuxc7ln42x5xxcv7gq3qpj2jvq.py":28:18)
#loc14 = loc("/orcd/home/002/osbo/ondemand/fluid-sim/Assets/Scripts/.torch_inductor_cache/gp/cgpdmmqcslawkfd4gvn67nu65gsuxc7ln42x5xxcv7gq3qpj2jvq.py":29:20)
#loc15 = loc("/orcd/home/002/osbo/ondemand/fluid-sim/Assets/Scripts/.torch_inductor_cache/gp/cgpdmmqcslawkfd4gvn67nu65gsuxc7ln42x5xxcv7gq3qpj2jvq.py":31:35)
#loc16 = loc("/orcd/home/002/osbo/ondemand/fluid-sim/Assets/Scripts/.torch_inductor_cache/gp/cgpdmmqcslawkfd4gvn67nu65gsuxc7ln42x5xxcv7gq3qpj2jvq.py":31:45)
#loc17 = loc("/orcd/home/002/osbo/ondemand/fluid-sim/Assets/Scripts/.torch_inductor_cache/gp/cgpdmmqcslawkfd4gvn67nu65gsuxc7ln42x5xxcv7gq3qpj2jvq.py":31:41)
#loc18 = loc("/orcd/home/002/osbo/ondemand/fluid-sim/Assets/Scripts/.torch_inductor_cache/gp/cgpdmmqcslawkfd4gvn67nu65gsuxc7ln42x5xxcv7gq3qpj2jvq.py":31:58)
#loc19 = loc("/orcd/home/002/osbo/ondemand/fluid-sim/Assets/Scripts/.torch_inductor_cache/gp/cgpdmmqcslawkfd4gvn67nu65gsuxc7ln42x5xxcv7gq3qpj2jvq.py":31:52)
#loc20 = loc("/orcd/home/002/osbo/ondemand/fluid-sim/Assets/Scripts/.torch_inductor_cache/gp/cgpdmmqcslawkfd4gvn67nu65gsuxc7ln42x5xxcv7gq3qpj2jvq.py":31:30)
#loc21 = loc("/orcd/home/002/osbo/ondemand/fluid-sim/Assets/Scripts/.torch_inductor_cache/gp/cgpdmmqcslawkfd4gvn67nu65gsuxc7ln42x5xxcv7gq3qpj2jvq.py":31:72)
#loc22 = loc("/orcd/home/002/osbo/ondemand/fluid-sim/Assets/Scripts/.torch_inductor_cache/gp/cgpdmmqcslawkfd4gvn67nu65gsuxc7ln42x5xxcv7gq3qpj2jvq.py":31:64)
#loc23 = loc("/orcd/home/002/osbo/ondemand/fluid-sim/Assets/Scripts/.torch_inductor_cache/gp/cgpdmmqcslawkfd4gvn67nu65gsuxc7ln42x5xxcv7gq3qpj2jvq.py":32:30)
#loc24 = loc("/orcd/home/002/osbo/ondemand/fluid-sim/Assets/Scripts/.torch_inductor_cache/gp/cgpdmmqcslawkfd4gvn67nu65gsuxc7ln42x5xxcv7gq3qpj2jvq.py":32:40)
#loc25 = loc("/orcd/home/002/osbo/ondemand/fluid-sim/Assets/Scripts/.torch_inductor_cache/gp/cgpdmmqcslawkfd4gvn67nu65gsuxc7ln42x5xxcv7gq3qpj2jvq.py":33:18)
#loc26 = loc("/orcd/home/002/osbo/ondemand/fluid-sim/Assets/Scripts/.torch_inductor_cache/gp/cgpdmmqcslawkfd4gvn67nu65gsuxc7ln42x5xxcv7gq3qpj2jvq.py":34:34)
#loc27 = loc("/orcd/home/002/osbo/ondemand/fluid-sim/Assets/Scripts/.torch_inductor_cache/gp/cgpdmmqcslawkfd4gvn67nu65gsuxc7ln42x5xxcv7gq3qpj2jvq.py":34:31)
#loc28 = loc("/orcd/home/002/osbo/ondemand/fluid-sim/Assets/Scripts/.torch_inductor_cache/gp/cgpdmmqcslawkfd4gvn67nu65gsuxc7ln42x5xxcv7gq3qpj2jvq.py":34:25)
#loc29 = loc("/orcd/home/002/osbo/ondemand/fluid-sim/Assets/Scripts/.torch_inductor_cache/gp/cgpdmmqcslawkfd4gvn67nu65gsuxc7ln42x5xxcv7gq3qpj2jvq.py":34:46)
#loc30 = loc("/orcd/home/002/osbo/ondemand/fluid-sim/Assets/Scripts/.torch_inductor_cache/gp/cgpdmmqcslawkfd4gvn67nu65gsuxc7ln42x5xxcv7gq3qpj2jvq.py":34:4)
