#loc = loc("/orcd/home/002/osbo/ondemand/fluid-sim/Assets/Scripts/.torch_inductor_cache/oh/cohtikkmfrkf7j2mmpprdxndfv3lerfe5yunnpxoqrtqlu4yssvq.py":18:0)
#loc1 = loc(unknown)
module {
  tt.func public @triton_(%arg0: !tt.ptr<f32> {tt.divisibility = 16 : i32} loc("/orcd/home/002/osbo/ondemand/fluid-sim/Assets/Scripts/.torch_inductor_cache/oh/cohtikkmfrkf7j2mmpprdxndfv3lerfe5yunnpxoqrtqlu4yssvq.py":18:0), %arg1: !tt.ptr<f32> {tt.divisibility = 16 : i32} loc("/orcd/home/002/osbo/ondemand/fluid-sim/Assets/Scripts/.torch_inductor_cache/oh/cohtikkmfrkf7j2mmpprdxndfv3lerfe5yunnpxoqrtqlu4yssvq.py":18:0), %arg2: i32 {tt.divisibility = 16 : i32} loc("/orcd/home/002/osbo/ondemand/fluid-sim/Assets/Scripts/.torch_inductor_cache/oh/cohtikkmfrkf7j2mmpprdxndfv3lerfe5yunnpxoqrtqlu4yssvq.py":18:0), %arg3: i32 loc("/orcd/home/002/osbo/ondemand/fluid-sim/Assets/Scripts/.torch_inductor_cache/oh/cohtikkmfrkf7j2mmpprdxndfv3lerfe5yunnpxoqrtqlu4yssvq.py":18:0)) attributes {noinline = false} {
    %cst = arith.constant dense<0.000000e+00> : tensor<128x32xf32> loc(#loc1)
    %cst_0 = arith.constant dense<2176> : tensor<128x1xi32> loc(#loc1)
    %cst_1 = arith.constant dense<272> : tensor<128x1xi32> loc(#loc1)
    %cst_2 = arith.constant dense<17> : tensor<128x1xi32> loc(#loc1)
    %cst_3 = arith.constant dense<128> : tensor<128x1xi32> loc(#loc1)
    %cst_4 = arith.constant dense<16> : tensor<128x1xi32> loc(#loc1)
    %cst_5 = arith.constant dense<8> : tensor<128x1xi32> loc(#loc1)
    %cst_6 = arith.constant dense<17> : tensor<1x32xi32> loc(#loc1)
    %c128_i32 = arith.constant 128 : i32 loc(#loc1)
    %0 = tt.get_program_id x : i32 loc(#loc2)
    %1 = arith.muli %0, %c128_i32 : i32 loc(#loc3)
    %2 = tt.make_range {end = 128 : i32, start = 0 : i32} : tensor<128xi32> loc(#loc4)
    %3 = tt.expand_dims %2 {axis = 1 : i32} : tensor<128xi32> -> tensor<128x1xi32> loc(#loc5)
    %4 = tt.splat %1 : i32 -> tensor<128x1xi32> loc(#loc6)
    %5 = arith.addi %4, %3 : tensor<128x1xi32> loc(#loc6)
    %6 = tt.make_range {end = 32 : i32, start = 0 : i32} : tensor<32xi32> loc(#loc7)
    %7 = tt.expand_dims %6 {axis = 0 : i32} : tensor<32xi32> -> tensor<1x32xi32> loc(#loc8)
    %8 = arith.cmpi slt, %7, %cst_6 : tensor<1x32xi32> loc(#loc9)
    %9 = arith.remsi %5, %cst_5 : tensor<128x1xi32> loc(#loc10)
    %10 = arith.divsi %5, %cst_5 : tensor<128x1xi32> loc(#loc11)
    %11 = arith.remsi %10, %cst_4 : tensor<128x1xi32> loc(#loc12)
    %12 = arith.divsi %5, %cst_3 : tensor<128x1xi32> loc(#loc13)
    %13 = arith.muli %11, %cst_2 : tensor<128x1xi32> loc(#loc14)
    %14 = tt.broadcast %7 : tensor<1x32xi32> -> tensor<128x32xi32> loc(#loc15)
    %15 = tt.broadcast %13 : tensor<128x1xi32> -> tensor<128x32xi32> loc(#loc15)
    %16 = arith.addi %14, %15 : tensor<128x32xi32> loc(#loc15)
    %17 = arith.muli %9, %cst_1 : tensor<128x1xi32> loc(#loc16)
    %18 = tt.broadcast %17 : tensor<128x1xi32> -> tensor<128x32xi32> loc(#loc17)
    %19 = arith.addi %16, %18 : tensor<128x32xi32> loc(#loc17)
    %20 = arith.muli %12, %cst_0 : tensor<128x1xi32> loc(#loc18)
    %21 = tt.broadcast %20 : tensor<128x1xi32> -> tensor<128x32xi32> loc(#loc19)
    %22 = arith.addi %19, %21 : tensor<128x32xi32> loc(#loc19)
    %23 = tt.splat %arg0 : !tt.ptr<f32> -> tensor<128x32x!tt.ptr<f32>> loc(#loc20)
    %24 = tt.addptr %23, %22 : tensor<128x32x!tt.ptr<f32>>, tensor<128x32xi32> loc(#loc20)
    %25 = tt.broadcast %8 : tensor<1x32xi1> -> tensor<128x32xi1> loc(#loc21)
    %26 = tt.load %24, %25, %cst : tensor<128x32x!tt.ptr<f32>> loc(#loc21)
    %27 = arith.select %25, %26, %cst : tensor<128x32xi1>, tensor<128x32xf32> loc(#loc22)
    %28 = "tt.reduce"(%27) <{axis = 1 : i32}> ({
    ^bb0(%arg4: f32 loc(unknown), %arg5: f32 loc(unknown)):
      %32 = arith.addf %arg4, %arg5 : f32 loc(#loc32)
      tt.reduce.return %32 : f32 loc(#loc30)
    }) : (tensor<128x32xf32>) -> tensor<128xf32> loc(#loc30)
    %29 = tt.expand_dims %28 {axis = 1 : i32} : tensor<128xf32> -> tensor<128x1xf32> loc(#loc26)
    %30 = tt.splat %arg1 : !tt.ptr<f32> -> tensor<128x1x!tt.ptr<f32>> loc(#loc27)
    %31 = tt.addptr %30, %5 : tensor<128x1x!tt.ptr<f32>>, tensor<128x1xi32> loc(#loc27)
    tt.store %31, %29 : tensor<128x1x!tt.ptr<f32>> loc(#loc28)
    tt.return loc(#loc29)
  } loc(#loc)
} loc(#loc)
#loc2 = loc("/orcd/home/002/osbo/ondemand/fluid-sim/Assets/Scripts/.torch_inductor_cache/oh/cohtikkmfrkf7j2mmpprdxndfv3lerfe5yunnpxoqrtqlu4yssvq.py":22:28)
#loc3 = loc("/orcd/home/002/osbo/ondemand/fluid-sim/Assets/Scripts/.torch_inductor_cache/oh/cohtikkmfrkf7j2mmpprdxndfv3lerfe5yunnpxoqrtqlu4yssvq.py":22:33)
#loc4 = loc("/orcd/home/002/osbo/ondemand/fluid-sim/Assets/Scripts/.torch_inductor_cache/oh/cohtikkmfrkf7j2mmpprdxndfv3lerfe5yunnpxoqrtqlu4yssvq.py":23:36)
#loc5 = loc("/orcd/home/002/osbo/ondemand/fluid-sim/Assets/Scripts/.torch_inductor_cache/oh/cohtikkmfrkf7j2mmpprdxndfv3lerfe5yunnpxoqrtqlu4yssvq.py":23:44)
#loc6 = loc("/orcd/home/002/osbo/ondemand/fluid-sim/Assets/Scripts/.torch_inductor_cache/oh/cohtikkmfrkf7j2mmpprdxndfv3lerfe5yunnpxoqrtqlu4yssvq.py":23:23)
#loc7 = loc("/orcd/home/002/osbo/ondemand/fluid-sim/Assets/Scripts/.torch_inductor_cache/oh/cohtikkmfrkf7j2mmpprdxndfv3lerfe5yunnpxoqrtqlu4yssvq.py":25:26)
#loc8 = loc("/orcd/home/002/osbo/ondemand/fluid-sim/Assets/Scripts/.torch_inductor_cache/oh/cohtikkmfrkf7j2mmpprdxndfv3lerfe5yunnpxoqrtqlu4yssvq.py":25:34)
#loc9 = loc("/orcd/home/002/osbo/ondemand/fluid-sim/Assets/Scripts/.torch_inductor_cache/oh/cohtikkmfrkf7j2mmpprdxndfv3lerfe5yunnpxoqrtqlu4yssvq.py":27:21)
#loc10 = loc("/orcd/home/002/osbo/ondemand/fluid-sim/Assets/Scripts/.torch_inductor_cache/oh/cohtikkmfrkf7j2mmpprdxndfv3lerfe5yunnpxoqrtqlu4yssvq.py":29:18)
#loc11 = loc("/orcd/home/002/osbo/ondemand/fluid-sim/Assets/Scripts/.torch_inductor_cache/oh/cohtikkmfrkf7j2mmpprdxndfv3lerfe5yunnpxoqrtqlu4yssvq.py":30:20)
#loc12 = loc("/orcd/home/002/osbo/ondemand/fluid-sim/Assets/Scripts/.torch_inductor_cache/oh/cohtikkmfrkf7j2mmpprdxndfv3lerfe5yunnpxoqrtqlu4yssvq.py":30:25)
#loc13 = loc("/orcd/home/002/osbo/ondemand/fluid-sim/Assets/Scripts/.torch_inductor_cache/oh/cohtikkmfrkf7j2mmpprdxndfv3lerfe5yunnpxoqrtqlu4yssvq.py":31:20)
#loc14 = loc("/orcd/home/002/osbo/ondemand/fluid-sim/Assets/Scripts/.torch_inductor_cache/oh/cohtikkmfrkf7j2mmpprdxndfv3lerfe5yunnpxoqrtqlu4yssvq.py":33:39)
#loc15 = loc("/orcd/home/002/osbo/ondemand/fluid-sim/Assets/Scripts/.torch_inductor_cache/oh/cohtikkmfrkf7j2mmpprdxndfv3lerfe5yunnpxoqrtqlu4yssvq.py":33:36)
#loc16 = loc("/orcd/home/002/osbo/ondemand/fluid-sim/Assets/Scripts/.torch_inductor_cache/oh/cohtikkmfrkf7j2mmpprdxndfv3lerfe5yunnpxoqrtqlu4yssvq.py":33:50)
#loc17 = loc("/orcd/home/002/osbo/ondemand/fluid-sim/Assets/Scripts/.torch_inductor_cache/oh/cohtikkmfrkf7j2mmpprdxndfv3lerfe5yunnpxoqrtqlu4yssvq.py":33:46)
#loc18 = loc("/orcd/home/002/osbo/ondemand/fluid-sim/Assets/Scripts/.torch_inductor_cache/oh/cohtikkmfrkf7j2mmpprdxndfv3lerfe5yunnpxoqrtqlu4yssvq.py":33:62)
#loc19 = loc("/orcd/home/002/osbo/ondemand/fluid-sim/Assets/Scripts/.torch_inductor_cache/oh/cohtikkmfrkf7j2mmpprdxndfv3lerfe5yunnpxoqrtqlu4yssvq.py":33:57)
#loc20 = loc("/orcd/home/002/osbo/ondemand/fluid-sim/Assets/Scripts/.torch_inductor_cache/oh/cohtikkmfrkf7j2mmpprdxndfv3lerfe5yunnpxoqrtqlu4yssvq.py":33:30)
#loc21 = loc("/orcd/home/002/osbo/ondemand/fluid-sim/Assets/Scripts/.torch_inductor_cache/oh/cohtikkmfrkf7j2mmpprdxndfv3lerfe5yunnpxoqrtqlu4yssvq.py":33:68)
#loc22 = loc("/orcd/home/002/osbo/ondemand/fluid-sim/Assets/Scripts/.torch_inductor_cache/oh/cohtikkmfrkf7j2mmpprdxndfv3lerfe5yunnpxoqrtqlu4yssvq.py":35:33)
#loc23 = loc("/home/osbo/.conda/envs/fluid/lib/python3.12/site-packages/triton/language/standard.py":267:36)
#loc24 = loc("/orcd/home/002/osbo/ondemand/fluid-sim/Assets/Scripts/.torch_inductor_cache/oh/cohtikkmfrkf7j2mmpprdxndfv3lerfe5yunnpxoqrtqlu4yssvq.py":36:24)
#loc25 = loc("/home/osbo/.conda/envs/fluid/lib/python3.12/site-packages/triton/language/standard.py":256:15)
#loc26 = loc("/orcd/home/002/osbo/ondemand/fluid-sim/Assets/Scripts/.torch_inductor_cache/oh/cohtikkmfrkf7j2mmpprdxndfv3lerfe5yunnpxoqrtqlu4yssvq.py":36:27)
#loc27 = loc("/orcd/home/002/osbo/ondemand/fluid-sim/Assets/Scripts/.torch_inductor_cache/oh/cohtikkmfrkf7j2mmpprdxndfv3lerfe5yunnpxoqrtqlu4yssvq.py":37:25)
#loc28 = loc("/orcd/home/002/osbo/ondemand/fluid-sim/Assets/Scripts/.torch_inductor_cache/oh/cohtikkmfrkf7j2mmpprdxndfv3lerfe5yunnpxoqrtqlu4yssvq.py":37:36)
#loc29 = loc("/orcd/home/002/osbo/ondemand/fluid-sim/Assets/Scripts/.torch_inductor_cache/oh/cohtikkmfrkf7j2mmpprdxndfv3lerfe5yunnpxoqrtqlu4yssvq.py":37:4)
#loc30 = loc(callsite(#loc23 at #loc24))
#loc31 = loc(callsite(#loc25 at #loc23))
#loc32 = loc(callsite(#loc31 at #loc24))
