#loc = loc("/orcd/home/002/osbo/ondemand/fluid-sim/Assets/Scripts/.torch_inductor_cache/c6/cc6ljsh3jzofj2ohvbt5kkj76chnl2xvcw6xgdo54dccscsvnokl.py":18:0)
module {
  tt.func public @triton_(%arg0: !tt.ptr<f32> {tt.divisibility = 16 : i32} loc("/orcd/home/002/osbo/ondemand/fluid-sim/Assets/Scripts/.torch_inductor_cache/c6/cc6ljsh3jzofj2ohvbt5kkj76chnl2xvcw6xgdo54dccscsvnokl.py":18:0), %arg1: !tt.ptr<f32> {tt.divisibility = 16 : i32} loc("/orcd/home/002/osbo/ondemand/fluid-sim/Assets/Scripts/.torch_inductor_cache/c6/cc6ljsh3jzofj2ohvbt5kkj76chnl2xvcw6xgdo54dccscsvnokl.py":18:0), %arg2: !tt.ptr<f32> {tt.divisibility = 16 : i32} loc("/orcd/home/002/osbo/ondemand/fluid-sim/Assets/Scripts/.torch_inductor_cache/c6/cc6ljsh3jzofj2ohvbt5kkj76chnl2xvcw6xgdo54dccscsvnokl.py":18:0), %arg3: i32 {tt.divisibility = 16 : i32} loc("/orcd/home/002/osbo/ondemand/fluid-sim/Assets/Scripts/.torch_inductor_cache/c6/cc6ljsh3jzofj2ohvbt5kkj76chnl2xvcw6xgdo54dccscsvnokl.py":18:0)) attributes {noinline = false} {
    %cst = arith.constant dense<0.000000e+00> : tensor<512xf32> loc(#loc1)
    %cst_0 = arith.constant dense<12672> : tensor<512xi32> loc(#loc1)
    %cst_1 = arith.constant dense<384> : tensor<512xi32> loc(#loc1)
    %cst_2 = arith.constant dense<8> : tensor<512xi32> loc(#loc1)
    %cst_3 = arith.constant dense<128> : tensor<512xi32> loc(#loc1)
    %cst_4 = arith.constant dense<33> : tensor<512xi64> loc(#loc1)
    %cst_5 = arith.constant dense<576> : tensor<512xi32> loc(#loc1)
    %cst_6 = arith.constant dense<16> : tensor<512xi32> loc(#loc1)
    %cst_7 = arith.constant dense<36> : tensor<512xi32> loc(#loc1)
    %cst_8 = arith.constant dense<1078272> : tensor<512xi32> loc(#loc1)
    %c512_i32 = arith.constant 512 : i32 loc(#loc1)
    %0 = tt.get_program_id x : i32 loc(#loc2)
    %1 = arith.muli %0, %c512_i32 : i32 loc(#loc3)
    %2 = tt.make_range {end = 512 : i32, start = 0 : i32} : tensor<512xi32> loc(#loc4)
    %3 = tt.splat %1 : i32 -> tensor<512xi32> loc(#loc5)
    %4 = arith.addi %3, %2 : tensor<512xi32> loc(#loc5)
    %5 = arith.cmpi slt, %4, %cst_8 : tensor<512xi32> loc(#loc6)
    %6 = arith.remsi %4, %cst_7 : tensor<512xi32> loc(#loc7)
    %7 = arith.divsi %4, %cst_7 : tensor<512xi32> loc(#loc8)
    %8 = arith.remsi %7, %cst_6 : tensor<512xi32> loc(#loc9)
    %9 = arith.divsi %4, %cst_5 : tensor<512xi32> loc(#loc10)
    %10 = arith.extsi %6 : tensor<512xi32> to tensor<512xi64> loc(#loc11)
    %11 = arith.cmpi slt, %10, %cst_4 : tensor<512xi64> loc(#loc11)
    %12 = arith.addi %8, %cst_3 : tensor<512xi32> loc(#loc12)
    %13 = arith.remsi %9, %cst_2 : tensor<512xi32> loc(#loc13)
    %14 = arith.muli %13, %cst_6 : tensor<512xi32> loc(#loc14)
    %15 = arith.addi %12, %14 : tensor<512xi32> loc(#loc15)
    %16 = arith.muli %6, %cst_1 : tensor<512xi32> loc(#loc16)
    %17 = arith.addi %15, %16 : tensor<512xi32> loc(#loc17)
    %18 = arith.divsi %9, %cst_2 : tensor<512xi32> loc(#loc18)
    %19 = arith.muli %18, %cst_0 : tensor<512xi32> loc(#loc19)
    %20 = arith.addi %17, %19 : tensor<512xi32> loc(#loc20)
    %21 = tt.splat %arg0 : !tt.ptr<f32> -> tensor<512x!tt.ptr<f32>> loc(#loc21)
    %22 = tt.addptr %21, %20 : tensor<512x!tt.ptr<f32>>, tensor<512xi32> loc(#loc21)
    %23 = arith.andi %11, %5 : tensor<512xi1> loc(#loc22)
    %24 = tt.load %22, %23, %cst evictionPolicy = evict_last : tensor<512x!tt.ptr<f32>> loc(#loc23)
    %25 = tt.splat %arg1 : !tt.ptr<f32> -> tensor<512x!tt.ptr<f32>> loc(#loc24)
    %26 = tt.addptr %25, %15 : tensor<512x!tt.ptr<f32>>, tensor<512xi32> loc(#loc24)
    %27 = tt.load %26, %23, %cst evictionPolicy = evict_last : tensor<512x!tt.ptr<f32>> loc(#loc25)
    %28 = arith.addf %24, %27 : tensor<512xf32> loc(#loc26)
    %29 = arith.select %11, %28, %cst : tensor<512xi1>, tensor<512xf32> loc(#loc32)
    %30 = tt.splat %arg2 : !tt.ptr<f32> -> tensor<512x!tt.ptr<f32>> loc(#loc29)
    %31 = tt.addptr %30, %4 : tensor<512x!tt.ptr<f32>>, tensor<512xi32> loc(#loc29)
    tt.store %31, %29, %5 : tensor<512x!tt.ptr<f32>> loc(#loc30)
    tt.return loc(#loc31)
  } loc(#loc)
} loc(#loc)
#loc1 = loc(unknown)
#loc2 = loc("/orcd/home/002/osbo/ondemand/fluid-sim/Assets/Scripts/.torch_inductor_cache/c6/cc6ljsh3jzofj2ohvbt5kkj76chnl2xvcw6xgdo54dccscsvnokl.py":20:28)
#loc3 = loc("/orcd/home/002/osbo/ondemand/fluid-sim/Assets/Scripts/.torch_inductor_cache/c6/cc6ljsh3jzofj2ohvbt5kkj76chnl2xvcw6xgdo54dccscsvnokl.py":20:33)
#loc4 = loc("/orcd/home/002/osbo/ondemand/fluid-sim/Assets/Scripts/.torch_inductor_cache/c6/cc6ljsh3jzofj2ohvbt5kkj76chnl2xvcw6xgdo54dccscsvnokl.py":21:36)
#loc5 = loc("/orcd/home/002/osbo/ondemand/fluid-sim/Assets/Scripts/.torch_inductor_cache/c6/cc6ljsh3jzofj2ohvbt5kkj76chnl2xvcw6xgdo54dccscsvnokl.py":21:23)
#loc6 = loc("/orcd/home/002/osbo/ondemand/fluid-sim/Assets/Scripts/.torch_inductor_cache/c6/cc6ljsh3jzofj2ohvbt5kkj76chnl2xvcw6xgdo54dccscsvnokl.py":22:21)
#loc7 = loc("/orcd/home/002/osbo/ondemand/fluid-sim/Assets/Scripts/.torch_inductor_cache/c6/cc6ljsh3jzofj2ohvbt5kkj76chnl2xvcw6xgdo54dccscsvnokl.py":23:18)
#loc8 = loc("/orcd/home/002/osbo/ondemand/fluid-sim/Assets/Scripts/.torch_inductor_cache/c6/cc6ljsh3jzofj2ohvbt5kkj76chnl2xvcw6xgdo54dccscsvnokl.py":24:20)
#loc9 = loc("/orcd/home/002/osbo/ondemand/fluid-sim/Assets/Scripts/.torch_inductor_cache/c6/cc6ljsh3jzofj2ohvbt5kkj76chnl2xvcw6xgdo54dccscsvnokl.py":24:26)
#loc10 = loc("/orcd/home/002/osbo/ondemand/fluid-sim/Assets/Scripts/.torch_inductor_cache/c6/cc6ljsh3jzofj2ohvbt5kkj76chnl2xvcw6xgdo54dccscsvnokl.py":25:20)
#loc11 = loc("/orcd/home/002/osbo/ondemand/fluid-sim/Assets/Scripts/.torch_inductor_cache/c6/cc6ljsh3jzofj2ohvbt5kkj76chnl2xvcw6xgdo54dccscsvnokl.py":31:18)
#loc12 = loc("/orcd/home/002/osbo/ondemand/fluid-sim/Assets/Scripts/.torch_inductor_cache/c6/cc6ljsh3jzofj2ohvbt5kkj76chnl2xvcw6xgdo54dccscsvnokl.py":32:36)
#loc13 = loc("/orcd/home/002/osbo/ondemand/fluid-sim/Assets/Scripts/.torch_inductor_cache/c6/cc6ljsh3jzofj2ohvbt5kkj76chnl2xvcw6xgdo54dccscsvnokl.py":32:51)
#loc14 = loc("/orcd/home/002/osbo/ondemand/fluid-sim/Assets/Scripts/.torch_inductor_cache/c6/cc6ljsh3jzofj2ohvbt5kkj76chnl2xvcw6xgdo54dccscsvnokl.py":32:46)
#loc15 = loc("/orcd/home/002/osbo/ondemand/fluid-sim/Assets/Scripts/.torch_inductor_cache/c6/cc6ljsh3jzofj2ohvbt5kkj76chnl2xvcw6xgdo54dccscsvnokl.py":32:42)
#loc16 = loc("/orcd/home/002/osbo/ondemand/fluid-sim/Assets/Scripts/.torch_inductor_cache/c6/cc6ljsh3jzofj2ohvbt5kkj76chnl2xvcw6xgdo54dccscsvnokl.py":32:62)
#loc17 = loc("/orcd/home/002/osbo/ondemand/fluid-sim/Assets/Scripts/.torch_inductor_cache/c6/cc6ljsh3jzofj2ohvbt5kkj76chnl2xvcw6xgdo54dccscsvnokl.py":32:58)
#loc18 = loc("/orcd/home/002/osbo/ondemand/fluid-sim/Assets/Scripts/.torch_inductor_cache/c6/cc6ljsh3jzofj2ohvbt5kkj76chnl2xvcw6xgdo54dccscsvnokl.py":32:82)
#loc19 = loc("/orcd/home/002/osbo/ondemand/fluid-sim/Assets/Scripts/.torch_inductor_cache/c6/cc6ljsh3jzofj2ohvbt5kkj76chnl2xvcw6xgdo54dccscsvnokl.py":32:76)
#loc20 = loc("/orcd/home/002/osbo/ondemand/fluid-sim/Assets/Scripts/.torch_inductor_cache/c6/cc6ljsh3jzofj2ohvbt5kkj76chnl2xvcw6xgdo54dccscsvnokl.py":32:69)
#loc21 = loc("/orcd/home/002/osbo/ondemand/fluid-sim/Assets/Scripts/.torch_inductor_cache/c6/cc6ljsh3jzofj2ohvbt5kkj76chnl2xvcw6xgdo54dccscsvnokl.py":32:30)
#loc22 = loc("/orcd/home/002/osbo/ondemand/fluid-sim/Assets/Scripts/.torch_inductor_cache/c6/cc6ljsh3jzofj2ohvbt5kkj76chnl2xvcw6xgdo54dccscsvnokl.py":32:95)
#loc23 = loc("/orcd/home/002/osbo/ondemand/fluid-sim/Assets/Scripts/.torch_inductor_cache/c6/cc6ljsh3jzofj2ohvbt5kkj76chnl2xvcw6xgdo54dccscsvnokl.py":32:88)
#loc24 = loc("/orcd/home/002/osbo/ondemand/fluid-sim/Assets/Scripts/.torch_inductor_cache/c6/cc6ljsh3jzofj2ohvbt5kkj76chnl2xvcw6xgdo54dccscsvnokl.py":33:30)
#loc25 = loc("/orcd/home/002/osbo/ondemand/fluid-sim/Assets/Scripts/.torch_inductor_cache/c6/cc6ljsh3jzofj2ohvbt5kkj76chnl2xvcw6xgdo54dccscsvnokl.py":33:57)
#loc26 = loc("/orcd/home/002/osbo/ondemand/fluid-sim/Assets/Scripts/.torch_inductor_cache/c6/cc6ljsh3jzofj2ohvbt5kkj76chnl2xvcw6xgdo54dccscsvnokl.py":34:18)
#loc27 = loc("/orcd/home/002/osbo/ondemand/fluid-sim/Assets/Scripts/.torch_inductor_cache/c6/cc6ljsh3jzofj2ohvbt5kkj76chnl2xvcw6xgdo54dccscsvnokl.py":43:33)
#loc28 = loc("/orcd/home/002/osbo/ondemand/fluid-sim/Assets/Scripts/.torch_inductor_cache/c6/cc6ljsh3jzofj2ohvbt5kkj76chnl2xvcw6xgdo54dccscsvnokl.py":36:32)
#loc29 = loc("/orcd/home/002/osbo/ondemand/fluid-sim/Assets/Scripts/.torch_inductor_cache/c6/cc6ljsh3jzofj2ohvbt5kkj76chnl2xvcw6xgdo54dccscsvnokl.py":44:25)
#loc30 = loc("/orcd/home/002/osbo/ondemand/fluid-sim/Assets/Scripts/.torch_inductor_cache/c6/cc6ljsh3jzofj2ohvbt5kkj76chnl2xvcw6xgdo54dccscsvnokl.py":44:37)
#loc31 = loc("/orcd/home/002/osbo/ondemand/fluid-sim/Assets/Scripts/.torch_inductor_cache/c6/cc6ljsh3jzofj2ohvbt5kkj76chnl2xvcw6xgdo54dccscsvnokl.py":44:4)
#loc32 = loc(fused[#loc27, #loc28])
