#loc = loc("/orcd/home/002/osbo/ondemand/fluid-sim/Assets/Scripts/.torch_inductor_cache/j3/cj3rlo3og4aazhp7hr4d4hhg7kjai5rsbezwipvbmdzdqoruwnre.py":18:0)
module {
  tt.func public @triton_(%arg0: !tt.ptr<f32> {tt.divisibility = 16 : i32} loc("/orcd/home/002/osbo/ondemand/fluid-sim/Assets/Scripts/.torch_inductor_cache/j3/cj3rlo3og4aazhp7hr4d4hhg7kjai5rsbezwipvbmdzdqoruwnre.py":18:0), %arg1: !tt.ptr<f32> {tt.divisibility = 16 : i32} loc("/orcd/home/002/osbo/ondemand/fluid-sim/Assets/Scripts/.torch_inductor_cache/j3/cj3rlo3og4aazhp7hr4d4hhg7kjai5rsbezwipvbmdzdqoruwnre.py":18:0), %arg2: !tt.ptr<f32> {tt.divisibility = 16 : i32} loc("/orcd/home/002/osbo/ondemand/fluid-sim/Assets/Scripts/.torch_inductor_cache/j3/cj3rlo3og4aazhp7hr4d4hhg7kjai5rsbezwipvbmdzdqoruwnre.py":18:0), %arg3: i32 {tt.divisibility = 16 : i32} loc("/orcd/home/002/osbo/ondemand/fluid-sim/Assets/Scripts/.torch_inductor_cache/j3/cj3rlo3og4aazhp7hr4d4hhg7kjai5rsbezwipvbmdzdqoruwnre.py":18:0)) attributes {noinline = false} {
    %cst = arith.constant dense<6144> : tensor<1024xi32> loc(#loc1)
    %cst_0 = arith.constant dense<192> : tensor<1024xi32> loc(#loc1)
    %cst_1 = arith.constant dense<2048> : tensor<1024xi32> loc(#loc1)
    %cst_2 = arith.constant dense<256> : tensor<1024xi32> loc(#loc1)
    %cst_3 = arith.constant dense<32> : tensor<1024xi32> loc(#loc1)
    %cst_4 = arith.constant dense<8> : tensor<1024xi32> loc(#loc1)
    %c1024_i32 = arith.constant 1024 : i32 loc(#loc1)
    %0 = tt.get_program_id x : i32 loc(#loc2)
    %1 = arith.muli %0, %c1024_i32 : i32 loc(#loc3)
    %2 = tt.make_range {end = 1024 : i32, start = 0 : i32} : tensor<1024xi32> loc(#loc4)
    %3 = tt.splat %1 : i32 -> tensor<1024xi32> loc(#loc5)
    %4 = arith.addi %3, %2 : tensor<1024xi32> loc(#loc5)
    %5 = arith.remsi %4, %cst_4 : tensor<1024xi32> loc(#loc6)
    %6 = arith.divsi %4, %cst_4 : tensor<1024xi32> loc(#loc7)
    %7 = arith.remsi %6, %cst_3 : tensor<1024xi32> loc(#loc8)
    %8 = arith.divsi %4, %cst_2 : tensor<1024xi32> loc(#loc9)
    %9 = arith.remsi %8, %cst_4 : tensor<1024xi32> loc(#loc10)
    %10 = arith.divsi %4, %cst_1 : tensor<1024xi32> loc(#loc11)
    %11 = arith.muli %9, %cst_4 : tensor<1024xi32> loc(#loc12)
    %12 = arith.addi %5, %11 : tensor<1024xi32> loc(#loc13)
    %13 = arith.muli %7, %cst_0 : tensor<1024xi32> loc(#loc14)
    %14 = arith.addi %12, %13 : tensor<1024xi32> loc(#loc15)
    %15 = arith.muli %10, %cst : tensor<1024xi32> loc(#loc16)
    %16 = arith.addi %14, %15 : tensor<1024xi32> loc(#loc17)
    %17 = tt.splat %arg0 : !tt.ptr<f32> -> tensor<1024x!tt.ptr<f32>> loc(#loc18)
    %18 = tt.addptr %17, %16 : tensor<1024x!tt.ptr<f32>>, tensor<1024xi32> loc(#loc18)
    %19 = tt.load %18 : tensor<1024x!tt.ptr<f32>> loc(#loc19)
    %20 = tt.splat %arg1 : !tt.ptr<f32> -> tensor<1024x!tt.ptr<f32>> loc(#loc20)
    %21 = tt.addptr %20, %12 : tensor<1024x!tt.ptr<f32>>, tensor<1024xi32> loc(#loc20)
    %22 = tt.load %21 evictionPolicy = evict_last : tensor<1024x!tt.ptr<f32>> loc(#loc21)
    %23 = arith.addf %19, %22 : tensor<1024xf32> loc(#loc22)
    %24 = tt.splat %arg2 : !tt.ptr<f32> -> tensor<1024x!tt.ptr<f32>> loc(#loc23)
    %25 = tt.addptr %24, %4 : tensor<1024x!tt.ptr<f32>>, tensor<1024xi32> loc(#loc23)
    tt.store %25, %23 : tensor<1024x!tt.ptr<f32>> loc(#loc24)
    tt.return loc(#loc25)
  } loc(#loc)
} loc(#loc)
#loc1 = loc(unknown)
#loc2 = loc("/orcd/home/002/osbo/ondemand/fluid-sim/Assets/Scripts/.torch_inductor_cache/j3/cj3rlo3og4aazhp7hr4d4hhg7kjai5rsbezwipvbmdzdqoruwnre.py":20:28)
#loc3 = loc("/orcd/home/002/osbo/ondemand/fluid-sim/Assets/Scripts/.torch_inductor_cache/j3/cj3rlo3og4aazhp7hr4d4hhg7kjai5rsbezwipvbmdzdqoruwnre.py":20:33)
#loc4 = loc("/orcd/home/002/osbo/ondemand/fluid-sim/Assets/Scripts/.torch_inductor_cache/j3/cj3rlo3og4aazhp7hr4d4hhg7kjai5rsbezwipvbmdzdqoruwnre.py":21:36)
#loc5 = loc("/orcd/home/002/osbo/ondemand/fluid-sim/Assets/Scripts/.torch_inductor_cache/j3/cj3rlo3og4aazhp7hr4d4hhg7kjai5rsbezwipvbmdzdqoruwnre.py":21:23)
#loc6 = loc("/orcd/home/002/osbo/ondemand/fluid-sim/Assets/Scripts/.torch_inductor_cache/j3/cj3rlo3og4aazhp7hr4d4hhg7kjai5rsbezwipvbmdzdqoruwnre.py":23:18)
#loc7 = loc("/orcd/home/002/osbo/ondemand/fluid-sim/Assets/Scripts/.torch_inductor_cache/j3/cj3rlo3og4aazhp7hr4d4hhg7kjai5rsbezwipvbmdzdqoruwnre.py":24:20)
#loc8 = loc("/orcd/home/002/osbo/ondemand/fluid-sim/Assets/Scripts/.torch_inductor_cache/j3/cj3rlo3og4aazhp7hr4d4hhg7kjai5rsbezwipvbmdzdqoruwnre.py":24:25)
#loc9 = loc("/orcd/home/002/osbo/ondemand/fluid-sim/Assets/Scripts/.torch_inductor_cache/j3/cj3rlo3og4aazhp7hr4d4hhg7kjai5rsbezwipvbmdzdqoruwnre.py":25:20)
#loc10 = loc("/orcd/home/002/osbo/ondemand/fluid-sim/Assets/Scripts/.torch_inductor_cache/j3/cj3rlo3og4aazhp7hr4d4hhg7kjai5rsbezwipvbmdzdqoruwnre.py":25:27)
#loc11 = loc("/orcd/home/002/osbo/ondemand/fluid-sim/Assets/Scripts/.torch_inductor_cache/j3/cj3rlo3og4aazhp7hr4d4hhg7kjai5rsbezwipvbmdzdqoruwnre.py":26:20)
#loc12 = loc("/orcd/home/002/osbo/ondemand/fluid-sim/Assets/Scripts/.torch_inductor_cache/j3/cj3rlo3og4aazhp7hr4d4hhg7kjai5rsbezwipvbmdzdqoruwnre.py":28:38)
#loc13 = loc("/orcd/home/002/osbo/ondemand/fluid-sim/Assets/Scripts/.torch_inductor_cache/j3/cj3rlo3og4aazhp7hr4d4hhg7kjai5rsbezwipvbmdzdqoruwnre.py":28:36)
#loc14 = loc("/orcd/home/002/osbo/ondemand/fluid-sim/Assets/Scripts/.torch_inductor_cache/j3/cj3rlo3og4aazhp7hr4d4hhg7kjai5rsbezwipvbmdzdqoruwnre.py":28:49)
#loc15 = loc("/orcd/home/002/osbo/ondemand/fluid-sim/Assets/Scripts/.torch_inductor_cache/j3/cj3rlo3og4aazhp7hr4d4hhg7kjai5rsbezwipvbmdzdqoruwnre.py":28:45)
#loc16 = loc("/orcd/home/002/osbo/ondemand/fluid-sim/Assets/Scripts/.torch_inductor_cache/j3/cj3rlo3og4aazhp7hr4d4hhg7kjai5rsbezwipvbmdzdqoruwnre.py":28:61)
#loc17 = loc("/orcd/home/002/osbo/ondemand/fluid-sim/Assets/Scripts/.torch_inductor_cache/j3/cj3rlo3og4aazhp7hr4d4hhg7kjai5rsbezwipvbmdzdqoruwnre.py":28:56)
#loc18 = loc("/orcd/home/002/osbo/ondemand/fluid-sim/Assets/Scripts/.torch_inductor_cache/j3/cj3rlo3og4aazhp7hr4d4hhg7kjai5rsbezwipvbmdzdqoruwnre.py":28:30)
#loc19 = loc("/orcd/home/002/osbo/ondemand/fluid-sim/Assets/Scripts/.torch_inductor_cache/j3/cj3rlo3og4aazhp7hr4d4hhg7kjai5rsbezwipvbmdzdqoruwnre.py":28:67)
#loc20 = loc("/orcd/home/002/osbo/ondemand/fluid-sim/Assets/Scripts/.torch_inductor_cache/j3/cj3rlo3og4aazhp7hr4d4hhg7kjai5rsbezwipvbmdzdqoruwnre.py":29:30)
#loc21 = loc("/orcd/home/002/osbo/ondemand/fluid-sim/Assets/Scripts/.torch_inductor_cache/j3/cj3rlo3og4aazhp7hr4d4hhg7kjai5rsbezwipvbmdzdqoruwnre.py":29:44)
#loc22 = loc("/orcd/home/002/osbo/ondemand/fluid-sim/Assets/Scripts/.torch_inductor_cache/j3/cj3rlo3og4aazhp7hr4d4hhg7kjai5rsbezwipvbmdzdqoruwnre.py":30:18)
#loc23 = loc("/orcd/home/002/osbo/ondemand/fluid-sim/Assets/Scripts/.torch_inductor_cache/j3/cj3rlo3og4aazhp7hr4d4hhg7kjai5rsbezwipvbmdzdqoruwnre.py":31:25)
#loc24 = loc("/orcd/home/002/osbo/ondemand/fluid-sim/Assets/Scripts/.torch_inductor_cache/j3/cj3rlo3og4aazhp7hr4d4hhg7kjai5rsbezwipvbmdzdqoruwnre.py":31:36)
#loc25 = loc("/orcd/home/002/osbo/ondemand/fluid-sim/Assets/Scripts/.torch_inductor_cache/j3/cj3rlo3og4aazhp7hr4d4hhg7kjai5rsbezwipvbmdzdqoruwnre.py":31:4)
