#loc = loc("/orcd/home/002/osbo/ondemand/fluid-sim/Assets/Scripts/.torch_inductor_cache/p5/cp5bbn3ek4gap6yoynpygatgb4mk47b3a3ccoheae3rdsjuah4pw.py":18:0)
module {
  tt.func public @triton_(%arg0: !tt.ptr<f32> {tt.divisibility = 16 : i32} loc("/orcd/home/002/osbo/ondemand/fluid-sim/Assets/Scripts/.torch_inductor_cache/p5/cp5bbn3ek4gap6yoynpygatgb4mk47b3a3ccoheae3rdsjuah4pw.py":18:0), %arg1: !tt.ptr<f32> {tt.divisibility = 16 : i32} loc("/orcd/home/002/osbo/ondemand/fluid-sim/Assets/Scripts/.torch_inductor_cache/p5/cp5bbn3ek4gap6yoynpygatgb4mk47b3a3ccoheae3rdsjuah4pw.py":18:0), %arg2: !tt.ptr<f32> {tt.divisibility = 16 : i32} loc("/orcd/home/002/osbo/ondemand/fluid-sim/Assets/Scripts/.torch_inductor_cache/p5/cp5bbn3ek4gap6yoynpygatgb4mk47b3a3ccoheae3rdsjuah4pw.py":18:0), %arg3: i32 {tt.divisibility = 16 : i32} loc("/orcd/home/002/osbo/ondemand/fluid-sim/Assets/Scripts/.torch_inductor_cache/p5/cp5bbn3ek4gap6yoynpygatgb4mk47b3a3ccoheae3rdsjuah4pw.py":18:0), %arg4: i32 loc("/orcd/home/002/osbo/ondemand/fluid-sim/Assets/Scripts/.torch_inductor_cache/p5/cp5bbn3ek4gap6yoynpygatgb4mk47b3a3ccoheae3rdsjuah4pw.py":18:0)) attributes {noinline = false} {
    %cst = arith.constant dense<33> : tensor<1x64xi32> loc(#loc1)
    %cst_0 = arith.constant dense<50688> : tensor<1x64xi32> loc(#loc1)
    %cst_1 = arith.constant dense<1536> : tensor<64x1xi32> loc(#loc1)
    %cst_2 = arith.constant dense<512> : tensor<1x64xi32> loc(#loc1)
    %cst_3 = arith.constant dense<33> : tensor<64x1xi32> loc(#loc1)
    %c64_i32 = arith.constant 64 : i32 loc(#loc1)
    %0 = tt.get_program_id y : i32 loc(#loc2)
    %1 = tt.get_program_id z : i32 loc(#loc3)
    %2 = tt.get_num_programs y : i32 loc(#loc4)
    %3 = arith.muli %1, %2 : i32 loc(#loc5)
    %4 = arith.addi %0, %3 : i32 loc(#loc6)
    %5 = arith.muli %4, %c64_i32 : i32 loc(#loc7)
    %6 = tt.make_range {end = 64 : i32, start = 0 : i32} : tensor<64xi32> loc(#loc8)
    %7 = tt.expand_dims %6 {axis = 0 : i32} : tensor<64xi32> -> tensor<1x64xi32> loc(#loc9)
    %8 = tt.splat %5 : i32 -> tensor<1x64xi32> loc(#loc10)
    %9 = arith.addi %8, %7 : tensor<1x64xi32> loc(#loc10)
    %10 = tt.get_program_id x : i32 loc(#loc11)
    %11 = arith.muli %10, %c64_i32 : i32 loc(#loc12)
    %12 = tt.expand_dims %6 {axis = 1 : i32} : tensor<64xi32> -> tensor<64x1xi32> loc(#loc13)
    %13 = tt.splat %11 : i32 -> tensor<64x1xi32> loc(#loc14)
    %14 = arith.addi %13, %12 : tensor<64x1xi32> loc(#loc14)
    %15 = arith.cmpi slt, %14, %cst_3 : tensor<64x1xi32> loc(#loc15)
    %16 = arith.remsi %9, %cst_2 : tensor<1x64xi32> loc(#loc16)
    %17 = arith.divsi %9, %cst_2 : tensor<1x64xi32> loc(#loc17)
    %18 = arith.addi %16, %cst_2 : tensor<1x64xi32> loc(#loc18)
    %19 = arith.muli %14, %cst_1 : tensor<64x1xi32> loc(#loc19)
    %20 = tt.broadcast %18 : tensor<1x64xi32> -> tensor<64x64xi32> loc(#loc20)
    %21 = tt.broadcast %19 : tensor<64x1xi32> -> tensor<64x64xi32> loc(#loc20)
    %22 = arith.addi %20, %21 : tensor<64x64xi32> loc(#loc20)
    %23 = arith.muli %17, %cst_0 : tensor<1x64xi32> loc(#loc21)
    %24 = tt.broadcast %23 : tensor<1x64xi32> -> tensor<64x64xi32> loc(#loc22)
    %25 = arith.addi %22, %24 : tensor<64x64xi32> loc(#loc22)
    %26 = tt.splat %arg0 : !tt.ptr<f32> -> tensor<64x64x!tt.ptr<f32>> loc(#loc23)
    %27 = tt.addptr %26, %25 : tensor<64x64x!tt.ptr<f32>>, tensor<64x64xi32> loc(#loc23)
    %28 = tt.broadcast %15 : tensor<64x1xi1> -> tensor<64x64xi1> loc(#loc24)
    %29 = tt.load %27, %28 evictionPolicy = evict_last : tensor<64x64x!tt.ptr<f32>> loc(#loc24)
    %30 = tt.splat %arg1 : !tt.ptr<f32> -> tensor<1x64x!tt.ptr<f32>> loc(#loc25)
    %31 = tt.addptr %30, %18 : tensor<1x64x!tt.ptr<f32>>, tensor<1x64xi32> loc(#loc25)
    %32 = tt.load %31 evictionPolicy = evict_last : tensor<1x64x!tt.ptr<f32>> loc(#loc26)
    %33 = tt.broadcast %32 : tensor<1x64xf32> -> tensor<64x64xf32> loc(#loc27)
    %34 = arith.addf %29, %33 : tensor<64x64xf32> loc(#loc27)
    %35 = arith.muli %9, %cst : tensor<1x64xi32> loc(#loc28)
    %36 = tt.broadcast %14 : tensor<64x1xi32> -> tensor<64x64xi32> loc(#loc29)
    %37 = tt.broadcast %35 : tensor<1x64xi32> -> tensor<64x64xi32> loc(#loc29)
    %38 = arith.addi %36, %37 : tensor<64x64xi32> loc(#loc29)
    %39 = tt.splat %arg2 : !tt.ptr<f32> -> tensor<64x64x!tt.ptr<f32>> loc(#loc30)
    %40 = tt.addptr %39, %38 : tensor<64x64x!tt.ptr<f32>>, tensor<64x64xi32> loc(#loc30)
    tt.store %40, %34, %28 : tensor<64x64x!tt.ptr<f32>> loc(#loc31)
    tt.return loc(#loc32)
  } loc(#loc)
} loc(#loc)
#loc1 = loc(unknown)
#loc2 = loc("/orcd/home/002/osbo/ondemand/fluid-sim/Assets/Scripts/.torch_inductor_cache/p5/cp5bbn3ek4gap6yoynpygatgb4mk47b3a3ccoheae3rdsjuah4pw.py":21:29)
#loc3 = loc("/orcd/home/002/osbo/ondemand/fluid-sim/Assets/Scripts/.torch_inductor_cache/p5/cp5bbn3ek4gap6yoynpygatgb4mk47b3a3ccoheae3rdsjuah4pw.py":21:48)
#loc4 = loc("/orcd/home/002/osbo/ondemand/fluid-sim/Assets/Scripts/.torch_inductor_cache/p5/cp5bbn3ek4gap6yoynpygatgb4mk47b3a3ccoheae3rdsjuah4pw.py":21:69)
#loc5 = loc("/orcd/home/002/osbo/ondemand/fluid-sim/Assets/Scripts/.torch_inductor_cache/p5/cp5bbn3ek4gap6yoynpygatgb4mk47b3a3ccoheae3rdsjuah4pw.py":21:53)
#loc6 = loc("/orcd/home/002/osbo/ondemand/fluid-sim/Assets/Scripts/.torch_inductor_cache/p5/cp5bbn3ek4gap6yoynpygatgb4mk47b3a3ccoheae3rdsjuah4pw.py":21:34)
#loc7 = loc("/orcd/home/002/osbo/ondemand/fluid-sim/Assets/Scripts/.torch_inductor_cache/p5/cp5bbn3ek4gap6yoynpygatgb4mk47b3a3ccoheae3rdsjuah4pw.py":21:75)
#loc8 = loc("/orcd/home/002/osbo/ondemand/fluid-sim/Assets/Scripts/.torch_inductor_cache/p5/cp5bbn3ek4gap6yoynpygatgb4mk47b3a3ccoheae3rdsjuah4pw.py":22:36)
#loc9 = loc("/orcd/home/002/osbo/ondemand/fluid-sim/Assets/Scripts/.torch_inductor_cache/p5/cp5bbn3ek4gap6yoynpygatgb4mk47b3a3ccoheae3rdsjuah4pw.py":22:44)
#loc10 = loc("/orcd/home/002/osbo/ondemand/fluid-sim/Assets/Scripts/.torch_inductor_cache/p5/cp5bbn3ek4gap6yoynpygatgb4mk47b3a3ccoheae3rdsjuah4pw.py":22:23)
#loc11 = loc("/orcd/home/002/osbo/ondemand/fluid-sim/Assets/Scripts/.torch_inductor_cache/p5/cp5bbn3ek4gap6yoynpygatgb4mk47b3a3ccoheae3rdsjuah4pw.py":24:28)
#loc12 = loc("/orcd/home/002/osbo/ondemand/fluid-sim/Assets/Scripts/.torch_inductor_cache/p5/cp5bbn3ek4gap6yoynpygatgb4mk47b3a3ccoheae3rdsjuah4pw.py":24:33)
#loc13 = loc("/orcd/home/002/osbo/ondemand/fluid-sim/Assets/Scripts/.torch_inductor_cache/p5/cp5bbn3ek4gap6yoynpygatgb4mk47b3a3ccoheae3rdsjuah4pw.py":25:44)
#loc14 = loc("/orcd/home/002/osbo/ondemand/fluid-sim/Assets/Scripts/.torch_inductor_cache/p5/cp5bbn3ek4gap6yoynpygatgb4mk47b3a3ccoheae3rdsjuah4pw.py":25:23)
#loc15 = loc("/orcd/home/002/osbo/ondemand/fluid-sim/Assets/Scripts/.torch_inductor_cache/p5/cp5bbn3ek4gap6yoynpygatgb4mk47b3a3ccoheae3rdsjuah4pw.py":26:21)
#loc16 = loc("/orcd/home/002/osbo/ondemand/fluid-sim/Assets/Scripts/.torch_inductor_cache/p5/cp5bbn3ek4gap6yoynpygatgb4mk47b3a3ccoheae3rdsjuah4pw.py":28:18)
#loc17 = loc("/orcd/home/002/osbo/ondemand/fluid-sim/Assets/Scripts/.torch_inductor_cache/p5/cp5bbn3ek4gap6yoynpygatgb4mk47b3a3ccoheae3rdsjuah4pw.py":29:20)
#loc18 = loc("/orcd/home/002/osbo/ondemand/fluid-sim/Assets/Scripts/.torch_inductor_cache/p5/cp5bbn3ek4gap6yoynpygatgb4mk47b3a3ccoheae3rdsjuah4pw.py":31:36)
#loc19 = loc("/orcd/home/002/osbo/ondemand/fluid-sim/Assets/Scripts/.torch_inductor_cache/p5/cp5bbn3ek4gap6yoynpygatgb4mk47b3a3ccoheae3rdsjuah4pw.py":31:47)
#loc20 = loc("/orcd/home/002/osbo/ondemand/fluid-sim/Assets/Scripts/.torch_inductor_cache/p5/cp5bbn3ek4gap6yoynpygatgb4mk47b3a3ccoheae3rdsjuah4pw.py":31:42)
#loc21 = loc("/orcd/home/002/osbo/ondemand/fluid-sim/Assets/Scripts/.torch_inductor_cache/p5/cp5bbn3ek4gap6yoynpygatgb4mk47b3a3ccoheae3rdsjuah4pw.py":31:60)
#loc22 = loc("/orcd/home/002/osbo/ondemand/fluid-sim/Assets/Scripts/.torch_inductor_cache/p5/cp5bbn3ek4gap6yoynpygatgb4mk47b3a3ccoheae3rdsjuah4pw.py":31:54)
#loc23 = loc("/orcd/home/002/osbo/ondemand/fluid-sim/Assets/Scripts/.torch_inductor_cache/p5/cp5bbn3ek4gap6yoynpygatgb4mk47b3a3ccoheae3rdsjuah4pw.py":31:30)
#loc24 = loc("/orcd/home/002/osbo/ondemand/fluid-sim/Assets/Scripts/.torch_inductor_cache/p5/cp5bbn3ek4gap6yoynpygatgb4mk47b3a3ccoheae3rdsjuah4pw.py":31:66)
#loc25 = loc("/orcd/home/002/osbo/ondemand/fluid-sim/Assets/Scripts/.torch_inductor_cache/p5/cp5bbn3ek4gap6yoynpygatgb4mk47b3a3ccoheae3rdsjuah4pw.py":32:30)
#loc26 = loc("/orcd/home/002/osbo/ondemand/fluid-sim/Assets/Scripts/.torch_inductor_cache/p5/cp5bbn3ek4gap6yoynpygatgb4mk47b3a3ccoheae3rdsjuah4pw.py":32:41)
#loc27 = loc("/orcd/home/002/osbo/ondemand/fluid-sim/Assets/Scripts/.torch_inductor_cache/p5/cp5bbn3ek4gap6yoynpygatgb4mk47b3a3ccoheae3rdsjuah4pw.py":33:18)
#loc28 = loc("/orcd/home/002/osbo/ondemand/fluid-sim/Assets/Scripts/.torch_inductor_cache/p5/cp5bbn3ek4gap6yoynpygatgb4mk47b3a3ccoheae3rdsjuah4pw.py":34:34)
#loc29 = loc("/orcd/home/002/osbo/ondemand/fluid-sim/Assets/Scripts/.torch_inductor_cache/p5/cp5bbn3ek4gap6yoynpygatgb4mk47b3a3ccoheae3rdsjuah4pw.py":34:31)
#loc30 = loc("/orcd/home/002/osbo/ondemand/fluid-sim/Assets/Scripts/.torch_inductor_cache/p5/cp5bbn3ek4gap6yoynpygatgb4mk47b3a3ccoheae3rdsjuah4pw.py":34:25)
#loc31 = loc("/orcd/home/002/osbo/ondemand/fluid-sim/Assets/Scripts/.torch_inductor_cache/p5/cp5bbn3ek4gap6yoynpygatgb4mk47b3a3ccoheae3rdsjuah4pw.py":34:46)
#loc32 = loc("/orcd/home/002/osbo/ondemand/fluid-sim/Assets/Scripts/.torch_inductor_cache/p5/cp5bbn3ek4gap6yoynpygatgb4mk47b3a3ccoheae3rdsjuah4pw.py":34:4)
