#loc = loc("/orcd/home/002/osbo/ondemand/fluid-sim/Assets/Scripts/.torch_inductor_cache/7o/c7o2yms2jvg7x4tvi2tmf72sc3djbqu7wg2adotd6syf2fl6yhag.py":18:0)
module {
  tt.func public @triton_(%arg0: !tt.ptr<f32> {tt.divisibility = 16 : i32} loc("/orcd/home/002/osbo/ondemand/fluid-sim/Assets/Scripts/.torch_inductor_cache/7o/c7o2yms2jvg7x4tvi2tmf72sc3djbqu7wg2adotd6syf2fl6yhag.py":18:0), %arg1: !tt.ptr<f32> {tt.divisibility = 16 : i32} loc("/orcd/home/002/osbo/ondemand/fluid-sim/Assets/Scripts/.torch_inductor_cache/7o/c7o2yms2jvg7x4tvi2tmf72sc3djbqu7wg2adotd6syf2fl6yhag.py":18:0), %arg2: !tt.ptr<f32> {tt.divisibility = 16 : i32} loc("/orcd/home/002/osbo/ondemand/fluid-sim/Assets/Scripts/.torch_inductor_cache/7o/c7o2yms2jvg7x4tvi2tmf72sc3djbqu7wg2adotd6syf2fl6yhag.py":18:0), %arg3: i32 {tt.divisibility = 16 : i32} loc("/orcd/home/002/osbo/ondemand/fluid-sim/Assets/Scripts/.torch_inductor_cache/7o/c7o2yms2jvg7x4tvi2tmf72sc3djbqu7wg2adotd6syf2fl6yhag.py":18:0)) attributes {noinline = false} {
    %cst = arith.constant dense<16384> : tensor<128xi32> loc(#loc1)
    %cst_0 = arith.constant dense<129> : tensor<128xi32> loc(#loc1)
    %cst_1 = arith.constant dense<1.000000e+00> : tensor<128xf32> loc(#loc1)
    %cst_2 = arith.constant dense<16512> : tensor<128xi32> loc(#loc1)
    %cst_3 = arith.constant dense<130> : tensor<128xi32> loc(#loc1)
    %cst_4 = arith.constant dense<128> : tensor<128xi32> loc(#loc1)
    %cst_5 = arith.constant dense<512> : tensor<128xi32> loc(#loc1)
    %c128_i32 = arith.constant 128 : i32 loc(#loc1)
    %0 = tt.get_program_id x : i32 loc(#loc2)
    %1 = arith.muli %0, %c128_i32 : i32 loc(#loc3)
    %2 = tt.make_range {end = 128 : i32, start = 0 : i32} : tensor<128xi32> loc(#loc4)
    %3 = tt.splat %1 : i32 -> tensor<128xi32> loc(#loc5)
    %4 = arith.addi %3, %2 : tensor<128xi32> loc(#loc5)
    %5 = arith.cmpi slt, %4, %cst_5 : tensor<128xi32> loc(#loc6)
    %6 = arith.remsi %4, %cst_4 : tensor<128xi32> loc(#loc7)
    %7 = arith.divsi %4, %cst_4 : tensor<128xi32> loc(#loc8)
    %8 = arith.muli %6, %cst_3 : tensor<128xi32> loc(#loc9)
    %9 = arith.muli %7, %cst_2 : tensor<128xi32> loc(#loc10)
    %10 = arith.addi %8, %9 : tensor<128xi32> loc(#loc11)
    %11 = tt.splat %arg1 : !tt.ptr<f32> -> tensor<128x!tt.ptr<f32>> loc(#loc12)
    %12 = tt.addptr %11, %10 : tensor<128x!tt.ptr<f32>>, tensor<128xi32> loc(#loc12)
    %13 = tt.load %12, %5 evictionPolicy = evict_last : tensor<128x!tt.ptr<f32>> loc(#loc13)
    %14 = tt.splat %arg0 : !tt.ptr<f32> -> tensor<128x!tt.ptr<f32>> loc(#loc14)
    %15 = tt.addptr %14, %4 : tensor<128x!tt.ptr<f32>>, tensor<128xi32> loc(#loc14)
    %16 = tt.load %15, %5 : tensor<128x!tt.ptr<f32>> loc(#loc15)
    %17 = arith.cmpf olt, %16, %cst_1 : tensor<128xf32> loc(#loc16)
    %18 = arith.uitofp %17 : tensor<128xi1> to tensor<128xf32> loc(#loc17)
    %19 = arith.cmpf ogt, %13, %18 : tensor<128xf32> loc(#loc29)
    %20 = arith.cmpf une, %13, %13 : tensor<128xf32> loc(#loc30)
    %21 = arith.ori %19, %20 : tensor<128xi1> loc(#loc31)
    %22 = arith.select %21, %13, %18 : tensor<128xi1>, tensor<128xf32> loc(#loc32)
    %23 = arith.muli %6, %cst_0 : tensor<128xi32> loc(#loc23)
    %24 = arith.muli %7, %cst : tensor<128xi32> loc(#loc24)
    %25 = arith.addi %23, %24 : tensor<128xi32> loc(#loc25)
    %26 = tt.splat %arg2 : !tt.ptr<f32> -> tensor<128x!tt.ptr<f32>> loc(#loc26)
    %27 = tt.addptr %26, %25 : tensor<128x!tt.ptr<f32>>, tensor<128xi32> loc(#loc26)
    tt.store %27, %22, %5 : tensor<128x!tt.ptr<f32>> loc(#loc27)
    tt.return loc(#loc28)
  } loc(#loc)
} loc(#loc)
#loc1 = loc(unknown)
#loc2 = loc("/orcd/home/002/osbo/ondemand/fluid-sim/Assets/Scripts/.torch_inductor_cache/7o/c7o2yms2jvg7x4tvi2tmf72sc3djbqu7wg2adotd6syf2fl6yhag.py":20:28)
#loc3 = loc("/orcd/home/002/osbo/ondemand/fluid-sim/Assets/Scripts/.torch_inductor_cache/7o/c7o2yms2jvg7x4tvi2tmf72sc3djbqu7wg2adotd6syf2fl6yhag.py":20:33)
#loc4 = loc("/orcd/home/002/osbo/ondemand/fluid-sim/Assets/Scripts/.torch_inductor_cache/7o/c7o2yms2jvg7x4tvi2tmf72sc3djbqu7wg2adotd6syf2fl6yhag.py":21:36)
#loc5 = loc("/orcd/home/002/osbo/ondemand/fluid-sim/Assets/Scripts/.torch_inductor_cache/7o/c7o2yms2jvg7x4tvi2tmf72sc3djbqu7wg2adotd6syf2fl6yhag.py":21:23)
#loc6 = loc("/orcd/home/002/osbo/ondemand/fluid-sim/Assets/Scripts/.torch_inductor_cache/7o/c7o2yms2jvg7x4tvi2tmf72sc3djbqu7wg2adotd6syf2fl6yhag.py":22:21)
#loc7 = loc("/orcd/home/002/osbo/ondemand/fluid-sim/Assets/Scripts/.torch_inductor_cache/7o/c7o2yms2jvg7x4tvi2tmf72sc3djbqu7wg2adotd6syf2fl6yhag.py":23:18)
#loc8 = loc("/orcd/home/002/osbo/ondemand/fluid-sim/Assets/Scripts/.torch_inductor_cache/7o/c7o2yms2jvg7x4tvi2tmf72sc3djbqu7wg2adotd6syf2fl6yhag.py":24:20)
#loc9 = loc("/orcd/home/002/osbo/ondemand/fluid-sim/Assets/Scripts/.torch_inductor_cache/7o/c7o2yms2jvg7x4tvi2tmf72sc3djbqu7wg2adotd6syf2fl6yhag.py":26:35)
#loc10 = loc("/orcd/home/002/osbo/ondemand/fluid-sim/Assets/Scripts/.torch_inductor_cache/7o/c7o2yms2jvg7x4tvi2tmf72sc3djbqu7wg2adotd6syf2fl6yhag.py":26:48)
#loc11 = loc("/orcd/home/002/osbo/ondemand/fluid-sim/Assets/Scripts/.torch_inductor_cache/7o/c7o2yms2jvg7x4tvi2tmf72sc3djbqu7wg2adotd6syf2fl6yhag.py":26:42)
#loc12 = loc("/orcd/home/002/osbo/ondemand/fluid-sim/Assets/Scripts/.torch_inductor_cache/7o/c7o2yms2jvg7x4tvi2tmf72sc3djbqu7wg2adotd6syf2fl6yhag.py":26:30)
#loc13 = loc("/orcd/home/002/osbo/ondemand/fluid-sim/Assets/Scripts/.torch_inductor_cache/7o/c7o2yms2jvg7x4tvi2tmf72sc3djbqu7wg2adotd6syf2fl6yhag.py":26:54)
#loc14 = loc("/orcd/home/002/osbo/ondemand/fluid-sim/Assets/Scripts/.torch_inductor_cache/7o/c7o2yms2jvg7x4tvi2tmf72sc3djbqu7wg2adotd6syf2fl6yhag.py":27:34)
#loc15 = loc("/orcd/home/002/osbo/ondemand/fluid-sim/Assets/Scripts/.torch_inductor_cache/7o/c7o2yms2jvg7x4tvi2tmf72sc3djbqu7wg2adotd6syf2fl6yhag.py":27:39)
#loc16 = loc("/orcd/home/002/osbo/ondemand/fluid-sim/Assets/Scripts/.torch_inductor_cache/7o/c7o2yms2jvg7x4tvi2tmf72sc3djbqu7wg2adotd6syf2fl6yhag.py":29:18)
#loc17 = loc("/orcd/home/002/osbo/ondemand/fluid-sim/Assets/Scripts/.torch_inductor_cache/7o/c7o2yms2jvg7x4tvi2tmf72sc3djbqu7wg2adotd6syf2fl6yhag.py":30:19)
#loc18 = loc("/home/osbo/.conda/envs/fluid/lib/python3.12/site-packages/torch/_inductor/runtime/triton_helpers.py":82:15)
#loc19 = loc("/orcd/home/002/osbo/ondemand/fluid-sim/Assets/Scripts/.torch_inductor_cache/7o/c7o2yms2jvg7x4tvi2tmf72sc3djbqu7wg2adotd6syf2fl6yhag.py":31:40)
#loc20 = loc("/home/osbo/.conda/envs/fluid/lib/python3.12/site-packages/torch/_inductor/runtime/triton_helpers.py":84:21)
#loc21 = loc("/home/osbo/.conda/envs/fluid/lib/python3.12/site-packages/torch/_inductor/runtime/triton_helpers.py":84:16)
#loc22 = loc("/home/osbo/.conda/envs/fluid/lib/python3.12/site-packages/torch/_inductor/runtime/triton_helpers.py":85:29)
#loc23 = loc("/orcd/home/002/osbo/ondemand/fluid-sim/Assets/Scripts/.torch_inductor_cache/7o/c7o2yms2jvg7x4tvi2tmf72sc3djbqu7wg2adotd6syf2fl6yhag.py":32:30)
#loc24 = loc("/orcd/home/002/osbo/ondemand/fluid-sim/Assets/Scripts/.torch_inductor_cache/7o/c7o2yms2jvg7x4tvi2tmf72sc3djbqu7wg2adotd6syf2fl6yhag.py":32:43)
#loc25 = loc("/orcd/home/002/osbo/ondemand/fluid-sim/Assets/Scripts/.torch_inductor_cache/7o/c7o2yms2jvg7x4tvi2tmf72sc3djbqu7wg2adotd6syf2fl6yhag.py":32:37)
#loc26 = loc("/orcd/home/002/osbo/ondemand/fluid-sim/Assets/Scripts/.torch_inductor_cache/7o/c7o2yms2jvg7x4tvi2tmf72sc3djbqu7wg2adotd6syf2fl6yhag.py":32:25)
#loc27 = loc("/orcd/home/002/osbo/ondemand/fluid-sim/Assets/Scripts/.torch_inductor_cache/7o/c7o2yms2jvg7x4tvi2tmf72sc3djbqu7wg2adotd6syf2fl6yhag.py":32:55)
#loc28 = loc("/orcd/home/002/osbo/ondemand/fluid-sim/Assets/Scripts/.torch_inductor_cache/7o/c7o2yms2jvg7x4tvi2tmf72sc3djbqu7wg2adotd6syf2fl6yhag.py":32:4)
#loc29 = loc(callsite(#loc18 at #loc19))
#loc30 = loc(callsite(#loc20 at #loc19))
#loc31 = loc(callsite(#loc21 at #loc19))
#loc32 = loc(callsite(#loc22 at #loc19))
