#loc = loc("/orcd/home/002/osbo/ondemand/fluid-sim/Assets/Scripts/.torch_inductor_cache/ld/cldvvidrmbxopkh5burjhwuhrwlzmygdpidzjp643toforrkxibs.py":18:0)
module {
  tt.func public @triton_(%arg0: !tt.ptr<f32> {tt.divisibility = 16 : i32} loc("/orcd/home/002/osbo/ondemand/fluid-sim/Assets/Scripts/.torch_inductor_cache/ld/cldvvidrmbxopkh5burjhwuhrwlzmygdpidzjp643toforrkxibs.py":18:0), %arg1: !tt.ptr<f32> {tt.divisibility = 16 : i32} loc("/orcd/home/002/osbo/ondemand/fluid-sim/Assets/Scripts/.torch_inductor_cache/ld/cldvvidrmbxopkh5burjhwuhrwlzmygdpidzjp643toforrkxibs.py":18:0), %arg2: !tt.ptr<f32> {tt.divisibility = 16 : i32} loc("/orcd/home/002/osbo/ondemand/fluid-sim/Assets/Scripts/.torch_inductor_cache/ld/cldvvidrmbxopkh5burjhwuhrwlzmygdpidzjp643toforrkxibs.py":18:0), %arg3: i32 loc("/orcd/home/002/osbo/ondemand/fluid-sim/Assets/Scripts/.torch_inductor_cache/ld/cldvvidrmbxopkh5burjhwuhrwlzmygdpidzjp643toforrkxibs.py":18:0)) attributes {noinline = false} {
    %cst = arith.constant dense<3> : tensor<1024xi32> loc(#loc1)
    %cst_0 = arith.constant dense<4> : tensor<1024xi32> loc(#loc1)
    %c1024_i32 = arith.constant 1024 : i32 loc(#loc1)
    %0 = tt.get_program_id x : i32 loc(#loc2)
    %1 = arith.muli %0, %c1024_i32 : i32 loc(#loc3)
    %2 = tt.make_range {end = 1024 : i32, start = 0 : i32} : tensor<1024xi32> loc(#loc4)
    %3 = tt.splat %1 : i32 -> tensor<1024xi32> loc(#loc5)
    %4 = arith.addi %3, %2 : tensor<1024xi32> loc(#loc5)
    %5 = tt.splat %arg3 : i32 -> tensor<1024xi32> loc(#loc6)
    %6 = arith.cmpi slt, %4, %5 : tensor<1024xi32> loc(#loc6)
    %7 = arith.remsi %4, %cst_0 : tensor<1024xi32> loc(#loc7)
    %8 = arith.divsi %4, %cst_0 : tensor<1024xi32> loc(#loc8)
    %9 = tt.splat %arg0 : !tt.ptr<f32> -> tensor<1024x!tt.ptr<f32>> loc(#loc9)
    %10 = tt.addptr %9, %8 : tensor<1024x!tt.ptr<f32>>, tensor<1024xi32> loc(#loc9)
    %11 = tt.load %10, %6 evictionPolicy = evict_last : tensor<1024x!tt.ptr<f32>> loc(#loc10)
    %12 = tt.splat %arg1 : !tt.ptr<f32> -> tensor<1024x!tt.ptr<f32>> loc(#loc11)
    %13 = tt.addptr %12, %4 : tensor<1024x!tt.ptr<f32>>, tensor<1024xi32> loc(#loc11)
    %14 = tt.load %13, %6 : tensor<1024x!tt.ptr<f32>> loc(#loc12)
    %15 = arith.cmpi eq, %7, %cst : tensor<1024xi32> loc(#loc13)
    %16 = arith.select %15, %11, %14 : tensor<1024xi1>, tensor<1024xf32> loc(#loc14)
    %17 = tt.splat %arg2 : !tt.ptr<f32> -> tensor<1024x!tt.ptr<f32>> loc(#loc15)
    %18 = tt.addptr %17, %4 : tensor<1024x!tt.ptr<f32>>, tensor<1024xi32> loc(#loc15)
    tt.store %18, %16, %6 : tensor<1024x!tt.ptr<f32>> loc(#loc16)
    tt.return loc(#loc17)
  } loc(#loc)
} loc(#loc)
#loc1 = loc(unknown)
#loc2 = loc("/orcd/home/002/osbo/ondemand/fluid-sim/Assets/Scripts/.torch_inductor_cache/ld/cldvvidrmbxopkh5burjhwuhrwlzmygdpidzjp643toforrkxibs.py":19:28)
#loc3 = loc("/orcd/home/002/osbo/ondemand/fluid-sim/Assets/Scripts/.torch_inductor_cache/ld/cldvvidrmbxopkh5burjhwuhrwlzmygdpidzjp643toforrkxibs.py":19:33)
#loc4 = loc("/orcd/home/002/osbo/ondemand/fluid-sim/Assets/Scripts/.torch_inductor_cache/ld/cldvvidrmbxopkh5burjhwuhrwlzmygdpidzjp643toforrkxibs.py":20:36)
#loc5 = loc("/orcd/home/002/osbo/ondemand/fluid-sim/Assets/Scripts/.torch_inductor_cache/ld/cldvvidrmbxopkh5burjhwuhrwlzmygdpidzjp643toforrkxibs.py":20:23)
#loc6 = loc("/orcd/home/002/osbo/ondemand/fluid-sim/Assets/Scripts/.torch_inductor_cache/ld/cldvvidrmbxopkh5burjhwuhrwlzmygdpidzjp643toforrkxibs.py":21:21)
#loc7 = loc("/orcd/home/002/osbo/ondemand/fluid-sim/Assets/Scripts/.torch_inductor_cache/ld/cldvvidrmbxopkh5burjhwuhrwlzmygdpidzjp643toforrkxibs.py":22:18)
#loc8 = loc("/orcd/home/002/osbo/ondemand/fluid-sim/Assets/Scripts/.torch_inductor_cache/ld/cldvvidrmbxopkh5burjhwuhrwlzmygdpidzjp643toforrkxibs.py":23:20)
#loc9 = loc("/orcd/home/002/osbo/ondemand/fluid-sim/Assets/Scripts/.torch_inductor_cache/ld/cldvvidrmbxopkh5burjhwuhrwlzmygdpidzjp643toforrkxibs.py":25:30)
#loc10 = loc("/orcd/home/002/osbo/ondemand/fluid-sim/Assets/Scripts/.torch_inductor_cache/ld/cldvvidrmbxopkh5burjhwuhrwlzmygdpidzjp643toforrkxibs.py":25:35)
#loc11 = loc("/orcd/home/002/osbo/ondemand/fluid-sim/Assets/Scripts/.torch_inductor_cache/ld/cldvvidrmbxopkh5burjhwuhrwlzmygdpidzjp643toforrkxibs.py":26:30)
#loc12 = loc("/orcd/home/002/osbo/ondemand/fluid-sim/Assets/Scripts/.torch_inductor_cache/ld/cldvvidrmbxopkh5burjhwuhrwlzmygdpidzjp643toforrkxibs.py":26:35)
#loc13 = loc("/orcd/home/002/osbo/ondemand/fluid-sim/Assets/Scripts/.torch_inductor_cache/ld/cldvvidrmbxopkh5burjhwuhrwlzmygdpidzjp643toforrkxibs.py":29:19)
#loc14 = loc("/orcd/home/002/osbo/ondemand/fluid-sim/Assets/Scripts/.torch_inductor_cache/ld/cldvvidrmbxopkh5burjhwuhrwlzmygdpidzjp643toforrkxibs.py":30:32)
#loc15 = loc("/orcd/home/002/osbo/ondemand/fluid-sim/Assets/Scripts/.torch_inductor_cache/ld/cldvvidrmbxopkh5burjhwuhrwlzmygdpidzjp643toforrkxibs.py":31:25)
#loc16 = loc("/orcd/home/002/osbo/ondemand/fluid-sim/Assets/Scripts/.torch_inductor_cache/ld/cldvvidrmbxopkh5burjhwuhrwlzmygdpidzjp643toforrkxibs.py":31:36)
#loc17 = loc("/orcd/home/002/osbo/ondemand/fluid-sim/Assets/Scripts/.torch_inductor_cache/ld/cldvvidrmbxopkh5burjhwuhrwlzmygdpidzjp643toforrkxibs.py":31:4)
