#loc = loc("/orcd/home/002/osbo/ondemand/fluid-sim/Assets/Scripts/.torch_inductor_cache/sz/cszpevhvr4p73v6gytto2xsashlr7q3qiyljfghysemfsvnvrcr7.py":18:0)
module {
  tt.func public @triton_(%arg0: !tt.ptr<f32> {tt.divisibility = 16 : i32} loc("/orcd/home/002/osbo/ondemand/fluid-sim/Assets/Scripts/.torch_inductor_cache/sz/cszpevhvr4p73v6gytto2xsashlr7q3qiyljfghysemfsvnvrcr7.py":18:0), %arg1: !tt.ptr<f32> {tt.divisibility = 16 : i32} loc("/orcd/home/002/osbo/ondemand/fluid-sim/Assets/Scripts/.torch_inductor_cache/sz/cszpevhvr4p73v6gytto2xsashlr7q3qiyljfghysemfsvnvrcr7.py":18:0), %arg2: !tt.ptr<f32> {tt.divisibility = 16 : i32} loc("/orcd/home/002/osbo/ondemand/fluid-sim/Assets/Scripts/.torch_inductor_cache/sz/cszpevhvr4p73v6gytto2xsashlr7q3qiyljfghysemfsvnvrcr7.py":18:0), %arg3: !tt.ptr<f32> {tt.divisibility = 16 : i32} loc("/orcd/home/002/osbo/ondemand/fluid-sim/Assets/Scripts/.torch_inductor_cache/sz/cszpevhvr4p73v6gytto2xsashlr7q3qiyljfghysemfsvnvrcr7.py":18:0), %arg4: i32 {tt.divisibility = 16 : i32} loc("/orcd/home/002/osbo/ondemand/fluid-sim/Assets/Scripts/.torch_inductor_cache/sz/cszpevhvr4p73v6gytto2xsashlr7q3qiyljfghysemfsvnvrcr7.py":18:0)) attributes {noinline = false} {
    %cst = arith.constant dense<-128> : tensor<1024xi32> loc(#loc1)
    %cst_0 = arith.constant dense<-64> : tensor<1024xi32> loc(#loc1)
    %cst_1 = arith.constant dense<128> : tensor<1024xi64> loc(#loc1)
    %cst_2 = arith.constant dense<0.000000e+00> : tensor<1024xf32> loc(#loc1)
    %cst_3 = arith.constant dense<64> : tensor<1024xi32> loc(#loc1)
    %cst_4 = arith.constant dense<64> : tensor<1024xi64> loc(#loc1)
    %cst_5 = arith.constant dense<192> : tensor<1024xi32> loc(#loc1)
    %c1024_i32 = arith.constant 1024 : i32 loc(#loc1)
    %0 = tt.get_program_id x : i32 loc(#loc2)
    %1 = arith.muli %0, %c1024_i32 : i32 loc(#loc3)
    %2 = tt.make_range {end = 1024 : i32, start = 0 : i32} : tensor<1024xi32> loc(#loc4)
    %3 = tt.splat %1 : i32 -> tensor<1024xi32> loc(#loc5)
    %4 = arith.addi %3, %2 : tensor<1024xi32> loc(#loc5)
    %5 = arith.remsi %4, %cst_5 : tensor<1024xi32> loc(#loc6)
    %6 = arith.divsi %4, %cst_5 : tensor<1024xi32> loc(#loc7)
    %7 = arith.extsi %5 : tensor<1024xi32> to tensor<1024xi64> loc(#loc8)
    %8 = arith.cmpi slt, %7, %cst_4 : tensor<1024xi64> loc(#loc8)
    %9 = arith.muli %6, %cst_3 : tensor<1024xi32> loc(#loc9)
    %10 = arith.addi %9, %5 : tensor<1024xi32> loc(#loc10)
    %11 = tt.splat %arg0 : !tt.ptr<f32> -> tensor<1024x!tt.ptr<f32>> loc(#loc11)
    %12 = tt.addptr %11, %10 : tensor<1024x!tt.ptr<f32>>, tensor<1024xi32> loc(#loc11)
    %13 = tt.load %12, %8, %cst_2 evictionPolicy = evict_last : tensor<1024x!tt.ptr<f32>> loc(#loc12)
    %14 = arith.cmpi sge, %7, %cst_4 : tensor<1024xi64> loc(#loc13)
    %15 = arith.cmpi slt, %7, %cst_1 : tensor<1024xi64> loc(#loc14)
    %16 = arith.andi %14, %15 : tensor<1024xi1> loc(#loc15)
    %17 = arith.addi %5, %cst_0 : tensor<1024xi32> loc(#loc16)
    %18 = arith.addi %9, %17 : tensor<1024xi32> loc(#loc17)
    %19 = tt.splat %arg1 : !tt.ptr<f32> -> tensor<1024x!tt.ptr<f32>> loc(#loc18)
    %20 = tt.addptr %19, %18 : tensor<1024x!tt.ptr<f32>>, tensor<1024xi32> loc(#loc18)
    %21 = tt.load %20, %16, %cst_2 evictionPolicy = evict_last : tensor<1024x!tt.ptr<f32>> loc(#loc19)
    %22 = arith.cmpi sge, %7, %cst_1 : tensor<1024xi64> loc(#loc20)
    %23 = arith.addi %5, %cst : tensor<1024xi32> loc(#loc21)
    %24 = arith.addi %9, %23 : tensor<1024xi32> loc(#loc22)
    %25 = tt.splat %arg2 : !tt.ptr<f32> -> tensor<1024x!tt.ptr<f32>> loc(#loc23)
    %26 = tt.addptr %25, %24 : tensor<1024x!tt.ptr<f32>>, tensor<1024xi32> loc(#loc23)
    %27 = tt.load %26, %22, %cst_2 evictionPolicy = evict_last : tensor<1024x!tt.ptr<f32>> loc(#loc24)
    %28 = arith.select %16, %21, %27 : tensor<1024xi1>, tensor<1024xf32> loc(#loc25)
    %29 = arith.select %8, %13, %28 : tensor<1024xi1>, tensor<1024xf32> loc(#loc26)
    %30 = tt.splat %arg3 : !tt.ptr<f32> -> tensor<1024x!tt.ptr<f32>> loc(#loc27)
    %31 = tt.addptr %30, %4 : tensor<1024x!tt.ptr<f32>>, tensor<1024xi32> loc(#loc27)
    tt.store %31, %29 : tensor<1024x!tt.ptr<f32>> loc(#loc28)
    tt.return loc(#loc29)
  } loc(#loc)
} loc(#loc)
#loc1 = loc(unknown)
#loc2 = loc("/orcd/home/002/osbo/ondemand/fluid-sim/Assets/Scripts/.torch_inductor_cache/sz/cszpevhvr4p73v6gytto2xsashlr7q3qiyljfghysemfsvnvrcr7.py":20:28)
#loc3 = loc("/orcd/home/002/osbo/ondemand/fluid-sim/Assets/Scripts/.torch_inductor_cache/sz/cszpevhvr4p73v6gytto2xsashlr7q3qiyljfghysemfsvnvrcr7.py":20:33)
#loc4 = loc("/orcd/home/002/osbo/ondemand/fluid-sim/Assets/Scripts/.torch_inductor_cache/sz/cszpevhvr4p73v6gytto2xsashlr7q3qiyljfghysemfsvnvrcr7.py":21:36)
#loc5 = loc("/orcd/home/002/osbo/ondemand/fluid-sim/Assets/Scripts/.torch_inductor_cache/sz/cszpevhvr4p73v6gytto2xsashlr7q3qiyljfghysemfsvnvrcr7.py":21:23)
#loc6 = loc("/orcd/home/002/osbo/ondemand/fluid-sim/Assets/Scripts/.torch_inductor_cache/sz/cszpevhvr4p73v6gytto2xsashlr7q3qiyljfghysemfsvnvrcr7.py":23:18)
#loc7 = loc("/orcd/home/002/osbo/ondemand/fluid-sim/Assets/Scripts/.torch_inductor_cache/sz/cszpevhvr4p73v6gytto2xsashlr7q3qiyljfghysemfsvnvrcr7.py":24:20)
#loc8 = loc("/orcd/home/002/osbo/ondemand/fluid-sim/Assets/Scripts/.torch_inductor_cache/sz/cszpevhvr4p73v6gytto2xsashlr7q3qiyljfghysemfsvnvrcr7.py":30:18)
#loc9 = loc("/orcd/home/002/osbo/ondemand/fluid-sim/Assets/Scripts/.torch_inductor_cache/sz/cszpevhvr4p73v6gytto2xsashlr7q3qiyljfghysemfsvnvrcr7.py":31:34)
#loc10 = loc("/orcd/home/002/osbo/ondemand/fluid-sim/Assets/Scripts/.torch_inductor_cache/sz/cszpevhvr4p73v6gytto2xsashlr7q3qiyljfghysemfsvnvrcr7.py":31:40)
#loc11 = loc("/orcd/home/002/osbo/ondemand/fluid-sim/Assets/Scripts/.torch_inductor_cache/sz/cszpevhvr4p73v6gytto2xsashlr7q3qiyljfghysemfsvnvrcr7.py":31:30)
#loc12 = loc("/orcd/home/002/osbo/ondemand/fluid-sim/Assets/Scripts/.torch_inductor_cache/sz/cszpevhvr4p73v6gytto2xsashlr7q3qiyljfghysemfsvnvrcr7.py":31:45)
#loc13 = loc("/orcd/home/002/osbo/ondemand/fluid-sim/Assets/Scripts/.torch_inductor_cache/sz/cszpevhvr4p73v6gytto2xsashlr7q3qiyljfghysemfsvnvrcr7.py":32:19)
#loc14 = loc("/orcd/home/002/osbo/ondemand/fluid-sim/Assets/Scripts/.torch_inductor_cache/sz/cszpevhvr4p73v6gytto2xsashlr7q3qiyljfghysemfsvnvrcr7.py":34:18)
#loc15 = loc("/orcd/home/002/osbo/ondemand/fluid-sim/Assets/Scripts/.torch_inductor_cache/sz/cszpevhvr4p73v6gytto2xsashlr7q3qiyljfghysemfsvnvrcr7.py":35:18)
#loc16 = loc("/orcd/home/002/osbo/ondemand/fluid-sim/Assets/Scripts/.torch_inductor_cache/sz/cszpevhvr4p73v6gytto2xsashlr7q3qiyljfghysemfsvnvrcr7.py":36:50)
#loc17 = loc("/orcd/home/002/osbo/ondemand/fluid-sim/Assets/Scripts/.torch_inductor_cache/sz/cszpevhvr4p73v6gytto2xsashlr7q3qiyljfghysemfsvnvrcr7.py":36:42)
#loc18 = loc("/orcd/home/002/osbo/ondemand/fluid-sim/Assets/Scripts/.torch_inductor_cache/sz/cszpevhvr4p73v6gytto2xsashlr7q3qiyljfghysemfsvnvrcr7.py":36:31)
#loc19 = loc("/orcd/home/002/osbo/ondemand/fluid-sim/Assets/Scripts/.torch_inductor_cache/sz/cszpevhvr4p73v6gytto2xsashlr7q3qiyljfghysemfsvnvrcr7.py":36:56)
#loc20 = loc("/orcd/home/002/osbo/ondemand/fluid-sim/Assets/Scripts/.torch_inductor_cache/sz/cszpevhvr4p73v6gytto2xsashlr7q3qiyljfghysemfsvnvrcr7.py":37:20)
#loc21 = loc("/orcd/home/002/osbo/ondemand/fluid-sim/Assets/Scripts/.torch_inductor_cache/sz/cszpevhvr4p73v6gytto2xsashlr7q3qiyljfghysemfsvnvrcr7.py":40:51)
#loc22 = loc("/orcd/home/002/osbo/ondemand/fluid-sim/Assets/Scripts/.torch_inductor_cache/sz/cszpevhvr4p73v6gytto2xsashlr7q3qiyljfghysemfsvnvrcr7.py":40:42)
#loc23 = loc("/orcd/home/002/osbo/ondemand/fluid-sim/Assets/Scripts/.torch_inductor_cache/sz/cszpevhvr4p73v6gytto2xsashlr7q3qiyljfghysemfsvnvrcr7.py":40:31)
#loc24 = loc("/orcd/home/002/osbo/ondemand/fluid-sim/Assets/Scripts/.torch_inductor_cache/sz/cszpevhvr4p73v6gytto2xsashlr7q3qiyljfghysemfsvnvrcr7.py":40:57)
#loc25 = loc("/orcd/home/002/osbo/ondemand/fluid-sim/Assets/Scripts/.torch_inductor_cache/sz/cszpevhvr4p73v6gytto2xsashlr7q3qiyljfghysemfsvnvrcr7.py":41:34)
#loc26 = loc("/orcd/home/002/osbo/ondemand/fluid-sim/Assets/Scripts/.torch_inductor_cache/sz/cszpevhvr4p73v6gytto2xsashlr7q3qiyljfghysemfsvnvrcr7.py":42:33)
#loc27 = loc("/orcd/home/002/osbo/ondemand/fluid-sim/Assets/Scripts/.torch_inductor_cache/sz/cszpevhvr4p73v6gytto2xsashlr7q3qiyljfghysemfsvnvrcr7.py":43:25)
#loc28 = loc("/orcd/home/002/osbo/ondemand/fluid-sim/Assets/Scripts/.torch_inductor_cache/sz/cszpevhvr4p73v6gytto2xsashlr7q3qiyljfghysemfsvnvrcr7.py":43:37)
#loc29 = loc("/orcd/home/002/osbo/ondemand/fluid-sim/Assets/Scripts/.torch_inductor_cache/sz/cszpevhvr4p73v6gytto2xsashlr7q3qiyljfghysemfsvnvrcr7.py":43:4)
