#loc = loc("/orcd/home/002/osbo/ondemand/fluid-sim/Assets/Scripts/.torch_inductor_cache/qd/cqdkmqlahzpr5xp6y7k7wxwem5nkutuvwefzqystsz3atxv3itvc.py":18:0)
module {
  tt.func public @triton_(%arg0: !tt.ptr<f32> {tt.divisibility = 16 : i32} loc("/orcd/home/002/osbo/ondemand/fluid-sim/Assets/Scripts/.torch_inductor_cache/qd/cqdkmqlahzpr5xp6y7k7wxwem5nkutuvwefzqystsz3atxv3itvc.py":18:0), %arg1: !tt.ptr<f32> {tt.divisibility = 16 : i32} loc("/orcd/home/002/osbo/ondemand/fluid-sim/Assets/Scripts/.torch_inductor_cache/qd/cqdkmqlahzpr5xp6y7k7wxwem5nkutuvwefzqystsz3atxv3itvc.py":18:0), %arg2: !tt.ptr<f32> {tt.divisibility = 16 : i32} loc("/orcd/home/002/osbo/ondemand/fluid-sim/Assets/Scripts/.torch_inductor_cache/qd/cqdkmqlahzpr5xp6y7k7wxwem5nkutuvwefzqystsz3atxv3itvc.py":18:0), %arg3: i32 loc("/orcd/home/002/osbo/ondemand/fluid-sim/Assets/Scripts/.torch_inductor_cache/qd/cqdkmqlahzpr5xp6y7k7wxwem5nkutuvwefzqystsz3atxv3itvc.py":18:0), %arg4: i32 {tt.divisibility = 16 : i32} loc("/orcd/home/002/osbo/ondemand/fluid-sim/Assets/Scripts/.torch_inductor_cache/qd/cqdkmqlahzpr5xp6y7k7wxwem5nkutuvwefzqystsz3atxv3itvc.py":18:0)) attributes {noinline = false} {
    %c8192_i32 = arith.constant 8192 : i32 loc(#loc1)
    %c8_i32 = arith.constant 8 : i32 loc(#loc1)
    %c872_i32 = arith.constant 872 : i32 loc(#loc1)
    %cst = arith.constant dense<8> : tensor<1024x1xi32> loc(#loc1)
    %cst_0 = arith.constant dense<1024> : tensor<1024x1xi32> loc(#loc1)
    %c1024_i32 = arith.constant 1024 : i32 loc(#loc1)
    %0 = tt.get_program_id y : i32 loc(#loc2)
    %1 = arith.cmpi slt, %0, %c872_i32 : i32 loc(#loc3)
    %2 = tt.splat %1 : i1 -> tensor<1x1xi1> loc(#loc3)
    %3 = tt.get_program_id x : i32 loc(#loc4)
    %4 = arith.muli %3, %c1024_i32 : i32 loc(#loc5)
    %5 = tt.make_range {end = 1024 : i32, start = 0 : i32} : tensor<1024xi32> loc(#loc6)
    %6 = tt.expand_dims %5 {axis = 1 : i32} : tensor<1024xi32> -> tensor<1024x1xi32> loc(#loc7)
    %7 = tt.splat %4 : i32 -> tensor<1024x1xi32> loc(#loc8)
    %8 = arith.addi %7, %6 : tensor<1024x1xi32> loc(#loc8)
    %9 = arith.cmpi slt, %8, %cst_0 : tensor<1024x1xi32> loc(#loc9)
    %10 = arith.remsi %0, %c8_i32 : i32 loc(#loc10)
    %11 = arith.divsi %0, %c8_i32 : i32 loc(#loc11)
    %12 = arith.muli %8, %cst : tensor<1024x1xi32> loc(#loc12)
    %13 = tt.splat %10 : i32 -> tensor<1024x1xi32> loc(#loc13)
    %14 = arith.addi %13, %12 : tensor<1024x1xi32> loc(#loc13)
    %15 = arith.muli %11, %c8192_i32 : i32 loc(#loc14)
    %16 = tt.splat %15 : i32 -> tensor<1024x1xi32> loc(#loc15)
    %17 = arith.addi %14, %16 : tensor<1024x1xi32> loc(#loc15)
    %18 = tt.splat %arg0 : !tt.ptr<f32> -> tensor<1024x1x!tt.ptr<f32>> loc(#loc16)
    %19 = tt.addptr %18, %17 : tensor<1024x1x!tt.ptr<f32>>, tensor<1024x1xi32> loc(#loc16)
    %20 = tt.splat %1 : i1 -> tensor<1024x1xi1> loc(#loc17)
    %21 = arith.andi %9, %20 : tensor<1024x1xi1> loc(#loc17)
    %22 = tt.load %19, %21 evictionPolicy = evict_last : tensor<1024x1x!tt.ptr<f32>> loc(#loc18)
    %23 = tt.addptr %arg1, %10 : !tt.ptr<f32>, i32 loc(#loc19)
    %24 = tt.splat %23 : !tt.ptr<f32> -> tensor<1x1x!tt.ptr<f32>> loc(#loc19)
    %25 = tt.load %24, %2 evictionPolicy = evict_last : tensor<1x1x!tt.ptr<f32>> loc(#loc20)
    %26 = tt.broadcast %25 : tensor<1x1xf32> -> tensor<1024x1xf32> loc(#loc21)
    %27 = arith.addf %22, %26 : tensor<1024x1xf32> loc(#loc21)
    %28 = arith.muli %0, %c1024_i32 : i32 loc(#loc22)
    %29 = tt.splat %28 : i32 -> tensor<1024x1xi32> loc(#loc23)
    %30 = arith.addi %8, %29 : tensor<1024x1xi32> loc(#loc23)
    %31 = tt.splat %arg2 : !tt.ptr<f32> -> tensor<1024x1x!tt.ptr<f32>> loc(#loc24)
    %32 = tt.addptr %31, %30 : tensor<1024x1x!tt.ptr<f32>>, tensor<1024x1xi32> loc(#loc24)
    tt.store %32, %27, %21 : tensor<1024x1x!tt.ptr<f32>> loc(#loc25)
    tt.return loc(#loc26)
  } loc(#loc)
} loc(#loc)
#loc1 = loc(unknown)
#loc2 = loc("/orcd/home/002/osbo/ondemand/fluid-sim/Assets/Scripts/.torch_inductor_cache/qd/cqdkmqlahzpr5xp6y7k7wxwem5nkutuvwefzqystsz3atxv3itvc.py":21:28)
#loc3 = loc("/orcd/home/002/osbo/ondemand/fluid-sim/Assets/Scripts/.torch_inductor_cache/qd/cqdkmqlahzpr5xp6y7k7wxwem5nkutuvwefzqystsz3atxv3itvc.py":23:21)
#loc4 = loc("/orcd/home/002/osbo/ondemand/fluid-sim/Assets/Scripts/.torch_inductor_cache/qd/cqdkmqlahzpr5xp6y7k7wxwem5nkutuvwefzqystsz3atxv3itvc.py":24:28)
#loc5 = loc("/orcd/home/002/osbo/ondemand/fluid-sim/Assets/Scripts/.torch_inductor_cache/qd/cqdkmqlahzpr5xp6y7k7wxwem5nkutuvwefzqystsz3atxv3itvc.py":24:33)
#loc6 = loc("/orcd/home/002/osbo/ondemand/fluid-sim/Assets/Scripts/.torch_inductor_cache/qd/cqdkmqlahzpr5xp6y7k7wxwem5nkutuvwefzqystsz3atxv3itvc.py":25:36)
#loc7 = loc("/orcd/home/002/osbo/ondemand/fluid-sim/Assets/Scripts/.torch_inductor_cache/qd/cqdkmqlahzpr5xp6y7k7wxwem5nkutuvwefzqystsz3atxv3itvc.py":25:44)
#loc8 = loc("/orcd/home/002/osbo/ondemand/fluid-sim/Assets/Scripts/.torch_inductor_cache/qd/cqdkmqlahzpr5xp6y7k7wxwem5nkutuvwefzqystsz3atxv3itvc.py":25:23)
#loc9 = loc("/orcd/home/002/osbo/ondemand/fluid-sim/Assets/Scripts/.torch_inductor_cache/qd/cqdkmqlahzpr5xp6y7k7wxwem5nkutuvwefzqystsz3atxv3itvc.py":26:21)
#loc10 = loc("/orcd/home/002/osbo/ondemand/fluid-sim/Assets/Scripts/.torch_inductor_cache/qd/cqdkmqlahzpr5xp6y7k7wxwem5nkutuvwefzqystsz3atxv3itvc.py":28:18)
#loc11 = loc("/orcd/home/002/osbo/ondemand/fluid-sim/Assets/Scripts/.torch_inductor_cache/qd/cqdkmqlahzpr5xp6y7k7wxwem5nkutuvwefzqystsz3atxv3itvc.py":29:20)
#loc12 = loc("/orcd/home/002/osbo/ondemand/fluid-sim/Assets/Scripts/.torch_inductor_cache/qd/cqdkmqlahzpr5xp6y7k7wxwem5nkutuvwefzqystsz3atxv3itvc.py":31:38)
#loc13 = loc("/orcd/home/002/osbo/ondemand/fluid-sim/Assets/Scripts/.torch_inductor_cache/qd/cqdkmqlahzpr5xp6y7k7wxwem5nkutuvwefzqystsz3atxv3itvc.py":31:36)
#loc14 = loc("/orcd/home/002/osbo/ondemand/fluid-sim/Assets/Scripts/.torch_inductor_cache/qd/cqdkmqlahzpr5xp6y7k7wxwem5nkutuvwefzqystsz3atxv3itvc.py":31:50)
#loc15 = loc("/orcd/home/002/osbo/ondemand/fluid-sim/Assets/Scripts/.torch_inductor_cache/qd/cqdkmqlahzpr5xp6y7k7wxwem5nkutuvwefzqystsz3atxv3itvc.py":31:45)
#loc16 = loc("/orcd/home/002/osbo/ondemand/fluid-sim/Assets/Scripts/.torch_inductor_cache/qd/cqdkmqlahzpr5xp6y7k7wxwem5nkutuvwefzqystsz3atxv3itvc.py":31:30)
#loc17 = loc("/orcd/home/002/osbo/ondemand/fluid-sim/Assets/Scripts/.torch_inductor_cache/qd/cqdkmqlahzpr5xp6y7k7wxwem5nkutuvwefzqystsz3atxv3itvc.py":31:64)
#loc18 = loc("/orcd/home/002/osbo/ondemand/fluid-sim/Assets/Scripts/.torch_inductor_cache/qd/cqdkmqlahzpr5xp6y7k7wxwem5nkutuvwefzqystsz3atxv3itvc.py":31:56)
#loc19 = loc("/orcd/home/002/osbo/ondemand/fluid-sim/Assets/Scripts/.torch_inductor_cache/qd/cqdkmqlahzpr5xp6y7k7wxwem5nkutuvwefzqystsz3atxv3itvc.py":32:30)
#loc20 = loc("/orcd/home/002/osbo/ondemand/fluid-sim/Assets/Scripts/.torch_inductor_cache/qd/cqdkmqlahzpr5xp6y7k7wxwem5nkutuvwefzqystsz3atxv3itvc.py":32:35)
#loc21 = loc("/orcd/home/002/osbo/ondemand/fluid-sim/Assets/Scripts/.torch_inductor_cache/qd/cqdkmqlahzpr5xp6y7k7wxwem5nkutuvwefzqystsz3atxv3itvc.py":33:18)
#loc22 = loc("/orcd/home/002/osbo/ondemand/fluid-sim/Assets/Scripts/.torch_inductor_cache/qd/cqdkmqlahzpr5xp6y7k7wxwem5nkutuvwefzqystsz3atxv3itvc.py":34:36)
#loc23 = loc("/orcd/home/002/osbo/ondemand/fluid-sim/Assets/Scripts/.torch_inductor_cache/qd/cqdkmqlahzpr5xp6y7k7wxwem5nkutuvwefzqystsz3atxv3itvc.py":34:31)
#loc24 = loc("/orcd/home/002/osbo/ondemand/fluid-sim/Assets/Scripts/.torch_inductor_cache/qd/cqdkmqlahzpr5xp6y7k7wxwem5nkutuvwefzqystsz3atxv3itvc.py":34:25)
#loc25 = loc("/orcd/home/002/osbo/ondemand/fluid-sim/Assets/Scripts/.torch_inductor_cache/qd/cqdkmqlahzpr5xp6y7k7wxwem5nkutuvwefzqystsz3atxv3itvc.py":34:48)
#loc26 = loc("/orcd/home/002/osbo/ondemand/fluid-sim/Assets/Scripts/.torch_inductor_cache/qd/cqdkmqlahzpr5xp6y7k7wxwem5nkutuvwefzqystsz3atxv3itvc.py":34:4)
