#loc = loc("/orcd/home/002/osbo/ondemand/fluid-sim/Assets/Scripts/.torch_inductor_cache/er/cert6mgre3ruyn3vqlstbnqyxbmztd6i4tyqyqe5boul3orgnnsc.py":18:0)
module {
  tt.func public @triton_(%arg0: !tt.ptr<f32> {tt.divisibility = 16 : i32} loc("/orcd/home/002/osbo/ondemand/fluid-sim/Assets/Scripts/.torch_inductor_cache/er/cert6mgre3ruyn3vqlstbnqyxbmztd6i4tyqyqe5boul3orgnnsc.py":18:0), %arg1: !tt.ptr<f32> {tt.divisibility = 16 : i32} loc("/orcd/home/002/osbo/ondemand/fluid-sim/Assets/Scripts/.torch_inductor_cache/er/cert6mgre3ruyn3vqlstbnqyxbmztd6i4tyqyqe5boul3orgnnsc.py":18:0), %arg2: !tt.ptr<f32> {tt.divisibility = 16 : i32} loc("/orcd/home/002/osbo/ondemand/fluid-sim/Assets/Scripts/.torch_inductor_cache/er/cert6mgre3ruyn3vqlstbnqyxbmztd6i4tyqyqe5boul3orgnnsc.py":18:0), %arg3: i32 {tt.divisibility = 16 : i32} loc("/orcd/home/002/osbo/ondemand/fluid-sim/Assets/Scripts/.torch_inductor_cache/er/cert6mgre3ruyn3vqlstbnqyxbmztd6i4tyqyqe5boul3orgnnsc.py":18:0), %arg4: i32 {tt.divisibility = 16 : i32} loc("/orcd/home/002/osbo/ondemand/fluid-sim/Assets/Scripts/.torch_inductor_cache/er/cert6mgre3ruyn3vqlstbnqyxbmztd6i4tyqyqe5boul3orgnnsc.py":18:0)) attributes {noinline = false} {
    %c16384_i32 = arith.constant 16384 : i32 loc(#loc1)
    %c131072_i32 = arith.constant 131072 : i32 loc(#loc1)
    %c8_i32 = arith.constant 8 : i32 loc(#loc1)
    %cst = arith.constant dense<8> : tensor<1024x1xi32> loc(#loc1)
    %c1024_i32 = arith.constant 1024 : i32 loc(#loc1)
    %0 = tt.get_program_id y : i32 loc(#loc2)
    %1 = tt.get_program_id x : i32 loc(#loc3)
    %2 = arith.muli %1, %c1024_i32 : i32 loc(#loc4)
    %3 = tt.make_range {end = 1024 : i32, start = 0 : i32} : tensor<1024xi32> loc(#loc5)
    %4 = tt.expand_dims %3 {axis = 1 : i32} : tensor<1024xi32> -> tensor<1024x1xi32> loc(#loc6)
    %5 = tt.splat %2 : i32 -> tensor<1024x1xi32> loc(#loc7)
    %6 = arith.addi %5, %4 : tensor<1024x1xi32> loc(#loc7)
    %7 = arith.remsi %0, %c8_i32 : i32 loc(#loc8)
    %8 = arith.divsi %0, %c8_i32 : i32 loc(#loc9)
    %9 = arith.muli %6, %cst : tensor<1024x1xi32> loc(#loc10)
    %10 = tt.splat %7 : i32 -> tensor<1024x1xi32> loc(#loc11)
    %11 = arith.addi %10, %9 : tensor<1024x1xi32> loc(#loc11)
    %12 = arith.muli %8, %c131072_i32 : i32 loc(#loc12)
    %13 = tt.splat %12 : i32 -> tensor<1024x1xi32> loc(#loc13)
    %14 = arith.addi %11, %13 : tensor<1024x1xi32> loc(#loc13)
    %15 = tt.splat %arg0 : !tt.ptr<f32> -> tensor<1024x1x!tt.ptr<f32>> loc(#loc14)
    %16 = tt.addptr %15, %14 : tensor<1024x1x!tt.ptr<f32>>, tensor<1024x1xi32> loc(#loc14)
    %17 = tt.load %16 evictionPolicy = evict_last : tensor<1024x1x!tt.ptr<f32>> loc(#loc15)
    %18 = tt.addptr %arg1, %7 : !tt.ptr<f32>, i32 loc(#loc16)
    %19 = tt.splat %18 : !tt.ptr<f32> -> tensor<1x1x!tt.ptr<f32>> loc(#loc16)
    %20 = tt.load %19 evictionPolicy = evict_last : tensor<1x1x!tt.ptr<f32>> loc(#loc17)
    %21 = tt.broadcast %20 : tensor<1x1xf32> -> tensor<1024x1xf32> loc(#loc18)
    %22 = arith.addf %17, %21 : tensor<1024x1xf32> loc(#loc18)
    %23 = arith.muli %0, %c16384_i32 : i32 loc(#loc19)
    %24 = tt.splat %23 : i32 -> tensor<1024x1xi32> loc(#loc20)
    %25 = arith.addi %6, %24 : tensor<1024x1xi32> loc(#loc20)
    %26 = tt.splat %arg2 : !tt.ptr<f32> -> tensor<1024x1x!tt.ptr<f32>> loc(#loc21)
    %27 = tt.addptr %26, %25 : tensor<1024x1x!tt.ptr<f32>>, tensor<1024x1xi32> loc(#loc21)
    tt.store %27, %22 : tensor<1024x1x!tt.ptr<f32>> loc(#loc22)
    tt.return loc(#loc23)
  } loc(#loc)
} loc(#loc)
#loc1 = loc(unknown)
#loc2 = loc("/orcd/home/002/osbo/ondemand/fluid-sim/Assets/Scripts/.torch_inductor_cache/er/cert6mgre3ruyn3vqlstbnqyxbmztd6i4tyqyqe5boul3orgnnsc.py":21:28)
#loc3 = loc("/orcd/home/002/osbo/ondemand/fluid-sim/Assets/Scripts/.torch_inductor_cache/er/cert6mgre3ruyn3vqlstbnqyxbmztd6i4tyqyqe5boul3orgnnsc.py":24:28)
#loc4 = loc("/orcd/home/002/osbo/ondemand/fluid-sim/Assets/Scripts/.torch_inductor_cache/er/cert6mgre3ruyn3vqlstbnqyxbmztd6i4tyqyqe5boul3orgnnsc.py":24:33)
#loc5 = loc("/orcd/home/002/osbo/ondemand/fluid-sim/Assets/Scripts/.torch_inductor_cache/er/cert6mgre3ruyn3vqlstbnqyxbmztd6i4tyqyqe5boul3orgnnsc.py":25:36)
#loc6 = loc("/orcd/home/002/osbo/ondemand/fluid-sim/Assets/Scripts/.torch_inductor_cache/er/cert6mgre3ruyn3vqlstbnqyxbmztd6i4tyqyqe5boul3orgnnsc.py":25:44)
#loc7 = loc("/orcd/home/002/osbo/ondemand/fluid-sim/Assets/Scripts/.torch_inductor_cache/er/cert6mgre3ruyn3vqlstbnqyxbmztd6i4tyqyqe5boul3orgnnsc.py":25:23)
#loc8 = loc("/orcd/home/002/osbo/ondemand/fluid-sim/Assets/Scripts/.torch_inductor_cache/er/cert6mgre3ruyn3vqlstbnqyxbmztd6i4tyqyqe5boul3orgnnsc.py":28:18)
#loc9 = loc("/orcd/home/002/osbo/ondemand/fluid-sim/Assets/Scripts/.torch_inductor_cache/er/cert6mgre3ruyn3vqlstbnqyxbmztd6i4tyqyqe5boul3orgnnsc.py":29:20)
#loc10 = loc("/orcd/home/002/osbo/ondemand/fluid-sim/Assets/Scripts/.torch_inductor_cache/er/cert6mgre3ruyn3vqlstbnqyxbmztd6i4tyqyqe5boul3orgnnsc.py":31:38)
#loc11 = loc("/orcd/home/002/osbo/ondemand/fluid-sim/Assets/Scripts/.torch_inductor_cache/er/cert6mgre3ruyn3vqlstbnqyxbmztd6i4tyqyqe5boul3orgnnsc.py":31:36)
#loc12 = loc("/orcd/home/002/osbo/ondemand/fluid-sim/Assets/Scripts/.torch_inductor_cache/er/cert6mgre3ruyn3vqlstbnqyxbmztd6i4tyqyqe5boul3orgnnsc.py":31:52)
#loc13 = loc("/orcd/home/002/osbo/ondemand/fluid-sim/Assets/Scripts/.torch_inductor_cache/er/cert6mgre3ruyn3vqlstbnqyxbmztd6i4tyqyqe5boul3orgnnsc.py":31:45)
#loc14 = loc("/orcd/home/002/osbo/ondemand/fluid-sim/Assets/Scripts/.torch_inductor_cache/er/cert6mgre3ruyn3vqlstbnqyxbmztd6i4tyqyqe5boul3orgnnsc.py":31:30)
#loc15 = loc("/orcd/home/002/osbo/ondemand/fluid-sim/Assets/Scripts/.torch_inductor_cache/er/cert6mgre3ruyn3vqlstbnqyxbmztd6i4tyqyqe5boul3orgnnsc.py":31:58)
#loc16 = loc("/orcd/home/002/osbo/ondemand/fluid-sim/Assets/Scripts/.torch_inductor_cache/er/cert6mgre3ruyn3vqlstbnqyxbmztd6i4tyqyqe5boul3orgnnsc.py":32:30)
#loc17 = loc("/orcd/home/002/osbo/ondemand/fluid-sim/Assets/Scripts/.torch_inductor_cache/er/cert6mgre3ruyn3vqlstbnqyxbmztd6i4tyqyqe5boul3orgnnsc.py":32:35)
#loc18 = loc("/orcd/home/002/osbo/ondemand/fluid-sim/Assets/Scripts/.torch_inductor_cache/er/cert6mgre3ruyn3vqlstbnqyxbmztd6i4tyqyqe5boul3orgnnsc.py":33:18)
#loc19 = loc("/orcd/home/002/osbo/ondemand/fluid-sim/Assets/Scripts/.torch_inductor_cache/er/cert6mgre3ruyn3vqlstbnqyxbmztd6i4tyqyqe5boul3orgnnsc.py":34:37)
#loc20 = loc("/orcd/home/002/osbo/ondemand/fluid-sim/Assets/Scripts/.torch_inductor_cache/er/cert6mgre3ruyn3vqlstbnqyxbmztd6i4tyqyqe5boul3orgnnsc.py":34:31)
#loc21 = loc("/orcd/home/002/osbo/ondemand/fluid-sim/Assets/Scripts/.torch_inductor_cache/er/cert6mgre3ruyn3vqlstbnqyxbmztd6i4tyqyqe5boul3orgnnsc.py":34:25)
#loc22 = loc("/orcd/home/002/osbo/ondemand/fluid-sim/Assets/Scripts/.torch_inductor_cache/er/cert6mgre3ruyn3vqlstbnqyxbmztd6i4tyqyqe5boul3orgnnsc.py":34:49)
#loc23 = loc("/orcd/home/002/osbo/ondemand/fluid-sim/Assets/Scripts/.torch_inductor_cache/er/cert6mgre3ruyn3vqlstbnqyxbmztd6i4tyqyqe5boul3orgnnsc.py":34:4)
