#loc = loc("/orcd/home/002/osbo/ondemand/fluid-sim/Assets/Scripts/.torch_inductor_cache/st/cst2tuhgpkdiwfznnt4jap2qqfjiyiesoz3qm6aepcqweaqqb6v6.py":18:0)
#loc1 = loc(unknown)
module {
  tt.func public @triton_(%arg0: !tt.ptr<f32> {tt.divisibility = 16 : i32} loc("/orcd/home/002/osbo/ondemand/fluid-sim/Assets/Scripts/.torch_inductor_cache/st/cst2tuhgpkdiwfznnt4jap2qqfjiyiesoz3qm6aepcqweaqqb6v6.py":18:0), %arg1: !tt.ptr<f32> {tt.divisibility = 16 : i32} loc("/orcd/home/002/osbo/ondemand/fluid-sim/Assets/Scripts/.torch_inductor_cache/st/cst2tuhgpkdiwfznnt4jap2qqfjiyiesoz3qm6aepcqweaqqb6v6.py":18:0), %arg2: !tt.ptr<f32> {tt.divisibility = 16 : i32} loc("/orcd/home/002/osbo/ondemand/fluid-sim/Assets/Scripts/.torch_inductor_cache/st/cst2tuhgpkdiwfznnt4jap2qqfjiyiesoz3qm6aepcqweaqqb6v6.py":18:0), %arg3: !tt.ptr<f32> {tt.divisibility = 16 : i32} loc("/orcd/home/002/osbo/ondemand/fluid-sim/Assets/Scripts/.torch_inductor_cache/st/cst2tuhgpkdiwfznnt4jap2qqfjiyiesoz3qm6aepcqweaqqb6v6.py":18:0), %arg4: i32 {tt.divisibility = 16 : i32} loc("/orcd/home/002/osbo/ondemand/fluid-sim/Assets/Scripts/.torch_inductor_cache/st/cst2tuhgpkdiwfznnt4jap2qqfjiyiesoz3qm6aepcqweaqqb6v6.py":18:0), %arg5: i32 {tt.divisibility = 16 : i32} loc("/orcd/home/002/osbo/ondemand/fluid-sim/Assets/Scripts/.torch_inductor_cache/st/cst2tuhgpkdiwfznnt4jap2qqfjiyiesoz3qm6aepcqweaqqb6v6.py":18:0)) attributes {noinline = false} {
    %cst = arith.constant dense<0.000000e+00> : tensor<32x32xf32> loc(#loc1)
    %cst_0 = arith.constant dense<4096> : tensor<32x1xi32> loc(#loc1)
    %cst_1 = arith.constant dense<128> : tensor<1x32xi32> loc(#loc1)
    %cst_2 = arith.constant dense<128> : tensor<32x1xi32> loc(#loc1)
    %cst_3 = arith.constant dense<13952> : tensor<32x1xi32> loc(#loc1)
    %c32_i32 = arith.constant 32 : i32 loc(#loc1)
    %0 = tt.get_program_id x : i32 loc(#loc2)
    %1 = arith.muli %0, %c32_i32 : i32 loc(#loc3)
    %2 = tt.make_range {end = 32 : i32, start = 0 : i32} : tensor<32xi32> loc(#loc4)
    %3 = tt.expand_dims %2 {axis = 1 : i32} : tensor<32xi32> -> tensor<32x1xi32> loc(#loc5)
    %4 = tt.splat %1 : i32 -> tensor<32x1xi32> loc(#loc6)
    %5 = arith.addi %4, %3 : tensor<32x1xi32> loc(#loc6)
    %6 = arith.cmpi slt, %5, %cst_3 : tensor<32x1xi32> loc(#loc7)
    %7 = tt.expand_dims %2 {axis = 0 : i32} : tensor<32xi32> -> tensor<1x32xi32> loc(#loc8)
    %8 = arith.remsi %5, %cst_2 : tensor<32x1xi32> loc(#loc9)
    %9 = arith.divsi %5, %cst_2 : tensor<32x1xi32> loc(#loc10)
    %10 = arith.muli %7, %cst_1 : tensor<1x32xi32> loc(#loc11)
    %11 = tt.broadcast %8 : tensor<32x1xi32> -> tensor<32x32xi32> loc(#loc12)
    %12 = tt.broadcast %10 : tensor<1x32xi32> -> tensor<32x32xi32> loc(#loc12)
    %13 = arith.addi %11, %12 : tensor<32x32xi32> loc(#loc12)
    %14 = arith.muli %9, %cst_0 : tensor<32x1xi32> loc(#loc13)
    %15 = tt.broadcast %14 : tensor<32x1xi32> -> tensor<32x32xi32> loc(#loc14)
    %16 = arith.addi %13, %15 : tensor<32x32xi32> loc(#loc14)
    %17 = tt.splat %arg0 : !tt.ptr<f32> -> tensor<32x32x!tt.ptr<f32>> loc(#loc15)
    %18 = tt.addptr %17, %16 : tensor<32x32x!tt.ptr<f32>>, tensor<32x32xi32> loc(#loc15)
    %19 = tt.broadcast %6 : tensor<32x1xi1> -> tensor<32x32xi1> loc(#loc16)
    %20 = tt.load %18, %19, %cst : tensor<32x32x!tt.ptr<f32>> loc(#loc16)
    %21 = tt.splat %arg1 : !tt.ptr<f32> -> tensor<32x32x!tt.ptr<f32>> loc(#loc17)
    %22 = tt.addptr %21, %16 : tensor<32x32x!tt.ptr<f32>>, tensor<32x32xi32> loc(#loc17)
    %23 = tt.load %22, %19, %cst : tensor<32x32x!tt.ptr<f32>> loc(#loc18)
    %24 = tt.splat %arg2 : !tt.ptr<f32> -> tensor<32x1x!tt.ptr<f32>> loc(#loc19)
    %25 = tt.addptr %24, %8 : tensor<32x1x!tt.ptr<f32>>, tensor<32x1xi32> loc(#loc19)
    %26 = tt.load %25, %6 evictionPolicy = evict_last : tensor<32x1x!tt.ptr<f32>> loc(#loc20)
    %27 = tt.broadcast %26 : tensor<32x1xf32> -> tensor<32x32xf32> loc(#loc21)
    %28 = arith.addf %23, %27 : tensor<32x32xf32> loc(#loc21)
    %29 = arith.addf %20, %28 : tensor<32x32xf32> loc(#loc22)
    %30 = arith.select %19, %29, %cst : tensor<32x32xi1>, tensor<32x32xf32> loc(#loc23)
    %31 = "tt.reduce"(%30) <{axis = 1 : i32}> ({
    ^bb0(%arg6: f32 loc(unknown), %arg7: f32 loc(unknown)):
      %35 = arith.addf %arg6, %arg7 : f32 loc(#loc33)
      tt.reduce.return %35 : f32 loc(#loc31)
    }) : (tensor<32x32xf32>) -> tensor<32xf32> loc(#loc31)
    %32 = tt.expand_dims %31 {axis = 1 : i32} : tensor<32xf32> -> tensor<32x1xf32> loc(#loc27)
    %33 = tt.splat %arg3 : !tt.ptr<f32> -> tensor<32x1x!tt.ptr<f32>> loc(#loc28)
    %34 = tt.addptr %33, %5 : tensor<32x1x!tt.ptr<f32>>, tensor<32x1xi32> loc(#loc28)
    tt.store %34, %32, %6 : tensor<32x1x!tt.ptr<f32>> loc(#loc29)
    tt.return loc(#loc30)
  } loc(#loc)
} loc(#loc)
#loc2 = loc("/orcd/home/002/osbo/ondemand/fluid-sim/Assets/Scripts/.torch_inductor_cache/st/cst2tuhgpkdiwfznnt4jap2qqfjiyiesoz3qm6aepcqweaqqb6v6.py":22:28)
#loc3 = loc("/orcd/home/002/osbo/ondemand/fluid-sim/Assets/Scripts/.torch_inductor_cache/st/cst2tuhgpkdiwfznnt4jap2qqfjiyiesoz3qm6aepcqweaqqb6v6.py":22:33)
#loc4 = loc("/orcd/home/002/osbo/ondemand/fluid-sim/Assets/Scripts/.torch_inductor_cache/st/cst2tuhgpkdiwfznnt4jap2qqfjiyiesoz3qm6aepcqweaqqb6v6.py":23:36)
#loc5 = loc("/orcd/home/002/osbo/ondemand/fluid-sim/Assets/Scripts/.torch_inductor_cache/st/cst2tuhgpkdiwfznnt4jap2qqfjiyiesoz3qm6aepcqweaqqb6v6.py":23:44)
#loc6 = loc("/orcd/home/002/osbo/ondemand/fluid-sim/Assets/Scripts/.torch_inductor_cache/st/cst2tuhgpkdiwfznnt4jap2qqfjiyiesoz3qm6aepcqweaqqb6v6.py":23:23)
#loc7 = loc("/orcd/home/002/osbo/ondemand/fluid-sim/Assets/Scripts/.torch_inductor_cache/st/cst2tuhgpkdiwfznnt4jap2qqfjiyiesoz3qm6aepcqweaqqb6v6.py":24:21)
#loc8 = loc("/orcd/home/002/osbo/ondemand/fluid-sim/Assets/Scripts/.torch_inductor_cache/st/cst2tuhgpkdiwfznnt4jap2qqfjiyiesoz3qm6aepcqweaqqb6v6.py":25:34)
#loc9 = loc("/orcd/home/002/osbo/ondemand/fluid-sim/Assets/Scripts/.torch_inductor_cache/st/cst2tuhgpkdiwfznnt4jap2qqfjiyiesoz3qm6aepcqweaqqb6v6.py":29:18)
#loc10 = loc("/orcd/home/002/osbo/ondemand/fluid-sim/Assets/Scripts/.torch_inductor_cache/st/cst2tuhgpkdiwfznnt4jap2qqfjiyiesoz3qm6aepcqweaqqb6v6.py":30:20)
#loc11 = loc("/orcd/home/002/osbo/ondemand/fluid-sim/Assets/Scripts/.torch_inductor_cache/st/cst2tuhgpkdiwfznnt4jap2qqfjiyiesoz3qm6aepcqweaqqb6v6.py":32:40)
#loc12 = loc("/orcd/home/002/osbo/ondemand/fluid-sim/Assets/Scripts/.torch_inductor_cache/st/cst2tuhgpkdiwfznnt4jap2qqfjiyiesoz3qm6aepcqweaqqb6v6.py":32:36)
#loc13 = loc("/orcd/home/002/osbo/ondemand/fluid-sim/Assets/Scripts/.torch_inductor_cache/st/cst2tuhgpkdiwfznnt4jap2qqfjiyiesoz3qm6aepcqweaqqb6v6.py":32:52)
#loc14 = loc("/orcd/home/002/osbo/ondemand/fluid-sim/Assets/Scripts/.torch_inductor_cache/st/cst2tuhgpkdiwfznnt4jap2qqfjiyiesoz3qm6aepcqweaqqb6v6.py":32:47)
#loc15 = loc("/orcd/home/002/osbo/ondemand/fluid-sim/Assets/Scripts/.torch_inductor_cache/st/cst2tuhgpkdiwfznnt4jap2qqfjiyiesoz3qm6aepcqweaqqb6v6.py":32:30)
#loc16 = loc("/orcd/home/002/osbo/ondemand/fluid-sim/Assets/Scripts/.torch_inductor_cache/st/cst2tuhgpkdiwfznnt4jap2qqfjiyiesoz3qm6aepcqweaqqb6v6.py":32:58)
#loc17 = loc("/orcd/home/002/osbo/ondemand/fluid-sim/Assets/Scripts/.torch_inductor_cache/st/cst2tuhgpkdiwfznnt4jap2qqfjiyiesoz3qm6aepcqweaqqb6v6.py":33:30)
#loc18 = loc("/orcd/home/002/osbo/ondemand/fluid-sim/Assets/Scripts/.torch_inductor_cache/st/cst2tuhgpkdiwfznnt4jap2qqfjiyiesoz3qm6aepcqweaqqb6v6.py":33:58)
#loc19 = loc("/orcd/home/002/osbo/ondemand/fluid-sim/Assets/Scripts/.torch_inductor_cache/st/cst2tuhgpkdiwfznnt4jap2qqfjiyiesoz3qm6aepcqweaqqb6v6.py":34:30)
#loc20 = loc("/orcd/home/002/osbo/ondemand/fluid-sim/Assets/Scripts/.torch_inductor_cache/st/cst2tuhgpkdiwfznnt4jap2qqfjiyiesoz3qm6aepcqweaqqb6v6.py":34:35)
#loc21 = loc("/orcd/home/002/osbo/ondemand/fluid-sim/Assets/Scripts/.torch_inductor_cache/st/cst2tuhgpkdiwfznnt4jap2qqfjiyiesoz3qm6aepcqweaqqb6v6.py":35:18)
#loc22 = loc("/orcd/home/002/osbo/ondemand/fluid-sim/Assets/Scripts/.torch_inductor_cache/st/cst2tuhgpkdiwfznnt4jap2qqfjiyiesoz3qm6aepcqweaqqb6v6.py":36:18)
#loc23 = loc("/orcd/home/002/osbo/ondemand/fluid-sim/Assets/Scripts/.torch_inductor_cache/st/cst2tuhgpkdiwfznnt4jap2qqfjiyiesoz3qm6aepcqweaqqb6v6.py":38:33)
#loc24 = loc("/home/osbo/.conda/envs/fluid/lib/python3.12/site-packages/triton/language/standard.py":267:36)
#loc25 = loc("/orcd/home/002/osbo/ondemand/fluid-sim/Assets/Scripts/.torch_inductor_cache/st/cst2tuhgpkdiwfznnt4jap2qqfjiyiesoz3qm6aepcqweaqqb6v6.py":39:24)
#loc26 = loc("/home/osbo/.conda/envs/fluid/lib/python3.12/site-packages/triton/language/standard.py":256:15)
#loc27 = loc("/orcd/home/002/osbo/ondemand/fluid-sim/Assets/Scripts/.torch_inductor_cache/st/cst2tuhgpkdiwfznnt4jap2qqfjiyiesoz3qm6aepcqweaqqb6v6.py":39:27)
#loc28 = loc("/orcd/home/002/osbo/ondemand/fluid-sim/Assets/Scripts/.torch_inductor_cache/st/cst2tuhgpkdiwfznnt4jap2qqfjiyiesoz3qm6aepcqweaqqb6v6.py":40:25)
#loc29 = loc("/orcd/home/002/osbo/ondemand/fluid-sim/Assets/Scripts/.torch_inductor_cache/st/cst2tuhgpkdiwfznnt4jap2qqfjiyiesoz3qm6aepcqweaqqb6v6.py":40:36)
#loc30 = loc("/orcd/home/002/osbo/ondemand/fluid-sim/Assets/Scripts/.torch_inductor_cache/st/cst2tuhgpkdiwfznnt4jap2qqfjiyiesoz3qm6aepcqweaqqb6v6.py":40:4)
#loc31 = loc(callsite(#loc24 at #loc25))
#loc32 = loc(callsite(#loc26 at #loc24))
#loc33 = loc(callsite(#loc32 at #loc25))
