#loc = loc("/orcd/home/002/osbo/ondemand/fluid-sim/Assets/Scripts/.torch_inductor_cache/23/c232uiujtnoign3ldg5jhi7q3bc3u6pbld5setqwninpcboro66n.py":18:0)
module {
  tt.func public @triton_(%arg0: !tt.ptr<f32> {tt.divisibility = 16 : i32} loc("/orcd/home/002/osbo/ondemand/fluid-sim/Assets/Scripts/.torch_inductor_cache/23/c232uiujtnoign3ldg5jhi7q3bc3u6pbld5setqwninpcboro66n.py":18:0), %arg1: !tt.ptr<f32> {tt.divisibility = 16 : i32} loc("/orcd/home/002/osbo/ondemand/fluid-sim/Assets/Scripts/.torch_inductor_cache/23/c232uiujtnoign3ldg5jhi7q3bc3u6pbld5setqwninpcboro66n.py":18:0), %arg2: !tt.ptr<f32> {tt.divisibility = 16 : i32} loc("/orcd/home/002/osbo/ondemand/fluid-sim/Assets/Scripts/.torch_inductor_cache/23/c232uiujtnoign3ldg5jhi7q3bc3u6pbld5setqwninpcboro66n.py":18:0), %arg3: i32 loc("/orcd/home/002/osbo/ondemand/fluid-sim/Assets/Scripts/.torch_inductor_cache/23/c232uiujtnoign3ldg5jhi7q3bc3u6pbld5setqwninpcboro66n.py":18:0), %arg4: i32 {tt.divisibility = 16 : i32} loc("/orcd/home/002/osbo/ondemand/fluid-sim/Assets/Scripts/.torch_inductor_cache/23/c232uiujtnoign3ldg5jhi7q3bc3u6pbld5setqwninpcboro66n.py":18:0)) attributes {noinline = false} {
    %c8_i32 = arith.constant 8 : i32 loc(#loc1)
    %cst = arith.constant dense<1024> : tensor<1x1024xi32> loc(#loc1)
    %cst_0 = arith.constant dense<8192> : tensor<1x1024xi32> loc(#loc1)
    %cst_1 = arith.constant dense<8> : tensor<1x1024xi32> loc(#loc1)
    %cst_2 = arith.constant dense<3896> : tensor<1x1024xi32> loc(#loc1)
    %c1024_i32 = arith.constant 1024 : i32 loc(#loc1)
    %0 = tt.get_program_id y : i32 loc(#loc2)
    %1 = arith.muli %0, %c1024_i32 : i32 loc(#loc3)
    %2 = tt.make_range {end = 1024 : i32, start = 0 : i32} : tensor<1024xi32> loc(#loc4)
    %3 = tt.expand_dims %2 {axis = 0 : i32} : tensor<1024xi32> -> tensor<1x1024xi32> loc(#loc5)
    %4 = tt.splat %1 : i32 -> tensor<1x1024xi32> loc(#loc6)
    %5 = arith.addi %4, %3 : tensor<1x1024xi32> loc(#loc6)
    %6 = arith.cmpi slt, %5, %cst_2 : tensor<1x1024xi32> loc(#loc7)
    %7 = tt.get_program_id x : i32 loc(#loc8)
    %8 = arith.cmpi slt, %7, %c1024_i32 : i32 loc(#loc9)
    %9 = arith.remsi %5, %cst_1 : tensor<1x1024xi32> loc(#loc10)
    %10 = arith.divsi %5, %cst_1 : tensor<1x1024xi32> loc(#loc11)
    %11 = arith.muli %7, %c8_i32 : i32 loc(#loc12)
    %12 = tt.splat %11 : i32 -> tensor<1x1024xi32> loc(#loc13)
    %13 = arith.addi %9, %12 : tensor<1x1024xi32> loc(#loc13)
    %14 = arith.muli %10, %cst_0 : tensor<1x1024xi32> loc(#loc14)
    %15 = arith.addi %13, %14 : tensor<1x1024xi32> loc(#loc15)
    %16 = tt.splat %arg0 : !tt.ptr<f32> -> tensor<1x1024x!tt.ptr<f32>> loc(#loc16)
    %17 = tt.addptr %16, %15 : tensor<1x1024x!tt.ptr<f32>>, tensor<1x1024xi32> loc(#loc16)
    %18 = tt.splat %8 : i1 -> tensor<1x1024xi1> loc(#loc17)
    %19 = arith.andi %18, %6 : tensor<1x1024xi1> loc(#loc17)
    %20 = tt.load %17, %19 evictionPolicy = evict_last : tensor<1x1024x!tt.ptr<f32>> loc(#loc18)
    %21 = tt.splat %arg1 : !tt.ptr<f32> -> tensor<1x1024x!tt.ptr<f32>> loc(#loc19)
    %22 = tt.addptr %21, %9 : tensor<1x1024x!tt.ptr<f32>>, tensor<1x1024xi32> loc(#loc19)
    %23 = tt.load %22, %6 evictionPolicy = evict_last : tensor<1x1024x!tt.ptr<f32>> loc(#loc20)
    %24 = arith.addf %20, %23 : tensor<1x1024xf32> loc(#loc21)
    %25 = arith.muli %5, %cst : tensor<1x1024xi32> loc(#loc22)
    %26 = tt.splat %7 : i32 -> tensor<1x1024xi32> loc(#loc23)
    %27 = arith.addi %26, %25 : tensor<1x1024xi32> loc(#loc23)
    %28 = tt.splat %arg2 : !tt.ptr<f32> -> tensor<1x1024x!tt.ptr<f32>> loc(#loc24)
    %29 = tt.addptr %28, %27 : tensor<1x1024x!tt.ptr<f32>>, tensor<1x1024xi32> loc(#loc24)
    tt.store %29, %24, %19 : tensor<1x1024x!tt.ptr<f32>> loc(#loc25)
    tt.return loc(#loc26)
  } loc(#loc)
} loc(#loc)
#loc1 = loc(unknown)
#loc2 = loc("/orcd/home/002/osbo/ondemand/fluid-sim/Assets/Scripts/.torch_inductor_cache/23/c232uiujtnoign3ldg5jhi7q3bc3u6pbld5setqwninpcboro66n.py":21:28)
#loc3 = loc("/orcd/home/002/osbo/ondemand/fluid-sim/Assets/Scripts/.torch_inductor_cache/23/c232uiujtnoign3ldg5jhi7q3bc3u6pbld5setqwninpcboro66n.py":21:33)
#loc4 = loc("/orcd/home/002/osbo/ondemand/fluid-sim/Assets/Scripts/.torch_inductor_cache/23/c232uiujtnoign3ldg5jhi7q3bc3u6pbld5setqwninpcboro66n.py":22:36)
#loc5 = loc("/orcd/home/002/osbo/ondemand/fluid-sim/Assets/Scripts/.torch_inductor_cache/23/c232uiujtnoign3ldg5jhi7q3bc3u6pbld5setqwninpcboro66n.py":22:44)
#loc6 = loc("/orcd/home/002/osbo/ondemand/fluid-sim/Assets/Scripts/.torch_inductor_cache/23/c232uiujtnoign3ldg5jhi7q3bc3u6pbld5setqwninpcboro66n.py":22:23)
#loc7 = loc("/orcd/home/002/osbo/ondemand/fluid-sim/Assets/Scripts/.torch_inductor_cache/23/c232uiujtnoign3ldg5jhi7q3bc3u6pbld5setqwninpcboro66n.py":23:21)
#loc8 = loc("/orcd/home/002/osbo/ondemand/fluid-sim/Assets/Scripts/.torch_inductor_cache/23/c232uiujtnoign3ldg5jhi7q3bc3u6pbld5setqwninpcboro66n.py":24:28)
#loc9 = loc("/orcd/home/002/osbo/ondemand/fluid-sim/Assets/Scripts/.torch_inductor_cache/23/c232uiujtnoign3ldg5jhi7q3bc3u6pbld5setqwninpcboro66n.py":26:21)
#loc10 = loc("/orcd/home/002/osbo/ondemand/fluid-sim/Assets/Scripts/.torch_inductor_cache/23/c232uiujtnoign3ldg5jhi7q3bc3u6pbld5setqwninpcboro66n.py":28:18)
#loc11 = loc("/orcd/home/002/osbo/ondemand/fluid-sim/Assets/Scripts/.torch_inductor_cache/23/c232uiujtnoign3ldg5jhi7q3bc3u6pbld5setqwninpcboro66n.py":29:20)
#loc12 = loc("/orcd/home/002/osbo/ondemand/fluid-sim/Assets/Scripts/.torch_inductor_cache/23/c232uiujtnoign3ldg5jhi7q3bc3u6pbld5setqwninpcboro66n.py":31:38)
#loc13 = loc("/orcd/home/002/osbo/ondemand/fluid-sim/Assets/Scripts/.torch_inductor_cache/23/c232uiujtnoign3ldg5jhi7q3bc3u6pbld5setqwninpcboro66n.py":31:36)
#loc14 = loc("/orcd/home/002/osbo/ondemand/fluid-sim/Assets/Scripts/.torch_inductor_cache/23/c232uiujtnoign3ldg5jhi7q3bc3u6pbld5setqwninpcboro66n.py":31:50)
#loc15 = loc("/orcd/home/002/osbo/ondemand/fluid-sim/Assets/Scripts/.torch_inductor_cache/23/c232uiujtnoign3ldg5jhi7q3bc3u6pbld5setqwninpcboro66n.py":31:45)
#loc16 = loc("/orcd/home/002/osbo/ondemand/fluid-sim/Assets/Scripts/.torch_inductor_cache/23/c232uiujtnoign3ldg5jhi7q3bc3u6pbld5setqwninpcboro66n.py":31:30)
#loc17 = loc("/orcd/home/002/osbo/ondemand/fluid-sim/Assets/Scripts/.torch_inductor_cache/23/c232uiujtnoign3ldg5jhi7q3bc3u6pbld5setqwninpcboro66n.py":31:64)
#loc18 = loc("/orcd/home/002/osbo/ondemand/fluid-sim/Assets/Scripts/.torch_inductor_cache/23/c232uiujtnoign3ldg5jhi7q3bc3u6pbld5setqwninpcboro66n.py":31:56)
#loc19 = loc("/orcd/home/002/osbo/ondemand/fluid-sim/Assets/Scripts/.torch_inductor_cache/23/c232uiujtnoign3ldg5jhi7q3bc3u6pbld5setqwninpcboro66n.py":32:30)
#loc20 = loc("/orcd/home/002/osbo/ondemand/fluid-sim/Assets/Scripts/.torch_inductor_cache/23/c232uiujtnoign3ldg5jhi7q3bc3u6pbld5setqwninpcboro66n.py":32:35)
#loc21 = loc("/orcd/home/002/osbo/ondemand/fluid-sim/Assets/Scripts/.torch_inductor_cache/23/c232uiujtnoign3ldg5jhi7q3bc3u6pbld5setqwninpcboro66n.py":33:18)
#loc22 = loc("/orcd/home/002/osbo/ondemand/fluid-sim/Assets/Scripts/.torch_inductor_cache/23/c232uiujtnoign3ldg5jhi7q3bc3u6pbld5setqwninpcboro66n.py":34:36)
#loc23 = loc("/orcd/home/002/osbo/ondemand/fluid-sim/Assets/Scripts/.torch_inductor_cache/23/c232uiujtnoign3ldg5jhi7q3bc3u6pbld5setqwninpcboro66n.py":34:31)
#loc24 = loc("/orcd/home/002/osbo/ondemand/fluid-sim/Assets/Scripts/.torch_inductor_cache/23/c232uiujtnoign3ldg5jhi7q3bc3u6pbld5setqwninpcboro66n.py":34:25)
#loc25 = loc("/orcd/home/002/osbo/ondemand/fluid-sim/Assets/Scripts/.torch_inductor_cache/23/c232uiujtnoign3ldg5jhi7q3bc3u6pbld5setqwninpcboro66n.py":34:48)
#loc26 = loc("/orcd/home/002/osbo/ondemand/fluid-sim/Assets/Scripts/.torch_inductor_cache/23/c232uiujtnoign3ldg5jhi7q3bc3u6pbld5setqwninpcboro66n.py":34:4)
