#loc = loc("/orcd/home/002/osbo/ondemand/fluid-sim/Assets/Scripts/.torch_inductor_cache/ag/cageim2v52lbl6o2nxhiphzy6azftlo7yz7df4aoa477oy3buu5q.py":18:0)
module {
  tt.func public @triton_(%arg0: !tt.ptr<f32> {tt.divisibility = 16 : i32} loc("/orcd/home/002/osbo/ondemand/fluid-sim/Assets/Scripts/.torch_inductor_cache/ag/cageim2v52lbl6o2nxhiphzy6azftlo7yz7df4aoa477oy3buu5q.py":18:0), %arg1: !tt.ptr<f32> {tt.divisibility = 16 : i32} loc("/orcd/home/002/osbo/ondemand/fluid-sim/Assets/Scripts/.torch_inductor_cache/ag/cageim2v52lbl6o2nxhiphzy6azftlo7yz7df4aoa477oy3buu5q.py":18:0), %arg2: !tt.ptr<f32> {tt.divisibility = 16 : i32} loc("/orcd/home/002/osbo/ondemand/fluid-sim/Assets/Scripts/.torch_inductor_cache/ag/cageim2v52lbl6o2nxhiphzy6azftlo7yz7df4aoa477oy3buu5q.py":18:0), %arg3: i32 {tt.divisibility = 16 : i32} loc("/orcd/home/002/osbo/ondemand/fluid-sim/Assets/Scripts/.torch_inductor_cache/ag/cageim2v52lbl6o2nxhiphzy6azftlo7yz7df4aoa477oy3buu5q.py":18:0)) attributes {noinline = false} {
    %cst = arith.constant dense<3> : tensor<1024xi32> loc(#loc1)
    %cst_0 = arith.constant dense<4> : tensor<1024xi32> loc(#loc1)
    %cst_1 = arith.constant dense<7199232> : tensor<1024xi32> loc(#loc1)
    %c1024_i32 = arith.constant 1024 : i32 loc(#loc1)
    %0 = tt.get_program_id x : i32 loc(#loc2)
    %1 = arith.muli %0, %c1024_i32 : i32 loc(#loc3)
    %2 = tt.make_range {end = 1024 : i32, start = 0 : i32} : tensor<1024xi32> loc(#loc4)
    %3 = tt.splat %1 : i32 -> tensor<1024xi32> loc(#loc5)
    %4 = arith.addi %3, %2 : tensor<1024xi32> loc(#loc5)
    %5 = arith.cmpi slt, %4, %cst_1 : tensor<1024xi32> loc(#loc6)
    %6 = arith.remsi %4, %cst_0 : tensor<1024xi32> loc(#loc7)
    %7 = arith.divsi %4, %cst_0 : tensor<1024xi32> loc(#loc8)
    %8 = tt.splat %arg0 : !tt.ptr<f32> -> tensor<1024x!tt.ptr<f32>> loc(#loc9)
    %9 = tt.addptr %8, %7 : tensor<1024x!tt.ptr<f32>>, tensor<1024xi32> loc(#loc9)
    %10 = tt.load %9, %5 evictionPolicy = evict_last : tensor<1024x!tt.ptr<f32>> loc(#loc10)
    %11 = tt.splat %arg1 : !tt.ptr<f32> -> tensor<1024x!tt.ptr<f32>> loc(#loc11)
    %12 = tt.addptr %11, %4 : tensor<1024x!tt.ptr<f32>>, tensor<1024xi32> loc(#loc11)
    %13 = tt.load %12, %5 : tensor<1024x!tt.ptr<f32>> loc(#loc12)
    %14 = arith.cmpi eq, %6, %cst : tensor<1024xi32> loc(#loc13)
    %15 = arith.select %14, %10, %13 : tensor<1024xi1>, tensor<1024xf32> loc(#loc14)
    %16 = tt.splat %arg2 : !tt.ptr<f32> -> tensor<1024x!tt.ptr<f32>> loc(#loc15)
    %17 = tt.addptr %16, %4 : tensor<1024x!tt.ptr<f32>>, tensor<1024xi32> loc(#loc15)
    tt.store %17, %15, %5 : tensor<1024x!tt.ptr<f32>> loc(#loc16)
    tt.return loc(#loc17)
  } loc(#loc)
} loc(#loc)
#loc1 = loc(unknown)
#loc2 = loc("/orcd/home/002/osbo/ondemand/fluid-sim/Assets/Scripts/.torch_inductor_cache/ag/cageim2v52lbl6o2nxhiphzy6azftlo7yz7df4aoa477oy3buu5q.py":20:28)
#loc3 = loc("/orcd/home/002/osbo/ondemand/fluid-sim/Assets/Scripts/.torch_inductor_cache/ag/cageim2v52lbl6o2nxhiphzy6azftlo7yz7df4aoa477oy3buu5q.py":20:33)
#loc4 = loc("/orcd/home/002/osbo/ondemand/fluid-sim/Assets/Scripts/.torch_inductor_cache/ag/cageim2v52lbl6o2nxhiphzy6azftlo7yz7df4aoa477oy3buu5q.py":21:36)
#loc5 = loc("/orcd/home/002/osbo/ondemand/fluid-sim/Assets/Scripts/.torch_inductor_cache/ag/cageim2v52lbl6o2nxhiphzy6azftlo7yz7df4aoa477oy3buu5q.py":21:23)
#loc6 = loc("/orcd/home/002/osbo/ondemand/fluid-sim/Assets/Scripts/.torch_inductor_cache/ag/cageim2v52lbl6o2nxhiphzy6azftlo7yz7df4aoa477oy3buu5q.py":22:21)
#loc7 = loc("/orcd/home/002/osbo/ondemand/fluid-sim/Assets/Scripts/.torch_inductor_cache/ag/cageim2v52lbl6o2nxhiphzy6azftlo7yz7df4aoa477oy3buu5q.py":23:18)
#loc8 = loc("/orcd/home/002/osbo/ondemand/fluid-sim/Assets/Scripts/.torch_inductor_cache/ag/cageim2v52lbl6o2nxhiphzy6azftlo7yz7df4aoa477oy3buu5q.py":24:20)
#loc9 = loc("/orcd/home/002/osbo/ondemand/fluid-sim/Assets/Scripts/.torch_inductor_cache/ag/cageim2v52lbl6o2nxhiphzy6azftlo7yz7df4aoa477oy3buu5q.py":26:30)
#loc10 = loc("/orcd/home/002/osbo/ondemand/fluid-sim/Assets/Scripts/.torch_inductor_cache/ag/cageim2v52lbl6o2nxhiphzy6azftlo7yz7df4aoa477oy3buu5q.py":26:35)
#loc11 = loc("/orcd/home/002/osbo/ondemand/fluid-sim/Assets/Scripts/.torch_inductor_cache/ag/cageim2v52lbl6o2nxhiphzy6azftlo7yz7df4aoa477oy3buu5q.py":27:30)
#loc12 = loc("/orcd/home/002/osbo/ondemand/fluid-sim/Assets/Scripts/.torch_inductor_cache/ag/cageim2v52lbl6o2nxhiphzy6azftlo7yz7df4aoa477oy3buu5q.py":27:35)
#loc13 = loc("/orcd/home/002/osbo/ondemand/fluid-sim/Assets/Scripts/.torch_inductor_cache/ag/cageim2v52lbl6o2nxhiphzy6azftlo7yz7df4aoa477oy3buu5q.py":30:19)
#loc14 = loc("/orcd/home/002/osbo/ondemand/fluid-sim/Assets/Scripts/.torch_inductor_cache/ag/cageim2v52lbl6o2nxhiphzy6azftlo7yz7df4aoa477oy3buu5q.py":31:32)
#loc15 = loc("/orcd/home/002/osbo/ondemand/fluid-sim/Assets/Scripts/.torch_inductor_cache/ag/cageim2v52lbl6o2nxhiphzy6azftlo7yz7df4aoa477oy3buu5q.py":32:25)
#loc16 = loc("/orcd/home/002/osbo/ondemand/fluid-sim/Assets/Scripts/.torch_inductor_cache/ag/cageim2v52lbl6o2nxhiphzy6azftlo7yz7df4aoa477oy3buu5q.py":32:36)
#loc17 = loc("/orcd/home/002/osbo/ondemand/fluid-sim/Assets/Scripts/.torch_inductor_cache/ag/cageim2v52lbl6o2nxhiphzy6azftlo7yz7df4aoa477oy3buu5q.py":32:4)
