#loc = loc("/orcd/home/002/osbo/ondemand/fluid-sim/Assets/Scripts/.torch_inductor_cache/63/c63wsxs73pwt6b3autgudqnhlbtisuhq6s4dkb4fubhpeutez56r.py":18:0)
#loc1 = loc(unknown)
module {
  tt.func public @triton_(%arg0: !tt.ptr<f32> {tt.divisibility = 16 : i32} loc("/orcd/home/002/osbo/ondemand/fluid-sim/Assets/Scripts/.torch_inductor_cache/63/c63wsxs73pwt6b3autgudqnhlbtisuhq6s4dkb4fubhpeutez56r.py":18:0), %arg1: !tt.ptr<f32> {tt.divisibility = 16 : i32} loc("/orcd/home/002/osbo/ondemand/fluid-sim/Assets/Scripts/.torch_inductor_cache/63/c63wsxs73pwt6b3autgudqnhlbtisuhq6s4dkb4fubhpeutez56r.py":18:0), %arg2: !tt.ptr<f32> {tt.divisibility = 16 : i32} loc("/orcd/home/002/osbo/ondemand/fluid-sim/Assets/Scripts/.torch_inductor_cache/63/c63wsxs73pwt6b3autgudqnhlbtisuhq6s4dkb4fubhpeutez56r.py":18:0), %arg3: !tt.ptr<f32> {tt.divisibility = 16 : i32} loc("/orcd/home/002/osbo/ondemand/fluid-sim/Assets/Scripts/.torch_inductor_cache/63/c63wsxs73pwt6b3autgudqnhlbtisuhq6s4dkb4fubhpeutez56r.py":18:0), %arg4: !tt.ptr<f32> {tt.divisibility = 16 : i32} loc("/orcd/home/002/osbo/ondemand/fluid-sim/Assets/Scripts/.torch_inductor_cache/63/c63wsxs73pwt6b3autgudqnhlbtisuhq6s4dkb4fubhpeutez56r.py":18:0), %arg5: i32 {tt.divisibility = 16 : i32} loc("/orcd/home/002/osbo/ondemand/fluid-sim/Assets/Scripts/.torch_inductor_cache/63/c63wsxs73pwt6b3autgudqnhlbtisuhq6s4dkb4fubhpeutez56r.py":18:0), %arg6: i32 {tt.divisibility = 16 : i32} loc("/orcd/home/002/osbo/ondemand/fluid-sim/Assets/Scripts/.torch_inductor_cache/63/c63wsxs73pwt6b3autgudqnhlbtisuhq6s4dkb4fubhpeutez56r.py":18:0)) attributes {noinline = false} {
    %c16384_i32 = arith.constant 16384 : i32 loc(#loc1)
    %c512_i32 = arith.constant 512 : i32 loc(#loc1)
    %cst = arith.constant dense<3.200000e+01> : tensor<1x1xf32> loc(#loc1)
    %cst_0 = arith.constant dense<512> : tensor<1x32xi32> loc(#loc1)
    %0 = tt.get_program_id x : i32 loc(#loc2)
    %1 = tt.make_range {end = 32 : i32, start = 0 : i32} : tensor<32xi32> loc(#loc3)
    %2 = tt.expand_dims %1 {axis = 0 : i32} : tensor<32xi32> -> tensor<1x32xi32> loc(#loc4)
    %3 = arith.remsi %0, %c512_i32 : i32 loc(#loc5)
    %4 = arith.divsi %0, %c512_i32 : i32 loc(#loc6)
    %5 = arith.muli %2, %cst_0 : tensor<1x32xi32> loc(#loc7)
    %6 = tt.splat %3 : i32 -> tensor<1x32xi32> loc(#loc8)
    %7 = arith.addi %6, %5 : tensor<1x32xi32> loc(#loc8)
    %8 = arith.muli %4, %c16384_i32 : i32 loc(#loc9)
    %9 = tt.splat %8 : i32 -> tensor<1x32xi32> loc(#loc10)
    %10 = arith.addi %7, %9 : tensor<1x32xi32> loc(#loc10)
    %11 = tt.splat %arg1 : !tt.ptr<f32> -> tensor<1x32x!tt.ptr<f32>> loc(#loc11)
    %12 = tt.addptr %11, %10 : tensor<1x32x!tt.ptr<f32>>, tensor<1x32xi32> loc(#loc11)
    %13 = tt.load %12 : tensor<1x32x!tt.ptr<f32>> loc(#loc12)
    %14 = tt.splat %arg2 : !tt.ptr<f32> -> tensor<1x32x!tt.ptr<f32>> loc(#loc13)
    %15 = tt.addptr %14, %10 : tensor<1x32x!tt.ptr<f32>>, tensor<1x32xi32> loc(#loc13)
    %16 = tt.load %15 : tensor<1x32x!tt.ptr<f32>> loc(#loc14)
    %17 = tt.splat %arg3 : !tt.ptr<f32> -> tensor<1x32x!tt.ptr<f32>> loc(#loc15)
    %18 = tt.addptr %17, %10 : tensor<1x32x!tt.ptr<f32>>, tensor<1x32xi32> loc(#loc15)
    %19 = tt.load %18 : tensor<1x32x!tt.ptr<f32>> loc(#loc16)
    %20 = tt.addptr %arg4, %3 : !tt.ptr<f32>, i32 loc(#loc17)
    %21 = tt.splat %20 : !tt.ptr<f32> -> tensor<1x1x!tt.ptr<f32>> loc(#loc17)
    %22 = tt.load %21 evictionPolicy = evict_last : tensor<1x1x!tt.ptr<f32>> loc(#loc18)
    %23 = arith.addf %13, %16 : tensor<1x32xf32> loc(#loc19)
    %24 = tt.broadcast %22 : tensor<1x1xf32> -> tensor<1x32xf32> loc(#loc20)
    %25 = arith.addf %19, %24 : tensor<1x32xf32> loc(#loc20)
    %26 = arith.addf %23, %25 : tensor<1x32xf32> loc(#loc21)
    %27 = "tt.reduce"(%26) <{axis = 1 : i32}> ({
    ^bb0(%arg7: f32 loc(unknown), %arg8: f32 loc(unknown)):
      %32 = arith.addf %arg7, %arg8 : f32 loc(#loc33)
      tt.reduce.return %32 : f32 loc(#loc31)
    }) : (tensor<1x32xf32>) -> tensor<1xf32> loc(#loc31)
    %28 = tt.expand_dims %27 {axis = 1 : i32} : tensor<1xf32> -> tensor<1x1xf32> loc(#loc25)
    %29 = arith.divf %28, %cst : tensor<1x1xf32> loc(#loc26)
    gpu.barrier loc(#loc27)
    %30 = tt.addptr %arg0, %0 : !tt.ptr<f32>, i32 loc(#loc28)
    %31 = tt.splat %30 : !tt.ptr<f32> -> tensor<1x1x!tt.ptr<f32>> loc(#loc28)
    tt.store %31, %29 : tensor<1x1x!tt.ptr<f32>> loc(#loc29)
    tt.return loc(#loc30)
  } loc(#loc)
} loc(#loc)
#loc2 = loc("/orcd/home/002/osbo/ondemand/fluid-sim/Assets/Scripts/.torch_inductor_cache/63/c63wsxs73pwt6b3autgudqnhlbtisuhq6s4dkb4fubhpeutez56r.py":22:28)
#loc3 = loc("/orcd/home/002/osbo/ondemand/fluid-sim/Assets/Scripts/.torch_inductor_cache/63/c63wsxs73pwt6b3autgudqnhlbtisuhq6s4dkb4fubhpeutez56r.py":25:26)
#loc4 = loc("/orcd/home/002/osbo/ondemand/fluid-sim/Assets/Scripts/.torch_inductor_cache/63/c63wsxs73pwt6b3autgudqnhlbtisuhq6s4dkb4fubhpeutez56r.py":25:34)
#loc5 = loc("/orcd/home/002/osbo/ondemand/fluid-sim/Assets/Scripts/.torch_inductor_cache/63/c63wsxs73pwt6b3autgudqnhlbtisuhq6s4dkb4fubhpeutez56r.py":29:18)
#loc6 = loc("/orcd/home/002/osbo/ondemand/fluid-sim/Assets/Scripts/.torch_inductor_cache/63/c63wsxs73pwt6b3autgudqnhlbtisuhq6s4dkb4fubhpeutez56r.py":30:20)
#loc7 = loc("/orcd/home/002/osbo/ondemand/fluid-sim/Assets/Scripts/.torch_inductor_cache/63/c63wsxs73pwt6b3autgudqnhlbtisuhq6s4dkb4fubhpeutez56r.py":32:40)
#loc8 = loc("/orcd/home/002/osbo/ondemand/fluid-sim/Assets/Scripts/.torch_inductor_cache/63/c63wsxs73pwt6b3autgudqnhlbtisuhq6s4dkb4fubhpeutez56r.py":32:36)
#loc9 = loc("/orcd/home/002/osbo/ondemand/fluid-sim/Assets/Scripts/.torch_inductor_cache/63/c63wsxs73pwt6b3autgudqnhlbtisuhq6s4dkb4fubhpeutez56r.py":32:53)
#loc10 = loc("/orcd/home/002/osbo/ondemand/fluid-sim/Assets/Scripts/.torch_inductor_cache/63/c63wsxs73pwt6b3autgudqnhlbtisuhq6s4dkb4fubhpeutez56r.py":32:47)
#loc11 = loc("/orcd/home/002/osbo/ondemand/fluid-sim/Assets/Scripts/.torch_inductor_cache/63/c63wsxs73pwt6b3autgudqnhlbtisuhq6s4dkb4fubhpeutez56r.py":32:30)
#loc12 = loc("/orcd/home/002/osbo/ondemand/fluid-sim/Assets/Scripts/.torch_inductor_cache/63/c63wsxs73pwt6b3autgudqnhlbtisuhq6s4dkb4fubhpeutez56r.py":32:59)
#loc13 = loc("/orcd/home/002/osbo/ondemand/fluid-sim/Assets/Scripts/.torch_inductor_cache/63/c63wsxs73pwt6b3autgudqnhlbtisuhq6s4dkb4fubhpeutez56r.py":33:30)
#loc14 = loc("/orcd/home/002/osbo/ondemand/fluid-sim/Assets/Scripts/.torch_inductor_cache/63/c63wsxs73pwt6b3autgudqnhlbtisuhq6s4dkb4fubhpeutez56r.py":33:59)
#loc15 = loc("/orcd/home/002/osbo/ondemand/fluid-sim/Assets/Scripts/.torch_inductor_cache/63/c63wsxs73pwt6b3autgudqnhlbtisuhq6s4dkb4fubhpeutez56r.py":34:30)
#loc16 = loc("/orcd/home/002/osbo/ondemand/fluid-sim/Assets/Scripts/.torch_inductor_cache/63/c63wsxs73pwt6b3autgudqnhlbtisuhq6s4dkb4fubhpeutez56r.py":34:59)
#loc17 = loc("/orcd/home/002/osbo/ondemand/fluid-sim/Assets/Scripts/.torch_inductor_cache/63/c63wsxs73pwt6b3autgudqnhlbtisuhq6s4dkb4fubhpeutez56r.py":35:30)
#loc18 = loc("/orcd/home/002/osbo/ondemand/fluid-sim/Assets/Scripts/.torch_inductor_cache/63/c63wsxs73pwt6b3autgudqnhlbtisuhq6s4dkb4fubhpeutez56r.py":35:35)
#loc19 = loc("/orcd/home/002/osbo/ondemand/fluid-sim/Assets/Scripts/.torch_inductor_cache/63/c63wsxs73pwt6b3autgudqnhlbtisuhq6s4dkb4fubhpeutez56r.py":36:18)
#loc20 = loc("/orcd/home/002/osbo/ondemand/fluid-sim/Assets/Scripts/.torch_inductor_cache/63/c63wsxs73pwt6b3autgudqnhlbtisuhq6s4dkb4fubhpeutez56r.py":37:18)
#loc21 = loc("/orcd/home/002/osbo/ondemand/fluid-sim/Assets/Scripts/.torch_inductor_cache/63/c63wsxs73pwt6b3autgudqnhlbtisuhq6s4dkb4fubhpeutez56r.py":38:18)
#loc22 = loc("/home/osbo/.conda/envs/fluid/lib/python3.12/site-packages/triton/language/standard.py":267:36)
#loc23 = loc("/orcd/home/002/osbo/ondemand/fluid-sim/Assets/Scripts/.torch_inductor_cache/63/c63wsxs73pwt6b3autgudqnhlbtisuhq6s4dkb4fubhpeutez56r.py":40:24)
#loc24 = loc("/home/osbo/.conda/envs/fluid/lib/python3.12/site-packages/triton/language/standard.py":256:15)
#loc25 = loc("/orcd/home/002/osbo/ondemand/fluid-sim/Assets/Scripts/.torch_inductor_cache/63/c63wsxs73pwt6b3autgudqnhlbtisuhq6s4dkb4fubhpeutez56r.py":40:27)
#loc26 = loc("/orcd/home/002/osbo/ondemand/fluid-sim/Assets/Scripts/.torch_inductor_cache/63/c63wsxs73pwt6b3autgudqnhlbtisuhq6s4dkb4fubhpeutez56r.py":42:19)
#loc27 = loc("/orcd/home/002/osbo/ondemand/fluid-sim/Assets/Scripts/.torch_inductor_cache/63/c63wsxs73pwt6b3autgudqnhlbtisuhq6s4dkb4fubhpeutez56r.py":43:4)
#loc28 = loc("/orcd/home/002/osbo/ondemand/fluid-sim/Assets/Scripts/.torch_inductor_cache/63/c63wsxs73pwt6b3autgudqnhlbtisuhq6s4dkb4fubhpeutez56r.py":44:28)
#loc29 = loc("/orcd/home/002/osbo/ondemand/fluid-sim/Assets/Scripts/.torch_inductor_cache/63/c63wsxs73pwt6b3autgudqnhlbtisuhq6s4dkb4fubhpeutez56r.py":44:40)
#loc30 = loc("/orcd/home/002/osbo/ondemand/fluid-sim/Assets/Scripts/.torch_inductor_cache/63/c63wsxs73pwt6b3autgudqnhlbtisuhq6s4dkb4fubhpeutez56r.py":44:4)
#loc31 = loc(callsite(#loc22 at #loc23))
#loc32 = loc(callsite(#loc24 at #loc22))
#loc33 = loc(callsite(#loc32 at #loc23))
