#loc = loc("/orcd/home/002/osbo/ondemand/fluid-sim/Assets/Scripts/.torch_inductor_cache/wf/cwf5eupgeahohiubyflhia2kovoaj5tpucgnibvvs3picunidrok.py":18:0)
#loc1 = loc(unknown)
module {
  tt.func public @triton_(%arg0: !tt.ptr<f32> {tt.divisibility = 16 : i32} loc("/orcd/home/002/osbo/ondemand/fluid-sim/Assets/Scripts/.torch_inductor_cache/wf/cwf5eupgeahohiubyflhia2kovoaj5tpucgnibvvs3picunidrok.py":18:0), %arg1: !tt.ptr<f32> {tt.divisibility = 16 : i32} loc("/orcd/home/002/osbo/ondemand/fluid-sim/Assets/Scripts/.torch_inductor_cache/wf/cwf5eupgeahohiubyflhia2kovoaj5tpucgnibvvs3picunidrok.py":18:0), %arg2: i32 {tt.divisibility = 16 : i32} loc("/orcd/home/002/osbo/ondemand/fluid-sim/Assets/Scripts/.torch_inductor_cache/wf/cwf5eupgeahohiubyflhia2kovoaj5tpucgnibvvs3picunidrok.py":18:0), %arg3: i32 {tt.divisibility = 16 : i32} loc("/orcd/home/002/osbo/ondemand/fluid-sim/Assets/Scripts/.torch_inductor_cache/wf/cwf5eupgeahohiubyflhia2kovoaj5tpucgnibvvs3picunidrok.py":18:0)) attributes {noinline = false} {
    %cst = arith.constant dense<8192> : tensor<8x1xi32> loc(#loc1)
    %cst_0 = arith.constant dense<1024> : tensor<8x1xi32> loc(#loc1)
    %cst_1 = arith.constant dense<256> : tensor<8x1xi32> loc(#loc1)
    %cst_2 = arith.constant dense<32> : tensor<8x1xi32> loc(#loc1)
    %cst_3 = arith.constant dense<8> : tensor<8x1xi32> loc(#loc1)
    %c8_i32 = arith.constant 8 : i32 loc(#loc1)
    %0 = tt.get_program_id x : i32 loc(#loc2)
    %1 = arith.muli %0, %c8_i32 : i32 loc(#loc3)
    %2 = tt.make_range {end = 8 : i32, start = 0 : i32} : tensor<8xi32> loc(#loc4)
    %3 = tt.expand_dims %2 {axis = 1 : i32} : tensor<8xi32> -> tensor<8x1xi32> loc(#loc5)
    %4 = tt.splat %1 : i32 -> tensor<8x1xi32> loc(#loc6)
    %5 = arith.addi %4, %3 : tensor<8x1xi32> loc(#loc6)
    %6 = tt.make_range {end = 32 : i32, start = 0 : i32} : tensor<32xi32> loc(#loc7)
    %7 = tt.expand_dims %6 {axis = 0 : i32} : tensor<32xi32> -> tensor<1x32xi32> loc(#loc8)
    %8 = arith.remsi %5, %cst_3 : tensor<8x1xi32> loc(#loc9)
    %9 = arith.divsi %5, %cst_3 : tensor<8x1xi32> loc(#loc10)
    %10 = arith.remsi %9, %cst_2 : tensor<8x1xi32> loc(#loc11)
    %11 = arith.divsi %5, %cst_1 : tensor<8x1xi32> loc(#loc12)
    %12 = arith.muli %10, %cst_2 : tensor<8x1xi32> loc(#loc13)
    %13 = tt.broadcast %7 : tensor<1x32xi32> -> tensor<8x32xi32> loc(#loc14)
    %14 = tt.broadcast %12 : tensor<8x1xi32> -> tensor<8x32xi32> loc(#loc14)
    %15 = arith.addi %13, %14 : tensor<8x32xi32> loc(#loc14)
    %16 = arith.muli %8, %cst_0 : tensor<8x1xi32> loc(#loc15)
    %17 = tt.broadcast %16 : tensor<8x1xi32> -> tensor<8x32xi32> loc(#loc16)
    %18 = arith.addi %15, %17 : tensor<8x32xi32> loc(#loc16)
    %19 = arith.muli %11, %cst : tensor<8x1xi32> loc(#loc17)
    %20 = tt.broadcast %19 : tensor<8x1xi32> -> tensor<8x32xi32> loc(#loc18)
    %21 = arith.addi %18, %20 : tensor<8x32xi32> loc(#loc18)
    %22 = tt.splat %arg0 : !tt.ptr<f32> -> tensor<8x32x!tt.ptr<f32>> loc(#loc19)
    %23 = tt.addptr %22, %21 : tensor<8x32x!tt.ptr<f32>>, tensor<8x32xi32> loc(#loc19)
    %24 = tt.load %23 : tensor<8x32x!tt.ptr<f32>> loc(#loc20)
    %25 = "tt.reduce"(%24) <{axis = 1 : i32}> ({
    ^bb0(%arg4: f32 loc(unknown), %arg5: f32 loc(unknown)):
      %29 = arith.addf %arg4, %arg5 : f32 loc(#loc30)
      tt.reduce.return %29 : f32 loc(#loc28)
    }) : (tensor<8x32xf32>) -> tensor<8xf32> loc(#loc28)
    %26 = tt.expand_dims %25 {axis = 1 : i32} : tensor<8xf32> -> tensor<8x1xf32> loc(#loc24)
    %27 = tt.splat %arg1 : !tt.ptr<f32> -> tensor<8x1x!tt.ptr<f32>> loc(#loc25)
    %28 = tt.addptr %27, %5 : tensor<8x1x!tt.ptr<f32>>, tensor<8x1xi32> loc(#loc25)
    tt.store %28, %26 : tensor<8x1x!tt.ptr<f32>> loc(#loc26)
    tt.return loc(#loc27)
  } loc(#loc)
} loc(#loc)
#loc2 = loc("/orcd/home/002/osbo/ondemand/fluid-sim/Assets/Scripts/.torch_inductor_cache/wf/cwf5eupgeahohiubyflhia2kovoaj5tpucgnibvvs3picunidrok.py":22:28)
#loc3 = loc("/orcd/home/002/osbo/ondemand/fluid-sim/Assets/Scripts/.torch_inductor_cache/wf/cwf5eupgeahohiubyflhia2kovoaj5tpucgnibvvs3picunidrok.py":22:33)
#loc4 = loc("/orcd/home/002/osbo/ondemand/fluid-sim/Assets/Scripts/.torch_inductor_cache/wf/cwf5eupgeahohiubyflhia2kovoaj5tpucgnibvvs3picunidrok.py":23:36)
#loc5 = loc("/orcd/home/002/osbo/ondemand/fluid-sim/Assets/Scripts/.torch_inductor_cache/wf/cwf5eupgeahohiubyflhia2kovoaj5tpucgnibvvs3picunidrok.py":23:44)
#loc6 = loc("/orcd/home/002/osbo/ondemand/fluid-sim/Assets/Scripts/.torch_inductor_cache/wf/cwf5eupgeahohiubyflhia2kovoaj5tpucgnibvvs3picunidrok.py":23:23)
#loc7 = loc("/orcd/home/002/osbo/ondemand/fluid-sim/Assets/Scripts/.torch_inductor_cache/wf/cwf5eupgeahohiubyflhia2kovoaj5tpucgnibvvs3picunidrok.py":25:26)
#loc8 = loc("/orcd/home/002/osbo/ondemand/fluid-sim/Assets/Scripts/.torch_inductor_cache/wf/cwf5eupgeahohiubyflhia2kovoaj5tpucgnibvvs3picunidrok.py":25:34)
#loc9 = loc("/orcd/home/002/osbo/ondemand/fluid-sim/Assets/Scripts/.torch_inductor_cache/wf/cwf5eupgeahohiubyflhia2kovoaj5tpucgnibvvs3picunidrok.py":29:18)
#loc10 = loc("/orcd/home/002/osbo/ondemand/fluid-sim/Assets/Scripts/.torch_inductor_cache/wf/cwf5eupgeahohiubyflhia2kovoaj5tpucgnibvvs3picunidrok.py":30:20)
#loc11 = loc("/orcd/home/002/osbo/ondemand/fluid-sim/Assets/Scripts/.torch_inductor_cache/wf/cwf5eupgeahohiubyflhia2kovoaj5tpucgnibvvs3picunidrok.py":30:25)
#loc12 = loc("/orcd/home/002/osbo/ondemand/fluid-sim/Assets/Scripts/.torch_inductor_cache/wf/cwf5eupgeahohiubyflhia2kovoaj5tpucgnibvvs3picunidrok.py":31:20)
#loc13 = loc("/orcd/home/002/osbo/ondemand/fluid-sim/Assets/Scripts/.torch_inductor_cache/wf/cwf5eupgeahohiubyflhia2kovoaj5tpucgnibvvs3picunidrok.py":33:39)
#loc14 = loc("/orcd/home/002/osbo/ondemand/fluid-sim/Assets/Scripts/.torch_inductor_cache/wf/cwf5eupgeahohiubyflhia2kovoaj5tpucgnibvvs3picunidrok.py":33:36)
#loc15 = loc("/orcd/home/002/osbo/ondemand/fluid-sim/Assets/Scripts/.torch_inductor_cache/wf/cwf5eupgeahohiubyflhia2kovoaj5tpucgnibvvs3picunidrok.py":33:51)
#loc16 = loc("/orcd/home/002/osbo/ondemand/fluid-sim/Assets/Scripts/.torch_inductor_cache/wf/cwf5eupgeahohiubyflhia2kovoaj5tpucgnibvvs3picunidrok.py":33:46)
#loc17 = loc("/orcd/home/002/osbo/ondemand/fluid-sim/Assets/Scripts/.torch_inductor_cache/wf/cwf5eupgeahohiubyflhia2kovoaj5tpucgnibvvs3picunidrok.py":33:63)
#loc18 = loc("/orcd/home/002/osbo/ondemand/fluid-sim/Assets/Scripts/.torch_inductor_cache/wf/cwf5eupgeahohiubyflhia2kovoaj5tpucgnibvvs3picunidrok.py":33:58)
#loc19 = loc("/orcd/home/002/osbo/ondemand/fluid-sim/Assets/Scripts/.torch_inductor_cache/wf/cwf5eupgeahohiubyflhia2kovoaj5tpucgnibvvs3picunidrok.py":33:30)
#loc20 = loc("/orcd/home/002/osbo/ondemand/fluid-sim/Assets/Scripts/.torch_inductor_cache/wf/cwf5eupgeahohiubyflhia2kovoaj5tpucgnibvvs3picunidrok.py":33:69)
#loc21 = loc("/home/osbo/.conda/envs/fluid/lib/python3.12/site-packages/triton/language/standard.py":267:36)
#loc22 = loc("/orcd/home/002/osbo/ondemand/fluid-sim/Assets/Scripts/.torch_inductor_cache/wf/cwf5eupgeahohiubyflhia2kovoaj5tpucgnibvvs3picunidrok.py":35:24)
#loc23 = loc("/home/osbo/.conda/envs/fluid/lib/python3.12/site-packages/triton/language/standard.py":256:15)
#loc24 = loc("/orcd/home/002/osbo/ondemand/fluid-sim/Assets/Scripts/.torch_inductor_cache/wf/cwf5eupgeahohiubyflhia2kovoaj5tpucgnibvvs3picunidrok.py":35:27)
#loc25 = loc("/orcd/home/002/osbo/ondemand/fluid-sim/Assets/Scripts/.torch_inductor_cache/wf/cwf5eupgeahohiubyflhia2kovoaj5tpucgnibvvs3picunidrok.py":36:25)
#loc26 = loc("/orcd/home/002/osbo/ondemand/fluid-sim/Assets/Scripts/.torch_inductor_cache/wf/cwf5eupgeahohiubyflhia2kovoaj5tpucgnibvvs3picunidrok.py":36:36)
#loc27 = loc("/orcd/home/002/osbo/ondemand/fluid-sim/Assets/Scripts/.torch_inductor_cache/wf/cwf5eupgeahohiubyflhia2kovoaj5tpucgnibvvs3picunidrok.py":36:4)
#loc28 = loc(callsite(#loc21 at #loc22))
#loc29 = loc(callsite(#loc23 at #loc21))
#loc30 = loc(callsite(#loc29 at #loc22))
