#loc = loc("/orcd/home/002/osbo/ondemand/fluid-sim/Assets/Scripts/.torch_inductor_cache/na/cnax3jmjeccmx64zjulxwhhbexbdpjqw6qsvgxt4mswboyl3espu.py":18:0)
module {
  tt.func public @triton_(%arg0: !tt.ptr<f32> {tt.divisibility = 16 : i32} loc("/orcd/home/002/osbo/ondemand/fluid-sim/Assets/Scripts/.torch_inductor_cache/na/cnax3jmjeccmx64zjulxwhhbexbdpjqw6qsvgxt4mswboyl3espu.py":18:0), %arg1: !tt.ptr<f32> {tt.divisibility = 16 : i32} loc("/orcd/home/002/osbo/ondemand/fluid-sim/Assets/Scripts/.torch_inductor_cache/na/cnax3jmjeccmx64zjulxwhhbexbdpjqw6qsvgxt4mswboyl3espu.py":18:0), %arg2: !tt.ptr<f32> {tt.divisibility = 16 : i32} loc("/orcd/home/002/osbo/ondemand/fluid-sim/Assets/Scripts/.torch_inductor_cache/na/cnax3jmjeccmx64zjulxwhhbexbdpjqw6qsvgxt4mswboyl3espu.py":18:0), %arg3: i32 {tt.divisibility = 16 : i32} loc("/orcd/home/002/osbo/ondemand/fluid-sim/Assets/Scripts/.torch_inductor_cache/na/cnax3jmjeccmx64zjulxwhhbexbdpjqw6qsvgxt4mswboyl3espu.py":18:0), %arg4: i32 {tt.divisibility = 16 : i32} loc("/orcd/home/002/osbo/ondemand/fluid-sim/Assets/Scripts/.torch_inductor_cache/na/cnax3jmjeccmx64zjulxwhhbexbdpjqw6qsvgxt4mswboyl3espu.py":18:0)) attributes {noinline = false} {
    %cst = arith.constant dense<16384> : tensor<1x16xi32> loc(#loc1)
    %cst_0 = arith.constant dense<131072> : tensor<1x16xi32> loc(#loc1)
    %cst_1 = arith.constant dense<8> : tensor<256x1xi32> loc(#loc1)
    %cst_2 = arith.constant dense<8> : tensor<1x16xi32> loc(#loc1)
    %cst_3 = arith.constant dense<256> : tensor<1x16xi32> loc(#loc1)
    %c16_i32 = arith.constant 16 : i32 loc(#loc1)
    %c256_i32 = arith.constant 256 : i32 loc(#loc1)
    %0 = tt.get_program_id y : i32 loc(#loc2)
    %1 = arith.muli %0, %c16_i32 : i32 loc(#loc3)
    %2 = tt.make_range {end = 16 : i32, start = 0 : i32} : tensor<16xi32> loc(#loc4)
    %3 = tt.expand_dims %2 {axis = 0 : i32} : tensor<16xi32> -> tensor<1x16xi32> loc(#loc5)
    %4 = tt.splat %1 : i32 -> tensor<1x16xi32> loc(#loc6)
    %5 = arith.addi %4, %3 : tensor<1x16xi32> loc(#loc6)
    %6 = arith.cmpi slt, %5, %cst_3 : tensor<1x16xi32> loc(#loc7)
    %7 = tt.get_program_id x : i32 loc(#loc8)
    %8 = arith.muli %7, %c256_i32 : i32 loc(#loc9)
    %9 = tt.make_range {end = 256 : i32, start = 0 : i32} : tensor<256xi32> loc(#loc10)
    %10 = tt.expand_dims %9 {axis = 1 : i32} : tensor<256xi32> -> tensor<256x1xi32> loc(#loc11)
    %11 = tt.splat %8 : i32 -> tensor<256x1xi32> loc(#loc12)
    %12 = arith.addi %11, %10 : tensor<256x1xi32> loc(#loc12)
    %13 = arith.remsi %5, %cst_2 : tensor<1x16xi32> loc(#loc13)
    %14 = arith.divsi %5, %cst_2 : tensor<1x16xi32> loc(#loc14)
    %15 = arith.muli %12, %cst_1 : tensor<256x1xi32> loc(#loc15)
    %16 = tt.broadcast %13 : tensor<1x16xi32> -> tensor<256x16xi32> loc(#loc16)
    %17 = tt.broadcast %15 : tensor<256x1xi32> -> tensor<256x16xi32> loc(#loc16)
    %18 = arith.addi %16, %17 : tensor<256x16xi32> loc(#loc16)
    %19 = arith.muli %14, %cst_0 : tensor<1x16xi32> loc(#loc17)
    %20 = tt.broadcast %19 : tensor<1x16xi32> -> tensor<256x16xi32> loc(#loc18)
    %21 = arith.addi %18, %20 : tensor<256x16xi32> loc(#loc18)
    %22 = tt.splat %arg0 : !tt.ptr<f32> -> tensor<256x16x!tt.ptr<f32>> loc(#loc19)
    %23 = tt.addptr %22, %21 : tensor<256x16x!tt.ptr<f32>>, tensor<256x16xi32> loc(#loc19)
    %24 = tt.broadcast %6 : tensor<1x16xi1> -> tensor<256x16xi1> loc(#loc20)
    %25 = tt.load %23, %24 evictionPolicy = evict_last : tensor<256x16x!tt.ptr<f32>> loc(#loc20)
    %26 = tt.splat %arg1 : !tt.ptr<f32> -> tensor<1x16x!tt.ptr<f32>> loc(#loc21)
    %27 = tt.addptr %26, %13 : tensor<1x16x!tt.ptr<f32>>, tensor<1x16xi32> loc(#loc21)
    %28 = tt.load %27, %6 evictionPolicy = evict_last : tensor<1x16x!tt.ptr<f32>> loc(#loc22)
    %29 = tt.broadcast %28 : tensor<1x16xf32> -> tensor<256x16xf32> loc(#loc23)
    %30 = arith.addf %25, %29 : tensor<256x16xf32> loc(#loc23)
    %31 = arith.muli %5, %cst : tensor<1x16xi32> loc(#loc24)
    %32 = tt.broadcast %12 : tensor<256x1xi32> -> tensor<256x16xi32> loc(#loc25)
    %33 = tt.broadcast %31 : tensor<1x16xi32> -> tensor<256x16xi32> loc(#loc25)
    %34 = arith.addi %32, %33 : tensor<256x16xi32> loc(#loc25)
    %35 = tt.splat %arg2 : !tt.ptr<f32> -> tensor<256x16x!tt.ptr<f32>> loc(#loc26)
    %36 = tt.addptr %35, %34 : tensor<256x16x!tt.ptr<f32>>, tensor<256x16xi32> loc(#loc26)
    tt.store %36, %30, %24 : tensor<256x16x!tt.ptr<f32>> loc(#loc27)
    tt.return loc(#loc28)
  } loc(#loc)
} loc(#loc)
#loc1 = loc(unknown)
#loc2 = loc("/orcd/home/002/osbo/ondemand/fluid-sim/Assets/Scripts/.torch_inductor_cache/na/cnax3jmjeccmx64zjulxwhhbexbdpjqw6qsvgxt4mswboyl3espu.py":21:28)
#loc3 = loc("/orcd/home/002/osbo/ondemand/fluid-sim/Assets/Scripts/.torch_inductor_cache/na/cnax3jmjeccmx64zjulxwhhbexbdpjqw6qsvgxt4mswboyl3espu.py":21:33)
#loc4 = loc("/orcd/home/002/osbo/ondemand/fluid-sim/Assets/Scripts/.torch_inductor_cache/na/cnax3jmjeccmx64zjulxwhhbexbdpjqw6qsvgxt4mswboyl3espu.py":22:36)
#loc5 = loc("/orcd/home/002/osbo/ondemand/fluid-sim/Assets/Scripts/.torch_inductor_cache/na/cnax3jmjeccmx64zjulxwhhbexbdpjqw6qsvgxt4mswboyl3espu.py":22:44)
#loc6 = loc("/orcd/home/002/osbo/ondemand/fluid-sim/Assets/Scripts/.torch_inductor_cache/na/cnax3jmjeccmx64zjulxwhhbexbdpjqw6qsvgxt4mswboyl3espu.py":22:23)
#loc7 = loc("/orcd/home/002/osbo/ondemand/fluid-sim/Assets/Scripts/.torch_inductor_cache/na/cnax3jmjeccmx64zjulxwhhbexbdpjqw6qsvgxt4mswboyl3espu.py":23:21)
#loc8 = loc("/orcd/home/002/osbo/ondemand/fluid-sim/Assets/Scripts/.torch_inductor_cache/na/cnax3jmjeccmx64zjulxwhhbexbdpjqw6qsvgxt4mswboyl3espu.py":24:28)
#loc9 = loc("/orcd/home/002/osbo/ondemand/fluid-sim/Assets/Scripts/.torch_inductor_cache/na/cnax3jmjeccmx64zjulxwhhbexbdpjqw6qsvgxt4mswboyl3espu.py":24:33)
#loc10 = loc("/orcd/home/002/osbo/ondemand/fluid-sim/Assets/Scripts/.torch_inductor_cache/na/cnax3jmjeccmx64zjulxwhhbexbdpjqw6qsvgxt4mswboyl3espu.py":25:36)
#loc11 = loc("/orcd/home/002/osbo/ondemand/fluid-sim/Assets/Scripts/.torch_inductor_cache/na/cnax3jmjeccmx64zjulxwhhbexbdpjqw6qsvgxt4mswboyl3espu.py":25:44)
#loc12 = loc("/orcd/home/002/osbo/ondemand/fluid-sim/Assets/Scripts/.torch_inductor_cache/na/cnax3jmjeccmx64zjulxwhhbexbdpjqw6qsvgxt4mswboyl3espu.py":25:23)
#loc13 = loc("/orcd/home/002/osbo/ondemand/fluid-sim/Assets/Scripts/.torch_inductor_cache/na/cnax3jmjeccmx64zjulxwhhbexbdpjqw6qsvgxt4mswboyl3espu.py":28:18)
#loc14 = loc("/orcd/home/002/osbo/ondemand/fluid-sim/Assets/Scripts/.torch_inductor_cache/na/cnax3jmjeccmx64zjulxwhhbexbdpjqw6qsvgxt4mswboyl3espu.py":29:20)
#loc15 = loc("/orcd/home/002/osbo/ondemand/fluid-sim/Assets/Scripts/.torch_inductor_cache/na/cnax3jmjeccmx64zjulxwhhbexbdpjqw6qsvgxt4mswboyl3espu.py":31:38)
#loc16 = loc("/orcd/home/002/osbo/ondemand/fluid-sim/Assets/Scripts/.torch_inductor_cache/na/cnax3jmjeccmx64zjulxwhhbexbdpjqw6qsvgxt4mswboyl3espu.py":31:36)
#loc17 = loc("/orcd/home/002/osbo/ondemand/fluid-sim/Assets/Scripts/.torch_inductor_cache/na/cnax3jmjeccmx64zjulxwhhbexbdpjqw6qsvgxt4mswboyl3espu.py":31:52)
#loc18 = loc("/orcd/home/002/osbo/ondemand/fluid-sim/Assets/Scripts/.torch_inductor_cache/na/cnax3jmjeccmx64zjulxwhhbexbdpjqw6qsvgxt4mswboyl3espu.py":31:45)
#loc19 = loc("/orcd/home/002/osbo/ondemand/fluid-sim/Assets/Scripts/.torch_inductor_cache/na/cnax3jmjeccmx64zjulxwhhbexbdpjqw6qsvgxt4mswboyl3espu.py":31:30)
#loc20 = loc("/orcd/home/002/osbo/ondemand/fluid-sim/Assets/Scripts/.torch_inductor_cache/na/cnax3jmjeccmx64zjulxwhhbexbdpjqw6qsvgxt4mswboyl3espu.py":31:58)
#loc21 = loc("/orcd/home/002/osbo/ondemand/fluid-sim/Assets/Scripts/.torch_inductor_cache/na/cnax3jmjeccmx64zjulxwhhbexbdpjqw6qsvgxt4mswboyl3espu.py":32:30)
#loc22 = loc("/orcd/home/002/osbo/ondemand/fluid-sim/Assets/Scripts/.torch_inductor_cache/na/cnax3jmjeccmx64zjulxwhhbexbdpjqw6qsvgxt4mswboyl3espu.py":32:35)
#loc23 = loc("/orcd/home/002/osbo/ondemand/fluid-sim/Assets/Scripts/.torch_inductor_cache/na/cnax3jmjeccmx64zjulxwhhbexbdpjqw6qsvgxt4mswboyl3espu.py":33:18)
#loc24 = loc("/orcd/home/002/osbo/ondemand/fluid-sim/Assets/Scripts/.torch_inductor_cache/na/cnax3jmjeccmx64zjulxwhhbexbdpjqw6qsvgxt4mswboyl3espu.py":34:37)
#loc25 = loc("/orcd/home/002/osbo/ondemand/fluid-sim/Assets/Scripts/.torch_inductor_cache/na/cnax3jmjeccmx64zjulxwhhbexbdpjqw6qsvgxt4mswboyl3espu.py":34:31)
#loc26 = loc("/orcd/home/002/osbo/ondemand/fluid-sim/Assets/Scripts/.torch_inductor_cache/na/cnax3jmjeccmx64zjulxwhhbexbdpjqw6qsvgxt4mswboyl3espu.py":34:25)
#loc27 = loc("/orcd/home/002/osbo/ondemand/fluid-sim/Assets/Scripts/.torch_inductor_cache/na/cnax3jmjeccmx64zjulxwhhbexbdpjqw6qsvgxt4mswboyl3espu.py":34:49)
#loc28 = loc("/orcd/home/002/osbo/ondemand/fluid-sim/Assets/Scripts/.torch_inductor_cache/na/cnax3jmjeccmx64zjulxwhhbexbdpjqw6qsvgxt4mswboyl3espu.py":34:4)
