#loc = loc("/orcd/home/002/osbo/ondemand/fluid-sim/Assets/Scripts/.torch_inductor_cache/f6/cf67e2f7oswmna3al2x3pocgdqaetfcgl66sjkfk73u4h3ifxaiz.py":18:0)
module {
  tt.func public @triton_(%arg0: !tt.ptr<f32> {tt.divisibility = 16 : i32} loc("/orcd/home/002/osbo/ondemand/fluid-sim/Assets/Scripts/.torch_inductor_cache/f6/cf67e2f7oswmna3al2x3pocgdqaetfcgl66sjkfk73u4h3ifxaiz.py":18:0), %arg1: !tt.ptr<f32> {tt.divisibility = 16 : i32} loc("/orcd/home/002/osbo/ondemand/fluid-sim/Assets/Scripts/.torch_inductor_cache/f6/cf67e2f7oswmna3al2x3pocgdqaetfcgl66sjkfk73u4h3ifxaiz.py":18:0), %arg2: !tt.ptr<f32> {tt.divisibility = 16 : i32} loc("/orcd/home/002/osbo/ondemand/fluid-sim/Assets/Scripts/.torch_inductor_cache/f6/cf67e2f7oswmna3al2x3pocgdqaetfcgl66sjkfk73u4h3ifxaiz.py":18:0), %arg3: i32 {tt.divisibility = 16 : i32} loc("/orcd/home/002/osbo/ondemand/fluid-sim/Assets/Scripts/.torch_inductor_cache/f6/cf67e2f7oswmna3al2x3pocgdqaetfcgl66sjkfk73u4h3ifxaiz.py":18:0)) attributes {noinline = false} {
    %cst = arith.constant dense<3072> : tensor<512xi32> loc(#loc1)
    %cst_0 = arith.constant dense<96> : tensor<512xi32> loc(#loc1)
    %cst_1 = arith.constant dense<1024> : tensor<512xi32> loc(#loc1)
    %cst_2 = arith.constant dense<8> : tensor<512xi32> loc(#loc1)
    %cst_3 = arith.constant dense<128> : tensor<512xi32> loc(#loc1)
    %cst_4 = arith.constant dense<32> : tensor<512xi32> loc(#loc1)
    %cst_5 = arith.constant dense<4> : tensor<512xi32> loc(#loc1)
    %cst_6 = arith.constant dense<111616> : tensor<512xi32> loc(#loc1)
    %c512_i32 = arith.constant 512 : i32 loc(#loc1)
    %0 = tt.get_program_id x : i32 loc(#loc2)
    %1 = arith.muli %0, %c512_i32 : i32 loc(#loc3)
    %2 = tt.make_range {end = 512 : i32, start = 0 : i32} : tensor<512xi32> loc(#loc4)
    %3 = tt.splat %1 : i32 -> tensor<512xi32> loc(#loc5)
    %4 = arith.addi %3, %2 : tensor<512xi32> loc(#loc5)
    %5 = arith.cmpi slt, %4, %cst_6 : tensor<512xi32> loc(#loc6)
    %6 = arith.remsi %4, %cst_5 : tensor<512xi32> loc(#loc7)
    %7 = arith.divsi %4, %cst_5 : tensor<512xi32> loc(#loc8)
    %8 = arith.remsi %7, %cst_4 : tensor<512xi32> loc(#loc9)
    %9 = arith.divsi %4, %cst_3 : tensor<512xi32> loc(#loc10)
    %10 = arith.remsi %9, %cst_2 : tensor<512xi32> loc(#loc11)
    %11 = arith.divsi %4, %cst_1 : tensor<512xi32> loc(#loc12)
    %12 = arith.muli %10, %cst_5 : tensor<512xi32> loc(#loc13)
    %13 = arith.addi %6, %12 : tensor<512xi32> loc(#loc14)
    %14 = arith.muli %8, %cst_0 : tensor<512xi32> loc(#loc15)
    %15 = arith.addi %13, %14 : tensor<512xi32> loc(#loc16)
    %16 = arith.muli %11, %cst : tensor<512xi32> loc(#loc17)
    %17 = arith.addi %15, %16 : tensor<512xi32> loc(#loc18)
    %18 = tt.splat %arg0 : !tt.ptr<f32> -> tensor<512x!tt.ptr<f32>> loc(#loc19)
    %19 = tt.addptr %18, %17 : tensor<512x!tt.ptr<f32>>, tensor<512xi32> loc(#loc19)
    %20 = tt.load %19, %5 : tensor<512x!tt.ptr<f32>> loc(#loc20)
    %21 = tt.splat %arg1 : !tt.ptr<f32> -> tensor<512x!tt.ptr<f32>> loc(#loc21)
    %22 = tt.addptr %21, %13 : tensor<512x!tt.ptr<f32>>, tensor<512xi32> loc(#loc21)
    %23 = tt.load %22, %5 evictionPolicy = evict_last : tensor<512x!tt.ptr<f32>> loc(#loc22)
    %24 = arith.addf %20, %23 : tensor<512xf32> loc(#loc23)
    %25 = tt.splat %arg2 : !tt.ptr<f32> -> tensor<512x!tt.ptr<f32>> loc(#loc24)
    %26 = tt.addptr %25, %4 : tensor<512x!tt.ptr<f32>>, tensor<512xi32> loc(#loc24)
    tt.store %26, %24, %5 : tensor<512x!tt.ptr<f32>> loc(#loc25)
    tt.return loc(#loc26)
  } loc(#loc)
} loc(#loc)
#loc1 = loc(unknown)
#loc2 = loc("/orcd/home/002/osbo/ondemand/fluid-sim/Assets/Scripts/.torch_inductor_cache/f6/cf67e2f7oswmna3al2x3pocgdqaetfcgl66sjkfk73u4h3ifxaiz.py":20:28)
#loc3 = loc("/orcd/home/002/osbo/ondemand/fluid-sim/Assets/Scripts/.torch_inductor_cache/f6/cf67e2f7oswmna3al2x3pocgdqaetfcgl66sjkfk73u4h3ifxaiz.py":20:33)
#loc4 = loc("/orcd/home/002/osbo/ondemand/fluid-sim/Assets/Scripts/.torch_inductor_cache/f6/cf67e2f7oswmna3al2x3pocgdqaetfcgl66sjkfk73u4h3ifxaiz.py":21:36)
#loc5 = loc("/orcd/home/002/osbo/ondemand/fluid-sim/Assets/Scripts/.torch_inductor_cache/f6/cf67e2f7oswmna3al2x3pocgdqaetfcgl66sjkfk73u4h3ifxaiz.py":21:23)
#loc6 = loc("/orcd/home/002/osbo/ondemand/fluid-sim/Assets/Scripts/.torch_inductor_cache/f6/cf67e2f7oswmna3al2x3pocgdqaetfcgl66sjkfk73u4h3ifxaiz.py":22:21)
#loc7 = loc("/orcd/home/002/osbo/ondemand/fluid-sim/Assets/Scripts/.torch_inductor_cache/f6/cf67e2f7oswmna3al2x3pocgdqaetfcgl66sjkfk73u4h3ifxaiz.py":23:18)
#loc8 = loc("/orcd/home/002/osbo/ondemand/fluid-sim/Assets/Scripts/.torch_inductor_cache/f6/cf67e2f7oswmna3al2x3pocgdqaetfcgl66sjkfk73u4h3ifxaiz.py":24:20)
#loc9 = loc("/orcd/home/002/osbo/ondemand/fluid-sim/Assets/Scripts/.torch_inductor_cache/f6/cf67e2f7oswmna3al2x3pocgdqaetfcgl66sjkfk73u4h3ifxaiz.py":24:25)
#loc10 = loc("/orcd/home/002/osbo/ondemand/fluid-sim/Assets/Scripts/.torch_inductor_cache/f6/cf67e2f7oswmna3al2x3pocgdqaetfcgl66sjkfk73u4h3ifxaiz.py":25:20)
#loc11 = loc("/orcd/home/002/osbo/ondemand/fluid-sim/Assets/Scripts/.torch_inductor_cache/f6/cf67e2f7oswmna3al2x3pocgdqaetfcgl66sjkfk73u4h3ifxaiz.py":25:27)
#loc12 = loc("/orcd/home/002/osbo/ondemand/fluid-sim/Assets/Scripts/.torch_inductor_cache/f6/cf67e2f7oswmna3al2x3pocgdqaetfcgl66sjkfk73u4h3ifxaiz.py":26:20)
#loc13 = loc("/orcd/home/002/osbo/ondemand/fluid-sim/Assets/Scripts/.torch_inductor_cache/f6/cf67e2f7oswmna3al2x3pocgdqaetfcgl66sjkfk73u4h3ifxaiz.py":28:38)
#loc14 = loc("/orcd/home/002/osbo/ondemand/fluid-sim/Assets/Scripts/.torch_inductor_cache/f6/cf67e2f7oswmna3al2x3pocgdqaetfcgl66sjkfk73u4h3ifxaiz.py":28:36)
#loc15 = loc("/orcd/home/002/osbo/ondemand/fluid-sim/Assets/Scripts/.torch_inductor_cache/f6/cf67e2f7oswmna3al2x3pocgdqaetfcgl66sjkfk73u4h3ifxaiz.py":28:48)
#loc16 = loc("/orcd/home/002/osbo/ondemand/fluid-sim/Assets/Scripts/.torch_inductor_cache/f6/cf67e2f7oswmna3al2x3pocgdqaetfcgl66sjkfk73u4h3ifxaiz.py":28:45)
#loc17 = loc("/orcd/home/002/osbo/ondemand/fluid-sim/Assets/Scripts/.torch_inductor_cache/f6/cf67e2f7oswmna3al2x3pocgdqaetfcgl66sjkfk73u4h3ifxaiz.py":28:60)
#loc18 = loc("/orcd/home/002/osbo/ondemand/fluid-sim/Assets/Scripts/.torch_inductor_cache/f6/cf67e2f7oswmna3al2x3pocgdqaetfcgl66sjkfk73u4h3ifxaiz.py":28:55)
#loc19 = loc("/orcd/home/002/osbo/ondemand/fluid-sim/Assets/Scripts/.torch_inductor_cache/f6/cf67e2f7oswmna3al2x3pocgdqaetfcgl66sjkfk73u4h3ifxaiz.py":28:30)
#loc20 = loc("/orcd/home/002/osbo/ondemand/fluid-sim/Assets/Scripts/.torch_inductor_cache/f6/cf67e2f7oswmna3al2x3pocgdqaetfcgl66sjkfk73u4h3ifxaiz.py":28:66)
#loc21 = loc("/orcd/home/002/osbo/ondemand/fluid-sim/Assets/Scripts/.torch_inductor_cache/f6/cf67e2f7oswmna3al2x3pocgdqaetfcgl66sjkfk73u4h3ifxaiz.py":29:30)
#loc22 = loc("/orcd/home/002/osbo/ondemand/fluid-sim/Assets/Scripts/.torch_inductor_cache/f6/cf67e2f7oswmna3al2x3pocgdqaetfcgl66sjkfk73u4h3ifxaiz.py":29:44)
#loc23 = loc("/orcd/home/002/osbo/ondemand/fluid-sim/Assets/Scripts/.torch_inductor_cache/f6/cf67e2f7oswmna3al2x3pocgdqaetfcgl66sjkfk73u4h3ifxaiz.py":30:18)
#loc24 = loc("/orcd/home/002/osbo/ondemand/fluid-sim/Assets/Scripts/.torch_inductor_cache/f6/cf67e2f7oswmna3al2x3pocgdqaetfcgl66sjkfk73u4h3ifxaiz.py":31:25)
#loc25 = loc("/orcd/home/002/osbo/ondemand/fluid-sim/Assets/Scripts/.torch_inductor_cache/f6/cf67e2f7oswmna3al2x3pocgdqaetfcgl66sjkfk73u4h3ifxaiz.py":31:36)
#loc26 = loc("/orcd/home/002/osbo/ondemand/fluid-sim/Assets/Scripts/.torch_inductor_cache/f6/cf67e2f7oswmna3al2x3pocgdqaetfcgl66sjkfk73u4h3ifxaiz.py":31:4)
