#loc = loc("/orcd/home/002/osbo/ondemand/fluid-sim/Assets/Scripts/.torch_inductor_cache/sx/csxw4333npckx7dxhvpagupvukbbtrvtdk77cmthmakpjqoudazz.py":18:0)
#loc1 = loc(unknown)
module {
  tt.func public @triton_(%arg0: !tt.ptr<f32> {tt.divisibility = 16 : i32} loc("/orcd/home/002/osbo/ondemand/fluid-sim/Assets/Scripts/.torch_inductor_cache/sx/csxw4333npckx7dxhvpagupvukbbtrvtdk77cmthmakpjqoudazz.py":18:0), %arg1: i32 {tt.divisibility = 16 : i32} loc("/orcd/home/002/osbo/ondemand/fluid-sim/Assets/Scripts/.torch_inductor_cache/sx/csxw4333npckx7dxhvpagupvukbbtrvtdk77cmthmakpjqoudazz.py":18:0), %arg2: i32 {tt.divisibility = 16 : i32} loc("/orcd/home/002/osbo/ondemand/fluid-sim/Assets/Scripts/.torch_inductor_cache/sx/csxw4333npckx7dxhvpagupvukbbtrvtdk77cmthmakpjqoudazz.py":18:0)) attributes {noinline = false} {
    %cst = arith.constant dense<0.000000e+00> : tensor<32x1xf32> loc(#loc1)
    %cst_0 = arith.constant dense<4096> : tensor<32x1xi32> loc(#loc1)
    %cst_1 = arith.constant dense<65> : tensor<32x1xi32> loc(#loc1)
    %cst_2 = arith.constant dense<1.000000e+00> : tensor<32x1xf32> loc(#loc1)
    %cst_3 = arith.constant dense<64> : tensor<32x1xi32> loc(#loc1)
    %cst_4 = arith.constant dense<6976> : tensor<32x1xi32> loc(#loc1)
    %c32_i32 = arith.constant 32 : i32 loc(#loc1)
    %0 = tt.get_program_id x : i32 loc(#loc2)
    %1 = arith.muli %0, %c32_i32 : i32 loc(#loc3)
    %2 = tt.make_range {end = 32 : i32, start = 0 : i32} : tensor<32xi32> loc(#loc4)
    %3 = tt.expand_dims %2 {axis = 1 : i32} : tensor<32xi32> -> tensor<32x1xi32> loc(#loc5)
    %4 = tt.splat %1 : i32 -> tensor<32x1xi32> loc(#loc6)
    %5 = arith.addi %4, %3 : tensor<32x1xi32> loc(#loc6)
    %6 = arith.cmpi slt, %5, %cst_4 : tensor<32x1xi32> loc(#loc7)
    %7 = arith.remsi %5, %cst_3 : tensor<32x1xi32> loc(#loc8)
    %8 = arith.divsi %5, %cst_3 : tensor<32x1xi32> loc(#loc9)
    %9 = arith.select %6, %cst_2, %cst : tensor<32x1xi1>, tensor<32x1xf32> loc(#loc10)
    %10 = tt.broadcast %9 : tensor<32x1xf32> -> tensor<32x64xf32> loc(#loc10)
    %11 = "tt.reduce"(%10) <{axis = 1 : i32}> ({
    ^bb0(%arg3: f32 loc(unknown), %arg4: f32 loc(unknown)):
      %22 = arith.addf %arg3, %arg4 : f32 loc(#loc30)
      tt.reduce.return %22 : f32 loc(#loc26)
    }) : (tensor<32x64xf32>) -> tensor<32xf32> loc(#loc26)
    %12 = tt.expand_dims %11 {axis = 1 : i32} : tensor<32xf32> -> tensor<32x1xf32> loc(#loc14)
    %13 = arith.cmpf olt, %12, %cst_2 : tensor<32x1xf32> loc(#loc15)
    %14 = arith.uitofp %13 : tensor<32x1xi1> to tensor<32x1xf32> loc(#loc16)
    %15 = arith.cmpf ogt, %cst_2, %14 : tensor<32x1xf32> loc(#loc28)
    %16 = arith.select %15, %cst_2, %14 : tensor<32x1xi1>, tensor<32x1xf32> loc(#loc29)
    %17 = arith.muli %7, %cst_1 : tensor<32x1xi32> loc(#loc20)
    %18 = arith.muli %8, %cst_0 : tensor<32x1xi32> loc(#loc21)
    %19 = arith.addi %17, %18 : tensor<32x1xi32> loc(#loc22)
    %20 = tt.splat %arg0 : !tt.ptr<f32> -> tensor<32x1x!tt.ptr<f32>> loc(#loc23)
    %21 = tt.addptr %20, %19 : tensor<32x1x!tt.ptr<f32>>, tensor<32x1xi32> loc(#loc23)
    tt.store %21, %16, %6 : tensor<32x1x!tt.ptr<f32>> loc(#loc24)
    tt.return loc(#loc25)
  } loc(#loc)
} loc(#loc)
#loc2 = loc("/orcd/home/002/osbo/ondemand/fluid-sim/Assets/Scripts/.torch_inductor_cache/sx/csxw4333npckx7dxhvpagupvukbbtrvtdk77cmthmakpjqoudazz.py":22:28)
#loc3 = loc("/orcd/home/002/osbo/ondemand/fluid-sim/Assets/Scripts/.torch_inductor_cache/sx/csxw4333npckx7dxhvpagupvukbbtrvtdk77cmthmakpjqoudazz.py":22:33)
#loc4 = loc("/orcd/home/002/osbo/ondemand/fluid-sim/Assets/Scripts/.torch_inductor_cache/sx/csxw4333npckx7dxhvpagupvukbbtrvtdk77cmthmakpjqoudazz.py":23:36)
#loc5 = loc("/orcd/home/002/osbo/ondemand/fluid-sim/Assets/Scripts/.torch_inductor_cache/sx/csxw4333npckx7dxhvpagupvukbbtrvtdk77cmthmakpjqoudazz.py":23:44)
#loc6 = loc("/orcd/home/002/osbo/ondemand/fluid-sim/Assets/Scripts/.torch_inductor_cache/sx/csxw4333npckx7dxhvpagupvukbbtrvtdk77cmthmakpjqoudazz.py":23:23)
#loc7 = loc("/orcd/home/002/osbo/ondemand/fluid-sim/Assets/Scripts/.torch_inductor_cache/sx/csxw4333npckx7dxhvpagupvukbbtrvtdk77cmthmakpjqoudazz.py":24:21)
#loc8 = loc("/orcd/home/002/osbo/ondemand/fluid-sim/Assets/Scripts/.torch_inductor_cache/sx/csxw4333npckx7dxhvpagupvukbbtrvtdk77cmthmakpjqoudazz.py":29:18)
#loc9 = loc("/orcd/home/002/osbo/ondemand/fluid-sim/Assets/Scripts/.torch_inductor_cache/sx/csxw4333npckx7dxhvpagupvukbbtrvtdk77cmthmakpjqoudazz.py":30:20)
#loc10 = loc("/orcd/home/002/osbo/ondemand/fluid-sim/Assets/Scripts/.torch_inductor_cache/sx/csxw4333npckx7dxhvpagupvukbbtrvtdk77cmthmakpjqoudazz.py":33:33)
#loc11 = loc("/home/osbo/.conda/envs/fluid/lib/python3.12/site-packages/triton/language/standard.py":267:36)
#loc12 = loc("/orcd/home/002/osbo/ondemand/fluid-sim/Assets/Scripts/.torch_inductor_cache/sx/csxw4333npckx7dxhvpagupvukbbtrvtdk77cmthmakpjqoudazz.py":34:24)
#loc13 = loc("/home/osbo/.conda/envs/fluid/lib/python3.12/site-packages/triton/language/standard.py":256:15)
#loc14 = loc("/orcd/home/002/osbo/ondemand/fluid-sim/Assets/Scripts/.torch_inductor_cache/sx/csxw4333npckx7dxhvpagupvukbbtrvtdk77cmthmakpjqoudazz.py":34:27)
#loc15 = loc("/orcd/home/002/osbo/ondemand/fluid-sim/Assets/Scripts/.torch_inductor_cache/sx/csxw4333npckx7dxhvpagupvukbbtrvtdk77cmthmakpjqoudazz.py":35:18)
#loc16 = loc("/orcd/home/002/osbo/ondemand/fluid-sim/Assets/Scripts/.torch_inductor_cache/sx/csxw4333npckx7dxhvpagupvukbbtrvtdk77cmthmakpjqoudazz.py":36:19)
#loc17 = loc("/home/osbo/.conda/envs/fluid/lib/python3.12/site-packages/torch/_inductor/runtime/triton_helpers.py":82:15)
#loc18 = loc("/orcd/home/002/osbo/ondemand/fluid-sim/Assets/Scripts/.torch_inductor_cache/sx/csxw4333npckx7dxhvpagupvukbbtrvtdk77cmthmakpjqoudazz.py":37:40)
#loc19 = loc("/home/osbo/.conda/envs/fluid/lib/python3.12/site-packages/torch/_inductor/runtime/triton_helpers.py":85:29)
#loc20 = loc("/orcd/home/002/osbo/ondemand/fluid-sim/Assets/Scripts/.torch_inductor_cache/sx/csxw4333npckx7dxhvpagupvukbbtrvtdk77cmthmakpjqoudazz.py":38:29)
#loc21 = loc("/orcd/home/002/osbo/ondemand/fluid-sim/Assets/Scripts/.torch_inductor_cache/sx/csxw4333npckx7dxhvpagupvukbbtrvtdk77cmthmakpjqoudazz.py":38:41)
#loc22 = loc("/orcd/home/002/osbo/ondemand/fluid-sim/Assets/Scripts/.torch_inductor_cache/sx/csxw4333npckx7dxhvpagupvukbbtrvtdk77cmthmakpjqoudazz.py":38:36)
#loc23 = loc("/orcd/home/002/osbo/ondemand/fluid-sim/Assets/Scripts/.torch_inductor_cache/sx/csxw4333npckx7dxhvpagupvukbbtrvtdk77cmthmakpjqoudazz.py":38:25)
#loc24 = loc("/orcd/home/002/osbo/ondemand/fluid-sim/Assets/Scripts/.torch_inductor_cache/sx/csxw4333npckx7dxhvpagupvukbbtrvtdk77cmthmakpjqoudazz.py":38:53)
#loc25 = loc("/orcd/home/002/osbo/ondemand/fluid-sim/Assets/Scripts/.torch_inductor_cache/sx/csxw4333npckx7dxhvpagupvukbbtrvtdk77cmthmakpjqoudazz.py":38:4)
#loc26 = loc(callsite(#loc11 at #loc12))
#loc27 = loc(callsite(#loc13 at #loc11))
#loc28 = loc(callsite(#loc17 at #loc18))
#loc29 = loc(callsite(#loc19 at #loc18))
#loc30 = loc(callsite(#loc27 at #loc12))
