#loc = loc("/orcd/home/002/osbo/ondemand/fluid-sim/Assets/Scripts/.torch_inductor_cache/no/cnowlyfs4uqapbr7ym7ye26vjm2ouw4sxa3tnx5rqfpa43lgmv3r.py":18:0)
#loc1 = loc(unknown)
module {
  tt.func public @triton_(%arg0: !tt.ptr<f32> {tt.divisibility = 16 : i32} loc("/orcd/home/002/osbo/ondemand/fluid-sim/Assets/Scripts/.torch_inductor_cache/no/cnowlyfs4uqapbr7ym7ye26vjm2ouw4sxa3tnx5rqfpa43lgmv3r.py":18:0), %arg1: !tt.ptr<f32> {tt.divisibility = 16 : i32} loc("/orcd/home/002/osbo/ondemand/fluid-sim/Assets/Scripts/.torch_inductor_cache/no/cnowlyfs4uqapbr7ym7ye26vjm2ouw4sxa3tnx5rqfpa43lgmv3r.py":18:0), %arg2: i32 {tt.divisibility = 16 : i32} loc("/orcd/home/002/osbo/ondemand/fluid-sim/Assets/Scripts/.torch_inductor_cache/no/cnowlyfs4uqapbr7ym7ye26vjm2ouw4sxa3tnx5rqfpa43lgmv3r.py":18:0), %arg3: i32 loc("/orcd/home/002/osbo/ondemand/fluid-sim/Assets/Scripts/.torch_inductor_cache/no/cnowlyfs4uqapbr7ym7ye26vjm2ouw4sxa3tnx5rqfpa43lgmv3r.py":18:0)) attributes {noinline = false} {
    %cst = arith.constant dense<8.000000e+00> : tensor<8x1xf32> loc(#loc1)
    %cst_0 = arith.constant dense<4096> : tensor<8x1xi32> loc(#loc1)
    %cst_1 = arith.constant dense<512> : tensor<1x8xi32> loc(#loc1)
    %cst_2 = arith.constant dense<512> : tensor<8x1xi32> loc(#loc1)
    %c8_i32 = arith.constant 8 : i32 loc(#loc1)
    %0 = tt.get_program_id x : i32 loc(#loc2)
    %1 = arith.muli %0, %c8_i32 : i32 loc(#loc3)
    %2 = tt.make_range {end = 8 : i32, start = 0 : i32} : tensor<8xi32> loc(#loc4)
    %3 = tt.expand_dims %2 {axis = 1 : i32} : tensor<8xi32> -> tensor<8x1xi32> loc(#loc5)
    %4 = tt.splat %1 : i32 -> tensor<8x1xi32> loc(#loc6)
    %5 = arith.addi %4, %3 : tensor<8x1xi32> loc(#loc6)
    %6 = tt.expand_dims %2 {axis = 0 : i32} : tensor<8xi32> -> tensor<1x8xi32> loc(#loc7)
    %7 = arith.remsi %5, %cst_2 : tensor<8x1xi32> loc(#loc8)
    %8 = arith.divsi %5, %cst_2 : tensor<8x1xi32> loc(#loc9)
    %9 = arith.muli %6, %cst_1 : tensor<1x8xi32> loc(#loc10)
    %10 = tt.broadcast %7 : tensor<8x1xi32> -> tensor<8x8xi32> loc(#loc11)
    %11 = tt.broadcast %9 : tensor<1x8xi32> -> tensor<8x8xi32> loc(#loc11)
    %12 = arith.addi %10, %11 : tensor<8x8xi32> loc(#loc11)
    %13 = arith.muli %8, %cst_0 : tensor<8x1xi32> loc(#loc12)
    %14 = tt.broadcast %13 : tensor<8x1xi32> -> tensor<8x8xi32> loc(#loc13)
    %15 = arith.addi %12, %14 : tensor<8x8xi32> loc(#loc13)
    %16 = tt.splat %arg1 : !tt.ptr<f32> -> tensor<8x8x!tt.ptr<f32>> loc(#loc14)
    %17 = tt.addptr %16, %15 : tensor<8x8x!tt.ptr<f32>>, tensor<8x8xi32> loc(#loc14)
    %18 = tt.load %17 : tensor<8x8x!tt.ptr<f32>> loc(#loc15)
    %19 = "tt.reduce"(%18) <{axis = 1 : i32}> ({
    ^bb0(%arg4: f32 loc(unknown), %arg5: f32 loc(unknown)):
      %24 = arith.addf %arg4, %arg5 : f32 loc(#loc27)
      tt.reduce.return %24 : f32 loc(#loc25)
    }) : (tensor<8x8xf32>) -> tensor<8xf32> loc(#loc25)
    %20 = tt.expand_dims %19 {axis = 1 : i32} : tensor<8xf32> -> tensor<8x1xf32> loc(#loc19)
    %21 = arith.divf %20, %cst : tensor<8x1xf32> loc(#loc20)
    gpu.barrier loc(#loc21)
    %22 = tt.splat %arg0 : !tt.ptr<f32> -> tensor<8x1x!tt.ptr<f32>> loc(#loc22)
    %23 = tt.addptr %22, %5 : tensor<8x1x!tt.ptr<f32>>, tensor<8x1xi32> loc(#loc22)
    tt.store %23, %21 : tensor<8x1x!tt.ptr<f32>> loc(#loc23)
    tt.return loc(#loc24)
  } loc(#loc)
} loc(#loc)
#loc2 = loc("/orcd/home/002/osbo/ondemand/fluid-sim/Assets/Scripts/.torch_inductor_cache/no/cnowlyfs4uqapbr7ym7ye26vjm2ouw4sxa3tnx5rqfpa43lgmv3r.py":22:28)
#loc3 = loc("/orcd/home/002/osbo/ondemand/fluid-sim/Assets/Scripts/.torch_inductor_cache/no/cnowlyfs4uqapbr7ym7ye26vjm2ouw4sxa3tnx5rqfpa43lgmv3r.py":22:33)
#loc4 = loc("/orcd/home/002/osbo/ondemand/fluid-sim/Assets/Scripts/.torch_inductor_cache/no/cnowlyfs4uqapbr7ym7ye26vjm2ouw4sxa3tnx5rqfpa43lgmv3r.py":23:36)
#loc5 = loc("/orcd/home/002/osbo/ondemand/fluid-sim/Assets/Scripts/.torch_inductor_cache/no/cnowlyfs4uqapbr7ym7ye26vjm2ouw4sxa3tnx5rqfpa43lgmv3r.py":23:44)
#loc6 = loc("/orcd/home/002/osbo/ondemand/fluid-sim/Assets/Scripts/.torch_inductor_cache/no/cnowlyfs4uqapbr7ym7ye26vjm2ouw4sxa3tnx5rqfpa43lgmv3r.py":23:23)
#loc7 = loc("/orcd/home/002/osbo/ondemand/fluid-sim/Assets/Scripts/.torch_inductor_cache/no/cnowlyfs4uqapbr7ym7ye26vjm2ouw4sxa3tnx5rqfpa43lgmv3r.py":25:34)
#loc8 = loc("/orcd/home/002/osbo/ondemand/fluid-sim/Assets/Scripts/.torch_inductor_cache/no/cnowlyfs4uqapbr7ym7ye26vjm2ouw4sxa3tnx5rqfpa43lgmv3r.py":29:18)
#loc9 = loc("/orcd/home/002/osbo/ondemand/fluid-sim/Assets/Scripts/.torch_inductor_cache/no/cnowlyfs4uqapbr7ym7ye26vjm2ouw4sxa3tnx5rqfpa43lgmv3r.py":30:20)
#loc10 = loc("/orcd/home/002/osbo/ondemand/fluid-sim/Assets/Scripts/.torch_inductor_cache/no/cnowlyfs4uqapbr7ym7ye26vjm2ouw4sxa3tnx5rqfpa43lgmv3r.py":32:40)
#loc11 = loc("/orcd/home/002/osbo/ondemand/fluid-sim/Assets/Scripts/.torch_inductor_cache/no/cnowlyfs4uqapbr7ym7ye26vjm2ouw4sxa3tnx5rqfpa43lgmv3r.py":32:36)
#loc12 = loc("/orcd/home/002/osbo/ondemand/fluid-sim/Assets/Scripts/.torch_inductor_cache/no/cnowlyfs4uqapbr7ym7ye26vjm2ouw4sxa3tnx5rqfpa43lgmv3r.py":32:52)
#loc13 = loc("/orcd/home/002/osbo/ondemand/fluid-sim/Assets/Scripts/.torch_inductor_cache/no/cnowlyfs4uqapbr7ym7ye26vjm2ouw4sxa3tnx5rqfpa43lgmv3r.py":32:47)
#loc14 = loc("/orcd/home/002/osbo/ondemand/fluid-sim/Assets/Scripts/.torch_inductor_cache/no/cnowlyfs4uqapbr7ym7ye26vjm2ouw4sxa3tnx5rqfpa43lgmv3r.py":32:30)
#loc15 = loc("/orcd/home/002/osbo/ondemand/fluid-sim/Assets/Scripts/.torch_inductor_cache/no/cnowlyfs4uqapbr7ym7ye26vjm2ouw4sxa3tnx5rqfpa43lgmv3r.py":32:58)
#loc16 = loc("/home/osbo/.conda/envs/fluid/lib/python3.12/site-packages/triton/language/standard.py":267:36)
#loc17 = loc("/orcd/home/002/osbo/ondemand/fluid-sim/Assets/Scripts/.torch_inductor_cache/no/cnowlyfs4uqapbr7ym7ye26vjm2ouw4sxa3tnx5rqfpa43lgmv3r.py":34:24)
#loc18 = loc("/home/osbo/.conda/envs/fluid/lib/python3.12/site-packages/triton/language/standard.py":256:15)
#loc19 = loc("/orcd/home/002/osbo/ondemand/fluid-sim/Assets/Scripts/.torch_inductor_cache/no/cnowlyfs4uqapbr7ym7ye26vjm2ouw4sxa3tnx5rqfpa43lgmv3r.py":34:27)
#loc20 = loc("/orcd/home/002/osbo/ondemand/fluid-sim/Assets/Scripts/.torch_inductor_cache/no/cnowlyfs4uqapbr7ym7ye26vjm2ouw4sxa3tnx5rqfpa43lgmv3r.py":36:18)
#loc21 = loc("/orcd/home/002/osbo/ondemand/fluid-sim/Assets/Scripts/.torch_inductor_cache/no/cnowlyfs4uqapbr7ym7ye26vjm2ouw4sxa3tnx5rqfpa43lgmv3r.py":37:4)
#loc22 = loc("/orcd/home/002/osbo/ondemand/fluid-sim/Assets/Scripts/.torch_inductor_cache/no/cnowlyfs4uqapbr7ym7ye26vjm2ouw4sxa3tnx5rqfpa43lgmv3r.py":38:28)
#loc23 = loc("/orcd/home/002/osbo/ondemand/fluid-sim/Assets/Scripts/.torch_inductor_cache/no/cnowlyfs4uqapbr7ym7ye26vjm2ouw4sxa3tnx5rqfpa43lgmv3r.py":38:39)
#loc24 = loc("/orcd/home/002/osbo/ondemand/fluid-sim/Assets/Scripts/.torch_inductor_cache/no/cnowlyfs4uqapbr7ym7ye26vjm2ouw4sxa3tnx5rqfpa43lgmv3r.py":38:4)
#loc25 = loc(callsite(#loc16 at #loc17))
#loc26 = loc(callsite(#loc18 at #loc16))
#loc27 = loc(callsite(#loc26 at #loc17))
