#loc = loc("/orcd/home/002/osbo/ondemand/fluid-sim/Assets/Scripts/.torch_inductor_cache/y2/cy2djmbhmmylgr46ifm4a2ivirqmebhcewaxxlzk3jhjn7at5n3s.py":18:0)
#loc1 = loc(unknown)
module {
  tt.func public @triton_(%arg0: !tt.ptr<f32> {tt.divisibility = 16 : i32} loc("/orcd/home/002/osbo/ondemand/fluid-sim/Assets/Scripts/.torch_inductor_cache/y2/cy2djmbhmmylgr46ifm4a2ivirqmebhcewaxxlzk3jhjn7at5n3s.py":18:0), %arg1: !tt.ptr<f32> {tt.divisibility = 16 : i32} loc("/orcd/home/002/osbo/ondemand/fluid-sim/Assets/Scripts/.torch_inductor_cache/y2/cy2djmbhmmylgr46ifm4a2ivirqmebhcewaxxlzk3jhjn7at5n3s.py":18:0), %arg2: !tt.ptr<f32> {tt.divisibility = 16 : i32} loc("/orcd/home/002/osbo/ondemand/fluid-sim/Assets/Scripts/.torch_inductor_cache/y2/cy2djmbhmmylgr46ifm4a2ivirqmebhcewaxxlzk3jhjn7at5n3s.py":18:0), %arg3: i32 {tt.divisibility = 16 : i32} loc("/orcd/home/002/osbo/ondemand/fluid-sim/Assets/Scripts/.torch_inductor_cache/y2/cy2djmbhmmylgr46ifm4a2ivirqmebhcewaxxlzk3jhjn7at5n3s.py":18:0), %arg4: i32 {tt.divisibility = 16 : i32} loc("/orcd/home/002/osbo/ondemand/fluid-sim/Assets/Scripts/.torch_inductor_cache/y2/cy2djmbhmmylgr46ifm4a2ivirqmebhcewaxxlzk3jhjn7at5n3s.py":18:0)) attributes {noinline = false} {
    %cst = arith.constant dense<1.280000e+02> : tensor<8x1xf32> loc(#loc1)
    %cst_0 = arith.constant dense<0.000000e+00> : tensor<8x128xf32> loc(#loc1)
    %cst_1 = arith.constant dense<128> : tensor<8x1xi32> loc(#loc1)
    %cst_2 = arith.constant dense<816> : tensor<8x1xi32> loc(#loc1)
    %c8_i32 = arith.constant 8 : i32 loc(#loc1)
    %0 = tt.get_program_id x : i32 loc(#loc2)
    %1 = arith.muli %0, %c8_i32 : i32 loc(#loc3)
    %2 = tt.make_range {end = 8 : i32, start = 0 : i32} : tensor<8xi32> loc(#loc4)
    %3 = tt.expand_dims %2 {axis = 1 : i32} : tensor<8xi32> -> tensor<8x1xi32> loc(#loc5)
    %4 = tt.splat %1 : i32 -> tensor<8x1xi32> loc(#loc6)
    %5 = arith.addi %4, %3 : tensor<8x1xi32> loc(#loc6)
    %6 = arith.cmpi slt, %5, %cst_2 : tensor<8x1xi32> loc(#loc7)
    %7 = tt.make_range {end = 128 : i32, start = 0 : i32} : tensor<128xi32> loc(#loc8)
    %8 = tt.expand_dims %7 {axis = 0 : i32} : tensor<128xi32> -> tensor<1x128xi32> loc(#loc9)
    %9 = arith.muli %5, %cst_1 : tensor<8x1xi32> loc(#loc10)
    %10 = tt.broadcast %8 : tensor<1x128xi32> -> tensor<8x128xi32> loc(#loc11)
    %11 = tt.broadcast %9 : tensor<8x1xi32> -> tensor<8x128xi32> loc(#loc11)
    %12 = arith.addi %10, %11 : tensor<8x128xi32> loc(#loc11)
    %13 = tt.splat %arg0 : !tt.ptr<f32> -> tensor<8x128x!tt.ptr<f32>> loc(#loc12)
    %14 = tt.addptr %13, %12 : tensor<8x128x!tt.ptr<f32>>, tensor<8x128xi32> loc(#loc12)
    %15 = tt.broadcast %6 : tensor<8x1xi1> -> tensor<8x128xi1> loc(#loc13)
    %16 = tt.load %14, %15, %cst_0 : tensor<8x128x!tt.ptr<f32>> loc(#loc13)
    %17 = arith.select %15, %16, %cst_0 : tensor<8x128xi1>, tensor<8x128xf32> loc(#loc14)
    %18 = "tt.reduce"(%17) <{axis = 1 : i32}> ({
    ^bb0(%arg5: f32 loc(unknown), %arg6: f32 loc(unknown)):
      %31 = arith.addf %arg5, %arg6 : f32 loc(#loc33)
      tt.reduce.return %31 : f32 loc(#loc30)
    }) : (tensor<8x128xf32>) -> tensor<8xf32> loc(#loc30)
    %19 = tt.expand_dims %18 {axis = 1 : i32} : tensor<8xf32> -> tensor<8x1xf32> loc(#loc18)
    %20 = arith.divf %19, %cst : tensor<8x1xf32> loc(#loc19)
    %21 = tt.broadcast %20 : tensor<8x1xf32> -> tensor<8x128xf32> loc(#loc20)
    %22 = arith.subf %16, %21 : tensor<8x128xf32> loc(#loc20)
    %23 = arith.mulf %22, %22 : tensor<8x128xf32> loc(#loc21)
    %24 = arith.select %15, %23, %cst_0 : tensor<8x128xi1>, tensor<8x128xf32> loc(#loc22)
    %25 = "tt.reduce"(%24) <{axis = 1 : i32}> ({
    ^bb0(%arg5: f32 loc(unknown), %arg6: f32 loc(unknown)):
      %31 = arith.addf %arg5, %arg6 : f32 loc(#loc34)
      tt.reduce.return %31 : f32 loc(#loc32)
    }) : (tensor<8x128xf32>) -> tensor<8xf32> loc(#loc32)
    %26 = tt.expand_dims %25 {axis = 1 : i32} : tensor<8xf32> -> tensor<8x1xf32> loc(#loc24)
    %27 = tt.splat %arg1 : !tt.ptr<f32> -> tensor<8x1x!tt.ptr<f32>> loc(#loc25)
    %28 = tt.addptr %27, %5 : tensor<8x1x!tt.ptr<f32>>, tensor<8x1xi32> loc(#loc25)
    tt.store %28, %20, %6 : tensor<8x1x!tt.ptr<f32>> loc(#loc26)
    %29 = tt.splat %arg2 : !tt.ptr<f32> -> tensor<8x1x!tt.ptr<f32>> loc(#loc27)
    %30 = tt.addptr %29, %5 : tensor<8x1x!tt.ptr<f32>>, tensor<8x1xi32> loc(#loc27)
    tt.store %30, %26, %6 : tensor<8x1x!tt.ptr<f32>> loc(#loc28)
    tt.return loc(#loc29)
  } loc(#loc)
} loc(#loc)
#loc2 = loc("/orcd/home/002/osbo/ondemand/fluid-sim/Assets/Scripts/.torch_inductor_cache/y2/cy2djmbhmmylgr46ifm4a2ivirqmebhcewaxxlzk3jhjn7at5n3s.py":22:28)
#loc3 = loc("/orcd/home/002/osbo/ondemand/fluid-sim/Assets/Scripts/.torch_inductor_cache/y2/cy2djmbhmmylgr46ifm4a2ivirqmebhcewaxxlzk3jhjn7at5n3s.py":22:33)
#loc4 = loc("/orcd/home/002/osbo/ondemand/fluid-sim/Assets/Scripts/.torch_inductor_cache/y2/cy2djmbhmmylgr46ifm4a2ivirqmebhcewaxxlzk3jhjn7at5n3s.py":23:36)
#loc5 = loc("/orcd/home/002/osbo/ondemand/fluid-sim/Assets/Scripts/.torch_inductor_cache/y2/cy2djmbhmmylgr46ifm4a2ivirqmebhcewaxxlzk3jhjn7at5n3s.py":23:44)
#loc6 = loc("/orcd/home/002/osbo/ondemand/fluid-sim/Assets/Scripts/.torch_inductor_cache/y2/cy2djmbhmmylgr46ifm4a2ivirqmebhcewaxxlzk3jhjn7at5n3s.py":23:23)
#loc7 = loc("/orcd/home/002/osbo/ondemand/fluid-sim/Assets/Scripts/.torch_inductor_cache/y2/cy2djmbhmmylgr46ifm4a2ivirqmebhcewaxxlzk3jhjn7at5n3s.py":24:21)
#loc8 = loc("/orcd/home/002/osbo/ondemand/fluid-sim/Assets/Scripts/.torch_inductor_cache/y2/cy2djmbhmmylgr46ifm4a2ivirqmebhcewaxxlzk3jhjn7at5n3s.py":25:26)
#loc9 = loc("/orcd/home/002/osbo/ondemand/fluid-sim/Assets/Scripts/.torch_inductor_cache/y2/cy2djmbhmmylgr46ifm4a2ivirqmebhcewaxxlzk3jhjn7at5n3s.py":25:34)
#loc10 = loc("/orcd/home/002/osbo/ondemand/fluid-sim/Assets/Scripts/.torch_inductor_cache/y2/cy2djmbhmmylgr46ifm4a2ivirqmebhcewaxxlzk3jhjn7at5n3s.py":30:40)
#loc11 = loc("/orcd/home/002/osbo/ondemand/fluid-sim/Assets/Scripts/.torch_inductor_cache/y2/cy2djmbhmmylgr46ifm4a2ivirqmebhcewaxxlzk3jhjn7at5n3s.py":30:36)
#loc12 = loc("/orcd/home/002/osbo/ondemand/fluid-sim/Assets/Scripts/.torch_inductor_cache/y2/cy2djmbhmmylgr46ifm4a2ivirqmebhcewaxxlzk3jhjn7at5n3s.py":30:30)
#loc13 = loc("/orcd/home/002/osbo/ondemand/fluid-sim/Assets/Scripts/.torch_inductor_cache/y2/cy2djmbhmmylgr46ifm4a2ivirqmebhcewaxxlzk3jhjn7at5n3s.py":30:46)
#loc14 = loc("/orcd/home/002/osbo/ondemand/fluid-sim/Assets/Scripts/.torch_inductor_cache/y2/cy2djmbhmmylgr46ifm4a2ivirqmebhcewaxxlzk3jhjn7at5n3s.py":34:33)
#loc15 = loc("/home/osbo/.conda/envs/fluid/lib/python3.12/site-packages/triton/language/standard.py":267:36)
#loc16 = loc("/orcd/home/002/osbo/ondemand/fluid-sim/Assets/Scripts/.torch_inductor_cache/y2/cy2djmbhmmylgr46ifm4a2ivirqmebhcewaxxlzk3jhjn7at5n3s.py":35:24)
#loc17 = loc("/home/osbo/.conda/envs/fluid/lib/python3.12/site-packages/triton/language/standard.py":256:15)
#loc18 = loc("/orcd/home/002/osbo/ondemand/fluid-sim/Assets/Scripts/.torch_inductor_cache/y2/cy2djmbhmmylgr46ifm4a2ivirqmebhcewaxxlzk3jhjn7at5n3s.py":35:27)
#loc19 = loc("/orcd/home/002/osbo/ondemand/fluid-sim/Assets/Scripts/.torch_inductor_cache/y2/cy2djmbhmmylgr46ifm4a2ivirqmebhcewaxxlzk3jhjn7at5n3s.py":38:19)
#loc20 = loc("/orcd/home/002/osbo/ondemand/fluid-sim/Assets/Scripts/.torch_inductor_cache/y2/cy2djmbhmmylgr46ifm4a2ivirqmebhcewaxxlzk3jhjn7at5n3s.py":39:19)
#loc21 = loc("/orcd/home/002/osbo/ondemand/fluid-sim/Assets/Scripts/.torch_inductor_cache/y2/cy2djmbhmmylgr46ifm4a2ivirqmebhcewaxxlzk3jhjn7at5n3s.py":40:20)
#loc22 = loc("/orcd/home/002/osbo/ondemand/fluid-sim/Assets/Scripts/.torch_inductor_cache/y2/cy2djmbhmmylgr46ifm4a2ivirqmebhcewaxxlzk3jhjn7at5n3s.py":42:35)
#loc23 = loc("/orcd/home/002/osbo/ondemand/fluid-sim/Assets/Scripts/.torch_inductor_cache/y2/cy2djmbhmmylgr46ifm4a2ivirqmebhcewaxxlzk3jhjn7at5n3s.py":43:26)
#loc24 = loc("/orcd/home/002/osbo/ondemand/fluid-sim/Assets/Scripts/.torch_inductor_cache/y2/cy2djmbhmmylgr46ifm4a2ivirqmebhcewaxxlzk3jhjn7at5n3s.py":43:29)
#loc25 = loc("/orcd/home/002/osbo/ondemand/fluid-sim/Assets/Scripts/.torch_inductor_cache/y2/cy2djmbhmmylgr46ifm4a2ivirqmebhcewaxxlzk3jhjn7at5n3s.py":44:25)
#loc26 = loc("/orcd/home/002/osbo/ondemand/fluid-sim/Assets/Scripts/.torch_inductor_cache/y2/cy2djmbhmmylgr46ifm4a2ivirqmebhcewaxxlzk3jhjn7at5n3s.py":44:37)
#loc27 = loc("/orcd/home/002/osbo/ondemand/fluid-sim/Assets/Scripts/.torch_inductor_cache/y2/cy2djmbhmmylgr46ifm4a2ivirqmebhcewaxxlzk3jhjn7at5n3s.py":45:25)
#loc28 = loc("/orcd/home/002/osbo/ondemand/fluid-sim/Assets/Scripts/.torch_inductor_cache/y2/cy2djmbhmmylgr46ifm4a2ivirqmebhcewaxxlzk3jhjn7at5n3s.py":45:37)
#loc29 = loc("/orcd/home/002/osbo/ondemand/fluid-sim/Assets/Scripts/.torch_inductor_cache/y2/cy2djmbhmmylgr46ifm4a2ivirqmebhcewaxxlzk3jhjn7at5n3s.py":45:4)
#loc30 = loc(callsite(#loc15 at #loc16))
#loc31 = loc(callsite(#loc17 at #loc15))
#loc32 = loc(callsite(#loc15 at #loc23))
#loc33 = loc(callsite(#loc31 at #loc16))
#loc34 = loc(callsite(#loc31 at #loc23))
