#loc = loc("/orcd/home/002/osbo/ondemand/fluid-sim/Assets/Scripts/.torch_inductor_cache/qx/cqx6aufcsiocunrs6dylheougys74e6tdnu3es3fczogbpgq6w2r.py":18:0)
module {
  tt.func public @triton_(%arg0: !tt.ptr<f32> {tt.divisibility = 16 : i32} loc("/orcd/home/002/osbo/ondemand/fluid-sim/Assets/Scripts/.torch_inductor_cache/qx/cqx6aufcsiocunrs6dylheougys74e6tdnu3es3fczogbpgq6w2r.py":18:0), %arg1: !tt.ptr<f32> {tt.divisibility = 16 : i32} loc("/orcd/home/002/osbo/ondemand/fluid-sim/Assets/Scripts/.torch_inductor_cache/qx/cqx6aufcsiocunrs6dylheougys74e6tdnu3es3fczogbpgq6w2r.py":18:0), %arg2: i32 {tt.divisibility = 16 : i32} loc("/orcd/home/002/osbo/ondemand/fluid-sim/Assets/Scripts/.torch_inductor_cache/qx/cqx6aufcsiocunrs6dylheougys74e6tdnu3es3fczogbpgq6w2r.py":18:0)) attributes {noinline = false} {
    %cst = arith.constant dense<0.000000e+00> : tensor<128xf32> loc(#loc1)
    %cst_0 = arith.constant dense<58> : tensor<128xi64> loc(#loc1)
    %cst_1 = arith.constant dense<32> : tensor<128xi32> loc(#loc1)
    %c128_i32 = arith.constant 128 : i32 loc(#loc1)
    %0 = tt.get_program_id x : i32 loc(#loc2)
    %1 = arith.muli %0, %c128_i32 : i32 loc(#loc3)
    %2 = tt.make_range {end = 128 : i32, start = 0 : i32} : tensor<128xi32> loc(#loc4)
    %3 = tt.splat %1 : i32 -> tensor<128xi32> loc(#loc5)
    %4 = arith.addi %3, %2 : tensor<128xi32> loc(#loc5)
    %5 = arith.divsi %4, %cst_1 : tensor<128xi32> loc(#loc6)
    %6 = arith.extsi %5 : tensor<128xi32> to tensor<128xi64> loc(#loc7)
    %7 = arith.cmpi slt, %6, %cst_0 : tensor<128xi64> loc(#loc7)
    %8 = tt.splat %arg0 : !tt.ptr<f32> -> tensor<128x!tt.ptr<f32>> loc(#loc8)
    %9 = tt.addptr %8, %4 : tensor<128x!tt.ptr<f32>>, tensor<128xi32> loc(#loc8)
    %10 = tt.load %9, %7, %cst : tensor<128x!tt.ptr<f32>> loc(#loc9)
    %11 = arith.select %7, %10, %cst : tensor<128xi1>, tensor<128xf32> loc(#loc10)
    %12 = tt.splat %arg1 : !tt.ptr<f32> -> tensor<128x!tt.ptr<f32>> loc(#loc11)
    %13 = tt.addptr %12, %4 : tensor<128x!tt.ptr<f32>>, tensor<128xi32> loc(#loc11)
    tt.store %13, %11 : tensor<128x!tt.ptr<f32>> loc(#loc12)
    tt.return loc(#loc13)
  } loc(#loc)
} loc(#loc)
#loc1 = loc(unknown)
#loc2 = loc("/orcd/home/002/osbo/ondemand/fluid-sim/Assets/Scripts/.torch_inductor_cache/qx/cqx6aufcsiocunrs6dylheougys74e6tdnu3es3fczogbpgq6w2r.py":20:28)
#loc3 = loc("/orcd/home/002/osbo/ondemand/fluid-sim/Assets/Scripts/.torch_inductor_cache/qx/cqx6aufcsiocunrs6dylheougys74e6tdnu3es3fczogbpgq6w2r.py":20:33)
#loc4 = loc("/orcd/home/002/osbo/ondemand/fluid-sim/Assets/Scripts/.torch_inductor_cache/qx/cqx6aufcsiocunrs6dylheougys74e6tdnu3es3fczogbpgq6w2r.py":21:36)
#loc5 = loc("/orcd/home/002/osbo/ondemand/fluid-sim/Assets/Scripts/.torch_inductor_cache/qx/cqx6aufcsiocunrs6dylheougys74e6tdnu3es3fczogbpgq6w2r.py":21:23)
#loc6 = loc("/orcd/home/002/osbo/ondemand/fluid-sim/Assets/Scripts/.torch_inductor_cache/qx/cqx6aufcsiocunrs6dylheougys74e6tdnu3es3fczogbpgq6w2r.py":23:20)
#loc7 = loc("/orcd/home/002/osbo/ondemand/fluid-sim/Assets/Scripts/.torch_inductor_cache/qx/cqx6aufcsiocunrs6dylheougys74e6tdnu3es3fczogbpgq6w2r.py":27:18)
#loc8 = loc("/orcd/home/002/osbo/ondemand/fluid-sim/Assets/Scripts/.torch_inductor_cache/qx/cqx6aufcsiocunrs6dylheougys74e6tdnu3es3fczogbpgq6w2r.py":28:30)
#loc9 = loc("/orcd/home/002/osbo/ondemand/fluid-sim/Assets/Scripts/.torch_inductor_cache/qx/cqx6aufcsiocunrs6dylheougys74e6tdnu3es3fczogbpgq6w2r.py":28:35)
#loc10 = loc("/orcd/home/002/osbo/ondemand/fluid-sim/Assets/Scripts/.torch_inductor_cache/qx/cqx6aufcsiocunrs6dylheougys74e6tdnu3es3fczogbpgq6w2r.py":30:32)
#loc11 = loc("/orcd/home/002/osbo/ondemand/fluid-sim/Assets/Scripts/.torch_inductor_cache/qx/cqx6aufcsiocunrs6dylheougys74e6tdnu3es3fczogbpgq6w2r.py":31:25)
#loc12 = loc("/orcd/home/002/osbo/ondemand/fluid-sim/Assets/Scripts/.torch_inductor_cache/qx/cqx6aufcsiocunrs6dylheougys74e6tdnu3es3fczogbpgq6w2r.py":31:36)
#loc13 = loc("/orcd/home/002/osbo/ondemand/fluid-sim/Assets/Scripts/.torch_inductor_cache/qx/cqx6aufcsiocunrs6dylheougys74e6tdnu3es3fczogbpgq6w2r.py":31:4)
