#loc = loc("/orcd/home/002/osbo/ondemand/fluid-sim/Assets/Scripts/.torch_inductor_cache/wf/cwf5eupgeahohiubyflhia2kovoaj5tpucgnibvvs3picunidrok.py":18:0)
#loc1 = loc(unknown)
module {
  tt.func public @triton_(%arg0: !tt.ptr<f32> {tt.divisibility = 16 : i32} loc("/orcd/home/002/osbo/ondemand/fluid-sim/Assets/Scripts/.torch_inductor_cache/wf/cwf5eupgeahohiubyflhia2kovoaj5tpucgnibvvs3picunidrok.py":18:0), %arg1: !tt.ptr<f32> {tt.divisibility = 16 : i32} loc("/orcd/home/002/osbo/ondemand/fluid-sim/Assets/Scripts/.torch_inductor_cache/wf/cwf5eupgeahohiubyflhia2kovoaj5tpucgnibvvs3picunidrok.py":18:0), %arg2: i32 {tt.divisibility = 16 : i32} loc("/orcd/home/002/osbo/ondemand/fluid-sim/Assets/Scripts/.torch_inductor_cache/wf/cwf5eupgeahohiubyflhia2kovoaj5tpucgnibvvs3picunidrok.py":18:0), %arg3: i32 {tt.divisibility = 16 : i32} loc("/orcd/home/002/osbo/ondemand/fluid-sim/Assets/Scripts/.torch_inductor_cache/wf/cwf5eupgeahohiubyflhia2kovoaj5tpucgnibvvs3picunidrok.py":18:0)) attributes {noinline = false} {
    %cst = arith.constant dense<8192> : tensor<32x1xi32> loc(#loc1)
    %cst_0 = arith.constant dense<1024> : tensor<32x1xi32> loc(#loc1)
    %cst_1 = arith.constant dense<256> : tensor<32x1xi32> loc(#loc1)
    %cst_2 = arith.constant dense<32> : tensor<32x1xi32> loc(#loc1)
    %cst_3 = arith.constant dense<8> : tensor<32x1xi32> loc(#loc1)
    %c32_i32 = arith.constant 32 : i32 loc(#loc1)
    %0 = tt.get_program_id x : i32 loc(#loc2)
    %1 = arith.muli %0, %c32_i32 : i32 loc(#loc3)
    %2 = tt.make_range {end = 32 : i32, start = 0 : i32} : tensor<32xi32> loc(#loc4)
    %3 = tt.expand_dims %2 {axis = 1 : i32} : tensor<32xi32> -> tensor<32x1xi32> loc(#loc5)
    %4 = tt.splat %1 : i32 -> tensor<32x1xi32> loc(#loc6)
    %5 = arith.addi %4, %3 : tensor<32x1xi32> loc(#loc6)
    %6 = tt.expand_dims %2 {axis = 0 : i32} : tensor<32xi32> -> tensor<1x32xi32> loc(#loc7)
    %7 = arith.remsi %5, %cst_3 : tensor<32x1xi32> loc(#loc8)
    %8 = arith.divsi %5, %cst_3 : tensor<32x1xi32> loc(#loc9)
    %9 = arith.remsi %8, %cst_2 : tensor<32x1xi32> loc(#loc10)
    %10 = arith.divsi %5, %cst_1 : tensor<32x1xi32> loc(#loc11)
    %11 = arith.muli %9, %cst_2 : tensor<32x1xi32> loc(#loc12)
    %12 = tt.broadcast %6 : tensor<1x32xi32> -> tensor<32x32xi32> loc(#loc13)
    %13 = tt.broadcast %11 : tensor<32x1xi32> -> tensor<32x32xi32> loc(#loc13)
    %14 = arith.addi %12, %13 : tensor<32x32xi32> loc(#loc13)
    %15 = arith.muli %7, %cst_0 : tensor<32x1xi32> loc(#loc14)
    %16 = tt.broadcast %15 : tensor<32x1xi32> -> tensor<32x32xi32> loc(#loc15)
    %17 = arith.addi %14, %16 : tensor<32x32xi32> loc(#loc15)
    %18 = arith.muli %10, %cst : tensor<32x1xi32> loc(#loc16)
    %19 = tt.broadcast %18 : tensor<32x1xi32> -> tensor<32x32xi32> loc(#loc17)
    %20 = arith.addi %17, %19 : tensor<32x32xi32> loc(#loc17)
    %21 = tt.splat %arg0 : !tt.ptr<f32> -> tensor<32x32x!tt.ptr<f32>> loc(#loc18)
    %22 = tt.addptr %21, %20 : tensor<32x32x!tt.ptr<f32>>, tensor<32x32xi32> loc(#loc18)
    %23 = tt.load %22 : tensor<32x32x!tt.ptr<f32>> loc(#loc19)
    %24 = "tt.reduce"(%23) <{axis = 1 : i32}> ({
    ^bb0(%arg4: f32 loc(unknown), %arg5: f32 loc(unknown)):
      %28 = arith.addf %arg4, %arg5 : f32 loc(#loc29)
      tt.reduce.return %28 : f32 loc(#loc27)
    }) : (tensor<32x32xf32>) -> tensor<32xf32> loc(#loc27)
    %25 = tt.expand_dims %24 {axis = 1 : i32} : tensor<32xf32> -> tensor<32x1xf32> loc(#loc23)
    %26 = tt.splat %arg1 : !tt.ptr<f32> -> tensor<32x1x!tt.ptr<f32>> loc(#loc24)
    %27 = tt.addptr %26, %5 : tensor<32x1x!tt.ptr<f32>>, tensor<32x1xi32> loc(#loc24)
    tt.store %27, %25 : tensor<32x1x!tt.ptr<f32>> loc(#loc25)
    tt.return loc(#loc26)
  } loc(#loc)
} loc(#loc)
#loc2 = loc("/orcd/home/002/osbo/ondemand/fluid-sim/Assets/Scripts/.torch_inductor_cache/wf/cwf5eupgeahohiubyflhia2kovoaj5tpucgnibvvs3picunidrok.py":22:28)
#loc3 = loc("/orcd/home/002/osbo/ondemand/fluid-sim/Assets/Scripts/.torch_inductor_cache/wf/cwf5eupgeahohiubyflhia2kovoaj5tpucgnibvvs3picunidrok.py":22:33)
#loc4 = loc("/orcd/home/002/osbo/ondemand/fluid-sim/Assets/Scripts/.torch_inductor_cache/wf/cwf5eupgeahohiubyflhia2kovoaj5tpucgnibvvs3picunidrok.py":23:36)
#loc5 = loc("/orcd/home/002/osbo/ondemand/fluid-sim/Assets/Scripts/.torch_inductor_cache/wf/cwf5eupgeahohiubyflhia2kovoaj5tpucgnibvvs3picunidrok.py":23:44)
#loc6 = loc("/orcd/home/002/osbo/ondemand/fluid-sim/Assets/Scripts/.torch_inductor_cache/wf/cwf5eupgeahohiubyflhia2kovoaj5tpucgnibvvs3picunidrok.py":23:23)
#loc7 = loc("/orcd/home/002/osbo/ondemand/fluid-sim/Assets/Scripts/.torch_inductor_cache/wf/cwf5eupgeahohiubyflhia2kovoaj5tpucgnibvvs3picunidrok.py":25:34)
#loc8 = loc("/orcd/home/002/osbo/ondemand/fluid-sim/Assets/Scripts/.torch_inductor_cache/wf/cwf5eupgeahohiubyflhia2kovoaj5tpucgnibvvs3picunidrok.py":29:18)
#loc9 = loc("/orcd/home/002/osbo/ondemand/fluid-sim/Assets/Scripts/.torch_inductor_cache/wf/cwf5eupgeahohiubyflhia2kovoaj5tpucgnibvvs3picunidrok.py":30:20)
#loc10 = loc("/orcd/home/002/osbo/ondemand/fluid-sim/Assets/Scripts/.torch_inductor_cache/wf/cwf5eupgeahohiubyflhia2kovoaj5tpucgnibvvs3picunidrok.py":30:25)
#loc11 = loc("/orcd/home/002/osbo/ondemand/fluid-sim/Assets/Scripts/.torch_inductor_cache/wf/cwf5eupgeahohiubyflhia2kovoaj5tpucgnibvvs3picunidrok.py":31:20)
#loc12 = loc("/orcd/home/002/osbo/ondemand/fluid-sim/Assets/Scripts/.torch_inductor_cache/wf/cwf5eupgeahohiubyflhia2kovoaj5tpucgnibvvs3picunidrok.py":33:39)
#loc13 = loc("/orcd/home/002/osbo/ondemand/fluid-sim/Assets/Scripts/.torch_inductor_cache/wf/cwf5eupgeahohiubyflhia2kovoaj5tpucgnibvvs3picunidrok.py":33:36)
#loc14 = loc("/orcd/home/002/osbo/ondemand/fluid-sim/Assets/Scripts/.torch_inductor_cache/wf/cwf5eupgeahohiubyflhia2kovoaj5tpucgnibvvs3picunidrok.py":33:51)
#loc15 = loc("/orcd/home/002/osbo/ondemand/fluid-sim/Assets/Scripts/.torch_inductor_cache/wf/cwf5eupgeahohiubyflhia2kovoaj5tpucgnibvvs3picunidrok.py":33:46)
#loc16 = loc("/orcd/home/002/osbo/ondemand/fluid-sim/Assets/Scripts/.torch_inductor_cache/wf/cwf5eupgeahohiubyflhia2kovoaj5tpucgnibvvs3picunidrok.py":33:63)
#loc17 = loc("/orcd/home/002/osbo/ondemand/fluid-sim/Assets/Scripts/.torch_inductor_cache/wf/cwf5eupgeahohiubyflhia2kovoaj5tpucgnibvvs3picunidrok.py":33:58)
#loc18 = loc("/orcd/home/002/osbo/ondemand/fluid-sim/Assets/Scripts/.torch_inductor_cache/wf/cwf5eupgeahohiubyflhia2kovoaj5tpucgnibvvs3picunidrok.py":33:30)
#loc19 = loc("/orcd/home/002/osbo/ondemand/fluid-sim/Assets/Scripts/.torch_inductor_cache/wf/cwf5eupgeahohiubyflhia2kovoaj5tpucgnibvvs3picunidrok.py":33:69)
#loc20 = loc("/home/osbo/.conda/envs/fluid/lib/python3.12/site-packages/triton/language/standard.py":267:36)
#loc21 = loc("/orcd/home/002/osbo/ondemand/fluid-sim/Assets/Scripts/.torch_inductor_cache/wf/cwf5eupgeahohiubyflhia2kovoaj5tpucgnibvvs3picunidrok.py":35:24)
#loc22 = loc("/home/osbo/.conda/envs/fluid/lib/python3.12/site-packages/triton/language/standard.py":256:15)
#loc23 = loc("/orcd/home/002/osbo/ondemand/fluid-sim/Assets/Scripts/.torch_inductor_cache/wf/cwf5eupgeahohiubyflhia2kovoaj5tpucgnibvvs3picunidrok.py":35:27)
#loc24 = loc("/orcd/home/002/osbo/ondemand/fluid-sim/Assets/Scripts/.torch_inductor_cache/wf/cwf5eupgeahohiubyflhia2kovoaj5tpucgnibvvs3picunidrok.py":36:25)
#loc25 = loc("/orcd/home/002/osbo/ondemand/fluid-sim/Assets/Scripts/.torch_inductor_cache/wf/cwf5eupgeahohiubyflhia2kovoaj5tpucgnibvvs3picunidrok.py":36:36)
#loc26 = loc("/orcd/home/002/osbo/ondemand/fluid-sim/Assets/Scripts/.torch_inductor_cache/wf/cwf5eupgeahohiubyflhia2kovoaj5tpucgnibvvs3picunidrok.py":36:4)
#loc27 = loc(callsite(#loc20 at #loc21))
#loc28 = loc(callsite(#loc22 at #loc20))
#loc29 = loc(callsite(#loc28 at #loc21))
