#loc = loc("/orcd/home/002/osbo/ondemand/fluid-sim/Assets/Scripts/.torch_inductor_cache/nl/cnleweevmgo7aqnv72kjynjjpa4vzpeah6sbgso373li6tzppjag.py":18:0)
module {
  tt.func public @triton_(%arg0: !tt.ptr<f32> {tt.divisibility = 16 : i32} loc("/orcd/home/002/osbo/ondemand/fluid-sim/Assets/Scripts/.torch_inductor_cache/nl/cnleweevmgo7aqnv72kjynjjpa4vzpeah6sbgso373li6tzppjag.py":18:0), %arg1: !tt.ptr<f32> {tt.divisibility = 16 : i32} loc("/orcd/home/002/osbo/ondemand/fluid-sim/Assets/Scripts/.torch_inductor_cache/nl/cnleweevmgo7aqnv72kjynjjpa4vzpeah6sbgso373li6tzppjag.py":18:0), %arg2: !tt.ptr<f32> {tt.divisibility = 16 : i32} loc("/orcd/home/002/osbo/ondemand/fluid-sim/Assets/Scripts/.torch_inductor_cache/nl/cnleweevmgo7aqnv72kjynjjpa4vzpeah6sbgso373li6tzppjag.py":18:0), %arg3: i32 {tt.divisibility = 16 : i32} loc("/orcd/home/002/osbo/ondemand/fluid-sim/Assets/Scripts/.torch_inductor_cache/nl/cnleweevmgo7aqnv72kjynjjpa4vzpeah6sbgso373li6tzppjag.py":18:0), %arg4: i32 {tt.divisibility = 16 : i32} loc("/orcd/home/002/osbo/ondemand/fluid-sim/Assets/Scripts/.torch_inductor_cache/nl/cnleweevmgo7aqnv72kjynjjpa4vzpeah6sbgso373li6tzppjag.py":18:0)) attributes {noinline = false} {
    %cst = arith.constant dense<4096> : tensor<1x32xi32> loc(#loc1)
    %cst_0 = arith.constant dense<32768> : tensor<1x32xi32> loc(#loc1)
    %cst_1 = arith.constant dense<8> : tensor<32x1xi32> loc(#loc1)
    %cst_2 = arith.constant dense<8> : tensor<1x32xi32> loc(#loc1)
    %cst_3 = arith.constant dense<256> : tensor<1x32xi32> loc(#loc1)
    %c32_i32 = arith.constant 32 : i32 loc(#loc1)
    %0 = tt.get_program_id y : i32 loc(#loc2)
    %1 = arith.muli %0, %c32_i32 : i32 loc(#loc3)
    %2 = tt.make_range {end = 32 : i32, start = 0 : i32} : tensor<32xi32> loc(#loc4)
    %3 = tt.expand_dims %2 {axis = 0 : i32} : tensor<32xi32> -> tensor<1x32xi32> loc(#loc5)
    %4 = tt.splat %1 : i32 -> tensor<1x32xi32> loc(#loc6)
    %5 = arith.addi %4, %3 : tensor<1x32xi32> loc(#loc6)
    %6 = arith.cmpi slt, %5, %cst_3 : tensor<1x32xi32> loc(#loc7)
    %7 = tt.get_program_id x : i32 loc(#loc8)
    %8 = arith.muli %7, %c32_i32 : i32 loc(#loc9)
    %9 = tt.expand_dims %2 {axis = 1 : i32} : tensor<32xi32> -> tensor<32x1xi32> loc(#loc10)
    %10 = tt.splat %8 : i32 -> tensor<32x1xi32> loc(#loc11)
    %11 = arith.addi %10, %9 : tensor<32x1xi32> loc(#loc11)
    %12 = arith.remsi %5, %cst_2 : tensor<1x32xi32> loc(#loc12)
    %13 = arith.divsi %5, %cst_2 : tensor<1x32xi32> loc(#loc13)
    %14 = arith.muli %11, %cst_1 : tensor<32x1xi32> loc(#loc14)
    %15 = tt.broadcast %12 : tensor<1x32xi32> -> tensor<32x32xi32> loc(#loc15)
    %16 = tt.broadcast %14 : tensor<32x1xi32> -> tensor<32x32xi32> loc(#loc15)
    %17 = arith.addi %15, %16 : tensor<32x32xi32> loc(#loc15)
    %18 = arith.muli %13, %cst_0 : tensor<1x32xi32> loc(#loc16)
    %19 = tt.broadcast %18 : tensor<1x32xi32> -> tensor<32x32xi32> loc(#loc17)
    %20 = arith.addi %17, %19 : tensor<32x32xi32> loc(#loc17)
    %21 = tt.splat %arg0 : !tt.ptr<f32> -> tensor<32x32x!tt.ptr<f32>> loc(#loc18)
    %22 = tt.addptr %21, %20 : tensor<32x32x!tt.ptr<f32>>, tensor<32x32xi32> loc(#loc18)
    %23 = tt.broadcast %6 : tensor<1x32xi1> -> tensor<32x32xi1> loc(#loc19)
    %24 = tt.load %22, %23 evictionPolicy = evict_last : tensor<32x32x!tt.ptr<f32>> loc(#loc19)
    %25 = tt.splat %arg1 : !tt.ptr<f32> -> tensor<1x32x!tt.ptr<f32>> loc(#loc20)
    %26 = tt.addptr %25, %12 : tensor<1x32x!tt.ptr<f32>>, tensor<1x32xi32> loc(#loc20)
    %27 = tt.load %26, %6 evictionPolicy = evict_last : tensor<1x32x!tt.ptr<f32>> loc(#loc21)
    %28 = tt.broadcast %27 : tensor<1x32xf32> -> tensor<32x32xf32> loc(#loc22)
    %29 = arith.addf %24, %28 : tensor<32x32xf32> loc(#loc22)
    %30 = arith.muli %5, %cst : tensor<1x32xi32> loc(#loc23)
    %31 = tt.broadcast %11 : tensor<32x1xi32> -> tensor<32x32xi32> loc(#loc24)
    %32 = tt.broadcast %30 : tensor<1x32xi32> -> tensor<32x32xi32> loc(#loc24)
    %33 = arith.addi %31, %32 : tensor<32x32xi32> loc(#loc24)
    %34 = tt.splat %arg2 : !tt.ptr<f32> -> tensor<32x32x!tt.ptr<f32>> loc(#loc25)
    %35 = tt.addptr %34, %33 : tensor<32x32x!tt.ptr<f32>>, tensor<32x32xi32> loc(#loc25)
    tt.store %35, %29, %23 : tensor<32x32x!tt.ptr<f32>> loc(#loc26)
    tt.return loc(#loc27)
  } loc(#loc)
} loc(#loc)
#loc1 = loc(unknown)
#loc2 = loc("/orcd/home/002/osbo/ondemand/fluid-sim/Assets/Scripts/.torch_inductor_cache/nl/cnleweevmgo7aqnv72kjynjjpa4vzpeah6sbgso373li6tzppjag.py":21:28)
#loc3 = loc("/orcd/home/002/osbo/ondemand/fluid-sim/Assets/Scripts/.torch_inductor_cache/nl/cnleweevmgo7aqnv72kjynjjpa4vzpeah6sbgso373li6tzppjag.py":21:33)
#loc4 = loc("/orcd/home/002/osbo/ondemand/fluid-sim/Assets/Scripts/.torch_inductor_cache/nl/cnleweevmgo7aqnv72kjynjjpa4vzpeah6sbgso373li6tzppjag.py":22:36)
#loc5 = loc("/orcd/home/002/osbo/ondemand/fluid-sim/Assets/Scripts/.torch_inductor_cache/nl/cnleweevmgo7aqnv72kjynjjpa4vzpeah6sbgso373li6tzppjag.py":22:44)
#loc6 = loc("/orcd/home/002/osbo/ondemand/fluid-sim/Assets/Scripts/.torch_inductor_cache/nl/cnleweevmgo7aqnv72kjynjjpa4vzpeah6sbgso373li6tzppjag.py":22:23)
#loc7 = loc("/orcd/home/002/osbo/ondemand/fluid-sim/Assets/Scripts/.torch_inductor_cache/nl/cnleweevmgo7aqnv72kjynjjpa4vzpeah6sbgso373li6tzppjag.py":23:21)
#loc8 = loc("/orcd/home/002/osbo/ondemand/fluid-sim/Assets/Scripts/.torch_inductor_cache/nl/cnleweevmgo7aqnv72kjynjjpa4vzpeah6sbgso373li6tzppjag.py":24:28)
#loc9 = loc("/orcd/home/002/osbo/ondemand/fluid-sim/Assets/Scripts/.torch_inductor_cache/nl/cnleweevmgo7aqnv72kjynjjpa4vzpeah6sbgso373li6tzppjag.py":24:33)
#loc10 = loc("/orcd/home/002/osbo/ondemand/fluid-sim/Assets/Scripts/.torch_inductor_cache/nl/cnleweevmgo7aqnv72kjynjjpa4vzpeah6sbgso373li6tzppjag.py":25:44)
#loc11 = loc("/orcd/home/002/osbo/ondemand/fluid-sim/Assets/Scripts/.torch_inductor_cache/nl/cnleweevmgo7aqnv72kjynjjpa4vzpeah6sbgso373li6tzppjag.py":25:23)
#loc12 = loc("/orcd/home/002/osbo/ondemand/fluid-sim/Assets/Scripts/.torch_inductor_cache/nl/cnleweevmgo7aqnv72kjynjjpa4vzpeah6sbgso373li6tzppjag.py":28:18)
#loc13 = loc("/orcd/home/002/osbo/ondemand/fluid-sim/Assets/Scripts/.torch_inductor_cache/nl/cnleweevmgo7aqnv72kjynjjpa4vzpeah6sbgso373li6tzppjag.py":29:20)
#loc14 = loc("/orcd/home/002/osbo/ondemand/fluid-sim/Assets/Scripts/.torch_inductor_cache/nl/cnleweevmgo7aqnv72kjynjjpa4vzpeah6sbgso373li6tzppjag.py":31:38)
#loc15 = loc("/orcd/home/002/osbo/ondemand/fluid-sim/Assets/Scripts/.torch_inductor_cache/nl/cnleweevmgo7aqnv72kjynjjpa4vzpeah6sbgso373li6tzppjag.py":31:36)
#loc16 = loc("/orcd/home/002/osbo/ondemand/fluid-sim/Assets/Scripts/.torch_inductor_cache/nl/cnleweevmgo7aqnv72kjynjjpa4vzpeah6sbgso373li6tzppjag.py":31:51)
#loc17 = loc("/orcd/home/002/osbo/ondemand/fluid-sim/Assets/Scripts/.torch_inductor_cache/nl/cnleweevmgo7aqnv72kjynjjpa4vzpeah6sbgso373li6tzppjag.py":31:45)
#loc18 = loc("/orcd/home/002/osbo/ondemand/fluid-sim/Assets/Scripts/.torch_inductor_cache/nl/cnleweevmgo7aqnv72kjynjjpa4vzpeah6sbgso373li6tzppjag.py":31:30)
#loc19 = loc("/orcd/home/002/osbo/ondemand/fluid-sim/Assets/Scripts/.torch_inductor_cache/nl/cnleweevmgo7aqnv72kjynjjpa4vzpeah6sbgso373li6tzppjag.py":31:57)
#loc20 = loc("/orcd/home/002/osbo/ondemand/fluid-sim/Assets/Scripts/.torch_inductor_cache/nl/cnleweevmgo7aqnv72kjynjjpa4vzpeah6sbgso373li6tzppjag.py":32:30)
#loc21 = loc("/orcd/home/002/osbo/ondemand/fluid-sim/Assets/Scripts/.torch_inductor_cache/nl/cnleweevmgo7aqnv72kjynjjpa4vzpeah6sbgso373li6tzppjag.py":32:35)
#loc22 = loc("/orcd/home/002/osbo/ondemand/fluid-sim/Assets/Scripts/.torch_inductor_cache/nl/cnleweevmgo7aqnv72kjynjjpa4vzpeah6sbgso373li6tzppjag.py":33:18)
#loc23 = loc("/orcd/home/002/osbo/ondemand/fluid-sim/Assets/Scripts/.torch_inductor_cache/nl/cnleweevmgo7aqnv72kjynjjpa4vzpeah6sbgso373li6tzppjag.py":34:36)
#loc24 = loc("/orcd/home/002/osbo/ondemand/fluid-sim/Assets/Scripts/.torch_inductor_cache/nl/cnleweevmgo7aqnv72kjynjjpa4vzpeah6sbgso373li6tzppjag.py":34:31)
#loc25 = loc("/orcd/home/002/osbo/ondemand/fluid-sim/Assets/Scripts/.torch_inductor_cache/nl/cnleweevmgo7aqnv72kjynjjpa4vzpeah6sbgso373li6tzppjag.py":34:25)
#loc26 = loc("/orcd/home/002/osbo/ondemand/fluid-sim/Assets/Scripts/.torch_inductor_cache/nl/cnleweevmgo7aqnv72kjynjjpa4vzpeah6sbgso373li6tzppjag.py":34:48)
#loc27 = loc("/orcd/home/002/osbo/ondemand/fluid-sim/Assets/Scripts/.torch_inductor_cache/nl/cnleweevmgo7aqnv72kjynjjpa4vzpeah6sbgso373li6tzppjag.py":34:4)
