#loc = loc("/orcd/home/002/osbo/ondemand/fluid-sim/Assets/Scripts/.torch_inductor_cache/2s/c2smxfwtrmykewtws7uf4dvjzmiwjn4mh5hllppsjk6h3mvvqiq6.py":18:0)
module {
  tt.func public @triton_(%arg0: !tt.ptr<f32> {tt.divisibility = 16 : i32} loc("/orcd/home/002/osbo/ondemand/fluid-sim/Assets/Scripts/.torch_inductor_cache/2s/c2smxfwtrmykewtws7uf4dvjzmiwjn4mh5hllppsjk6h3mvvqiq6.py":18:0), %arg1: !tt.ptr<f32> {tt.divisibility = 16 : i32} loc("/orcd/home/002/osbo/ondemand/fluid-sim/Assets/Scripts/.torch_inductor_cache/2s/c2smxfwtrmykewtws7uf4dvjzmiwjn4mh5hllppsjk6h3mvvqiq6.py":18:0), %arg2: !tt.ptr<f32> {tt.divisibility = 16 : i32} loc("/orcd/home/002/osbo/ondemand/fluid-sim/Assets/Scripts/.torch_inductor_cache/2s/c2smxfwtrmykewtws7uf4dvjzmiwjn4mh5hllppsjk6h3mvvqiq6.py":18:0), %arg3: i32 {tt.divisibility = 16 : i32} loc("/orcd/home/002/osbo/ondemand/fluid-sim/Assets/Scripts/.torch_inductor_cache/2s/c2smxfwtrmykewtws7uf4dvjzmiwjn4mh5hllppsjk6h3mvvqiq6.py":18:0)) attributes {noinline = false} {
    %cst = arith.constant dense<55808> : tensor<512xi32> loc(#loc1)
    %cst_0 = arith.constant dense<65536> : tensor<512xi32> loc(#loc1)
    %cst_1 = arith.constant dense<128> : tensor<512xi32> loc(#loc1)
    %cst_2 = arith.constant dense<512> : tensor<512xi32> loc(#loc1)
    %c512_i32 = arith.constant 512 : i32 loc(#loc1)
    %0 = tt.get_program_id x : i32 loc(#loc2)
    %1 = arith.muli %0, %c512_i32 : i32 loc(#loc3)
    %2 = tt.make_range {end = 512 : i32, start = 0 : i32} : tensor<512xi32> loc(#loc4)
    %3 = tt.splat %1 : i32 -> tensor<512xi32> loc(#loc5)
    %4 = arith.addi %3, %2 : tensor<512xi32> loc(#loc5)
    %5 = arith.remsi %4, %cst_2 : tensor<512xi32> loc(#loc6)
    %6 = arith.divsi %4, %cst_2 : tensor<512xi32> loc(#loc7)
    %7 = arith.remsi %6, %cst_1 : tensor<512xi32> loc(#loc8)
    %8 = arith.divsi %4, %cst_0 : tensor<512xi32> loc(#loc9)
    %9 = tt.splat %arg0 : !tt.ptr<f32> -> tensor<512x!tt.ptr<f32>> loc(#loc10)
    %10 = tt.addptr %9, %4 : tensor<512x!tt.ptr<f32>>, tensor<512xi32> loc(#loc10)
    %11 = tt.load %10 : tensor<512x!tt.ptr<f32>> loc(#loc11)
    %12 = tt.splat %arg1 : !tt.ptr<f32> -> tensor<512x!tt.ptr<f32>> loc(#loc12)
    %13 = tt.addptr %12, %4 : tensor<512x!tt.ptr<f32>>, tensor<512xi32> loc(#loc12)
    %14 = tt.load %13 : tensor<512x!tt.ptr<f32>> loc(#loc13)
    %15 = arith.addf %11, %14 : tensor<512xf32> loc(#loc14)
    %16 = arith.muli %8, %cst_2 : tensor<512xi32> loc(#loc15)
    %17 = arith.addi %5, %16 : tensor<512xi32> loc(#loc16)
    %18 = arith.muli %7, %cst : tensor<512xi32> loc(#loc17)
    %19 = arith.addi %17, %18 : tensor<512xi32> loc(#loc18)
    %20 = tt.splat %arg2 : !tt.ptr<f32> -> tensor<512x!tt.ptr<f32>> loc(#loc19)
    %21 = tt.addptr %20, %19 : tensor<512x!tt.ptr<f32>>, tensor<512xi32> loc(#loc19)
    tt.store %21, %15 : tensor<512x!tt.ptr<f32>> loc(#loc20)
    tt.return loc(#loc21)
  } loc(#loc)
} loc(#loc)
#loc1 = loc(unknown)
#loc2 = loc("/orcd/home/002/osbo/ondemand/fluid-sim/Assets/Scripts/.torch_inductor_cache/2s/c2smxfwtrmykewtws7uf4dvjzmiwjn4mh5hllppsjk6h3mvvqiq6.py":20:28)
#loc3 = loc("/orcd/home/002/osbo/ondemand/fluid-sim/Assets/Scripts/.torch_inductor_cache/2s/c2smxfwtrmykewtws7uf4dvjzmiwjn4mh5hllppsjk6h3mvvqiq6.py":20:33)
#loc4 = loc("/orcd/home/002/osbo/ondemand/fluid-sim/Assets/Scripts/.torch_inductor_cache/2s/c2smxfwtrmykewtws7uf4dvjzmiwjn4mh5hllppsjk6h3mvvqiq6.py":21:36)
#loc5 = loc("/orcd/home/002/osbo/ondemand/fluid-sim/Assets/Scripts/.torch_inductor_cache/2s/c2smxfwtrmykewtws7uf4dvjzmiwjn4mh5hllppsjk6h3mvvqiq6.py":21:23)
#loc6 = loc("/orcd/home/002/osbo/ondemand/fluid-sim/Assets/Scripts/.torch_inductor_cache/2s/c2smxfwtrmykewtws7uf4dvjzmiwjn4mh5hllppsjk6h3mvvqiq6.py":24:18)
#loc7 = loc("/orcd/home/002/osbo/ondemand/fluid-sim/Assets/Scripts/.torch_inductor_cache/2s/c2smxfwtrmykewtws7uf4dvjzmiwjn4mh5hllppsjk6h3mvvqiq6.py":25:20)
#loc8 = loc("/orcd/home/002/osbo/ondemand/fluid-sim/Assets/Scripts/.torch_inductor_cache/2s/c2smxfwtrmykewtws7uf4dvjzmiwjn4mh5hllppsjk6h3mvvqiq6.py":25:27)
#loc9 = loc("/orcd/home/002/osbo/ondemand/fluid-sim/Assets/Scripts/.torch_inductor_cache/2s/c2smxfwtrmykewtws7uf4dvjzmiwjn4mh5hllppsjk6h3mvvqiq6.py":26:20)
#loc10 = loc("/orcd/home/002/osbo/ondemand/fluid-sim/Assets/Scripts/.torch_inductor_cache/2s/c2smxfwtrmykewtws7uf4dvjzmiwjn4mh5hllppsjk6h3mvvqiq6.py":27:30)
#loc11 = loc("/orcd/home/002/osbo/ondemand/fluid-sim/Assets/Scripts/.torch_inductor_cache/2s/c2smxfwtrmykewtws7uf4dvjzmiwjn4mh5hllppsjk6h3mvvqiq6.py":27:35)
#loc12 = loc("/orcd/home/002/osbo/ondemand/fluid-sim/Assets/Scripts/.torch_inductor_cache/2s/c2smxfwtrmykewtws7uf4dvjzmiwjn4mh5hllppsjk6h3mvvqiq6.py":28:30)
#loc13 = loc("/orcd/home/002/osbo/ondemand/fluid-sim/Assets/Scripts/.torch_inductor_cache/2s/c2smxfwtrmykewtws7uf4dvjzmiwjn4mh5hllppsjk6h3mvvqiq6.py":28:35)
#loc14 = loc("/orcd/home/002/osbo/ondemand/fluid-sim/Assets/Scripts/.torch_inductor_cache/2s/c2smxfwtrmykewtws7uf4dvjzmiwjn4mh5hllppsjk6h3mvvqiq6.py":29:18)
#loc15 = loc("/orcd/home/002/osbo/ondemand/fluid-sim/Assets/Scripts/.torch_inductor_cache/2s/c2smxfwtrmykewtws7uf4dvjzmiwjn4mh5hllppsjk6h3mvvqiq6.py":30:35)
#loc16 = loc("/orcd/home/002/osbo/ondemand/fluid-sim/Assets/Scripts/.torch_inductor_cache/2s/c2smxfwtrmykewtws7uf4dvjzmiwjn4mh5hllppsjk6h3mvvqiq6.py":30:31)
#loc17 = loc("/orcd/home/002/osbo/ondemand/fluid-sim/Assets/Scripts/.torch_inductor_cache/2s/c2smxfwtrmykewtws7uf4dvjzmiwjn4mh5hllppsjk6h3mvvqiq6.py":30:48)
#loc18 = loc("/orcd/home/002/osbo/ondemand/fluid-sim/Assets/Scripts/.torch_inductor_cache/2s/c2smxfwtrmykewtws7uf4dvjzmiwjn4mh5hllppsjk6h3mvvqiq6.py":30:42)
#loc19 = loc("/orcd/home/002/osbo/ondemand/fluid-sim/Assets/Scripts/.torch_inductor_cache/2s/c2smxfwtrmykewtws7uf4dvjzmiwjn4mh5hllppsjk6h3mvvqiq6.py":30:25)
#loc20 = loc("/orcd/home/002/osbo/ondemand/fluid-sim/Assets/Scripts/.torch_inductor_cache/2s/c2smxfwtrmykewtws7uf4dvjzmiwjn4mh5hllppsjk6h3mvvqiq6.py":30:60)
#loc21 = loc("/orcd/home/002/osbo/ondemand/fluid-sim/Assets/Scripts/.torch_inductor_cache/2s/c2smxfwtrmykewtws7uf4dvjzmiwjn4mh5hllppsjk6h3mvvqiq6.py":30:4)
