#loc = loc("/orcd/home/002/osbo/ondemand/fluid-sim/Assets/Scripts/.torch_inductor_cache/3k/c3koubdajxshkcfs7aprcnjexgk4k2b2tq7o6jo2gpm7x5jcj4pe.py":18:0)
module {
  tt.func public @triton_(%arg0: !tt.ptr<f32> {tt.divisibility = 16 : i32} loc("/orcd/home/002/osbo/ondemand/fluid-sim/Assets/Scripts/.torch_inductor_cache/3k/c3koubdajxshkcfs7aprcnjexgk4k2b2tq7o6jo2gpm7x5jcj4pe.py":18:0), %arg1: !tt.ptr<f32> {tt.divisibility = 16 : i32} loc("/orcd/home/002/osbo/ondemand/fluid-sim/Assets/Scripts/.torch_inductor_cache/3k/c3koubdajxshkcfs7aprcnjexgk4k2b2tq7o6jo2gpm7x5jcj4pe.py":18:0), %arg2: !tt.ptr<f32> {tt.divisibility = 16 : i32} loc("/orcd/home/002/osbo/ondemand/fluid-sim/Assets/Scripts/.torch_inductor_cache/3k/c3koubdajxshkcfs7aprcnjexgk4k2b2tq7o6jo2gpm7x5jcj4pe.py":18:0), %arg3: !tt.ptr<f32> {tt.divisibility = 16 : i32} loc("/orcd/home/002/osbo/ondemand/fluid-sim/Assets/Scripts/.torch_inductor_cache/3k/c3koubdajxshkcfs7aprcnjexgk4k2b2tq7o6jo2gpm7x5jcj4pe.py":18:0), %arg4: !tt.ptr<f32> {tt.divisibility = 16 : i32} loc("/orcd/home/002/osbo/ondemand/fluid-sim/Assets/Scripts/.torch_inductor_cache/3k/c3koubdajxshkcfs7aprcnjexgk4k2b2tq7o6jo2gpm7x5jcj4pe.py":18:0), %arg5: i32 {tt.divisibility = 16 : i32} loc("/orcd/home/002/osbo/ondemand/fluid-sim/Assets/Scripts/.torch_inductor_cache/3k/c3koubdajxshkcfs7aprcnjexgk4k2b2tq7o6jo2gpm7x5jcj4pe.py":18:0), %arg6: i32 loc("/orcd/home/002/osbo/ondemand/fluid-sim/Assets/Scripts/.torch_inductor_cache/3k/c3koubdajxshkcfs7aprcnjexgk4k2b2tq7o6jo2gpm7x5jcj4pe.py":18:0)) attributes {noinline = false} {
    %c64_i32 = arith.constant 64 : i32 loc(#loc1)
    %c4096_i32 = arith.constant 4096 : i32 loc(#loc1)
    %c8_i32 = arith.constant 8 : i32 loc(#loc1)
    %cst = arith.constant dense<0.000000e+00> : tensor<1x256xf32> loc(#loc1)
    %cst_0 = arith.constant dense<8> : tensor<1x256xi32> loc(#loc1)
    %cst_1 = arith.constant dense<64> : tensor<1x256xi32> loc(#loc1)
    %c256_i32 = arith.constant 256 : i32 loc(#loc1)
    %0 = tt.get_program_id y : i32 loc(#loc2)
    %1 = arith.muli %0, %c256_i32 : i32 loc(#loc3)
    %2 = tt.make_range {end = 256 : i32, start = 0 : i32} : tensor<256xi32> loc(#loc4)
    %3 = tt.expand_dims %2 {axis = 0 : i32} : tensor<256xi32> -> tensor<1x256xi32> loc(#loc5)
    %4 = tt.splat %1 : i32 -> tensor<1x256xi32> loc(#loc6)
    %5 = arith.addi %4, %3 : tensor<1x256xi32> loc(#loc6)
    %6 = tt.get_program_id x : i32 loc(#loc7)
    %7 = arith.cmpi slt, %6, %c8_i32 : i32 loc(#loc8)
    %8 = tt.splat %7 : i1 -> tensor<1x1xi1> loc(#loc8)
    %9 = arith.divsi %5, %cst_1 : tensor<1x256xi32> loc(#loc9)
    %10 = arith.muli %6, %c4096_i32 : i32 loc(#loc10)
    %11 = tt.splat %10 : i32 -> tensor<1x256xi32> loc(#loc11)
    %12 = arith.addi %5, %11 : tensor<1x256xi32> loc(#loc11)
    %13 = tt.splat %arg1 : !tt.ptr<f32> -> tensor<1x256x!tt.ptr<f32>> loc(#loc12)
    %14 = tt.addptr %13, %12 : tensor<1x256x!tt.ptr<f32>>, tensor<1x256xi32> loc(#loc12)
    %15 = tt.splat %7 : i1 -> tensor<1x256xi1> loc(#loc13)
    %16 = tt.load %14, %15 evictionPolicy = evict_last : tensor<1x256x!tt.ptr<f32>> loc(#loc13)
    %17 = arith.muli %6, %c64_i32 : i32 loc(#loc14)
    %18 = tt.splat %17 : i32 -> tensor<1x256xi32> loc(#loc15)
    %19 = arith.addi %9, %18 : tensor<1x256xi32> loc(#loc15)
    %20 = tt.splat %arg2 : !tt.ptr<f32> -> tensor<1x256x!tt.ptr<f32>> loc(#loc16)
    %21 = tt.addptr %20, %19 : tensor<1x256x!tt.ptr<f32>>, tensor<1x256xi32> loc(#loc16)
    %22 = tt.load %21, %15 evictionPolicy = evict_last : tensor<1x256x!tt.ptr<f32>> loc(#loc17)
    %23 = tt.splat %arg3 : !tt.ptr<f32> -> tensor<1x256x!tt.ptr<f32>> loc(#loc18)
    %24 = tt.addptr %23, %5 : tensor<1x256x!tt.ptr<f32>>, tensor<1x256xi32> loc(#loc18)
    %25 = tt.load %24 evictionPolicy = evict_last : tensor<1x256x!tt.ptr<f32>> loc(#loc19)
    %26 = arith.muli %5, %cst_0 : tensor<1x256xi32> loc(#loc20)
    %27 = tt.splat %6 : i32 -> tensor<1x256xi32> loc(#loc21)
    %28 = arith.addi %27, %26 : tensor<1x256xi32> loc(#loc21)
    %29 = tt.splat %arg0 : !tt.ptr<f32> -> tensor<1x256x!tt.ptr<f32>> loc(#loc22)
    %30 = tt.addptr %29, %28 : tensor<1x256x!tt.ptr<f32>>, tensor<1x256xi32> loc(#loc22)
    %31 = tt.load %30, %15 evictionPolicy = evict_last : tensor<1x256x!tt.ptr<f32>> loc(#loc23)
    %32 = tt.addptr %arg4, %6 : !tt.ptr<f32>, i32 loc(#loc24)
    %33 = tt.splat %32 : !tt.ptr<f32> -> tensor<1x1x!tt.ptr<f32>> loc(#loc24)
    %34 = tt.load %33, %8 evictionPolicy = evict_last : tensor<1x1x!tt.ptr<f32>> loc(#loc25)
    %35 = arith.divf %16, %22 : tensor<1x256xf32> loc(#loc26)
    %36 = arith.cmpf oeq, %25, %cst : tensor<1x256xf32> loc(#loc27)
    %37 = tt.broadcast %34 : tensor<1x1xf32> -> tensor<1x256xf32> loc(#loc28)
    %38 = arith.addf %31, %37 : tensor<1x256xf32> loc(#loc28)
    %39 = arith.select %36, %cst, %38 : tensor<1x256xi1>, tensor<1x256xf32> loc(#loc29)
    %40 = arith.addf %35, %39 : tensor<1x256xf32> loc(#loc30)
    gpu.barrier loc(#loc31)
    tt.store %30, %40, %15 : tensor<1x256x!tt.ptr<f32>> loc(#loc32)
    tt.return loc(#loc33)
  } loc(#loc)
} loc(#loc)
#loc1 = loc(unknown)
#loc2 = loc("/orcd/home/002/osbo/ondemand/fluid-sim/Assets/Scripts/.torch_inductor_cache/3k/c3koubdajxshkcfs7aprcnjexgk4k2b2tq7o6jo2gpm7x5jcj4pe.py":21:28)
#loc3 = loc("/orcd/home/002/osbo/ondemand/fluid-sim/Assets/Scripts/.torch_inductor_cache/3k/c3koubdajxshkcfs7aprcnjexgk4k2b2tq7o6jo2gpm7x5jcj4pe.py":21:33)
#loc4 = loc("/orcd/home/002/osbo/ondemand/fluid-sim/Assets/Scripts/.torch_inductor_cache/3k/c3koubdajxshkcfs7aprcnjexgk4k2b2tq7o6jo2gpm7x5jcj4pe.py":22:36)
#loc5 = loc("/orcd/home/002/osbo/ondemand/fluid-sim/Assets/Scripts/.torch_inductor_cache/3k/c3koubdajxshkcfs7aprcnjexgk4k2b2tq7o6jo2gpm7x5jcj4pe.py":22:44)
#loc6 = loc("/orcd/home/002/osbo/ondemand/fluid-sim/Assets/Scripts/.torch_inductor_cache/3k/c3koubdajxshkcfs7aprcnjexgk4k2b2tq7o6jo2gpm7x5jcj4pe.py":22:23)
#loc7 = loc("/orcd/home/002/osbo/ondemand/fluid-sim/Assets/Scripts/.torch_inductor_cache/3k/c3koubdajxshkcfs7aprcnjexgk4k2b2tq7o6jo2gpm7x5jcj4pe.py":24:28)
#loc8 = loc("/orcd/home/002/osbo/ondemand/fluid-sim/Assets/Scripts/.torch_inductor_cache/3k/c3koubdajxshkcfs7aprcnjexgk4k2b2tq7o6jo2gpm7x5jcj4pe.py":26:21)
#loc9 = loc("/orcd/home/002/osbo/ondemand/fluid-sim/Assets/Scripts/.torch_inductor_cache/3k/c3koubdajxshkcfs7aprcnjexgk4k2b2tq7o6jo2gpm7x5jcj4pe.py":29:20)
#loc10 = loc("/orcd/home/002/osbo/ondemand/fluid-sim/Assets/Scripts/.torch_inductor_cache/3k/c3koubdajxshkcfs7aprcnjexgk4k2b2tq7o6jo2gpm7x5jcj4pe.py":30:41)
#loc11 = loc("/orcd/home/002/osbo/ondemand/fluid-sim/Assets/Scripts/.torch_inductor_cache/3k/c3koubdajxshkcfs7aprcnjexgk4k2b2tq7o6jo2gpm7x5jcj4pe.py":30:36)
#loc12 = loc("/orcd/home/002/osbo/ondemand/fluid-sim/Assets/Scripts/.torch_inductor_cache/3k/c3koubdajxshkcfs7aprcnjexgk4k2b2tq7o6jo2gpm7x5jcj4pe.py":30:30)
#loc13 = loc("/orcd/home/002/osbo/ondemand/fluid-sim/Assets/Scripts/.torch_inductor_cache/3k/c3koubdajxshkcfs7aprcnjexgk4k2b2tq7o6jo2gpm7x5jcj4pe.py":30:47)
#loc14 = loc("/orcd/home/002/osbo/ondemand/fluid-sim/Assets/Scripts/.torch_inductor_cache/3k/c3koubdajxshkcfs7aprcnjexgk4k2b2tq7o6jo2gpm7x5jcj4pe.py":31:39)
#loc15 = loc("/orcd/home/002/osbo/ondemand/fluid-sim/Assets/Scripts/.torch_inductor_cache/3k/c3koubdajxshkcfs7aprcnjexgk4k2b2tq7o6jo2gpm7x5jcj4pe.py":31:36)
#loc16 = loc("/orcd/home/002/osbo/ondemand/fluid-sim/Assets/Scripts/.torch_inductor_cache/3k/c3koubdajxshkcfs7aprcnjexgk4k2b2tq7o6jo2gpm7x5jcj4pe.py":31:30)
#loc17 = loc("/orcd/home/002/osbo/ondemand/fluid-sim/Assets/Scripts/.torch_inductor_cache/3k/c3koubdajxshkcfs7aprcnjexgk4k2b2tq7o6jo2gpm7x5jcj4pe.py":31:45)
#loc18 = loc("/orcd/home/002/osbo/ondemand/fluid-sim/Assets/Scripts/.torch_inductor_cache/3k/c3koubdajxshkcfs7aprcnjexgk4k2b2tq7o6jo2gpm7x5jcj4pe.py":32:30)
#loc19 = loc("/orcd/home/002/osbo/ondemand/fluid-sim/Assets/Scripts/.torch_inductor_cache/3k/c3koubdajxshkcfs7aprcnjexgk4k2b2tq7o6jo2gpm7x5jcj4pe.py":32:35)
#loc20 = loc("/orcd/home/002/osbo/ondemand/fluid-sim/Assets/Scripts/.torch_inductor_cache/3k/c3koubdajxshkcfs7aprcnjexgk4k2b2tq7o6jo2gpm7x5jcj4pe.py":33:42)
#loc21 = loc("/orcd/home/002/osbo/ondemand/fluid-sim/Assets/Scripts/.torch_inductor_cache/3k/c3koubdajxshkcfs7aprcnjexgk4k2b2tq7o6jo2gpm7x5jcj4pe.py":33:40)
#loc22 = loc("/orcd/home/002/osbo/ondemand/fluid-sim/Assets/Scripts/.torch_inductor_cache/3k/c3koubdajxshkcfs7aprcnjexgk4k2b2tq7o6jo2gpm7x5jcj4pe.py":33:34)
#loc23 = loc("/orcd/home/002/osbo/ondemand/fluid-sim/Assets/Scripts/.torch_inductor_cache/3k/c3koubdajxshkcfs7aprcnjexgk4k2b2tq7o6jo2gpm7x5jcj4pe.py":33:48)
#loc24 = loc("/orcd/home/002/osbo/ondemand/fluid-sim/Assets/Scripts/.torch_inductor_cache/3k/c3koubdajxshkcfs7aprcnjexgk4k2b2tq7o6jo2gpm7x5jcj4pe.py":34:30)
#loc25 = loc("/orcd/home/002/osbo/ondemand/fluid-sim/Assets/Scripts/.torch_inductor_cache/3k/c3koubdajxshkcfs7aprcnjexgk4k2b2tq7o6jo2gpm7x5jcj4pe.py":34:35)
#loc26 = loc("/orcd/home/002/osbo/ondemand/fluid-sim/Assets/Scripts/.torch_inductor_cache/3k/c3koubdajxshkcfs7aprcnjexgk4k2b2tq7o6jo2gpm7x5jcj4pe.py":35:18)
#loc27 = loc("/orcd/home/002/osbo/ondemand/fluid-sim/Assets/Scripts/.torch_inductor_cache/3k/c3koubdajxshkcfs7aprcnjexgk4k2b2tq7o6jo2gpm7x5jcj4pe.py":37:19)
#loc28 = loc("/orcd/home/002/osbo/ondemand/fluid-sim/Assets/Scripts/.torch_inductor_cache/3k/c3koubdajxshkcfs7aprcnjexgk4k2b2tq7o6jo2gpm7x5jcj4pe.py":38:18)
#loc29 = loc("/orcd/home/002/osbo/ondemand/fluid-sim/Assets/Scripts/.torch_inductor_cache/3k/c3koubdajxshkcfs7aprcnjexgk4k2b2tq7o6jo2gpm7x5jcj4pe.py":39:32)
#loc30 = loc("/orcd/home/002/osbo/ondemand/fluid-sim/Assets/Scripts/.torch_inductor_cache/3k/c3koubdajxshkcfs7aprcnjexgk4k2b2tq7o6jo2gpm7x5jcj4pe.py":40:19)
#loc31 = loc("/orcd/home/002/osbo/ondemand/fluid-sim/Assets/Scripts/.torch_inductor_cache/3k/c3koubdajxshkcfs7aprcnjexgk4k2b2tq7o6jo2gpm7x5jcj4pe.py":41:4)
#loc32 = loc("/orcd/home/002/osbo/ondemand/fluid-sim/Assets/Scripts/.torch_inductor_cache/3k/c3koubdajxshkcfs7aprcnjexgk4k2b2tq7o6jo2gpm7x5jcj4pe.py":42:49)
#loc33 = loc("/orcd/home/002/osbo/ondemand/fluid-sim/Assets/Scripts/.torch_inductor_cache/3k/c3koubdajxshkcfs7aprcnjexgk4k2b2tq7o6jo2gpm7x5jcj4pe.py":42:4)
