#loc = loc("/orcd/home/002/osbo/ondemand/fluid-sim/Assets/Scripts/.torch_inductor_cache/uc/cucve2mxteh2fn5o6m6nkkxzkud5s5tzdrwy3lxrnioqi3rxqv2s.py":18:0)
#loc1 = loc(unknown)
module {
  tt.func public @triton_(%arg0: !tt.ptr<f32> {tt.divisibility = 16 : i32} loc("/orcd/home/002/osbo/ondemand/fluid-sim/Assets/Scripts/.torch_inductor_cache/uc/cucve2mxteh2fn5o6m6nkkxzkud5s5tzdrwy3lxrnioqi3rxqv2s.py":18:0), %arg1: !tt.ptr<f32> {tt.divisibility = 16 : i32} loc("/orcd/home/002/osbo/ondemand/fluid-sim/Assets/Scripts/.torch_inductor_cache/uc/cucve2mxteh2fn5o6m6nkkxzkud5s5tzdrwy3lxrnioqi3rxqv2s.py":18:0), %arg2: i32 {tt.divisibility = 16 : i32} loc("/orcd/home/002/osbo/ondemand/fluid-sim/Assets/Scripts/.torch_inductor_cache/uc/cucve2mxteh2fn5o6m6nkkxzkud5s5tzdrwy3lxrnioqi3rxqv2s.py":18:0), %arg3: i32 loc("/orcd/home/002/osbo/ondemand/fluid-sim/Assets/Scripts/.torch_inductor_cache/uc/cucve2mxteh2fn5o6m6nkkxzkud5s5tzdrwy3lxrnioqi3rxqv2s.py":18:0)) attributes {noinline = false} {
    %cst = arith.constant dense<0.000000e+00> : tensor<8x64xf32> loc(#loc1)
    %cst_0 = arith.constant dense<8448> : tensor<8x1xi32> loc(#loc1)
    %cst_1 = arith.constant dense<1056> : tensor<8x1xi32> loc(#loc1)
    %cst_2 = arith.constant dense<33> : tensor<8x1xi32> loc(#loc1)
    %cst_3 = arith.constant dense<256> : tensor<8x1xi32> loc(#loc1)
    %cst_4 = arith.constant dense<32> : tensor<8x1xi32> loc(#loc1)
    %cst_5 = arith.constant dense<8> : tensor<8x1xi32> loc(#loc1)
    %cst_6 = arith.constant dense<33> : tensor<1x64xi32> loc(#loc1)
    %cst_7 = arith.constant dense<59904> : tensor<8x1xi32> loc(#loc1)
    %c8_i32 = arith.constant 8 : i32 loc(#loc1)
    %0 = tt.get_program_id x : i32 loc(#loc2)
    %1 = arith.muli %0, %c8_i32 : i32 loc(#loc3)
    %2 = tt.make_range {end = 8 : i32, start = 0 : i32} : tensor<8xi32> loc(#loc4)
    %3 = tt.expand_dims %2 {axis = 1 : i32} : tensor<8xi32> -> tensor<8x1xi32> loc(#loc5)
    %4 = tt.splat %1 : i32 -> tensor<8x1xi32> loc(#loc6)
    %5 = arith.addi %4, %3 : tensor<8x1xi32> loc(#loc6)
    %6 = arith.cmpi slt, %5, %cst_7 : tensor<8x1xi32> loc(#loc7)
    %7 = tt.make_range {end = 64 : i32, start = 0 : i32} : tensor<64xi32> loc(#loc8)
    %8 = tt.expand_dims %7 {axis = 0 : i32} : tensor<64xi32> -> tensor<1x64xi32> loc(#loc9)
    %9 = arith.cmpi slt, %8, %cst_6 : tensor<1x64xi32> loc(#loc10)
    %10 = arith.remsi %5, %cst_5 : tensor<8x1xi32> loc(#loc11)
    %11 = arith.divsi %5, %cst_5 : tensor<8x1xi32> loc(#loc12)
    %12 = arith.remsi %11, %cst_4 : tensor<8x1xi32> loc(#loc13)
    %13 = arith.divsi %5, %cst_3 : tensor<8x1xi32> loc(#loc14)
    %14 = arith.muli %12, %cst_2 : tensor<8x1xi32> loc(#loc15)
    %15 = tt.broadcast %8 : tensor<1x64xi32> -> tensor<8x64xi32> loc(#loc16)
    %16 = tt.broadcast %14 : tensor<8x1xi32> -> tensor<8x64xi32> loc(#loc16)
    %17 = arith.addi %15, %16 : tensor<8x64xi32> loc(#loc16)
    %18 = arith.muli %10, %cst_1 : tensor<8x1xi32> loc(#loc17)
    %19 = tt.broadcast %18 : tensor<8x1xi32> -> tensor<8x64xi32> loc(#loc18)
    %20 = arith.addi %17, %19 : tensor<8x64xi32> loc(#loc18)
    %21 = arith.muli %13, %cst_0 : tensor<8x1xi32> loc(#loc19)
    %22 = tt.broadcast %21 : tensor<8x1xi32> -> tensor<8x64xi32> loc(#loc20)
    %23 = arith.addi %20, %22 : tensor<8x64xi32> loc(#loc20)
    %24 = tt.splat %arg0 : !tt.ptr<f32> -> tensor<8x64x!tt.ptr<f32>> loc(#loc21)
    %25 = tt.addptr %24, %23 : tensor<8x64x!tt.ptr<f32>>, tensor<8x64xi32> loc(#loc21)
    %26 = tt.broadcast %9 : tensor<1x64xi1> -> tensor<8x64xi1> loc(#loc22)
    %27 = tt.broadcast %6 : tensor<8x1xi1> -> tensor<8x64xi1> loc(#loc22)
    %28 = arith.andi %26, %27 : tensor<8x64xi1> loc(#loc22)
    %29 = tt.load %25, %28, %cst : tensor<8x64x!tt.ptr<f32>> loc(#loc23)
    %30 = arith.select %28, %29, %cst : tensor<8x64xi1>, tensor<8x64xf32> loc(#loc24)
    %31 = "tt.reduce"(%30) <{axis = 1 : i32}> ({
    ^bb0(%arg4: f32 loc(unknown), %arg5: f32 loc(unknown)):
      %35 = arith.addf %arg4, %arg5 : f32 loc(#loc34)
      tt.reduce.return %35 : f32 loc(#loc32)
    }) : (tensor<8x64xf32>) -> tensor<8xf32> loc(#loc32)
    %32 = tt.expand_dims %31 {axis = 1 : i32} : tensor<8xf32> -> tensor<8x1xf32> loc(#loc28)
    %33 = tt.splat %arg1 : !tt.ptr<f32> -> tensor<8x1x!tt.ptr<f32>> loc(#loc29)
    %34 = tt.addptr %33, %5 : tensor<8x1x!tt.ptr<f32>>, tensor<8x1xi32> loc(#loc29)
    tt.store %34, %32, %6 : tensor<8x1x!tt.ptr<f32>> loc(#loc30)
    tt.return loc(#loc31)
  } loc(#loc)
} loc(#loc)
#loc2 = loc("/orcd/home/002/osbo/ondemand/fluid-sim/Assets/Scripts/.torch_inductor_cache/uc/cucve2mxteh2fn5o6m6nkkxzkud5s5tzdrwy3lxrnioqi3rxqv2s.py":22:28)
#loc3 = loc("/orcd/home/002/osbo/ondemand/fluid-sim/Assets/Scripts/.torch_inductor_cache/uc/cucve2mxteh2fn5o6m6nkkxzkud5s5tzdrwy3lxrnioqi3rxqv2s.py":22:33)
#loc4 = loc("/orcd/home/002/osbo/ondemand/fluid-sim/Assets/Scripts/.torch_inductor_cache/uc/cucve2mxteh2fn5o6m6nkkxzkud5s5tzdrwy3lxrnioqi3rxqv2s.py":23:36)
#loc5 = loc("/orcd/home/002/osbo/ondemand/fluid-sim/Assets/Scripts/.torch_inductor_cache/uc/cucve2mxteh2fn5o6m6nkkxzkud5s5tzdrwy3lxrnioqi3rxqv2s.py":23:44)
#loc6 = loc("/orcd/home/002/osbo/ondemand/fluid-sim/Assets/Scripts/.torch_inductor_cache/uc/cucve2mxteh2fn5o6m6nkkxzkud5s5tzdrwy3lxrnioqi3rxqv2s.py":23:23)
#loc7 = loc("/orcd/home/002/osbo/ondemand/fluid-sim/Assets/Scripts/.torch_inductor_cache/uc/cucve2mxteh2fn5o6m6nkkxzkud5s5tzdrwy3lxrnioqi3rxqv2s.py":24:21)
#loc8 = loc("/orcd/home/002/osbo/ondemand/fluid-sim/Assets/Scripts/.torch_inductor_cache/uc/cucve2mxteh2fn5o6m6nkkxzkud5s5tzdrwy3lxrnioqi3rxqv2s.py":25:26)
#loc9 = loc("/orcd/home/002/osbo/ondemand/fluid-sim/Assets/Scripts/.torch_inductor_cache/uc/cucve2mxteh2fn5o6m6nkkxzkud5s5tzdrwy3lxrnioqi3rxqv2s.py":25:34)
#loc10 = loc("/orcd/home/002/osbo/ondemand/fluid-sim/Assets/Scripts/.torch_inductor_cache/uc/cucve2mxteh2fn5o6m6nkkxzkud5s5tzdrwy3lxrnioqi3rxqv2s.py":27:21)
#loc11 = loc("/orcd/home/002/osbo/ondemand/fluid-sim/Assets/Scripts/.torch_inductor_cache/uc/cucve2mxteh2fn5o6m6nkkxzkud5s5tzdrwy3lxrnioqi3rxqv2s.py":29:18)
#loc12 = loc("/orcd/home/002/osbo/ondemand/fluid-sim/Assets/Scripts/.torch_inductor_cache/uc/cucve2mxteh2fn5o6m6nkkxzkud5s5tzdrwy3lxrnioqi3rxqv2s.py":30:20)
#loc13 = loc("/orcd/home/002/osbo/ondemand/fluid-sim/Assets/Scripts/.torch_inductor_cache/uc/cucve2mxteh2fn5o6m6nkkxzkud5s5tzdrwy3lxrnioqi3rxqv2s.py":30:25)
#loc14 = loc("/orcd/home/002/osbo/ondemand/fluid-sim/Assets/Scripts/.torch_inductor_cache/uc/cucve2mxteh2fn5o6m6nkkxzkud5s5tzdrwy3lxrnioqi3rxqv2s.py":31:20)
#loc15 = loc("/orcd/home/002/osbo/ondemand/fluid-sim/Assets/Scripts/.torch_inductor_cache/uc/cucve2mxteh2fn5o6m6nkkxzkud5s5tzdrwy3lxrnioqi3rxqv2s.py":33:39)
#loc16 = loc("/orcd/home/002/osbo/ondemand/fluid-sim/Assets/Scripts/.torch_inductor_cache/uc/cucve2mxteh2fn5o6m6nkkxzkud5s5tzdrwy3lxrnioqi3rxqv2s.py":33:36)
#loc17 = loc("/orcd/home/002/osbo/ondemand/fluid-sim/Assets/Scripts/.torch_inductor_cache/uc/cucve2mxteh2fn5o6m6nkkxzkud5s5tzdrwy3lxrnioqi3rxqv2s.py":33:51)
#loc18 = loc("/orcd/home/002/osbo/ondemand/fluid-sim/Assets/Scripts/.torch_inductor_cache/uc/cucve2mxteh2fn5o6m6nkkxzkud5s5tzdrwy3lxrnioqi3rxqv2s.py":33:46)
#loc19 = loc("/orcd/home/002/osbo/ondemand/fluid-sim/Assets/Scripts/.torch_inductor_cache/uc/cucve2mxteh2fn5o6m6nkkxzkud5s5tzdrwy3lxrnioqi3rxqv2s.py":33:63)
#loc20 = loc("/orcd/home/002/osbo/ondemand/fluid-sim/Assets/Scripts/.torch_inductor_cache/uc/cucve2mxteh2fn5o6m6nkkxzkud5s5tzdrwy3lxrnioqi3rxqv2s.py":33:58)
#loc21 = loc("/orcd/home/002/osbo/ondemand/fluid-sim/Assets/Scripts/.torch_inductor_cache/uc/cucve2mxteh2fn5o6m6nkkxzkud5s5tzdrwy3lxrnioqi3rxqv2s.py":33:30)
#loc22 = loc("/orcd/home/002/osbo/ondemand/fluid-sim/Assets/Scripts/.torch_inductor_cache/uc/cucve2mxteh2fn5o6m6nkkxzkud5s5tzdrwy3lxrnioqi3rxqv2s.py":33:77)
#loc23 = loc("/orcd/home/002/osbo/ondemand/fluid-sim/Assets/Scripts/.torch_inductor_cache/uc/cucve2mxteh2fn5o6m6nkkxzkud5s5tzdrwy3lxrnioqi3rxqv2s.py":33:69)
#loc24 = loc("/orcd/home/002/osbo/ondemand/fluid-sim/Assets/Scripts/.torch_inductor_cache/uc/cucve2mxteh2fn5o6m6nkkxzkud5s5tzdrwy3lxrnioqi3rxqv2s.py":35:41)
#loc25 = loc("/home/osbo/.conda/envs/fluid/lib/python3.12/site-packages/triton/language/standard.py":267:36)
#loc26 = loc("/orcd/home/002/osbo/ondemand/fluid-sim/Assets/Scripts/.torch_inductor_cache/uc/cucve2mxteh2fn5o6m6nkkxzkud5s5tzdrwy3lxrnioqi3rxqv2s.py":36:24)
#loc27 = loc("/home/osbo/.conda/envs/fluid/lib/python3.12/site-packages/triton/language/standard.py":256:15)
#loc28 = loc("/orcd/home/002/osbo/ondemand/fluid-sim/Assets/Scripts/.torch_inductor_cache/uc/cucve2mxteh2fn5o6m6nkkxzkud5s5tzdrwy3lxrnioqi3rxqv2s.py":36:27)
#loc29 = loc("/orcd/home/002/osbo/ondemand/fluid-sim/Assets/Scripts/.torch_inductor_cache/uc/cucve2mxteh2fn5o6m6nkkxzkud5s5tzdrwy3lxrnioqi3rxqv2s.py":37:25)
#loc30 = loc("/orcd/home/002/osbo/ondemand/fluid-sim/Assets/Scripts/.torch_inductor_cache/uc/cucve2mxteh2fn5o6m6nkkxzkud5s5tzdrwy3lxrnioqi3rxqv2s.py":37:36)
#loc31 = loc("/orcd/home/002/osbo/ondemand/fluid-sim/Assets/Scripts/.torch_inductor_cache/uc/cucve2mxteh2fn5o6m6nkkxzkud5s5tzdrwy3lxrnioqi3rxqv2s.py":37:4)
#loc32 = loc(callsite(#loc25 at #loc26))
#loc33 = loc(callsite(#loc27 at #loc25))
#loc34 = loc(callsite(#loc33 at #loc26))
