#loc = loc("/orcd/home/002/osbo/ondemand/fluid-sim/Assets/Scripts/.torch_inductor_cache/4o/c4oaur7qh6zx2zpstv7zp25s72v466jyldsuw5g7r427lzggo42a.py":18:0)
#loc1 = loc(unknown)
module {
  tt.func public @triton_(%arg0: !tt.ptr<f32> {tt.divisibility = 16 : i32} loc("/orcd/home/002/osbo/ondemand/fluid-sim/Assets/Scripts/.torch_inductor_cache/4o/c4oaur7qh6zx2zpstv7zp25s72v466jyldsuw5g7r427lzggo42a.py":18:0), %arg1: !tt.ptr<f32> {tt.divisibility = 16 : i32} loc("/orcd/home/002/osbo/ondemand/fluid-sim/Assets/Scripts/.torch_inductor_cache/4o/c4oaur7qh6zx2zpstv7zp25s72v466jyldsuw5g7r427lzggo42a.py":18:0), %arg2: i32 {tt.divisibility = 16 : i32} loc("/orcd/home/002/osbo/ondemand/fluid-sim/Assets/Scripts/.torch_inductor_cache/4o/c4oaur7qh6zx2zpstv7zp25s72v466jyldsuw5g7r427lzggo42a.py":18:0), %arg3: i32 {tt.divisibility = 16 : i32} loc("/orcd/home/002/osbo/ondemand/fluid-sim/Assets/Scripts/.torch_inductor_cache/4o/c4oaur7qh6zx2zpstv7zp25s72v466jyldsuw5g7r427lzggo42a.py":18:0)) attributes {noinline = false} {
    %c16896_i32 = arith.constant 16896 : i32 loc(#loc1)
    %c16384_i32 = arith.constant 16384 : i32 loc(#loc1)
    %c512_i32 = arith.constant 512 : i32 loc(#loc1)
    %c55808_i32 = arith.constant 55808 : i32 loc(#loc1)
    %cst = arith.constant dense<3.200000e+01> : tensor<1x1xf32> loc(#loc1)
    %cst_0 = arith.constant dense<0.000000e+00> : tensor<1x32xf32> loc(#loc1)
    %cst_1 = arith.constant dense<512> : tensor<1x32xi32> loc(#loc1)
    %0 = tt.get_program_id x : i32 loc(#loc2)
    %1 = arith.cmpi slt, %0, %c55808_i32 : i32 loc(#loc3)
    %2 = tt.splat %1 : i1 -> tensor<1x1xi1> loc(#loc3)
    %3 = tt.make_range {end = 32 : i32, start = 0 : i32} : tensor<32xi32> loc(#loc4)
    %4 = tt.expand_dims %3 {axis = 0 : i32} : tensor<32xi32> -> tensor<1x32xi32> loc(#loc5)
    %5 = arith.remsi %0, %c512_i32 : i32 loc(#loc6)
    %6 = arith.divsi %0, %c512_i32 : i32 loc(#loc7)
    %7 = arith.muli %4, %cst_1 : tensor<1x32xi32> loc(#loc8)
    %8 = tt.splat %5 : i32 -> tensor<1x32xi32> loc(#loc9)
    %9 = arith.addi %8, %7 : tensor<1x32xi32> loc(#loc9)
    %10 = arith.muli %6, %c16384_i32 : i32 loc(#loc10)
    %11 = tt.splat %10 : i32 -> tensor<1x32xi32> loc(#loc11)
    %12 = arith.addi %9, %11 : tensor<1x32xi32> loc(#loc11)
    %13 = tt.splat %arg0 : !tt.ptr<f32> -> tensor<1x32x!tt.ptr<f32>> loc(#loc12)
    %14 = tt.addptr %13, %12 : tensor<1x32x!tt.ptr<f32>>, tensor<1x32xi32> loc(#loc12)
    %15 = tt.splat %1 : i1 -> tensor<1x32xi1> loc(#loc13)
    %16 = tt.load %14, %15, %cst_0 : tensor<1x32x!tt.ptr<f32>> loc(#loc13)
    %17 = arith.select %15, %16, %cst_0 : tensor<1x32xi1>, tensor<1x32xf32> loc(#loc14)
    %18 = "tt.reduce"(%17) <{axis = 1 : i32}> ({
    ^bb0(%arg4: f32 loc(unknown), %arg5: f32 loc(unknown)):
      %25 = arith.addf %arg4, %arg5 : f32 loc(#loc27)
      tt.reduce.return %25 : f32 loc(#loc25)
    }) : (tensor<1x32xf32>) -> tensor<1xf32> loc(#loc25)
    %19 = tt.expand_dims %18 {axis = 1 : i32} : tensor<1xf32> -> tensor<1x1xf32> loc(#loc18)
    %20 = arith.divf %19, %cst : tensor<1x1xf32> loc(#loc19)
    %21 = arith.muli %6, %c16896_i32 : i32 loc(#loc20)
    %22 = arith.addi %5, %21 : i32 loc(#loc21)
    %23 = tt.addptr %arg1, %22 : !tt.ptr<f32>, i32 loc(#loc22)
    %24 = tt.splat %23 : !tt.ptr<f32> -> tensor<1x1x!tt.ptr<f32>> loc(#loc22)
    tt.store %24, %20, %2 : tensor<1x1x!tt.ptr<f32>> loc(#loc23)
    tt.return loc(#loc24)
  } loc(#loc)
} loc(#loc)
#loc2 = loc("/orcd/home/002/osbo/ondemand/fluid-sim/Assets/Scripts/.torch_inductor_cache/4o/c4oaur7qh6zx2zpstv7zp25s72v466jyldsuw5g7r427lzggo42a.py":22:28)
#loc3 = loc("/orcd/home/002/osbo/ondemand/fluid-sim/Assets/Scripts/.torch_inductor_cache/4o/c4oaur7qh6zx2zpstv7zp25s72v466jyldsuw5g7r427lzggo42a.py":24:21)
#loc4 = loc("/orcd/home/002/osbo/ondemand/fluid-sim/Assets/Scripts/.torch_inductor_cache/4o/c4oaur7qh6zx2zpstv7zp25s72v466jyldsuw5g7r427lzggo42a.py":25:26)
#loc5 = loc("/orcd/home/002/osbo/ondemand/fluid-sim/Assets/Scripts/.torch_inductor_cache/4o/c4oaur7qh6zx2zpstv7zp25s72v466jyldsuw5g7r427lzggo42a.py":25:34)
#loc6 = loc("/orcd/home/002/osbo/ondemand/fluid-sim/Assets/Scripts/.torch_inductor_cache/4o/c4oaur7qh6zx2zpstv7zp25s72v466jyldsuw5g7r427lzggo42a.py":29:18)
#loc7 = loc("/orcd/home/002/osbo/ondemand/fluid-sim/Assets/Scripts/.torch_inductor_cache/4o/c4oaur7qh6zx2zpstv7zp25s72v466jyldsuw5g7r427lzggo42a.py":30:20)
#loc8 = loc("/orcd/home/002/osbo/ondemand/fluid-sim/Assets/Scripts/.torch_inductor_cache/4o/c4oaur7qh6zx2zpstv7zp25s72v466jyldsuw5g7r427lzggo42a.py":32:40)
#loc9 = loc("/orcd/home/002/osbo/ondemand/fluid-sim/Assets/Scripts/.torch_inductor_cache/4o/c4oaur7qh6zx2zpstv7zp25s72v466jyldsuw5g7r427lzggo42a.py":32:36)
#loc10 = loc("/orcd/home/002/osbo/ondemand/fluid-sim/Assets/Scripts/.torch_inductor_cache/4o/c4oaur7qh6zx2zpstv7zp25s72v466jyldsuw5g7r427lzggo42a.py":32:53)
#loc11 = loc("/orcd/home/002/osbo/ondemand/fluid-sim/Assets/Scripts/.torch_inductor_cache/4o/c4oaur7qh6zx2zpstv7zp25s72v466jyldsuw5g7r427lzggo42a.py":32:47)
#loc12 = loc("/orcd/home/002/osbo/ondemand/fluid-sim/Assets/Scripts/.torch_inductor_cache/4o/c4oaur7qh6zx2zpstv7zp25s72v466jyldsuw5g7r427lzggo42a.py":32:30)
#loc13 = loc("/orcd/home/002/osbo/ondemand/fluid-sim/Assets/Scripts/.torch_inductor_cache/4o/c4oaur7qh6zx2zpstv7zp25s72v466jyldsuw5g7r427lzggo42a.py":32:59)
#loc14 = loc("/orcd/home/002/osbo/ondemand/fluid-sim/Assets/Scripts/.torch_inductor_cache/4o/c4oaur7qh6zx2zpstv7zp25s72v466jyldsuw5g7r427lzggo42a.py":34:33)
#loc15 = loc("/home/osbo/.conda/envs/fluid/lib/python3.12/site-packages/triton/language/standard.py":267:36)
#loc16 = loc("/orcd/home/002/osbo/ondemand/fluid-sim/Assets/Scripts/.torch_inductor_cache/4o/c4oaur7qh6zx2zpstv7zp25s72v466jyldsuw5g7r427lzggo42a.py":35:24)
#loc17 = loc("/home/osbo/.conda/envs/fluid/lib/python3.12/site-packages/triton/language/standard.py":256:15)
#loc18 = loc("/orcd/home/002/osbo/ondemand/fluid-sim/Assets/Scripts/.torch_inductor_cache/4o/c4oaur7qh6zx2zpstv7zp25s72v466jyldsuw5g7r427lzggo42a.py":35:27)
#loc19 = loc("/orcd/home/002/osbo/ondemand/fluid-sim/Assets/Scripts/.torch_inductor_cache/4o/c4oaur7qh6zx2zpstv7zp25s72v466jyldsuw5g7r427lzggo42a.py":37:18)
#loc20 = loc("/orcd/home/002/osbo/ondemand/fluid-sim/Assets/Scripts/.torch_inductor_cache/4o/c4oaur7qh6zx2zpstv7zp25s72v466jyldsuw5g7r427lzggo42a.py":38:37)
#loc21 = loc("/orcd/home/002/osbo/ondemand/fluid-sim/Assets/Scripts/.torch_inductor_cache/4o/c4oaur7qh6zx2zpstv7zp25s72v466jyldsuw5g7r427lzggo42a.py":38:31)
#loc22 = loc("/orcd/home/002/osbo/ondemand/fluid-sim/Assets/Scripts/.torch_inductor_cache/4o/c4oaur7qh6zx2zpstv7zp25s72v466jyldsuw5g7r427lzggo42a.py":38:25)
#loc23 = loc("/orcd/home/002/osbo/ondemand/fluid-sim/Assets/Scripts/.torch_inductor_cache/4o/c4oaur7qh6zx2zpstv7zp25s72v466jyldsuw5g7r427lzggo42a.py":38:49)
#loc24 = loc("/orcd/home/002/osbo/ondemand/fluid-sim/Assets/Scripts/.torch_inductor_cache/4o/c4oaur7qh6zx2zpstv7zp25s72v466jyldsuw5g7r427lzggo42a.py":38:4)
#loc25 = loc(callsite(#loc15 at #loc16))
#loc26 = loc(callsite(#loc17 at #loc15))
#loc27 = loc(callsite(#loc26 at #loc16))
