#loc = loc("/orcd/home/002/osbo/ondemand/fluid-sim/Assets/Scripts/.torch_inductor_cache/6u/c6ub4i7nsrzxyov43hylzx4ju2dogfq3qkdiffpw6yds453jcwac.py":18:0)
module {
  tt.func public @triton_(%arg0: !tt.ptr<f32> {tt.divisibility = 16 : i32} loc("/orcd/home/002/osbo/ondemand/fluid-sim/Assets/Scripts/.torch_inductor_cache/6u/c6ub4i7nsrzxyov43hylzx4ju2dogfq3qkdiffpw6yds453jcwac.py":18:0), %arg1: !tt.ptr<f32> {tt.divisibility = 16 : i32} loc("/orcd/home/002/osbo/ondemand/fluid-sim/Assets/Scripts/.torch_inductor_cache/6u/c6ub4i7nsrzxyov43hylzx4ju2dogfq3qkdiffpw6yds453jcwac.py":18:0), %arg2: !tt.ptr<f32> {tt.divisibility = 16 : i32} loc("/orcd/home/002/osbo/ondemand/fluid-sim/Assets/Scripts/.torch_inductor_cache/6u/c6ub4i7nsrzxyov43hylzx4ju2dogfq3qkdiffpw6yds453jcwac.py":18:0), %arg3: !tt.ptr<f32> {tt.divisibility = 16 : i32} loc("/orcd/home/002/osbo/ondemand/fluid-sim/Assets/Scripts/.torch_inductor_cache/6u/c6ub4i7nsrzxyov43hylzx4ju2dogfq3qkdiffpw6yds453jcwac.py":18:0), %arg4: !tt.ptr<f32> {tt.divisibility = 16 : i32} loc("/orcd/home/002/osbo/ondemand/fluid-sim/Assets/Scripts/.torch_inductor_cache/6u/c6ub4i7nsrzxyov43hylzx4ju2dogfq3qkdiffpw6yds453jcwac.py":18:0), %arg5: i32 {tt.divisibility = 16 : i32} loc("/orcd/home/002/osbo/ondemand/fluid-sim/Assets/Scripts/.torch_inductor_cache/6u/c6ub4i7nsrzxyov43hylzx4ju2dogfq3qkdiffpw6yds453jcwac.py":18:0)) attributes {noinline = false} {
    %cst = arith.constant dense<55808> : tensor<512xi32> loc(#loc1)
    %cst_0 = arith.constant dense<16384> : tensor<512xi32> loc(#loc1)
    %cst_1 = arith.constant dense<32> : tensor<512xi32> loc(#loc1)
    %cst_2 = arith.constant dense<512> : tensor<512xi32> loc(#loc1)
    %c512_i32 = arith.constant 512 : i32 loc(#loc1)
    %0 = tt.get_program_id x : i32 loc(#loc2)
    %1 = arith.muli %0, %c512_i32 : i32 loc(#loc3)
    %2 = tt.make_range {end = 512 : i32, start = 0 : i32} : tensor<512xi32> loc(#loc4)
    %3 = tt.splat %1 : i32 -> tensor<512xi32> loc(#loc5)
    %4 = arith.addi %3, %2 : tensor<512xi32> loc(#loc5)
    %5 = arith.remsi %4, %cst_2 : tensor<512xi32> loc(#loc6)
    %6 = arith.divsi %4, %cst_2 : tensor<512xi32> loc(#loc7)
    %7 = arith.remsi %6, %cst_1 : tensor<512xi32> loc(#loc8)
    %8 = arith.divsi %4, %cst_0 : tensor<512xi32> loc(#loc9)
    %9 = arith.muli %8, %cst_2 : tensor<512xi32> loc(#loc10)
    %10 = arith.addi %5, %9 : tensor<512xi32> loc(#loc11)
    %11 = arith.muli %7, %cst : tensor<512xi32> loc(#loc12)
    %12 = arith.addi %10, %11 : tensor<512xi32> loc(#loc13)
    %13 = tt.splat %arg1 : !tt.ptr<f32> -> tensor<512x!tt.ptr<f32>> loc(#loc14)
    %14 = tt.addptr %13, %12 : tensor<512x!tt.ptr<f32>>, tensor<512xi32> loc(#loc14)
    %15 = tt.load %14 : tensor<512x!tt.ptr<f32>> loc(#loc15)
    %16 = tt.splat %arg2 : !tt.ptr<f32> -> tensor<512x!tt.ptr<f32>> loc(#loc16)
    %17 = tt.addptr %16, %4 : tensor<512x!tt.ptr<f32>>, tensor<512xi32> loc(#loc16)
    %18 = tt.load %17 : tensor<512x!tt.ptr<f32>> loc(#loc17)
    %19 = tt.splat %arg3 : !tt.ptr<f32> -> tensor<512x!tt.ptr<f32>> loc(#loc18)
    %20 = tt.addptr %19, %5 : tensor<512x!tt.ptr<f32>>, tensor<512xi32> loc(#loc18)
    %21 = tt.load %20 evictionPolicy = evict_last : tensor<512x!tt.ptr<f32>> loc(#loc19)
    %22 = tt.splat %arg0 : !tt.ptr<f32> -> tensor<512x!tt.ptr<f32>> loc(#loc20)
    %23 = tt.addptr %22, %4 : tensor<512x!tt.ptr<f32>>, tensor<512xi32> loc(#loc20)
    %24 = tt.load %23 : tensor<512x!tt.ptr<f32>> loc(#loc21)
    %25 = tt.splat %arg4 : !tt.ptr<f32> -> tensor<512x!tt.ptr<f32>> loc(#loc22)
    %26 = tt.addptr %25, %5 : tensor<512x!tt.ptr<f32>>, tensor<512xi32> loc(#loc22)
    %27 = tt.load %26 evictionPolicy = evict_last : tensor<512x!tt.ptr<f32>> loc(#loc23)
    %28 = arith.addf %18, %21 : tensor<512xf32> loc(#loc24)
    %29 = arith.addf %15, %28 : tensor<512xf32> loc(#loc25)
    %30 = arith.addf %24, %27 : tensor<512xf32> loc(#loc26)
    %31 = arith.addf %29, %30 : tensor<512xf32> loc(#loc27)
    %32 = arith.subf %31, %15 : tensor<512xf32> loc(#loc28)
    tt.store %23, %32 : tensor<512x!tt.ptr<f32>> loc(#loc29)
    tt.return loc(#loc30)
  } loc(#loc)
} loc(#loc)
#loc1 = loc(unknown)
#loc2 = loc("/orcd/home/002/osbo/ondemand/fluid-sim/Assets/Scripts/.torch_inductor_cache/6u/c6ub4i7nsrzxyov43hylzx4ju2dogfq3qkdiffpw6yds453jcwac.py":20:28)
#loc3 = loc("/orcd/home/002/osbo/ondemand/fluid-sim/Assets/Scripts/.torch_inductor_cache/6u/c6ub4i7nsrzxyov43hylzx4ju2dogfq3qkdiffpw6yds453jcwac.py":20:33)
#loc4 = loc("/orcd/home/002/osbo/ondemand/fluid-sim/Assets/Scripts/.torch_inductor_cache/6u/c6ub4i7nsrzxyov43hylzx4ju2dogfq3qkdiffpw6yds453jcwac.py":21:36)
#loc5 = loc("/orcd/home/002/osbo/ondemand/fluid-sim/Assets/Scripts/.torch_inductor_cache/6u/c6ub4i7nsrzxyov43hylzx4ju2dogfq3qkdiffpw6yds453jcwac.py":21:23)
#loc6 = loc("/orcd/home/002/osbo/ondemand/fluid-sim/Assets/Scripts/.torch_inductor_cache/6u/c6ub4i7nsrzxyov43hylzx4ju2dogfq3qkdiffpw6yds453jcwac.py":23:18)
#loc7 = loc("/orcd/home/002/osbo/ondemand/fluid-sim/Assets/Scripts/.torch_inductor_cache/6u/c6ub4i7nsrzxyov43hylzx4ju2dogfq3qkdiffpw6yds453jcwac.py":24:20)
#loc8 = loc("/orcd/home/002/osbo/ondemand/fluid-sim/Assets/Scripts/.torch_inductor_cache/6u/c6ub4i7nsrzxyov43hylzx4ju2dogfq3qkdiffpw6yds453jcwac.py":24:27)
#loc9 = loc("/orcd/home/002/osbo/ondemand/fluid-sim/Assets/Scripts/.torch_inductor_cache/6u/c6ub4i7nsrzxyov43hylzx4ju2dogfq3qkdiffpw6yds453jcwac.py":25:20)
#loc10 = loc("/orcd/home/002/osbo/ondemand/fluid-sim/Assets/Scripts/.torch_inductor_cache/6u/c6ub4i7nsrzxyov43hylzx4ju2dogfq3qkdiffpw6yds453jcwac.py":27:40)
#loc11 = loc("/orcd/home/002/osbo/ondemand/fluid-sim/Assets/Scripts/.torch_inductor_cache/6u/c6ub4i7nsrzxyov43hylzx4ju2dogfq3qkdiffpw6yds453jcwac.py":27:36)
#loc12 = loc("/orcd/home/002/osbo/ondemand/fluid-sim/Assets/Scripts/.torch_inductor_cache/6u/c6ub4i7nsrzxyov43hylzx4ju2dogfq3qkdiffpw6yds453jcwac.py":27:53)
#loc13 = loc("/orcd/home/002/osbo/ondemand/fluid-sim/Assets/Scripts/.torch_inductor_cache/6u/c6ub4i7nsrzxyov43hylzx4ju2dogfq3qkdiffpw6yds453jcwac.py":27:47)
#loc14 = loc("/orcd/home/002/osbo/ondemand/fluid-sim/Assets/Scripts/.torch_inductor_cache/6u/c6ub4i7nsrzxyov43hylzx4ju2dogfq3qkdiffpw6yds453jcwac.py":27:30)
#loc15 = loc("/orcd/home/002/osbo/ondemand/fluid-sim/Assets/Scripts/.torch_inductor_cache/6u/c6ub4i7nsrzxyov43hylzx4ju2dogfq3qkdiffpw6yds453jcwac.py":27:59)
#loc16 = loc("/orcd/home/002/osbo/ondemand/fluid-sim/Assets/Scripts/.torch_inductor_cache/6u/c6ub4i7nsrzxyov43hylzx4ju2dogfq3qkdiffpw6yds453jcwac.py":28:30)
#loc17 = loc("/orcd/home/002/osbo/ondemand/fluid-sim/Assets/Scripts/.torch_inductor_cache/6u/c6ub4i7nsrzxyov43hylzx4ju2dogfq3qkdiffpw6yds453jcwac.py":28:35)
#loc18 = loc("/orcd/home/002/osbo/ondemand/fluid-sim/Assets/Scripts/.torch_inductor_cache/6u/c6ub4i7nsrzxyov43hylzx4ju2dogfq3qkdiffpw6yds453jcwac.py":29:30)
#loc19 = loc("/orcd/home/002/osbo/ondemand/fluid-sim/Assets/Scripts/.torch_inductor_cache/6u/c6ub4i7nsrzxyov43hylzx4ju2dogfq3qkdiffpw6yds453jcwac.py":29:35)
#loc20 = loc("/orcd/home/002/osbo/ondemand/fluid-sim/Assets/Scripts/.torch_inductor_cache/6u/c6ub4i7nsrzxyov43hylzx4ju2dogfq3qkdiffpw6yds453jcwac.py":30:34)
#loc21 = loc("/orcd/home/002/osbo/ondemand/fluid-sim/Assets/Scripts/.torch_inductor_cache/6u/c6ub4i7nsrzxyov43hylzx4ju2dogfq3qkdiffpw6yds453jcwac.py":30:39)
#loc22 = loc("/orcd/home/002/osbo/ondemand/fluid-sim/Assets/Scripts/.torch_inductor_cache/6u/c6ub4i7nsrzxyov43hylzx4ju2dogfq3qkdiffpw6yds453jcwac.py":31:30)
#loc23 = loc("/orcd/home/002/osbo/ondemand/fluid-sim/Assets/Scripts/.torch_inductor_cache/6u/c6ub4i7nsrzxyov43hylzx4ju2dogfq3qkdiffpw6yds453jcwac.py":31:35)
#loc24 = loc("/orcd/home/002/osbo/ondemand/fluid-sim/Assets/Scripts/.torch_inductor_cache/6u/c6ub4i7nsrzxyov43hylzx4ju2dogfq3qkdiffpw6yds453jcwac.py":32:18)
#loc25 = loc("/orcd/home/002/osbo/ondemand/fluid-sim/Assets/Scripts/.torch_inductor_cache/6u/c6ub4i7nsrzxyov43hylzx4ju2dogfq3qkdiffpw6yds453jcwac.py":33:18)
#loc26 = loc("/orcd/home/002/osbo/ondemand/fluid-sim/Assets/Scripts/.torch_inductor_cache/6u/c6ub4i7nsrzxyov43hylzx4ju2dogfq3qkdiffpw6yds453jcwac.py":34:18)
#loc27 = loc("/orcd/home/002/osbo/ondemand/fluid-sim/Assets/Scripts/.torch_inductor_cache/6u/c6ub4i7nsrzxyov43hylzx4ju2dogfq3qkdiffpw6yds453jcwac.py":35:18)
#loc28 = loc("/orcd/home/002/osbo/ondemand/fluid-sim/Assets/Scripts/.torch_inductor_cache/6u/c6ub4i7nsrzxyov43hylzx4ju2dogfq3qkdiffpw6yds453jcwac.py":36:18)
#loc29 = loc("/orcd/home/002/osbo/ondemand/fluid-sim/Assets/Scripts/.torch_inductor_cache/6u/c6ub4i7nsrzxyov43hylzx4ju2dogfq3qkdiffpw6yds453jcwac.py":37:39)
#loc30 = loc("/orcd/home/002/osbo/ondemand/fluid-sim/Assets/Scripts/.torch_inductor_cache/6u/c6ub4i7nsrzxyov43hylzx4ju2dogfq3qkdiffpw6yds453jcwac.py":37:4)
