#loc = loc("/orcd/home/002/osbo/ondemand/fluid-sim/Assets/Scripts/.torch_inductor_cache/rz/crzvw5cn4p3og34ehfjy3sgee2xshcfl4b3ljsubkecjfvanznl6.py":18:0)
#loc1 = loc(unknown)
module {
  tt.func public @triton_(%arg0: !tt.ptr<f32> {tt.divisibility = 16 : i32} loc("/orcd/home/002/osbo/ondemand/fluid-sim/Assets/Scripts/.torch_inductor_cache/rz/crzvw5cn4p3og34ehfjy3sgee2xshcfl4b3ljsubkecjfvanznl6.py":18:0), %arg1: !tt.ptr<f32> {tt.divisibility = 16 : i32} loc("/orcd/home/002/osbo/ondemand/fluid-sim/Assets/Scripts/.torch_inductor_cache/rz/crzvw5cn4p3og34ehfjy3sgee2xshcfl4b3ljsubkecjfvanznl6.py":18:0), %arg2: !tt.ptr<f32> {tt.divisibility = 16 : i32} loc("/orcd/home/002/osbo/ondemand/fluid-sim/Assets/Scripts/.torch_inductor_cache/rz/crzvw5cn4p3og34ehfjy3sgee2xshcfl4b3ljsubkecjfvanznl6.py":18:0), %arg3: !tt.ptr<f32> {tt.divisibility = 16 : i32} loc("/orcd/home/002/osbo/ondemand/fluid-sim/Assets/Scripts/.torch_inductor_cache/rz/crzvw5cn4p3og34ehfjy3sgee2xshcfl4b3ljsubkecjfvanznl6.py":18:0), %arg4: i32 {tt.divisibility = 16 : i32} loc("/orcd/home/002/osbo/ondemand/fluid-sim/Assets/Scripts/.torch_inductor_cache/rz/crzvw5cn4p3og34ehfjy3sgee2xshcfl4b3ljsubkecjfvanznl6.py":18:0), %arg5: i32 {tt.divisibility = 16 : i32} loc("/orcd/home/002/osbo/ondemand/fluid-sim/Assets/Scripts/.torch_inductor_cache/rz/crzvw5cn4p3og34ehfjy3sgee2xshcfl4b3ljsubkecjfvanznl6.py":18:0)) attributes {noinline = false} {
    %c512_i32 = arith.constant 512 : i32 loc(#loc1)
    %c128_i32 = arith.constant 128 : i32 loc(#loc1)
    %cst = arith.constant dense<9.99999974E-6> : tensor<1x1xf32> loc(#loc1)
    %cst_0 = arith.constant dense<1.280000e+02> : tensor<1x1xf32> loc(#loc1)
    %0 = tt.get_program_id x : i32 loc(#loc2)
    %1 = tt.make_range {end = 128 : i32, start = 0 : i32} : tensor<128xi32> loc(#loc3)
    %2 = tt.expand_dims %1 {axis = 0 : i32} : tensor<128xi32> -> tensor<1x128xi32> loc(#loc4)
    %3 = arith.muli %0, %c128_i32 : i32 loc(#loc5)
    %4 = tt.splat %3 : i32 -> tensor<1x128xi32> loc(#loc6)
    %5 = arith.addi %2, %4 : tensor<1x128xi32> loc(#loc6)
    %6 = tt.splat %arg0 : !tt.ptr<f32> -> tensor<1x128x!tt.ptr<f32>> loc(#loc7)
    %7 = tt.addptr %6, %5 : tensor<1x128x!tt.ptr<f32>>, tensor<1x128xi32> loc(#loc7)
    %8 = tt.load %7 : tensor<1x128x!tt.ptr<f32>> loc(#loc8)
    %9 = tt.splat %arg1 : !tt.ptr<f32> -> tensor<1x128x!tt.ptr<f32>> loc(#loc9)
    %10 = tt.addptr %9, %2 : tensor<1x128x!tt.ptr<f32>>, tensor<1x128xi32> loc(#loc9)
    %11 = tt.load %10 evictionPolicy = evict_last : tensor<1x128x!tt.ptr<f32>> loc(#loc10)
    %12 = tt.splat %arg2 : !tt.ptr<f32> -> tensor<1x128x!tt.ptr<f32>> loc(#loc11)
    %13 = tt.addptr %12, %2 : tensor<1x128x!tt.ptr<f32>>, tensor<1x128xi32> loc(#loc11)
    %14 = tt.load %13 evictionPolicy = evict_last : tensor<1x128x!tt.ptr<f32>> loc(#loc12)
    %15 = "tt.reduce"(%8) <{axis = 1 : i32}> ({
    ^bb0(%arg6: f32 loc(unknown), %arg7: f32 loc(unknown)):
      %35 = arith.addf %arg6, %arg7 : f32 loc(#loc36)
      tt.reduce.return %35 : f32 loc(#loc33)
    }) : (tensor<1x128xf32>) -> tensor<1xf32> loc(#loc33)
    %16 = tt.expand_dims %15 {axis = 1 : i32} : tensor<1xf32> -> tensor<1x1xf32> loc(#loc16)
    %17 = arith.divf %16, %cst_0 : tensor<1x1xf32> loc(#loc17)
    %18 = tt.broadcast %17 : tensor<1x1xf32> -> tensor<1x128xf32> loc(#loc18)
    %19 = arith.subf %8, %18 : tensor<1x128xf32> loc(#loc18)
    %20 = arith.mulf %19, %19 : tensor<1x128xf32> loc(#loc19)
    %21 = "tt.reduce"(%20) <{axis = 1 : i32}> ({
    ^bb0(%arg6: f32 loc(unknown), %arg7: f32 loc(unknown)):
      %35 = arith.addf %arg6, %arg7 : f32 loc(#loc37)
      tt.reduce.return %35 : f32 loc(#loc35)
    }) : (tensor<1x128xf32>) -> tensor<1xf32> loc(#loc35)
    %22 = tt.expand_dims %21 {axis = 1 : i32} : tensor<1xf32> -> tensor<1x1xf32> loc(#loc21)
    %23 = arith.divf %22, %cst_0 : tensor<1x1xf32> loc(#loc22)
    %24 = arith.addf %23, %cst : tensor<1x1xf32> loc(#loc23)
    %25 = tt.extern_elementwise %24 {libname = "", libpath = "", pure = true, symbol = "__nv_rsqrtf"} : (tensor<1x1xf32>) -> tensor<1x1xf32> loc(#loc24)
    %26 = tt.broadcast %25 : tensor<1x1xf32> -> tensor<1x128xf32> loc(#loc25)
    %27 = arith.mulf %19, %26 : tensor<1x128xf32> loc(#loc25)
    %28 = arith.mulf %27, %11 : tensor<1x128xf32> loc(#loc26)
    %29 = arith.addf %28, %14 : tensor<1x128xf32> loc(#loc27)
    %30 = arith.muli %0, %c512_i32 : i32 loc(#loc28)
    %31 = tt.splat %30 : i32 -> tensor<1x128xi32> loc(#loc29)
    %32 = arith.addi %2, %31 : tensor<1x128xi32> loc(#loc29)
    %33 = tt.splat %arg3 : !tt.ptr<f32> -> tensor<1x128x!tt.ptr<f32>> loc(#loc30)
    %34 = tt.addptr %33, %32 : tensor<1x128x!tt.ptr<f32>>, tensor<1x128xi32> loc(#loc30)
    tt.store %34, %29 : tensor<1x128x!tt.ptr<f32>> loc(#loc31)
    tt.return loc(#loc32)
  } loc(#loc)
} loc(#loc)
#loc2 = loc("/orcd/home/002/osbo/ondemand/fluid-sim/Assets/Scripts/.torch_inductor_cache/rz/crzvw5cn4p3og34ehfjy3sgee2xshcfl4b3ljsubkecjfvanznl6.py":22:28)
#loc3 = loc("/orcd/home/002/osbo/ondemand/fluid-sim/Assets/Scripts/.torch_inductor_cache/rz/crzvw5cn4p3og34ehfjy3sgee2xshcfl4b3ljsubkecjfvanznl6.py":25:26)
#loc4 = loc("/orcd/home/002/osbo/ondemand/fluid-sim/Assets/Scripts/.torch_inductor_cache/rz/crzvw5cn4p3og34ehfjy3sgee2xshcfl4b3ljsubkecjfvanznl6.py":25:34)
#loc5 = loc("/orcd/home/002/osbo/ondemand/fluid-sim/Assets/Scripts/.torch_inductor_cache/rz/crzvw5cn4p3og34ehfjy3sgee2xshcfl4b3ljsubkecjfvanznl6.py":30:40)
#loc6 = loc("/orcd/home/002/osbo/ondemand/fluid-sim/Assets/Scripts/.torch_inductor_cache/rz/crzvw5cn4p3og34ehfjy3sgee2xshcfl4b3ljsubkecjfvanznl6.py":30:36)
#loc7 = loc("/orcd/home/002/osbo/ondemand/fluid-sim/Assets/Scripts/.torch_inductor_cache/rz/crzvw5cn4p3og34ehfjy3sgee2xshcfl4b3ljsubkecjfvanznl6.py":30:30)
#loc8 = loc("/orcd/home/002/osbo/ondemand/fluid-sim/Assets/Scripts/.torch_inductor_cache/rz/crzvw5cn4p3og34ehfjy3sgee2xshcfl4b3ljsubkecjfvanznl6.py":30:46)
#loc9 = loc("/orcd/home/002/osbo/ondemand/fluid-sim/Assets/Scripts/.torch_inductor_cache/rz/crzvw5cn4p3og34ehfjy3sgee2xshcfl4b3ljsubkecjfvanznl6.py":31:31)
#loc10 = loc("/orcd/home/002/osbo/ondemand/fluid-sim/Assets/Scripts/.torch_inductor_cache/rz/crzvw5cn4p3og34ehfjy3sgee2xshcfl4b3ljsubkecjfvanznl6.py":31:36)
#loc11 = loc("/orcd/home/002/osbo/ondemand/fluid-sim/Assets/Scripts/.torch_inductor_cache/rz/crzvw5cn4p3og34ehfjy3sgee2xshcfl4b3ljsubkecjfvanznl6.py":32:31)
#loc12 = loc("/orcd/home/002/osbo/ondemand/fluid-sim/Assets/Scripts/.torch_inductor_cache/rz/crzvw5cn4p3og34ehfjy3sgee2xshcfl4b3ljsubkecjfvanznl6.py":32:36)
#loc13 = loc("/home/osbo/.conda/envs/fluid/lib/python3.12/site-packages/triton/language/standard.py":267:36)
#loc14 = loc("/orcd/home/002/osbo/ondemand/fluid-sim/Assets/Scripts/.torch_inductor_cache/rz/crzvw5cn4p3og34ehfjy3sgee2xshcfl4b3ljsubkecjfvanznl6.py":35:24)
#loc15 = loc("/home/osbo/.conda/envs/fluid/lib/python3.12/site-packages/triton/language/standard.py":256:15)
#loc16 = loc("/orcd/home/002/osbo/ondemand/fluid-sim/Assets/Scripts/.torch_inductor_cache/rz/crzvw5cn4p3og34ehfjy3sgee2xshcfl4b3ljsubkecjfvanznl6.py":35:27)
#loc17 = loc("/orcd/home/002/osbo/ondemand/fluid-sim/Assets/Scripts/.torch_inductor_cache/rz/crzvw5cn4p3og34ehfjy3sgee2xshcfl4b3ljsubkecjfvanznl6.py":38:18)
#loc18 = loc("/orcd/home/002/osbo/ondemand/fluid-sim/Assets/Scripts/.torch_inductor_cache/rz/crzvw5cn4p3og34ehfjy3sgee2xshcfl4b3ljsubkecjfvanznl6.py":39:18)
#loc19 = loc("/orcd/home/002/osbo/ondemand/fluid-sim/Assets/Scripts/.torch_inductor_cache/rz/crzvw5cn4p3og34ehfjy3sgee2xshcfl4b3ljsubkecjfvanznl6.py":40:19)
#loc20 = loc("/orcd/home/002/osbo/ondemand/fluid-sim/Assets/Scripts/.torch_inductor_cache/rz/crzvw5cn4p3og34ehfjy3sgee2xshcfl4b3ljsubkecjfvanznl6.py":42:26)
#loc21 = loc("/orcd/home/002/osbo/ondemand/fluid-sim/Assets/Scripts/.torch_inductor_cache/rz/crzvw5cn4p3og34ehfjy3sgee2xshcfl4b3ljsubkecjfvanznl6.py":42:29)
#loc22 = loc("/orcd/home/002/osbo/ondemand/fluid-sim/Assets/Scripts/.torch_inductor_cache/rz/crzvw5cn4p3og34ehfjy3sgee2xshcfl4b3ljsubkecjfvanznl6.py":45:20)
#loc23 = loc("/orcd/home/002/osbo/ondemand/fluid-sim/Assets/Scripts/.torch_inductor_cache/rz/crzvw5cn4p3og34ehfjy3sgee2xshcfl4b3ljsubkecjfvanznl6.py":47:20)
#loc24 = loc("/orcd/home/002/osbo/ondemand/fluid-sim/Assets/Scripts/.torch_inductor_cache/rz/crzvw5cn4p3og34ehfjy3sgee2xshcfl4b3ljsubkecjfvanznl6.py":48:28)
#loc25 = loc("/orcd/home/002/osbo/ondemand/fluid-sim/Assets/Scripts/.torch_inductor_cache/rz/crzvw5cn4p3og34ehfjy3sgee2xshcfl4b3ljsubkecjfvanznl6.py":49:20)
#loc26 = loc("/orcd/home/002/osbo/ondemand/fluid-sim/Assets/Scripts/.torch_inductor_cache/rz/crzvw5cn4p3og34ehfjy3sgee2xshcfl4b3ljsubkecjfvanznl6.py":50:20)
#loc27 = loc("/orcd/home/002/osbo/ondemand/fluid-sim/Assets/Scripts/.torch_inductor_cache/rz/crzvw5cn4p3og34ehfjy3sgee2xshcfl4b3ljsubkecjfvanznl6.py":51:20)
#loc28 = loc("/orcd/home/002/osbo/ondemand/fluid-sim/Assets/Scripts/.torch_inductor_cache/rz/crzvw5cn4p3og34ehfjy3sgee2xshcfl4b3ljsubkecjfvanznl6.py":52:35)
#loc29 = loc("/orcd/home/002/osbo/ondemand/fluid-sim/Assets/Scripts/.torch_inductor_cache/rz/crzvw5cn4p3og34ehfjy3sgee2xshcfl4b3ljsubkecjfvanznl6.py":52:31)
#loc30 = loc("/orcd/home/002/osbo/ondemand/fluid-sim/Assets/Scripts/.torch_inductor_cache/rz/crzvw5cn4p3og34ehfjy3sgee2xshcfl4b3ljsubkecjfvanznl6.py":52:25)
#loc31 = loc("/orcd/home/002/osbo/ondemand/fluid-sim/Assets/Scripts/.torch_inductor_cache/rz/crzvw5cn4p3og34ehfjy3sgee2xshcfl4b3ljsubkecjfvanznl6.py":52:48)
#loc32 = loc("/orcd/home/002/osbo/ondemand/fluid-sim/Assets/Scripts/.torch_inductor_cache/rz/crzvw5cn4p3og34ehfjy3sgee2xshcfl4b3ljsubkecjfvanznl6.py":52:4)
#loc33 = loc(callsite(#loc13 at #loc14))
#loc34 = loc(callsite(#loc15 at #loc13))
#loc35 = loc(callsite(#loc13 at #loc20))
#loc36 = loc(callsite(#loc34 at #loc14))
#loc37 = loc(callsite(#loc34 at #loc20))
