#loc = loc("/orcd/home/002/osbo/ondemand/fluid-sim/Assets/Scripts/.torch_inductor_cache/mk/cmkjwcioe7q2j4oypfjql47tagscdhqkxpekownniaxain5y27ii.py":18:0)
module {
  tt.func public @triton_(%arg0: !tt.ptr<f32> {tt.divisibility = 16 : i32} loc("/orcd/home/002/osbo/ondemand/fluid-sim/Assets/Scripts/.torch_inductor_cache/mk/cmkjwcioe7q2j4oypfjql47tagscdhqkxpekownniaxain5y27ii.py":18:0), %arg1: !tt.ptr<f32> {tt.divisibility = 16 : i32} loc("/orcd/home/002/osbo/ondemand/fluid-sim/Assets/Scripts/.torch_inductor_cache/mk/cmkjwcioe7q2j4oypfjql47tagscdhqkxpekownniaxain5y27ii.py":18:0), %arg2: !tt.ptr<f32> {tt.divisibility = 16 : i32} loc("/orcd/home/002/osbo/ondemand/fluid-sim/Assets/Scripts/.torch_inductor_cache/mk/cmkjwcioe7q2j4oypfjql47tagscdhqkxpekownniaxain5y27ii.py":18:0), %arg3: i32 {tt.divisibility = 16 : i32} loc("/orcd/home/002/osbo/ondemand/fluid-sim/Assets/Scripts/.torch_inductor_cache/mk/cmkjwcioe7q2j4oypfjql47tagscdhqkxpekownniaxain5y27ii.py":18:0), %arg4: i32 loc("/orcd/home/002/osbo/ondemand/fluid-sim/Assets/Scripts/.torch_inductor_cache/mk/cmkjwcioe7q2j4oypfjql47tagscdhqkxpekownniaxain5y27ii.py":18:0)) attributes {noinline = false} {
    %cst = arith.constant dense<129> : tensor<1x256xi32> loc(#loc1)
    %cst_0 = arith.constant dense<99072> : tensor<1x256xi32> loc(#loc1)
    %cst_1 = arith.constant dense<768> : tensor<16x1xi32> loc(#loc1)
    %cst_2 = arith.constant dense<256> : tensor<1x256xi32> loc(#loc1)
    %cst_3 = arith.constant dense<129> : tensor<16x1xi32> loc(#loc1)
    %c16_i32 = arith.constant 16 : i32 loc(#loc1)
    %c256_i32 = arith.constant 256 : i32 loc(#loc1)
    %0 = tt.get_program_id y : i32 loc(#loc2)
    %1 = arith.muli %0, %c256_i32 : i32 loc(#loc3)
    %2 = tt.make_range {end = 256 : i32, start = 0 : i32} : tensor<256xi32> loc(#loc4)
    %3 = tt.expand_dims %2 {axis = 0 : i32} : tensor<256xi32> -> tensor<1x256xi32> loc(#loc5)
    %4 = tt.splat %1 : i32 -> tensor<1x256xi32> loc(#loc6)
    %5 = arith.addi %4, %3 : tensor<1x256xi32> loc(#loc6)
    %6 = tt.get_program_id x : i32 loc(#loc7)
    %7 = arith.muli %6, %c16_i32 : i32 loc(#loc8)
    %8 = tt.make_range {end = 16 : i32, start = 0 : i32} : tensor<16xi32> loc(#loc9)
    %9 = tt.expand_dims %8 {axis = 1 : i32} : tensor<16xi32> -> tensor<16x1xi32> loc(#loc10)
    %10 = tt.splat %7 : i32 -> tensor<16x1xi32> loc(#loc11)
    %11 = arith.addi %10, %9 : tensor<16x1xi32> loc(#loc11)
    %12 = arith.cmpi slt, %11, %cst_3 : tensor<16x1xi32> loc(#loc12)
    %13 = arith.remsi %5, %cst_2 : tensor<1x256xi32> loc(#loc13)
    %14 = arith.divsi %5, %cst_2 : tensor<1x256xi32> loc(#loc14)
    %15 = arith.addi %13, %cst_2 : tensor<1x256xi32> loc(#loc15)
    %16 = arith.muli %11, %cst_1 : tensor<16x1xi32> loc(#loc16)
    %17 = tt.broadcast %15 : tensor<1x256xi32> -> tensor<16x256xi32> loc(#loc17)
    %18 = tt.broadcast %16 : tensor<16x1xi32> -> tensor<16x256xi32> loc(#loc17)
    %19 = arith.addi %17, %18 : tensor<16x256xi32> loc(#loc17)
    %20 = arith.muli %14, %cst_0 : tensor<1x256xi32> loc(#loc18)
    %21 = tt.broadcast %20 : tensor<1x256xi32> -> tensor<16x256xi32> loc(#loc19)
    %22 = arith.addi %19, %21 : tensor<16x256xi32> loc(#loc19)
    %23 = tt.splat %arg0 : !tt.ptr<f32> -> tensor<16x256x!tt.ptr<f32>> loc(#loc20)
    %24 = tt.addptr %23, %22 : tensor<16x256x!tt.ptr<f32>>, tensor<16x256xi32> loc(#loc20)
    %25 = tt.broadcast %12 : tensor<16x1xi1> -> tensor<16x256xi1> loc(#loc21)
    %26 = tt.load %24, %25 evictionPolicy = evict_last : tensor<16x256x!tt.ptr<f32>> loc(#loc21)
    %27 = tt.splat %arg1 : !tt.ptr<f32> -> tensor<1x256x!tt.ptr<f32>> loc(#loc22)
    %28 = tt.addptr %27, %15 : tensor<1x256x!tt.ptr<f32>>, tensor<1x256xi32> loc(#loc22)
    %29 = tt.load %28 evictionPolicy = evict_last : tensor<1x256x!tt.ptr<f32>> loc(#loc23)
    %30 = tt.broadcast %29 : tensor<1x256xf32> -> tensor<16x256xf32> loc(#loc24)
    %31 = arith.addf %26, %30 : tensor<16x256xf32> loc(#loc24)
    %32 = arith.muli %5, %cst : tensor<1x256xi32> loc(#loc25)
    %33 = tt.broadcast %11 : tensor<16x1xi32> -> tensor<16x256xi32> loc(#loc26)
    %34 = tt.broadcast %32 : tensor<1x256xi32> -> tensor<16x256xi32> loc(#loc26)
    %35 = arith.addi %33, %34 : tensor<16x256xi32> loc(#loc26)
    %36 = tt.splat %arg2 : !tt.ptr<f32> -> tensor<16x256x!tt.ptr<f32>> loc(#loc27)
    %37 = tt.addptr %36, %35 : tensor<16x256x!tt.ptr<f32>>, tensor<16x256xi32> loc(#loc27)
    tt.store %37, %31, %25 : tensor<16x256x!tt.ptr<f32>> loc(#loc28)
    tt.return loc(#loc29)
  } loc(#loc)
} loc(#loc)
#loc1 = loc(unknown)
#loc2 = loc("/orcd/home/002/osbo/ondemand/fluid-sim/Assets/Scripts/.torch_inductor_cache/mk/cmkjwcioe7q2j4oypfjql47tagscdhqkxpekownniaxain5y27ii.py":21:28)
#loc3 = loc("/orcd/home/002/osbo/ondemand/fluid-sim/Assets/Scripts/.torch_inductor_cache/mk/cmkjwcioe7q2j4oypfjql47tagscdhqkxpekownniaxain5y27ii.py":21:33)
#loc4 = loc("/orcd/home/002/osbo/ondemand/fluid-sim/Assets/Scripts/.torch_inductor_cache/mk/cmkjwcioe7q2j4oypfjql47tagscdhqkxpekownniaxain5y27ii.py":22:36)
#loc5 = loc("/orcd/home/002/osbo/ondemand/fluid-sim/Assets/Scripts/.torch_inductor_cache/mk/cmkjwcioe7q2j4oypfjql47tagscdhqkxpekownniaxain5y27ii.py":22:44)
#loc6 = loc("/orcd/home/002/osbo/ondemand/fluid-sim/Assets/Scripts/.torch_inductor_cache/mk/cmkjwcioe7q2j4oypfjql47tagscdhqkxpekownniaxain5y27ii.py":22:23)
#loc7 = loc("/orcd/home/002/osbo/ondemand/fluid-sim/Assets/Scripts/.torch_inductor_cache/mk/cmkjwcioe7q2j4oypfjql47tagscdhqkxpekownniaxain5y27ii.py":24:28)
#loc8 = loc("/orcd/home/002/osbo/ondemand/fluid-sim/Assets/Scripts/.torch_inductor_cache/mk/cmkjwcioe7q2j4oypfjql47tagscdhqkxpekownniaxain5y27ii.py":24:33)
#loc9 = loc("/orcd/home/002/osbo/ondemand/fluid-sim/Assets/Scripts/.torch_inductor_cache/mk/cmkjwcioe7q2j4oypfjql47tagscdhqkxpekownniaxain5y27ii.py":25:36)
#loc10 = loc("/orcd/home/002/osbo/ondemand/fluid-sim/Assets/Scripts/.torch_inductor_cache/mk/cmkjwcioe7q2j4oypfjql47tagscdhqkxpekownniaxain5y27ii.py":25:44)
#loc11 = loc("/orcd/home/002/osbo/ondemand/fluid-sim/Assets/Scripts/.torch_inductor_cache/mk/cmkjwcioe7q2j4oypfjql47tagscdhqkxpekownniaxain5y27ii.py":25:23)
#loc12 = loc("/orcd/home/002/osbo/ondemand/fluid-sim/Assets/Scripts/.torch_inductor_cache/mk/cmkjwcioe7q2j4oypfjql47tagscdhqkxpekownniaxain5y27ii.py":26:21)
#loc13 = loc("/orcd/home/002/osbo/ondemand/fluid-sim/Assets/Scripts/.torch_inductor_cache/mk/cmkjwcioe7q2j4oypfjql47tagscdhqkxpekownniaxain5y27ii.py":28:18)
#loc14 = loc("/orcd/home/002/osbo/ondemand/fluid-sim/Assets/Scripts/.torch_inductor_cache/mk/cmkjwcioe7q2j4oypfjql47tagscdhqkxpekownniaxain5y27ii.py":29:20)
#loc15 = loc("/orcd/home/002/osbo/ondemand/fluid-sim/Assets/Scripts/.torch_inductor_cache/mk/cmkjwcioe7q2j4oypfjql47tagscdhqkxpekownniaxain5y27ii.py":31:36)
#loc16 = loc("/orcd/home/002/osbo/ondemand/fluid-sim/Assets/Scripts/.torch_inductor_cache/mk/cmkjwcioe7q2j4oypfjql47tagscdhqkxpekownniaxain5y27ii.py":31:46)
#loc17 = loc("/orcd/home/002/osbo/ondemand/fluid-sim/Assets/Scripts/.torch_inductor_cache/mk/cmkjwcioe7q2j4oypfjql47tagscdhqkxpekownniaxain5y27ii.py":31:42)
#loc18 = loc("/orcd/home/002/osbo/ondemand/fluid-sim/Assets/Scripts/.torch_inductor_cache/mk/cmkjwcioe7q2j4oypfjql47tagscdhqkxpekownniaxain5y27ii.py":31:59)
#loc19 = loc("/orcd/home/002/osbo/ondemand/fluid-sim/Assets/Scripts/.torch_inductor_cache/mk/cmkjwcioe7q2j4oypfjql47tagscdhqkxpekownniaxain5y27ii.py":31:53)
#loc20 = loc("/orcd/home/002/osbo/ondemand/fluid-sim/Assets/Scripts/.torch_inductor_cache/mk/cmkjwcioe7q2j4oypfjql47tagscdhqkxpekownniaxain5y27ii.py":31:30)
#loc21 = loc("/orcd/home/002/osbo/ondemand/fluid-sim/Assets/Scripts/.torch_inductor_cache/mk/cmkjwcioe7q2j4oypfjql47tagscdhqkxpekownniaxain5y27ii.py":31:65)
#loc22 = loc("/orcd/home/002/osbo/ondemand/fluid-sim/Assets/Scripts/.torch_inductor_cache/mk/cmkjwcioe7q2j4oypfjql47tagscdhqkxpekownniaxain5y27ii.py":32:30)
#loc23 = loc("/orcd/home/002/osbo/ondemand/fluid-sim/Assets/Scripts/.torch_inductor_cache/mk/cmkjwcioe7q2j4oypfjql47tagscdhqkxpekownniaxain5y27ii.py":32:41)
#loc24 = loc("/orcd/home/002/osbo/ondemand/fluid-sim/Assets/Scripts/.torch_inductor_cache/mk/cmkjwcioe7q2j4oypfjql47tagscdhqkxpekownniaxain5y27ii.py":33:18)
#loc25 = loc("/orcd/home/002/osbo/ondemand/fluid-sim/Assets/Scripts/.torch_inductor_cache/mk/cmkjwcioe7q2j4oypfjql47tagscdhqkxpekownniaxain5y27ii.py":34:35)
#loc26 = loc("/orcd/home/002/osbo/ondemand/fluid-sim/Assets/Scripts/.torch_inductor_cache/mk/cmkjwcioe7q2j4oypfjql47tagscdhqkxpekownniaxain5y27ii.py":34:31)
#loc27 = loc("/orcd/home/002/osbo/ondemand/fluid-sim/Assets/Scripts/.torch_inductor_cache/mk/cmkjwcioe7q2j4oypfjql47tagscdhqkxpekownniaxain5y27ii.py":34:25)
#loc28 = loc("/orcd/home/002/osbo/ondemand/fluid-sim/Assets/Scripts/.torch_inductor_cache/mk/cmkjwcioe7q2j4oypfjql47tagscdhqkxpekownniaxain5y27ii.py":34:47)
#loc29 = loc("/orcd/home/002/osbo/ondemand/fluid-sim/Assets/Scripts/.torch_inductor_cache/mk/cmkjwcioe7q2j4oypfjql47tagscdhqkxpekownniaxain5y27ii.py":34:4)
