#loc = loc("/orcd/home/002/osbo/ondemand/fluid-sim/Assets/Scripts/.torch_inductor_cache/l3/cl33noceugny5m64gbkhmyxoilnvjywlaajw6zfo4pt5mzcjllbn.py":18:0)
module {
  tt.func public @triton_(%arg0: !tt.ptr<f32> {tt.divisibility = 16 : i32} loc("/orcd/home/002/osbo/ondemand/fluid-sim/Assets/Scripts/.torch_inductor_cache/l3/cl33noceugny5m64gbkhmyxoilnvjywlaajw6zfo4pt5mzcjllbn.py":18:0), %arg1: !tt.ptr<f32> {tt.divisibility = 16 : i32} loc("/orcd/home/002/osbo/ondemand/fluid-sim/Assets/Scripts/.torch_inductor_cache/l3/cl33noceugny5m64gbkhmyxoilnvjywlaajw6zfo4pt5mzcjllbn.py":18:0), %arg2: !tt.ptr<f32> {tt.divisibility = 16 : i32} loc("/orcd/home/002/osbo/ondemand/fluid-sim/Assets/Scripts/.torch_inductor_cache/l3/cl33noceugny5m64gbkhmyxoilnvjywlaajw6zfo4pt5mzcjllbn.py":18:0), %arg3: i32 {tt.divisibility = 16 : i32} loc("/orcd/home/002/osbo/ondemand/fluid-sim/Assets/Scripts/.torch_inductor_cache/l3/cl33noceugny5m64gbkhmyxoilnvjywlaajw6zfo4pt5mzcjllbn.py":18:0), %arg4: i32 loc("/orcd/home/002/osbo/ondemand/fluid-sim/Assets/Scripts/.torch_inductor_cache/l3/cl33noceugny5m64gbkhmyxoilnvjywlaajw6zfo4pt5mzcjllbn.py":18:0)) attributes {noinline = false} {
    %c384_i32 = arith.constant 384 : i32 loc(#loc1)
    %c65_i32 = arith.constant 65 : i32 loc(#loc1)
    %cst = arith.constant dense<1056> : tensor<1x1024xi32> loc(#loc1)
    %cst_0 = arith.constant dense<65> : tensor<1x1024xi32> loc(#loc1)
    %cst_1 = arith.constant dense<24960> : tensor<1x1024xi32> loc(#loc1)
    %cst_2 = arith.constant dense<16> : tensor<1x1024xi32> loc(#loc1)
    %cst_3 = arith.constant dense<128> : tensor<1x1024xi32> loc(#loc1)
    %cst_4 = arith.constant dense<13952> : tensor<1x1024xi32> loc(#loc1)
    %c1024_i32 = arith.constant 1024 : i32 loc(#loc1)
    %0 = tt.get_program_id y : i32 loc(#loc2)
    %1 = arith.muli %0, %c1024_i32 : i32 loc(#loc3)
    %2 = tt.make_range {end = 1024 : i32, start = 0 : i32} : tensor<1024xi32> loc(#loc4)
    %3 = tt.expand_dims %2 {axis = 0 : i32} : tensor<1024xi32> -> tensor<1x1024xi32> loc(#loc5)
    %4 = tt.splat %1 : i32 -> tensor<1x1024xi32> loc(#loc6)
    %5 = arith.addi %4, %3 : tensor<1x1024xi32> loc(#loc6)
    %6 = arith.cmpi slt, %5, %cst_4 : tensor<1x1024xi32> loc(#loc7)
    %7 = tt.get_program_id x : i32 loc(#loc8)
    %8 = arith.cmpi slt, %7, %c65_i32 : i32 loc(#loc9)
    %9 = arith.divsi %5, %cst_3 : tensor<1x1024xi32> loc(#loc10)
    %10 = arith.remsi %5, %cst_3 : tensor<1x1024xi32> loc(#loc11)
    %11 = arith.remsi %5, %cst_2 : tensor<1x1024xi32> loc(#loc12)
    %12 = arith.divsi %5, %cst_2 : tensor<1x1024xi32> loc(#loc13)
    %13 = arith.addi %10, %cst_3 : tensor<1x1024xi32> loc(#loc14)
    %14 = arith.muli %7, %c384_i32 : i32 loc(#loc15)
    %15 = tt.splat %14 : i32 -> tensor<1x1024xi32> loc(#loc16)
    %16 = arith.addi %13, %15 : tensor<1x1024xi32> loc(#loc16)
    %17 = arith.muli %9, %cst_1 : tensor<1x1024xi32> loc(#loc17)
    %18 = arith.addi %16, %17 : tensor<1x1024xi32> loc(#loc18)
    %19 = tt.splat %arg0 : !tt.ptr<f32> -> tensor<1x1024x!tt.ptr<f32>> loc(#loc19)
    %20 = tt.addptr %19, %18 : tensor<1x1024x!tt.ptr<f32>>, tensor<1x1024xi32> loc(#loc19)
    %21 = tt.splat %8 : i1 -> tensor<1x1024xi1> loc(#loc20)
    %22 = arith.andi %21, %6 : tensor<1x1024xi1> loc(#loc20)
    %23 = tt.load %20, %22 evictionPolicy = evict_last : tensor<1x1024x!tt.ptr<f32>> loc(#loc21)
    %24 = tt.splat %arg1 : !tt.ptr<f32> -> tensor<1x1024x!tt.ptr<f32>> loc(#loc22)
    %25 = tt.addptr %24, %13 : tensor<1x1024x!tt.ptr<f32>>, tensor<1x1024xi32> loc(#loc22)
    %26 = tt.load %25, %6 evictionPolicy = evict_last : tensor<1x1024x!tt.ptr<f32>> loc(#loc23)
    %27 = arith.addf %23, %26 : tensor<1x1024xf32> loc(#loc24)
    %28 = arith.muli %11, %cst_0 : tensor<1x1024xi32> loc(#loc25)
    %29 = tt.splat %7 : i32 -> tensor<1x1024xi32> loc(#loc26)
    %30 = arith.addi %29, %28 : tensor<1x1024xi32> loc(#loc26)
    %31 = arith.muli %12, %cst : tensor<1x1024xi32> loc(#loc27)
    %32 = arith.addi %30, %31 : tensor<1x1024xi32> loc(#loc28)
    %33 = tt.splat %arg2 : !tt.ptr<f32> -> tensor<1x1024x!tt.ptr<f32>> loc(#loc29)
    %34 = tt.addptr %33, %32 : tensor<1x1024x!tt.ptr<f32>>, tensor<1x1024xi32> loc(#loc29)
    tt.store %34, %27, %22 : tensor<1x1024x!tt.ptr<f32>> loc(#loc30)
    tt.return loc(#loc31)
  } loc(#loc)
} loc(#loc)
#loc1 = loc(unknown)
#loc2 = loc("/orcd/home/002/osbo/ondemand/fluid-sim/Assets/Scripts/.torch_inductor_cache/l3/cl33noceugny5m64gbkhmyxoilnvjywlaajw6zfo4pt5mzcjllbn.py":21:28)
#loc3 = loc("/orcd/home/002/osbo/ondemand/fluid-sim/Assets/Scripts/.torch_inductor_cache/l3/cl33noceugny5m64gbkhmyxoilnvjywlaajw6zfo4pt5mzcjllbn.py":21:33)
#loc4 = loc("/orcd/home/002/osbo/ondemand/fluid-sim/Assets/Scripts/.torch_inductor_cache/l3/cl33noceugny5m64gbkhmyxoilnvjywlaajw6zfo4pt5mzcjllbn.py":22:36)
#loc5 = loc("/orcd/home/002/osbo/ondemand/fluid-sim/Assets/Scripts/.torch_inductor_cache/l3/cl33noceugny5m64gbkhmyxoilnvjywlaajw6zfo4pt5mzcjllbn.py":22:44)
#loc6 = loc("/orcd/home/002/osbo/ondemand/fluid-sim/Assets/Scripts/.torch_inductor_cache/l3/cl33noceugny5m64gbkhmyxoilnvjywlaajw6zfo4pt5mzcjllbn.py":22:23)
#loc7 = loc("/orcd/home/002/osbo/ondemand/fluid-sim/Assets/Scripts/.torch_inductor_cache/l3/cl33noceugny5m64gbkhmyxoilnvjywlaajw6zfo4pt5mzcjllbn.py":23:21)
#loc8 = loc("/orcd/home/002/osbo/ondemand/fluid-sim/Assets/Scripts/.torch_inductor_cache/l3/cl33noceugny5m64gbkhmyxoilnvjywlaajw6zfo4pt5mzcjllbn.py":24:28)
#loc9 = loc("/orcd/home/002/osbo/ondemand/fluid-sim/Assets/Scripts/.torch_inductor_cache/l3/cl33noceugny5m64gbkhmyxoilnvjywlaajw6zfo4pt5mzcjllbn.py":26:21)
#loc10 = loc("/orcd/home/002/osbo/ondemand/fluid-sim/Assets/Scripts/.torch_inductor_cache/l3/cl33noceugny5m64gbkhmyxoilnvjywlaajw6zfo4pt5mzcjllbn.py":28:20)
#loc11 = loc("/orcd/home/002/osbo/ondemand/fluid-sim/Assets/Scripts/.torch_inductor_cache/l3/cl33noceugny5m64gbkhmyxoilnvjywlaajw6zfo4pt5mzcjllbn.py":29:18)
#loc12 = loc("/orcd/home/002/osbo/ondemand/fluid-sim/Assets/Scripts/.torch_inductor_cache/l3/cl33noceugny5m64gbkhmyxoilnvjywlaajw6zfo4pt5mzcjllbn.py":30:18)
#loc13 = loc("/orcd/home/002/osbo/ondemand/fluid-sim/Assets/Scripts/.torch_inductor_cache/l3/cl33noceugny5m64gbkhmyxoilnvjywlaajw6zfo4pt5mzcjllbn.py":31:20)
#loc14 = loc("/orcd/home/002/osbo/ondemand/fluid-sim/Assets/Scripts/.torch_inductor_cache/l3/cl33noceugny5m64gbkhmyxoilnvjywlaajw6zfo4pt5mzcjllbn.py":32:36)
#loc15 = loc("/orcd/home/002/osbo/ondemand/fluid-sim/Assets/Scripts/.torch_inductor_cache/l3/cl33noceugny5m64gbkhmyxoilnvjywlaajw6zfo4pt5mzcjllbn.py":32:46)
#loc16 = loc("/orcd/home/002/osbo/ondemand/fluid-sim/Assets/Scripts/.torch_inductor_cache/l3/cl33noceugny5m64gbkhmyxoilnvjywlaajw6zfo4pt5mzcjllbn.py":32:42)
#loc17 = loc("/orcd/home/002/osbo/ondemand/fluid-sim/Assets/Scripts/.torch_inductor_cache/l3/cl33noceugny5m64gbkhmyxoilnvjywlaajw6zfo4pt5mzcjllbn.py":32:59)
#loc18 = loc("/orcd/home/002/osbo/ondemand/fluid-sim/Assets/Scripts/.torch_inductor_cache/l3/cl33noceugny5m64gbkhmyxoilnvjywlaajw6zfo4pt5mzcjllbn.py":32:53)
#loc19 = loc("/orcd/home/002/osbo/ondemand/fluid-sim/Assets/Scripts/.torch_inductor_cache/l3/cl33noceugny5m64gbkhmyxoilnvjywlaajw6zfo4pt5mzcjllbn.py":32:30)
#loc20 = loc("/orcd/home/002/osbo/ondemand/fluid-sim/Assets/Scripts/.torch_inductor_cache/l3/cl33noceugny5m64gbkhmyxoilnvjywlaajw6zfo4pt5mzcjllbn.py":32:73)
#loc21 = loc("/orcd/home/002/osbo/ondemand/fluid-sim/Assets/Scripts/.torch_inductor_cache/l3/cl33noceugny5m64gbkhmyxoilnvjywlaajw6zfo4pt5mzcjllbn.py":32:65)
#loc22 = loc("/orcd/home/002/osbo/ondemand/fluid-sim/Assets/Scripts/.torch_inductor_cache/l3/cl33noceugny5m64gbkhmyxoilnvjywlaajw6zfo4pt5mzcjllbn.py":33:30)
#loc23 = loc("/orcd/home/002/osbo/ondemand/fluid-sim/Assets/Scripts/.torch_inductor_cache/l3/cl33noceugny5m64gbkhmyxoilnvjywlaajw6zfo4pt5mzcjllbn.py":33:41)
#loc24 = loc("/orcd/home/002/osbo/ondemand/fluid-sim/Assets/Scripts/.torch_inductor_cache/l3/cl33noceugny5m64gbkhmyxoilnvjywlaajw6zfo4pt5mzcjllbn.py":34:18)
#loc25 = loc("/orcd/home/002/osbo/ondemand/fluid-sim/Assets/Scripts/.torch_inductor_cache/l3/cl33noceugny5m64gbkhmyxoilnvjywlaajw6zfo4pt5mzcjllbn.py":35:34)
#loc26 = loc("/orcd/home/002/osbo/ondemand/fluid-sim/Assets/Scripts/.torch_inductor_cache/l3/cl33noceugny5m64gbkhmyxoilnvjywlaajw6zfo4pt5mzcjllbn.py":35:31)
#loc27 = loc("/orcd/home/002/osbo/ondemand/fluid-sim/Assets/Scripts/.torch_inductor_cache/l3/cl33noceugny5m64gbkhmyxoilnvjywlaajw6zfo4pt5mzcjllbn.py":35:46)
#loc28 = loc("/orcd/home/002/osbo/ondemand/fluid-sim/Assets/Scripts/.torch_inductor_cache/l3/cl33noceugny5m64gbkhmyxoilnvjywlaajw6zfo4pt5mzcjllbn.py":35:41)
#loc29 = loc("/orcd/home/002/osbo/ondemand/fluid-sim/Assets/Scripts/.torch_inductor_cache/l3/cl33noceugny5m64gbkhmyxoilnvjywlaajw6zfo4pt5mzcjllbn.py":35:25)
#loc30 = loc("/orcd/home/002/osbo/ondemand/fluid-sim/Assets/Scripts/.torch_inductor_cache/l3/cl33noceugny5m64gbkhmyxoilnvjywlaajw6zfo4pt5mzcjllbn.py":35:58)
#loc31 = loc("/orcd/home/002/osbo/ondemand/fluid-sim/Assets/Scripts/.torch_inductor_cache/l3/cl33noceugny5m64gbkhmyxoilnvjywlaajw6zfo4pt5mzcjllbn.py":35:4)
