#loc = loc("/orcd/home/002/osbo/ondemand/fluid-sim/Assets/Scripts/.torch_inductor_cache/rb/crbacxkps2mvvfnsmfa4x3hr2jicroriikz3prnju6nydatm763l.py":18:0)
module {
  tt.func public @triton_(%arg0: !tt.ptr<f32> {tt.divisibility = 16 : i32} loc("/orcd/home/002/osbo/ondemand/fluid-sim/Assets/Scripts/.torch_inductor_cache/rb/crbacxkps2mvvfnsmfa4x3hr2jicroriikz3prnju6nydatm763l.py":18:0), %arg1: !tt.ptr<f32> {tt.divisibility = 16 : i32} loc("/orcd/home/002/osbo/ondemand/fluid-sim/Assets/Scripts/.torch_inductor_cache/rb/crbacxkps2mvvfnsmfa4x3hr2jicroriikz3prnju6nydatm763l.py":18:0), %arg2: i32 {tt.divisibility = 16 : i32} loc("/orcd/home/002/osbo/ondemand/fluid-sim/Assets/Scripts/.torch_inductor_cache/rb/crbacxkps2mvvfnsmfa4x3hr2jicroriikz3prnju6nydatm763l.py":18:0)) attributes {noinline = false} {
    %cst = arith.constant dense<0.000000e+00> : tensor<128xf32> loc(#loc1)
    %cst_0 = arith.constant dense<18> : tensor<128xi32> loc(#loc1)
    %cst_1 = arith.constant dense<18> : tensor<128xi64> loc(#loc1)
    %cst_2 = arith.constant dense<512> : tensor<128xi32> loc(#loc1)
    %c128_i32 = arith.constant 128 : i32 loc(#loc1)
    %0 = tt.get_program_id x : i32 loc(#loc2)
    %1 = arith.muli %0, %c128_i32 : i32 loc(#loc3)
    %2 = tt.make_range {end = 128 : i32, start = 0 : i32} : tensor<128xi32> loc(#loc4)
    %3 = tt.splat %1 : i32 -> tensor<128xi32> loc(#loc5)
    %4 = arith.addi %3, %2 : tensor<128xi32> loc(#loc5)
    %5 = arith.divsi %4, %cst_2 : tensor<128xi32> loc(#loc6)
    %6 = arith.remsi %4, %cst_2 : tensor<128xi32> loc(#loc7)
    %7 = arith.extsi %5 : tensor<128xi32> to tensor<128xi64> loc(#loc8)
    %8 = arith.cmpi slt, %7, %cst_1 : tensor<128xi64> loc(#loc8)
    %9 = arith.muli %6, %cst_0 : tensor<128xi32> loc(#loc9)
    %10 = arith.addi %9, %5 : tensor<128xi32> loc(#loc10)
    %11 = tt.splat %arg0 : !tt.ptr<f32> -> tensor<128x!tt.ptr<f32>> loc(#loc11)
    %12 = tt.addptr %11, %10 : tensor<128x!tt.ptr<f32>>, tensor<128xi32> loc(#loc11)
    %13 = tt.load %12, %8, %cst evictionPolicy = evict_last : tensor<128x!tt.ptr<f32>> loc(#loc12)
    %14 = arith.select %8, %13, %cst : tensor<128xi1>, tensor<128xf32> loc(#loc13)
    %15 = tt.splat %arg1 : !tt.ptr<f32> -> tensor<128x!tt.ptr<f32>> loc(#loc14)
    %16 = tt.addptr %15, %4 : tensor<128x!tt.ptr<f32>>, tensor<128xi32> loc(#loc14)
    tt.store %16, %14 : tensor<128x!tt.ptr<f32>> loc(#loc15)
    tt.return loc(#loc16)
  } loc(#loc)
} loc(#loc)
#loc1 = loc(unknown)
#loc2 = loc("/orcd/home/002/osbo/ondemand/fluid-sim/Assets/Scripts/.torch_inductor_cache/rb/crbacxkps2mvvfnsmfa4x3hr2jicroriikz3prnju6nydatm763l.py":20:28)
#loc3 = loc("/orcd/home/002/osbo/ondemand/fluid-sim/Assets/Scripts/.torch_inductor_cache/rb/crbacxkps2mvvfnsmfa4x3hr2jicroriikz3prnju6nydatm763l.py":20:33)
#loc4 = loc("/orcd/home/002/osbo/ondemand/fluid-sim/Assets/Scripts/.torch_inductor_cache/rb/crbacxkps2mvvfnsmfa4x3hr2jicroriikz3prnju6nydatm763l.py":21:36)
#loc5 = loc("/orcd/home/002/osbo/ondemand/fluid-sim/Assets/Scripts/.torch_inductor_cache/rb/crbacxkps2mvvfnsmfa4x3hr2jicroriikz3prnju6nydatm763l.py":21:23)
#loc6 = loc("/orcd/home/002/osbo/ondemand/fluid-sim/Assets/Scripts/.torch_inductor_cache/rb/crbacxkps2mvvfnsmfa4x3hr2jicroriikz3prnju6nydatm763l.py":23:20)
#loc7 = loc("/orcd/home/002/osbo/ondemand/fluid-sim/Assets/Scripts/.torch_inductor_cache/rb/crbacxkps2mvvfnsmfa4x3hr2jicroriikz3prnju6nydatm763l.py":24:18)
#loc8 = loc("/orcd/home/002/osbo/ondemand/fluid-sim/Assets/Scripts/.torch_inductor_cache/rb/crbacxkps2mvvfnsmfa4x3hr2jicroriikz3prnju6nydatm763l.py":30:18)
#loc9 = loc("/orcd/home/002/osbo/ondemand/fluid-sim/Assets/Scripts/.torch_inductor_cache/rb/crbacxkps2mvvfnsmfa4x3hr2jicroriikz3prnju6nydatm763l.py":31:34)
#loc10 = loc("/orcd/home/002/osbo/ondemand/fluid-sim/Assets/Scripts/.torch_inductor_cache/rb/crbacxkps2mvvfnsmfa4x3hr2jicroriikz3prnju6nydatm763l.py":31:40)
#loc11 = loc("/orcd/home/002/osbo/ondemand/fluid-sim/Assets/Scripts/.torch_inductor_cache/rb/crbacxkps2mvvfnsmfa4x3hr2jicroriikz3prnju6nydatm763l.py":31:30)
#loc12 = loc("/orcd/home/002/osbo/ondemand/fluid-sim/Assets/Scripts/.torch_inductor_cache/rb/crbacxkps2mvvfnsmfa4x3hr2jicroriikz3prnju6nydatm763l.py":31:45)
#loc13 = loc("/orcd/home/002/osbo/ondemand/fluid-sim/Assets/Scripts/.torch_inductor_cache/rb/crbacxkps2mvvfnsmfa4x3hr2jicroriikz3prnju6nydatm763l.py":38:33)
#loc14 = loc("/orcd/home/002/osbo/ondemand/fluid-sim/Assets/Scripts/.torch_inductor_cache/rb/crbacxkps2mvvfnsmfa4x3hr2jicroriikz3prnju6nydatm763l.py":39:25)
#loc15 = loc("/orcd/home/002/osbo/ondemand/fluid-sim/Assets/Scripts/.torch_inductor_cache/rb/crbacxkps2mvvfnsmfa4x3hr2jicroriikz3prnju6nydatm763l.py":39:37)
#loc16 = loc("/orcd/home/002/osbo/ondemand/fluid-sim/Assets/Scripts/.torch_inductor_cache/rb/crbacxkps2mvvfnsmfa4x3hr2jicroriikz3prnju6nydatm763l.py":39:4)
