#loc = loc("/orcd/home/002/osbo/ondemand/fluid-sim/Assets/Scripts/.torch_inductor_cache/mo/cmoub5ibwuwvdnzk5huz2aaq2jqeunzphtjhcmmmwgko3v426tls.py":18:0)
module {
  tt.func public @triton_(%arg0: !tt.ptr<f32> {tt.divisibility = 16 : i32} loc("/orcd/home/002/osbo/ondemand/fluid-sim/Assets/Scripts/.torch_inductor_cache/mo/cmoub5ibwuwvdnzk5huz2aaq2jqeunzphtjhcmmmwgko3v426tls.py":18:0), %arg1: !tt.ptr<f32> {tt.divisibility = 16 : i32} loc("/orcd/home/002/osbo/ondemand/fluid-sim/Assets/Scripts/.torch_inductor_cache/mo/cmoub5ibwuwvdnzk5huz2aaq2jqeunzphtjhcmmmwgko3v426tls.py":18:0), %arg2: !tt.ptr<f32> {tt.divisibility = 16 : i32} loc("/orcd/home/002/osbo/ondemand/fluid-sim/Assets/Scripts/.torch_inductor_cache/mo/cmoub5ibwuwvdnzk5huz2aaq2jqeunzphtjhcmmmwgko3v426tls.py":18:0), %arg3: i32 {tt.divisibility = 16 : i32} loc("/orcd/home/002/osbo/ondemand/fluid-sim/Assets/Scripts/.torch_inductor_cache/mo/cmoub5ibwuwvdnzk5huz2aaq2jqeunzphtjhcmmmwgko3v426tls.py":18:0), %arg4: i32 loc("/orcd/home/002/osbo/ondemand/fluid-sim/Assets/Scripts/.torch_inductor_cache/mo/cmoub5ibwuwvdnzk5huz2aaq2jqeunzphtjhcmmmwgko3v426tls.py":18:0)) attributes {noinline = false} {
    %cst = arith.constant dense<33> : tensor<1x32xi32> loc(#loc1)
    %cst_0 = arith.constant dense<50688> : tensor<1x32xi32> loc(#loc1)
    %cst_1 = arith.constant dense<1536> : tensor<32x1xi32> loc(#loc1)
    %cst_2 = arith.constant dense<512> : tensor<1x32xi32> loc(#loc1)
    %cst_3 = arith.constant dense<33> : tensor<32x1xi32> loc(#loc1)
    %c32_i32 = arith.constant 32 : i32 loc(#loc1)
    %0 = tt.get_program_id y : i32 loc(#loc2)
    %1 = arith.muli %0, %c32_i32 : i32 loc(#loc3)
    %2 = tt.make_range {end = 32 : i32, start = 0 : i32} : tensor<32xi32> loc(#loc4)
    %3 = tt.expand_dims %2 {axis = 0 : i32} : tensor<32xi32> -> tensor<1x32xi32> loc(#loc5)
    %4 = tt.splat %1 : i32 -> tensor<1x32xi32> loc(#loc6)
    %5 = arith.addi %4, %3 : tensor<1x32xi32> loc(#loc6)
    %6 = tt.get_program_id x : i32 loc(#loc7)
    %7 = arith.muli %6, %c32_i32 : i32 loc(#loc8)
    %8 = tt.expand_dims %2 {axis = 1 : i32} : tensor<32xi32> -> tensor<32x1xi32> loc(#loc9)
    %9 = tt.splat %7 : i32 -> tensor<32x1xi32> loc(#loc10)
    %10 = arith.addi %9, %8 : tensor<32x1xi32> loc(#loc10)
    %11 = arith.cmpi slt, %10, %cst_3 : tensor<32x1xi32> loc(#loc11)
    %12 = arith.remsi %5, %cst_2 : tensor<1x32xi32> loc(#loc12)
    %13 = arith.divsi %5, %cst_2 : tensor<1x32xi32> loc(#loc13)
    %14 = arith.addi %12, %cst_2 : tensor<1x32xi32> loc(#loc14)
    %15 = arith.muli %10, %cst_1 : tensor<32x1xi32> loc(#loc15)
    %16 = tt.broadcast %14 : tensor<1x32xi32> -> tensor<32x32xi32> loc(#loc16)
    %17 = tt.broadcast %15 : tensor<32x1xi32> -> tensor<32x32xi32> loc(#loc16)
    %18 = arith.addi %16, %17 : tensor<32x32xi32> loc(#loc16)
    %19 = arith.muli %13, %cst_0 : tensor<1x32xi32> loc(#loc17)
    %20 = tt.broadcast %19 : tensor<1x32xi32> -> tensor<32x32xi32> loc(#loc18)
    %21 = arith.addi %18, %20 : tensor<32x32xi32> loc(#loc18)
    %22 = tt.splat %arg0 : !tt.ptr<f32> -> tensor<32x32x!tt.ptr<f32>> loc(#loc19)
    %23 = tt.addptr %22, %21 : tensor<32x32x!tt.ptr<f32>>, tensor<32x32xi32> loc(#loc19)
    %24 = tt.broadcast %11 : tensor<32x1xi1> -> tensor<32x32xi1> loc(#loc20)
    %25 = tt.load %23, %24 evictionPolicy = evict_last : tensor<32x32x!tt.ptr<f32>> loc(#loc20)
    %26 = tt.splat %arg1 : !tt.ptr<f32> -> tensor<1x32x!tt.ptr<f32>> loc(#loc21)
    %27 = tt.addptr %26, %14 : tensor<1x32x!tt.ptr<f32>>, tensor<1x32xi32> loc(#loc21)
    %28 = tt.load %27 evictionPolicy = evict_last : tensor<1x32x!tt.ptr<f32>> loc(#loc22)
    %29 = tt.broadcast %28 : tensor<1x32xf32> -> tensor<32x32xf32> loc(#loc23)
    %30 = arith.addf %25, %29 : tensor<32x32xf32> loc(#loc23)
    %31 = arith.muli %5, %cst : tensor<1x32xi32> loc(#loc24)
    %32 = tt.broadcast %10 : tensor<32x1xi32> -> tensor<32x32xi32> loc(#loc25)
    %33 = tt.broadcast %31 : tensor<1x32xi32> -> tensor<32x32xi32> loc(#loc25)
    %34 = arith.addi %32, %33 : tensor<32x32xi32> loc(#loc25)
    %35 = tt.splat %arg2 : !tt.ptr<f32> -> tensor<32x32x!tt.ptr<f32>> loc(#loc26)
    %36 = tt.addptr %35, %34 : tensor<32x32x!tt.ptr<f32>>, tensor<32x32xi32> loc(#loc26)
    tt.store %36, %30, %24 : tensor<32x32x!tt.ptr<f32>> loc(#loc27)
    tt.return loc(#loc28)
  } loc(#loc)
} loc(#loc)
#loc1 = loc(unknown)
#loc2 = loc("/orcd/home/002/osbo/ondemand/fluid-sim/Assets/Scripts/.torch_inductor_cache/mo/cmoub5ibwuwvdnzk5huz2aaq2jqeunzphtjhcmmmwgko3v426tls.py":21:28)
#loc3 = loc("/orcd/home/002/osbo/ondemand/fluid-sim/Assets/Scripts/.torch_inductor_cache/mo/cmoub5ibwuwvdnzk5huz2aaq2jqeunzphtjhcmmmwgko3v426tls.py":21:33)
#loc4 = loc("/orcd/home/002/osbo/ondemand/fluid-sim/Assets/Scripts/.torch_inductor_cache/mo/cmoub5ibwuwvdnzk5huz2aaq2jqeunzphtjhcmmmwgko3v426tls.py":22:36)
#loc5 = loc("/orcd/home/002/osbo/ondemand/fluid-sim/Assets/Scripts/.torch_inductor_cache/mo/cmoub5ibwuwvdnzk5huz2aaq2jqeunzphtjhcmmmwgko3v426tls.py":22:44)
#loc6 = loc("/orcd/home/002/osbo/ondemand/fluid-sim/Assets/Scripts/.torch_inductor_cache/mo/cmoub5ibwuwvdnzk5huz2aaq2jqeunzphtjhcmmmwgko3v426tls.py":22:23)
#loc7 = loc("/orcd/home/002/osbo/ondemand/fluid-sim/Assets/Scripts/.torch_inductor_cache/mo/cmoub5ibwuwvdnzk5huz2aaq2jqeunzphtjhcmmmwgko3v426tls.py":24:28)
#loc8 = loc("/orcd/home/002/osbo/ondemand/fluid-sim/Assets/Scripts/.torch_inductor_cache/mo/cmoub5ibwuwvdnzk5huz2aaq2jqeunzphtjhcmmmwgko3v426tls.py":24:33)
#loc9 = loc("/orcd/home/002/osbo/ondemand/fluid-sim/Assets/Scripts/.torch_inductor_cache/mo/cmoub5ibwuwvdnzk5huz2aaq2jqeunzphtjhcmmmwgko3v426tls.py":25:44)
#loc10 = loc("/orcd/home/002/osbo/ondemand/fluid-sim/Assets/Scripts/.torch_inductor_cache/mo/cmoub5ibwuwvdnzk5huz2aaq2jqeunzphtjhcmmmwgko3v426tls.py":25:23)
#loc11 = loc("/orcd/home/002/osbo/ondemand/fluid-sim/Assets/Scripts/.torch_inductor_cache/mo/cmoub5ibwuwvdnzk5huz2aaq2jqeunzphtjhcmmmwgko3v426tls.py":26:21)
#loc12 = loc("/orcd/home/002/osbo/ondemand/fluid-sim/Assets/Scripts/.torch_inductor_cache/mo/cmoub5ibwuwvdnzk5huz2aaq2jqeunzphtjhcmmmwgko3v426tls.py":28:18)
#loc13 = loc("/orcd/home/002/osbo/ondemand/fluid-sim/Assets/Scripts/.torch_inductor_cache/mo/cmoub5ibwuwvdnzk5huz2aaq2jqeunzphtjhcmmmwgko3v426tls.py":29:20)
#loc14 = loc("/orcd/home/002/osbo/ondemand/fluid-sim/Assets/Scripts/.torch_inductor_cache/mo/cmoub5ibwuwvdnzk5huz2aaq2jqeunzphtjhcmmmwgko3v426tls.py":31:36)
#loc15 = loc("/orcd/home/002/osbo/ondemand/fluid-sim/Assets/Scripts/.torch_inductor_cache/mo/cmoub5ibwuwvdnzk5huz2aaq2jqeunzphtjhcmmmwgko3v426tls.py":31:47)
#loc16 = loc("/orcd/home/002/osbo/ondemand/fluid-sim/Assets/Scripts/.torch_inductor_cache/mo/cmoub5ibwuwvdnzk5huz2aaq2jqeunzphtjhcmmmwgko3v426tls.py":31:42)
#loc17 = loc("/orcd/home/002/osbo/ondemand/fluid-sim/Assets/Scripts/.torch_inductor_cache/mo/cmoub5ibwuwvdnzk5huz2aaq2jqeunzphtjhcmmmwgko3v426tls.py":31:60)
#loc18 = loc("/orcd/home/002/osbo/ondemand/fluid-sim/Assets/Scripts/.torch_inductor_cache/mo/cmoub5ibwuwvdnzk5huz2aaq2jqeunzphtjhcmmmwgko3v426tls.py":31:54)
#loc19 = loc("/orcd/home/002/osbo/ondemand/fluid-sim/Assets/Scripts/.torch_inductor_cache/mo/cmoub5ibwuwvdnzk5huz2aaq2jqeunzphtjhcmmmwgko3v426tls.py":31:30)
#loc20 = loc("/orcd/home/002/osbo/ondemand/fluid-sim/Assets/Scripts/.torch_inductor_cache/mo/cmoub5ibwuwvdnzk5huz2aaq2jqeunzphtjhcmmmwgko3v426tls.py":31:66)
#loc21 = loc("/orcd/home/002/osbo/ondemand/fluid-sim/Assets/Scripts/.torch_inductor_cache/mo/cmoub5ibwuwvdnzk5huz2aaq2jqeunzphtjhcmmmwgko3v426tls.py":32:30)
#loc22 = loc("/orcd/home/002/osbo/ondemand/fluid-sim/Assets/Scripts/.torch_inductor_cache/mo/cmoub5ibwuwvdnzk5huz2aaq2jqeunzphtjhcmmmwgko3v426tls.py":32:41)
#loc23 = loc("/orcd/home/002/osbo/ondemand/fluid-sim/Assets/Scripts/.torch_inductor_cache/mo/cmoub5ibwuwvdnzk5huz2aaq2jqeunzphtjhcmmmwgko3v426tls.py":33:18)
#loc24 = loc("/orcd/home/002/osbo/ondemand/fluid-sim/Assets/Scripts/.torch_inductor_cache/mo/cmoub5ibwuwvdnzk5huz2aaq2jqeunzphtjhcmmmwgko3v426tls.py":34:34)
#loc25 = loc("/orcd/home/002/osbo/ondemand/fluid-sim/Assets/Scripts/.torch_inductor_cache/mo/cmoub5ibwuwvdnzk5huz2aaq2jqeunzphtjhcmmmwgko3v426tls.py":34:31)
#loc26 = loc("/orcd/home/002/osbo/ondemand/fluid-sim/Assets/Scripts/.torch_inductor_cache/mo/cmoub5ibwuwvdnzk5huz2aaq2jqeunzphtjhcmmmwgko3v426tls.py":34:25)
#loc27 = loc("/orcd/home/002/osbo/ondemand/fluid-sim/Assets/Scripts/.torch_inductor_cache/mo/cmoub5ibwuwvdnzk5huz2aaq2jqeunzphtjhcmmmwgko3v426tls.py":34:46)
#loc28 = loc("/orcd/home/002/osbo/ondemand/fluid-sim/Assets/Scripts/.torch_inductor_cache/mo/cmoub5ibwuwvdnzk5huz2aaq2jqeunzphtjhcmmmwgko3v426tls.py":34:4)
