#loc = loc("/orcd/home/002/osbo/ondemand/fluid-sim/Assets/Scripts/.torch_inductor_cache/kc/ckcw6hvz4hkchxszjnbp6remofcpwi6zqziveqdzmyxgyufsrsmw.py":18:0)
#loc1 = loc(unknown)
module {
  tt.func public @triton_(%arg0: !tt.ptr<f32> {tt.divisibility = 16 : i32} loc("/orcd/home/002/osbo/ondemand/fluid-sim/Assets/Scripts/.torch_inductor_cache/kc/ckcw6hvz4hkchxszjnbp6remofcpwi6zqziveqdzmyxgyufsrsmw.py":18:0), %arg1: !tt.ptr<f32> {tt.divisibility = 16 : i32} loc("/orcd/home/002/osbo/ondemand/fluid-sim/Assets/Scripts/.torch_inductor_cache/kc/ckcw6hvz4hkchxszjnbp6remofcpwi6zqziveqdzmyxgyufsrsmw.py":18:0), %arg2: i32 {tt.divisibility = 16 : i32} loc("/orcd/home/002/osbo/ondemand/fluid-sim/Assets/Scripts/.torch_inductor_cache/kc/ckcw6hvz4hkchxszjnbp6remofcpwi6zqziveqdzmyxgyufsrsmw.py":18:0), %arg3: i32 loc("/orcd/home/002/osbo/ondemand/fluid-sim/Assets/Scripts/.torch_inductor_cache/kc/ckcw6hvz4hkchxszjnbp6remofcpwi6zqziveqdzmyxgyufsrsmw.py":18:0)) attributes {noinline = false} {
    %c8448_i32 = arith.constant 8448 : i32 loc(#loc1)
    %c1056_i32 = arith.constant 1056 : i32 loc(#loc1)
    %c33_i32 = arith.constant 33 : i32 loc(#loc1)
    %c256_i32 = arith.constant 256 : i32 loc(#loc1)
    %c32_i32 = arith.constant 32 : i32 loc(#loc1)
    %c8_i32 = arith.constant 8 : i32 loc(#loc1)
    %c11520_i32 = arith.constant 11520 : i32 loc(#loc1)
    %cst = arith.constant dense<0.000000e+00> : tensor<1x64xf32> loc(#loc1)
    %cst_0 = arith.constant dense<33> : tensor<1x64xi32> loc(#loc1)
    %0 = tt.get_program_id x : i32 loc(#loc2)
    %1 = arith.cmpi slt, %0, %c11520_i32 : i32 loc(#loc3)
    %2 = tt.splat %1 : i1 -> tensor<1x1xi1> loc(#loc3)
    %3 = tt.make_range {end = 64 : i32, start = 0 : i32} : tensor<64xi32> loc(#loc4)
    %4 = tt.expand_dims %3 {axis = 0 : i32} : tensor<64xi32> -> tensor<1x64xi32> loc(#loc5)
    %5 = arith.cmpi slt, %4, %cst_0 : tensor<1x64xi32> loc(#loc6)
    %6 = arith.remsi %0, %c8_i32 : i32 loc(#loc7)
    %7 = arith.divsi %0, %c8_i32 : i32 loc(#loc8)
    %8 = arith.remsi %7, %c32_i32 : i32 loc(#loc9)
    %9 = arith.divsi %0, %c256_i32 : i32 loc(#loc10)
    %10 = arith.muli %8, %c33_i32 : i32 loc(#loc11)
    %11 = tt.splat %10 : i32 -> tensor<1x64xi32> loc(#loc12)
    %12 = arith.addi %4, %11 : tensor<1x64xi32> loc(#loc12)
    %13 = arith.muli %6, %c1056_i32 : i32 loc(#loc13)
    %14 = tt.splat %13 : i32 -> tensor<1x64xi32> loc(#loc14)
    %15 = arith.addi %12, %14 : tensor<1x64xi32> loc(#loc14)
    %16 = arith.muli %9, %c8448_i32 : i32 loc(#loc15)
    %17 = tt.splat %16 : i32 -> tensor<1x64xi32> loc(#loc16)
    %18 = arith.addi %15, %17 : tensor<1x64xi32> loc(#loc16)
    %19 = tt.splat %arg0 : !tt.ptr<f32> -> tensor<1x64x!tt.ptr<f32>> loc(#loc17)
    %20 = tt.addptr %19, %18 : tensor<1x64x!tt.ptr<f32>>, tensor<1x64xi32> loc(#loc17)
    %21 = tt.splat %1 : i1 -> tensor<1x64xi1> loc(#loc18)
    %22 = arith.andi %5, %21 : tensor<1x64xi1> loc(#loc18)
    %23 = tt.load %20, %22, %cst : tensor<1x64x!tt.ptr<f32>> loc(#loc19)
    %24 = arith.select %22, %23, %cst : tensor<1x64xi1>, tensor<1x64xf32> loc(#loc20)
    %25 = "tt.reduce"(%24) <{axis = 1 : i32}> ({
    ^bb0(%arg4: f32 loc(unknown), %arg5: f32 loc(unknown)):
      %29 = arith.addf %arg4, %arg5 : f32 loc(#loc30)
      tt.reduce.return %29 : f32 loc(#loc28)
    }) : (tensor<1x64xf32>) -> tensor<1xf32> loc(#loc28)
    %26 = tt.expand_dims %25 {axis = 1 : i32} : tensor<1xf32> -> tensor<1x1xf32> loc(#loc24)
    %27 = tt.addptr %arg1, %0 : !tt.ptr<f32>, i32 loc(#loc25)
    %28 = tt.splat %27 : !tt.ptr<f32> -> tensor<1x1x!tt.ptr<f32>> loc(#loc25)
    tt.store %28, %26, %2 : tensor<1x1x!tt.ptr<f32>> loc(#loc26)
    tt.return loc(#loc27)
  } loc(#loc)
} loc(#loc)
#loc2 = loc("/orcd/home/002/osbo/ondemand/fluid-sim/Assets/Scripts/.torch_inductor_cache/kc/ckcw6hvz4hkchxszjnbp6remofcpwi6zqziveqdzmyxgyufsrsmw.py":22:28)
#loc3 = loc("/orcd/home/002/osbo/ondemand/fluid-sim/Assets/Scripts/.torch_inductor_cache/kc/ckcw6hvz4hkchxszjnbp6remofcpwi6zqziveqdzmyxgyufsrsmw.py":24:21)
#loc4 = loc("/orcd/home/002/osbo/ondemand/fluid-sim/Assets/Scripts/.torch_inductor_cache/kc/ckcw6hvz4hkchxszjnbp6remofcpwi6zqziveqdzmyxgyufsrsmw.py":25:26)
#loc5 = loc("/orcd/home/002/osbo/ondemand/fluid-sim/Assets/Scripts/.torch_inductor_cache/kc/ckcw6hvz4hkchxszjnbp6remofcpwi6zqziveqdzmyxgyufsrsmw.py":25:34)
#loc6 = loc("/orcd/home/002/osbo/ondemand/fluid-sim/Assets/Scripts/.torch_inductor_cache/kc/ckcw6hvz4hkchxszjnbp6remofcpwi6zqziveqdzmyxgyufsrsmw.py":27:21)
#loc7 = loc("/orcd/home/002/osbo/ondemand/fluid-sim/Assets/Scripts/.torch_inductor_cache/kc/ckcw6hvz4hkchxszjnbp6remofcpwi6zqziveqdzmyxgyufsrsmw.py":29:18)
#loc8 = loc("/orcd/home/002/osbo/ondemand/fluid-sim/Assets/Scripts/.torch_inductor_cache/kc/ckcw6hvz4hkchxszjnbp6remofcpwi6zqziveqdzmyxgyufsrsmw.py":30:20)
#loc9 = loc("/orcd/home/002/osbo/ondemand/fluid-sim/Assets/Scripts/.torch_inductor_cache/kc/ckcw6hvz4hkchxszjnbp6remofcpwi6zqziveqdzmyxgyufsrsmw.py":30:25)
#loc10 = loc("/orcd/home/002/osbo/ondemand/fluid-sim/Assets/Scripts/.torch_inductor_cache/kc/ckcw6hvz4hkchxszjnbp6remofcpwi6zqziveqdzmyxgyufsrsmw.py":31:20)
#loc11 = loc("/orcd/home/002/osbo/ondemand/fluid-sim/Assets/Scripts/.torch_inductor_cache/kc/ckcw6hvz4hkchxszjnbp6remofcpwi6zqziveqdzmyxgyufsrsmw.py":33:39)
#loc12 = loc("/orcd/home/002/osbo/ondemand/fluid-sim/Assets/Scripts/.torch_inductor_cache/kc/ckcw6hvz4hkchxszjnbp6remofcpwi6zqziveqdzmyxgyufsrsmw.py":33:36)
#loc13 = loc("/orcd/home/002/osbo/ondemand/fluid-sim/Assets/Scripts/.torch_inductor_cache/kc/ckcw6hvz4hkchxszjnbp6remofcpwi6zqziveqdzmyxgyufsrsmw.py":33:51)
#loc14 = loc("/orcd/home/002/osbo/ondemand/fluid-sim/Assets/Scripts/.torch_inductor_cache/kc/ckcw6hvz4hkchxszjnbp6remofcpwi6zqziveqdzmyxgyufsrsmw.py":33:46)
#loc15 = loc("/orcd/home/002/osbo/ondemand/fluid-sim/Assets/Scripts/.torch_inductor_cache/kc/ckcw6hvz4hkchxszjnbp6remofcpwi6zqziveqdzmyxgyufsrsmw.py":33:63)
#loc16 = loc("/orcd/home/002/osbo/ondemand/fluid-sim/Assets/Scripts/.torch_inductor_cache/kc/ckcw6hvz4hkchxszjnbp6remofcpwi6zqziveqdzmyxgyufsrsmw.py":33:58)
#loc17 = loc("/orcd/home/002/osbo/ondemand/fluid-sim/Assets/Scripts/.torch_inductor_cache/kc/ckcw6hvz4hkchxszjnbp6remofcpwi6zqziveqdzmyxgyufsrsmw.py":33:30)
#loc18 = loc("/orcd/home/002/osbo/ondemand/fluid-sim/Assets/Scripts/.torch_inductor_cache/kc/ckcw6hvz4hkchxszjnbp6remofcpwi6zqziveqdzmyxgyufsrsmw.py":33:77)
#loc19 = loc("/orcd/home/002/osbo/ondemand/fluid-sim/Assets/Scripts/.torch_inductor_cache/kc/ckcw6hvz4hkchxszjnbp6remofcpwi6zqziveqdzmyxgyufsrsmw.py":33:69)
#loc20 = loc("/orcd/home/002/osbo/ondemand/fluid-sim/Assets/Scripts/.torch_inductor_cache/kc/ckcw6hvz4hkchxszjnbp6remofcpwi6zqziveqdzmyxgyufsrsmw.py":35:41)
#loc21 = loc("/home/osbo/.conda/envs/fluid/lib/python3.12/site-packages/triton/language/standard.py":267:36)
#loc22 = loc("/orcd/home/002/osbo/ondemand/fluid-sim/Assets/Scripts/.torch_inductor_cache/kc/ckcw6hvz4hkchxszjnbp6remofcpwi6zqziveqdzmyxgyufsrsmw.py":36:24)
#loc23 = loc("/home/osbo/.conda/envs/fluid/lib/python3.12/site-packages/triton/language/standard.py":256:15)
#loc24 = loc("/orcd/home/002/osbo/ondemand/fluid-sim/Assets/Scripts/.torch_inductor_cache/kc/ckcw6hvz4hkchxszjnbp6remofcpwi6zqziveqdzmyxgyufsrsmw.py":36:27)
#loc25 = loc("/orcd/home/002/osbo/ondemand/fluid-sim/Assets/Scripts/.torch_inductor_cache/kc/ckcw6hvz4hkchxszjnbp6remofcpwi6zqziveqdzmyxgyufsrsmw.py":37:25)
#loc26 = loc("/orcd/home/002/osbo/ondemand/fluid-sim/Assets/Scripts/.torch_inductor_cache/kc/ckcw6hvz4hkchxszjnbp6remofcpwi6zqziveqdzmyxgyufsrsmw.py":37:36)
#loc27 = loc("/orcd/home/002/osbo/ondemand/fluid-sim/Assets/Scripts/.torch_inductor_cache/kc/ckcw6hvz4hkchxszjnbp6remofcpwi6zqziveqdzmyxgyufsrsmw.py":37:4)
#loc28 = loc(callsite(#loc21 at #loc22))
#loc29 = loc(callsite(#loc23 at #loc21))
#loc30 = loc(callsite(#loc29 at #loc22))
