#loc = loc("/orcd/home/002/osbo/ondemand/fluid-sim/Assets/Scripts/.torch_inductor_cache/rs/crsddsnvmnd4ob3jbm7uhjgdo46cl735cyjs7rceqgf2k4fw2vrp.py":18:0)
#loc1 = loc(unknown)
module {
  tt.func public @triton_(%arg0: !tt.ptr<f32> {tt.divisibility = 16 : i32} loc("/orcd/home/002/osbo/ondemand/fluid-sim/Assets/Scripts/.torch_inductor_cache/rs/crsddsnvmnd4ob3jbm7uhjgdo46cl735cyjs7rceqgf2k4fw2vrp.py":18:0), %arg1: i32 {tt.divisibility = 16 : i32} loc("/orcd/home/002/osbo/ondemand/fluid-sim/Assets/Scripts/.torch_inductor_cache/rs/crsddsnvmnd4ob3jbm7uhjgdo46cl735cyjs7rceqgf2k4fw2vrp.py":18:0), %arg2: i32 {tt.divisibility = 16 : i32} loc("/orcd/home/002/osbo/ondemand/fluid-sim/Assets/Scripts/.torch_inductor_cache/rs/crsddsnvmnd4ob3jbm7uhjgdo46cl735cyjs7rceqgf2k4fw2vrp.py":18:0)) attributes {noinline = false} {
    %cst = arith.constant dense<16384> : tensor<8x1xi32> loc(#loc1)
    %cst_0 = arith.constant dense<129> : tensor<8x1xi32> loc(#loc1)
    %cst_1 = arith.constant dense<1.000000e+00> : tensor<8x1xf32> loc(#loc1)
    %cst_2 = arith.constant dense<1.000000e+00> : tensor<8x128xf32> loc(#loc1)
    %cst_3 = arith.constant dense<128> : tensor<8x1xi32> loc(#loc1)
    %c8_i32 = arith.constant 8 : i32 loc(#loc1)
    %0 = tt.get_program_id x : i32 loc(#loc2)
    %1 = arith.muli %0, %c8_i32 : i32 loc(#loc3)
    %2 = tt.make_range {end = 8 : i32, start = 0 : i32} : tensor<8xi32> loc(#loc4)
    %3 = tt.expand_dims %2 {axis = 1 : i32} : tensor<8xi32> -> tensor<8x1xi32> loc(#loc5)
    %4 = tt.splat %1 : i32 -> tensor<8x1xi32> loc(#loc6)
    %5 = arith.addi %4, %3 : tensor<8x1xi32> loc(#loc6)
    %6 = arith.remsi %5, %cst_3 : tensor<8x1xi32> loc(#loc7)
    %7 = arith.divsi %5, %cst_3 : tensor<8x1xi32> loc(#loc8)
    %8 = "tt.reduce"(%cst_2) <{axis = 1 : i32}> ({
    ^bb0(%arg3: f32 loc(unknown), %arg4: f32 loc(unknown)):
      %19 = arith.addf %arg3, %arg4 : f32 loc(#loc28)
      tt.reduce.return %19 : f32 loc(#loc24)
    }) : (tensor<8x128xf32>) -> tensor<8xf32> loc(#loc24)
    %9 = tt.expand_dims %8 {axis = 1 : i32} : tensor<8xf32> -> tensor<8x1xf32> loc(#loc12)
    %10 = arith.cmpf olt, %9, %cst_1 : tensor<8x1xf32> loc(#loc13)
    %11 = arith.uitofp %10 : tensor<8x1xi1> to tensor<8x1xf32> loc(#loc14)
    %12 = arith.cmpf ogt, %cst_1, %11 : tensor<8x1xf32> loc(#loc26)
    %13 = arith.select %12, %cst_1, %11 : tensor<8x1xi1>, tensor<8x1xf32> loc(#loc27)
    %14 = arith.muli %6, %cst_0 : tensor<8x1xi32> loc(#loc18)
    %15 = arith.muli %7, %cst : tensor<8x1xi32> loc(#loc19)
    %16 = arith.addi %14, %15 : tensor<8x1xi32> loc(#loc20)
    %17 = tt.splat %arg0 : !tt.ptr<f32> -> tensor<8x1x!tt.ptr<f32>> loc(#loc21)
    %18 = tt.addptr %17, %16 : tensor<8x1x!tt.ptr<f32>>, tensor<8x1xi32> loc(#loc21)
    tt.store %18, %13 : tensor<8x1x!tt.ptr<f32>> loc(#loc22)
    tt.return loc(#loc23)
  } loc(#loc)
} loc(#loc)
#loc2 = loc("/orcd/home/002/osbo/ondemand/fluid-sim/Assets/Scripts/.torch_inductor_cache/rs/crsddsnvmnd4ob3jbm7uhjgdo46cl735cyjs7rceqgf2k4fw2vrp.py":22:28)
#loc3 = loc("/orcd/home/002/osbo/ondemand/fluid-sim/Assets/Scripts/.torch_inductor_cache/rs/crsddsnvmnd4ob3jbm7uhjgdo46cl735cyjs7rceqgf2k4fw2vrp.py":22:33)
#loc4 = loc("/orcd/home/002/osbo/ondemand/fluid-sim/Assets/Scripts/.torch_inductor_cache/rs/crsddsnvmnd4ob3jbm7uhjgdo46cl735cyjs7rceqgf2k4fw2vrp.py":23:36)
#loc5 = loc("/orcd/home/002/osbo/ondemand/fluid-sim/Assets/Scripts/.torch_inductor_cache/rs/crsddsnvmnd4ob3jbm7uhjgdo46cl735cyjs7rceqgf2k4fw2vrp.py":23:44)
#loc6 = loc("/orcd/home/002/osbo/ondemand/fluid-sim/Assets/Scripts/.torch_inductor_cache/rs/crsddsnvmnd4ob3jbm7uhjgdo46cl735cyjs7rceqgf2k4fw2vrp.py":23:23)
#loc7 = loc("/orcd/home/002/osbo/ondemand/fluid-sim/Assets/Scripts/.torch_inductor_cache/rs/crsddsnvmnd4ob3jbm7uhjgdo46cl735cyjs7rceqgf2k4fw2vrp.py":29:18)
#loc8 = loc("/orcd/home/002/osbo/ondemand/fluid-sim/Assets/Scripts/.torch_inductor_cache/rs/crsddsnvmnd4ob3jbm7uhjgdo46cl735cyjs7rceqgf2k4fw2vrp.py":30:20)
#loc9 = loc("/home/osbo/.conda/envs/fluid/lib/python3.12/site-packages/triton/language/standard.py":267:36)
#loc10 = loc("/orcd/home/002/osbo/ondemand/fluid-sim/Assets/Scripts/.torch_inductor_cache/rs/crsddsnvmnd4ob3jbm7uhjgdo46cl735cyjs7rceqgf2k4fw2vrp.py":33:24)
#loc11 = loc("/home/osbo/.conda/envs/fluid/lib/python3.12/site-packages/triton/language/standard.py":256:15)
#loc12 = loc("/orcd/home/002/osbo/ondemand/fluid-sim/Assets/Scripts/.torch_inductor_cache/rs/crsddsnvmnd4ob3jbm7uhjgdo46cl735cyjs7rceqgf2k4fw2vrp.py":33:27)
#loc13 = loc("/orcd/home/002/osbo/ondemand/fluid-sim/Assets/Scripts/.torch_inductor_cache/rs/crsddsnvmnd4ob3jbm7uhjgdo46cl735cyjs7rceqgf2k4fw2vrp.py":34:18)
#loc14 = loc("/orcd/home/002/osbo/ondemand/fluid-sim/Assets/Scripts/.torch_inductor_cache/rs/crsddsnvmnd4ob3jbm7uhjgdo46cl735cyjs7rceqgf2k4fw2vrp.py":35:19)
#loc15 = loc("/home/osbo/.conda/envs/fluid/lib/python3.12/site-packages/torch/_inductor/runtime/triton_helpers.py":82:15)
#loc16 = loc("/orcd/home/002/osbo/ondemand/fluid-sim/Assets/Scripts/.torch_inductor_cache/rs/crsddsnvmnd4ob3jbm7uhjgdo46cl735cyjs7rceqgf2k4fw2vrp.py":36:40)
#loc17 = loc("/home/osbo/.conda/envs/fluid/lib/python3.12/site-packages/torch/_inductor/runtime/triton_helpers.py":85:29)
#loc18 = loc("/orcd/home/002/osbo/ondemand/fluid-sim/Assets/Scripts/.torch_inductor_cache/rs/crsddsnvmnd4ob3jbm7uhjgdo46cl735cyjs7rceqgf2k4fw2vrp.py":37:30)
#loc19 = loc("/orcd/home/002/osbo/ondemand/fluid-sim/Assets/Scripts/.torch_inductor_cache/rs/crsddsnvmnd4ob3jbm7uhjgdo46cl735cyjs7rceqgf2k4fw2vrp.py":37:43)
#loc20 = loc("/orcd/home/002/osbo/ondemand/fluid-sim/Assets/Scripts/.torch_inductor_cache/rs/crsddsnvmnd4ob3jbm7uhjgdo46cl735cyjs7rceqgf2k4fw2vrp.py":37:37)
#loc21 = loc("/orcd/home/002/osbo/ondemand/fluid-sim/Assets/Scripts/.torch_inductor_cache/rs/crsddsnvmnd4ob3jbm7uhjgdo46cl735cyjs7rceqgf2k4fw2vrp.py":37:25)
#loc22 = loc("/orcd/home/002/osbo/ondemand/fluid-sim/Assets/Scripts/.torch_inductor_cache/rs/crsddsnvmnd4ob3jbm7uhjgdo46cl735cyjs7rceqgf2k4fw2vrp.py":37:55)
#loc23 = loc("/orcd/home/002/osbo/ondemand/fluid-sim/Assets/Scripts/.torch_inductor_cache/rs/crsddsnvmnd4ob3jbm7uhjgdo46cl735cyjs7rceqgf2k4fw2vrp.py":37:4)
#loc24 = loc(callsite(#loc9 at #loc10))
#loc25 = loc(callsite(#loc11 at #loc9))
#loc26 = loc(callsite(#loc15 at #loc16))
#loc27 = loc(callsite(#loc17 at #loc16))
#loc28 = loc(callsite(#loc25 at #loc10))
