#loc = loc("/orcd/home/002/osbo/ondemand/fluid-sim/Assets/Scripts/.torch_inductor_cache/5n/c5nkkt7e3667xgerk3t5225d24gvb7rdk3mvjjyu6bwcuzdrkmxh.py":18:0)
#loc1 = loc(unknown)
module {
  tt.func public @triton_(%arg0: !tt.ptr<f32> {tt.divisibility = 16 : i32} loc("/orcd/home/002/osbo/ondemand/fluid-sim/Assets/Scripts/.torch_inductor_cache/5n/c5nkkt7e3667xgerk3t5225d24gvb7rdk3mvjjyu6bwcuzdrkmxh.py":18:0), %arg1: !tt.ptr<f32> {tt.divisibility = 16 : i32} loc("/orcd/home/002/osbo/ondemand/fluid-sim/Assets/Scripts/.torch_inductor_cache/5n/c5nkkt7e3667xgerk3t5225d24gvb7rdk3mvjjyu6bwcuzdrkmxh.py":18:0), %arg2: !tt.ptr<i64> {tt.divisibility = 16 : i32} loc("/orcd/home/002/osbo/ondemand/fluid-sim/Assets/Scripts/.torch_inductor_cache/5n/c5nkkt7e3667xgerk3t5225d24gvb7rdk3mvjjyu6bwcuzdrkmxh.py":18:0), %arg3: !tt.ptr<f32> {tt.divisibility = 16 : i32} loc("/orcd/home/002/osbo/ondemand/fluid-sim/Assets/Scripts/.torch_inductor_cache/5n/c5nkkt7e3667xgerk3t5225d24gvb7rdk3mvjjyu6bwcuzdrkmxh.py":18:0), %arg4: !tt.ptr<f32> {tt.divisibility = 16 : i32} loc("/orcd/home/002/osbo/ondemand/fluid-sim/Assets/Scripts/.torch_inductor_cache/5n/c5nkkt7e3667xgerk3t5225d24gvb7rdk3mvjjyu6bwcuzdrkmxh.py":18:0), %arg5: !tt.ptr<f32> {tt.divisibility = 16 : i32} loc("/orcd/home/002/osbo/ondemand/fluid-sim/Assets/Scripts/.torch_inductor_cache/5n/c5nkkt7e3667xgerk3t5225d24gvb7rdk3mvjjyu6bwcuzdrkmxh.py":18:0), %arg6: !tt.ptr<f32> {tt.divisibility = 16 : i32} loc("/orcd/home/002/osbo/ondemand/fluid-sim/Assets/Scripts/.torch_inductor_cache/5n/c5nkkt7e3667xgerk3t5225d24gvb7rdk3mvjjyu6bwcuzdrkmxh.py":18:0), %arg7: !tt.ptr<f32> {tt.divisibility = 16 : i32} loc("/orcd/home/002/osbo/ondemand/fluid-sim/Assets/Scripts/.torch_inductor_cache/5n/c5nkkt7e3667xgerk3t5225d24gvb7rdk3mvjjyu6bwcuzdrkmxh.py":18:0), %arg8: !tt.ptr<f32> {tt.divisibility = 16 : i32} loc("/orcd/home/002/osbo/ondemand/fluid-sim/Assets/Scripts/.torch_inductor_cache/5n/c5nkkt7e3667xgerk3t5225d24gvb7rdk3mvjjyu6bwcuzdrkmxh.py":18:0), %arg9: !tt.ptr<f32> {tt.divisibility = 16 : i32} loc("/orcd/home/002/osbo/ondemand/fluid-sim/Assets/Scripts/.torch_inductor_cache/5n/c5nkkt7e3667xgerk3t5225d24gvb7rdk3mvjjyu6bwcuzdrkmxh.py":18:0), %arg10: !tt.ptr<f32> {tt.divisibility = 16 : i32} loc("/orcd/home/002/osbo/ondemand/fluid-sim/Assets/Scripts/.torch_inductor_cache/5n/c5nkkt7e3667xgerk3t5225d24gvb7rdk3mvjjyu6bwcuzdrkmxh.py":18:0), %arg11: i32 {tt.divisibility = 16 : i32} loc("/orcd/home/002/osbo/ondemand/fluid-sim/Assets/Scripts/.torch_inductor_cache/5n/c5nkkt7e3667xgerk3t5225d24gvb7rdk3mvjjyu6bwcuzdrkmxh.py":18:0), %arg12: i32 {tt.divisibility = 16 : i32} loc("/orcd/home/002/osbo/ondemand/fluid-sim/Assets/Scripts/.torch_inductor_cache/5n/c5nkkt7e3667xgerk3t5225d24gvb7rdk3mvjjyu6bwcuzdrkmxh.py":18:0)) attributes {noinline = false} {
    %c128_i32 = arith.constant 128 : i32 loc(#loc1)
    %c64_i32 = arith.constant 64 : i32 loc(#loc1)
    %c6976_i32 = arith.constant 6976 : i32 loc(#loc1)
    %cst = arith.constant dense<9.99999974E-6> : tensor<1x1xf32> loc(#loc1)
    %cst_0 = arith.constant dense<6.400000e+01> : tensor<1x1xf32> loc(#loc1)
    %cst_1 = arith.constant dense<2.000000e+00> : tensor<1x64xf32> loc(#loc1)
    %cst_2 = arith.constant dense<64> : tensor<1x64xi32> loc(#loc1)
    %cst_3 = arith.constant dense<0.000000e+00> : tensor<1x64xf32> loc(#loc1)
    %0 = tt.get_program_id x : i32 loc(#loc2)
    %1 = arith.cmpi slt, %0, %c6976_i32 : i32 loc(#loc3)
    %2 = tt.splat %1 : i1 -> tensor<1x1xi1> loc(#loc3)
    %3 = tt.make_range {end = 64 : i32, start = 0 : i32} : tensor<64xi32> loc(#loc4)
    %4 = tt.expand_dims %3 {axis = 0 : i32} : tensor<64xi32> -> tensor<1x64xi32> loc(#loc5)
    %5 = arith.divsi %0, %c64_i32 : i32 loc(#loc6)
    %6 = arith.muli %0, %c128_i32 : i32 loc(#loc7)
    %7 = tt.splat %6 : i32 -> tensor<1x64xi32> loc(#loc8)
    %8 = arith.addi %4, %7 : tensor<1x64xi32> loc(#loc8)
    %9 = tt.splat %arg1 : !tt.ptr<f32> -> tensor<1x64x!tt.ptr<f32>> loc(#loc9)
    %10 = tt.addptr %9, %8 : tensor<1x64x!tt.ptr<f32>>, tensor<1x64xi32> loc(#loc9)
    %11 = tt.splat %1 : i1 -> tensor<1x64xi1> loc(#loc10)
    %12 = tt.load %10, %11, %cst_3 : tensor<1x64x!tt.ptr<f32>> loc(#loc10)
    %13 = tt.addptr %arg2, %5 : !tt.ptr<i64>, i32 loc(#loc11)
    %14 = tt.splat %13 : !tt.ptr<i64> -> tensor<1x1x!tt.ptr<i64>> loc(#loc11)
    %15 = tt.load %14, %2 evictionPolicy = evict_last : tensor<1x1x!tt.ptr<i64>> loc(#loc12)
    %16 = tt.splat %arg3 : !tt.ptr<f32> -> tensor<1x64x!tt.ptr<f32>> loc(#loc13)
    %17 = tt.addptr %16, %8 : tensor<1x64x!tt.ptr<f32>>, tensor<1x64xi32> loc(#loc13)
    %18 = tt.load %17, %11, %cst_3 : tensor<1x64x!tt.ptr<f32>> loc(#loc14)
    %19 = arith.addi %4, %cst_2 : tensor<1x64xi32> loc(#loc15)
    %20 = arith.addi %19, %7 : tensor<1x64xi32> loc(#loc16)
    %21 = tt.addptr %9, %20 : tensor<1x64x!tt.ptr<f32>>, tensor<1x64xi32> loc(#loc17)
    %22 = tt.load %21, %11, %cst_3 : tensor<1x64x!tt.ptr<f32>> loc(#loc18)
    %23 = tt.addptr %16, %20 : tensor<1x64x!tt.ptr<f32>>, tensor<1x64xi32> loc(#loc19)
    %24 = tt.load %23, %11, %cst_3 : tensor<1x64x!tt.ptr<f32>> loc(#loc20)
    %25 = arith.muli %0, %c64_i32 : i32 loc(#loc21)
    %26 = tt.splat %25 : i32 -> tensor<1x64xi32> loc(#loc22)
    %27 = arith.addi %4, %26 : tensor<1x64xi32> loc(#loc22)
    %28 = tt.splat %arg4 : !tt.ptr<f32> -> tensor<1x64x!tt.ptr<f32>> loc(#loc23)
    %29 = tt.addptr %28, %27 : tensor<1x64x!tt.ptr<f32>>, tensor<1x64xi32> loc(#loc23)
    %30 = tt.load %29, %11, %cst_3 : tensor<1x64x!tt.ptr<f32>> loc(#loc24)
    %31 = tt.splat %arg5 : !tt.ptr<f32> -> tensor<1x64x!tt.ptr<f32>> loc(#loc25)
    %32 = tt.addptr %31, %27 : tensor<1x64x!tt.ptr<f32>>, tensor<1x64xi32> loc(#loc25)
    %33 = tt.load %32, %11, %cst_3 : tensor<1x64x!tt.ptr<f32>> loc(#loc26)
    %34 = tt.splat %arg6 : !tt.ptr<f32> -> tensor<1x64x!tt.ptr<f32>> loc(#loc27)
    %35 = tt.addptr %34, %4 : tensor<1x64x!tt.ptr<f32>>, tensor<1x64xi32> loc(#loc27)
    %36 = tt.load %35 evictionPolicy = evict_last : tensor<1x64x!tt.ptr<f32>> loc(#loc28)
    %37 = tt.splat %arg0 : !tt.ptr<f32> -> tensor<1x64x!tt.ptr<f32>> loc(#loc29)
    %38 = tt.addptr %37, %27 : tensor<1x64x!tt.ptr<f32>>, tensor<1x64xi32> loc(#loc29)
    %39 = tt.load %38, %11, %cst_3 : tensor<1x64x!tt.ptr<f32>> loc(#loc30)
    %40 = tt.splat %arg7 : !tt.ptr<f32> -> tensor<1x64x!tt.ptr<f32>> loc(#loc31)
    %41 = tt.addptr %40, %4 : tensor<1x64x!tt.ptr<f32>>, tensor<1x64xi32> loc(#loc31)
    %42 = tt.load %41 evictionPolicy = evict_last : tensor<1x64x!tt.ptr<f32>> loc(#loc32)
    %43 = tt.splat %arg8 : !tt.ptr<f32> -> tensor<1x64x!tt.ptr<f32>> loc(#loc33)
    %44 = tt.addptr %43, %4 : tensor<1x64x!tt.ptr<f32>>, tensor<1x64xi32> loc(#loc33)
    %45 = tt.load %44 evictionPolicy = evict_last : tensor<1x64x!tt.ptr<f32>> loc(#loc34)
    %46 = tt.splat %arg9 : !tt.ptr<f32> -> tensor<1x64x!tt.ptr<f32>> loc(#loc35)
    %47 = tt.addptr %46, %4 : tensor<1x64x!tt.ptr<f32>>, tensor<1x64xi32> loc(#loc35)
    %48 = tt.load %47 evictionPolicy = evict_last : tensor<1x64x!tt.ptr<f32>> loc(#loc36)
    %49 = arith.sitofp %15 : tensor<1x1xi64> to tensor<1x1xf32> loc(#loc37)
    %50 = tt.broadcast %49 : tensor<1x1xf32> -> tensor<1x64xf32> loc(#loc38)
    %51 = arith.divf %12, %50 : tensor<1x64xf32> loc(#loc38)
    %52 = arith.divf %18, %50 : tensor<1x64xf32> loc(#loc39)
    %53 = arith.addf %51, %52 : tensor<1x64xf32> loc(#loc40)
    %54 = arith.divf %22, %50 : tensor<1x64xf32> loc(#loc41)
    %55 = arith.divf %24, %50 : tensor<1x64xf32> loc(#loc42)
    %56 = arith.addf %54, %55 : tensor<1x64xf32> loc(#loc43)
    %57 = arith.addf %53, %56 : tensor<1x64xf32> loc(#loc44)
    %58 = arith.divf %57, %cst_1 : tensor<1x64xf32> loc(#loc45)
    %59 = arith.addf %33, %36 : tensor<1x64xf32> loc(#loc46)
    %60 = arith.addf %30, %59 : tensor<1x64xf32> loc(#loc47)
    %61 = arith.addf %39, %42 : tensor<1x64xf32> loc(#loc48)
    %62 = arith.addf %60, %61 : tensor<1x64xf32> loc(#loc49)
    %63 = arith.addf %58, %62 : tensor<1x64xf32> loc(#loc50)
    %64 = arith.select %11, %63, %cst_3 : tensor<1x64xi1>, tensor<1x64xf32> loc(#loc51)
    %65 = "tt.reduce"(%64) <{axis = 1 : i32}> ({
    ^bb0(%arg13: f32 loc(unknown), %arg14: f32 loc(unknown)):
      %83 = arith.addf %arg13, %arg14 : f32 loc(#loc75)
      tt.reduce.return %83 : f32 loc(#loc72)
    }) : (tensor<1x64xf32>) -> tensor<1xf32> loc(#loc72)
    %66 = tt.expand_dims %65 {axis = 1 : i32} : tensor<1xf32> -> tensor<1x1xf32> loc(#loc55)
    %67 = arith.divf %66, %cst_0 : tensor<1x1xf32> loc(#loc56)
    %68 = tt.broadcast %67 : tensor<1x1xf32> -> tensor<1x64xf32> loc(#loc57)
    %69 = arith.subf %63, %68 : tensor<1x64xf32> loc(#loc57)
    %70 = arith.mulf %69, %69 : tensor<1x64xf32> loc(#loc58)
    %71 = arith.select %11, %70, %cst_3 : tensor<1x64xi1>, tensor<1x64xf32> loc(#loc59)
    %72 = "tt.reduce"(%71) <{axis = 1 : i32}> ({
    ^bb0(%arg13: f32 loc(unknown), %arg14: f32 loc(unknown)):
      %83 = arith.addf %arg13, %arg14 : f32 loc(#loc76)
      tt.reduce.return %83 : f32 loc(#loc74)
    }) : (tensor<1x64xf32>) -> tensor<1xf32> loc(#loc74)
    %73 = tt.expand_dims %72 {axis = 1 : i32} : tensor<1xf32> -> tensor<1x1xf32> loc(#loc61)
    %74 = arith.divf %73, %cst_0 : tensor<1x1xf32> loc(#loc62)
    %75 = arith.addf %74, %cst : tensor<1x1xf32> loc(#loc63)
    %76 = tt.extern_elementwise %75 {libname = "", libpath = "", pure = true, symbol = "__nv_rsqrtf"} : (tensor<1x1xf32>) -> tensor<1x1xf32> loc(#loc64)
    %77 = tt.broadcast %76 : tensor<1x1xf32> -> tensor<1x64xf32> loc(#loc65)
    %78 = arith.mulf %69, %77 : tensor<1x64xf32> loc(#loc65)
    %79 = arith.mulf %78, %45 : tensor<1x64xf32> loc(#loc66)
    %80 = arith.addf %79, %48 : tensor<1x64xf32> loc(#loc67)
    tt.store %38, %63, %11 : tensor<1x64x!tt.ptr<f32>> loc(#loc68)
    %81 = tt.splat %arg10 : !tt.ptr<f32> -> tensor<1x64x!tt.ptr<f32>> loc(#loc69)
    %82 = tt.addptr %81, %27 : tensor<1x64x!tt.ptr<f32>>, tensor<1x64xi32> loc(#loc69)
    tt.store %82, %80, %11 : tensor<1x64x!tt.ptr<f32>> loc(#loc70)
    tt.return loc(#loc71)
  } loc(#loc)
} loc(#loc)
#loc2 = loc("/orcd/home/002/osbo/ondemand/fluid-sim/Assets/Scripts/.torch_inductor_cache/5n/c5nkkt7e3667xgerk3t5225d24gvb7rdk3mvjjyu6bwcuzdrkmxh.py":22:28)
#loc3 = loc("/orcd/home/002/osbo/ondemand/fluid-sim/Assets/Scripts/.torch_inductor_cache/5n/c5nkkt7e3667xgerk3t5225d24gvb7rdk3mvjjyu6bwcuzdrkmxh.py":24:21)
#loc4 = loc("/orcd/home/002/osbo/ondemand/fluid-sim/Assets/Scripts/.torch_inductor_cache/5n/c5nkkt7e3667xgerk3t5225d24gvb7rdk3mvjjyu6bwcuzdrkmxh.py":25:26)
#loc5 = loc("/orcd/home/002/osbo/ondemand/fluid-sim/Assets/Scripts/.torch_inductor_cache/5n/c5nkkt7e3667xgerk3t5225d24gvb7rdk3mvjjyu6bwcuzdrkmxh.py":25:34)
#loc6 = loc("/orcd/home/002/osbo/ondemand/fluid-sim/Assets/Scripts/.torch_inductor_cache/5n/c5nkkt7e3667xgerk3t5225d24gvb7rdk3mvjjyu6bwcuzdrkmxh.py":30:20)
#loc7 = loc("/orcd/home/002/osbo/ondemand/fluid-sim/Assets/Scripts/.torch_inductor_cache/5n/c5nkkt7e3667xgerk3t5225d24gvb7rdk3mvjjyu6bwcuzdrkmxh.py":31:40)
#loc8 = loc("/orcd/home/002/osbo/ondemand/fluid-sim/Assets/Scripts/.torch_inductor_cache/5n/c5nkkt7e3667xgerk3t5225d24gvb7rdk3mvjjyu6bwcuzdrkmxh.py":31:36)
#loc9 = loc("/orcd/home/002/osbo/ondemand/fluid-sim/Assets/Scripts/.torch_inductor_cache/5n/c5nkkt7e3667xgerk3t5225d24gvb7rdk3mvjjyu6bwcuzdrkmxh.py":31:30)
#loc10 = loc("/orcd/home/002/osbo/ondemand/fluid-sim/Assets/Scripts/.torch_inductor_cache/5n/c5nkkt7e3667xgerk3t5225d24gvb7rdk3mvjjyu6bwcuzdrkmxh.py":31:46)
#loc11 = loc("/orcd/home/002/osbo/ondemand/fluid-sim/Assets/Scripts/.torch_inductor_cache/5n/c5nkkt7e3667xgerk3t5225d24gvb7rdk3mvjjyu6bwcuzdrkmxh.py":32:30)
#loc12 = loc("/orcd/home/002/osbo/ondemand/fluid-sim/Assets/Scripts/.torch_inductor_cache/5n/c5nkkt7e3667xgerk3t5225d24gvb7rdk3mvjjyu6bwcuzdrkmxh.py":32:35)
#loc13 = loc("/orcd/home/002/osbo/ondemand/fluid-sim/Assets/Scripts/.torch_inductor_cache/5n/c5nkkt7e3667xgerk3t5225d24gvb7rdk3mvjjyu6bwcuzdrkmxh.py":33:30)
#loc14 = loc("/orcd/home/002/osbo/ondemand/fluid-sim/Assets/Scripts/.torch_inductor_cache/5n/c5nkkt7e3667xgerk3t5225d24gvb7rdk3mvjjyu6bwcuzdrkmxh.py":33:46)
#loc15 = loc("/orcd/home/002/osbo/ondemand/fluid-sim/Assets/Scripts/.torch_inductor_cache/5n/c5nkkt7e3667xgerk3t5225d24gvb7rdk3mvjjyu6bwcuzdrkmxh.py":34:35)
#loc16 = loc("/orcd/home/002/osbo/ondemand/fluid-sim/Assets/Scripts/.torch_inductor_cache/5n/c5nkkt7e3667xgerk3t5225d24gvb7rdk3mvjjyu6bwcuzdrkmxh.py":34:41)
#loc17 = loc("/orcd/home/002/osbo/ondemand/fluid-sim/Assets/Scripts/.torch_inductor_cache/5n/c5nkkt7e3667xgerk3t5225d24gvb7rdk3mvjjyu6bwcuzdrkmxh.py":34:30)
#loc18 = loc("/orcd/home/002/osbo/ondemand/fluid-sim/Assets/Scripts/.torch_inductor_cache/5n/c5nkkt7e3667xgerk3t5225d24gvb7rdk3mvjjyu6bwcuzdrkmxh.py":34:51)
#loc19 = loc("/orcd/home/002/osbo/ondemand/fluid-sim/Assets/Scripts/.torch_inductor_cache/5n/c5nkkt7e3667xgerk3t5225d24gvb7rdk3mvjjyu6bwcuzdrkmxh.py":35:30)
#loc20 = loc("/orcd/home/002/osbo/ondemand/fluid-sim/Assets/Scripts/.torch_inductor_cache/5n/c5nkkt7e3667xgerk3t5225d24gvb7rdk3mvjjyu6bwcuzdrkmxh.py":35:51)
#loc21 = loc("/orcd/home/002/osbo/ondemand/fluid-sim/Assets/Scripts/.torch_inductor_cache/5n/c5nkkt7e3667xgerk3t5225d24gvb7rdk3mvjjyu6bwcuzdrkmxh.py":36:40)
#loc22 = loc("/orcd/home/002/osbo/ondemand/fluid-sim/Assets/Scripts/.torch_inductor_cache/5n/c5nkkt7e3667xgerk3t5225d24gvb7rdk3mvjjyu6bwcuzdrkmxh.py":36:37)
#loc23 = loc("/orcd/home/002/osbo/ondemand/fluid-sim/Assets/Scripts/.torch_inductor_cache/5n/c5nkkt7e3667xgerk3t5225d24gvb7rdk3mvjjyu6bwcuzdrkmxh.py":36:31)
#loc24 = loc("/orcd/home/002/osbo/ondemand/fluid-sim/Assets/Scripts/.torch_inductor_cache/5n/c5nkkt7e3667xgerk3t5225d24gvb7rdk3mvjjyu6bwcuzdrkmxh.py":36:46)
#loc25 = loc("/orcd/home/002/osbo/ondemand/fluid-sim/Assets/Scripts/.torch_inductor_cache/5n/c5nkkt7e3667xgerk3t5225d24gvb7rdk3mvjjyu6bwcuzdrkmxh.py":37:31)
#loc26 = loc("/orcd/home/002/osbo/ondemand/fluid-sim/Assets/Scripts/.torch_inductor_cache/5n/c5nkkt7e3667xgerk3t5225d24gvb7rdk3mvjjyu6bwcuzdrkmxh.py":37:46)
#loc27 = loc("/orcd/home/002/osbo/ondemand/fluid-sim/Assets/Scripts/.torch_inductor_cache/5n/c5nkkt7e3667xgerk3t5225d24gvb7rdk3mvjjyu6bwcuzdrkmxh.py":38:31)
#loc28 = loc("/orcd/home/002/osbo/ondemand/fluid-sim/Assets/Scripts/.torch_inductor_cache/5n/c5nkkt7e3667xgerk3t5225d24gvb7rdk3mvjjyu6bwcuzdrkmxh.py":38:36)
#loc29 = loc("/orcd/home/002/osbo/ondemand/fluid-sim/Assets/Scripts/.torch_inductor_cache/5n/c5nkkt7e3667xgerk3t5225d24gvb7rdk3mvjjyu6bwcuzdrkmxh.py":39:35)
#loc30 = loc("/orcd/home/002/osbo/ondemand/fluid-sim/Assets/Scripts/.torch_inductor_cache/5n/c5nkkt7e3667xgerk3t5225d24gvb7rdk3mvjjyu6bwcuzdrkmxh.py":39:50)
#loc31 = loc("/orcd/home/002/osbo/ondemand/fluid-sim/Assets/Scripts/.torch_inductor_cache/5n/c5nkkt7e3667xgerk3t5225d24gvb7rdk3mvjjyu6bwcuzdrkmxh.py":40:31)
#loc32 = loc("/orcd/home/002/osbo/ondemand/fluid-sim/Assets/Scripts/.torch_inductor_cache/5n/c5nkkt7e3667xgerk3t5225d24gvb7rdk3mvjjyu6bwcuzdrkmxh.py":40:36)
#loc33 = loc("/orcd/home/002/osbo/ondemand/fluid-sim/Assets/Scripts/.torch_inductor_cache/5n/c5nkkt7e3667xgerk3t5225d24gvb7rdk3mvjjyu6bwcuzdrkmxh.py":41:31)
#loc34 = loc("/orcd/home/002/osbo/ondemand/fluid-sim/Assets/Scripts/.torch_inductor_cache/5n/c5nkkt7e3667xgerk3t5225d24gvb7rdk3mvjjyu6bwcuzdrkmxh.py":41:36)
#loc35 = loc("/orcd/home/002/osbo/ondemand/fluid-sim/Assets/Scripts/.torch_inductor_cache/5n/c5nkkt7e3667xgerk3t5225d24gvb7rdk3mvjjyu6bwcuzdrkmxh.py":42:31)
#loc36 = loc("/orcd/home/002/osbo/ondemand/fluid-sim/Assets/Scripts/.torch_inductor_cache/5n/c5nkkt7e3667xgerk3t5225d24gvb7rdk3mvjjyu6bwcuzdrkmxh.py":42:36)
#loc37 = loc("/orcd/home/002/osbo/ondemand/fluid-sim/Assets/Scripts/.torch_inductor_cache/5n/c5nkkt7e3667xgerk3t5225d24gvb7rdk3mvjjyu6bwcuzdrkmxh.py":43:19)
#loc38 = loc("/orcd/home/002/osbo/ondemand/fluid-sim/Assets/Scripts/.torch_inductor_cache/5n/c5nkkt7e3667xgerk3t5225d24gvb7rdk3mvjjyu6bwcuzdrkmxh.py":44:18)
#loc39 = loc("/orcd/home/002/osbo/ondemand/fluid-sim/Assets/Scripts/.torch_inductor_cache/5n/c5nkkt7e3667xgerk3t5225d24gvb7rdk3mvjjyu6bwcuzdrkmxh.py":45:18)
#loc40 = loc("/orcd/home/002/osbo/ondemand/fluid-sim/Assets/Scripts/.torch_inductor_cache/5n/c5nkkt7e3667xgerk3t5225d24gvb7rdk3mvjjyu6bwcuzdrkmxh.py":46:18)
#loc41 = loc("/orcd/home/002/osbo/ondemand/fluid-sim/Assets/Scripts/.torch_inductor_cache/5n/c5nkkt7e3667xgerk3t5225d24gvb7rdk3mvjjyu6bwcuzdrkmxh.py":47:18)
#loc42 = loc("/orcd/home/002/osbo/ondemand/fluid-sim/Assets/Scripts/.torch_inductor_cache/5n/c5nkkt7e3667xgerk3t5225d24gvb7rdk3mvjjyu6bwcuzdrkmxh.py":48:19)
#loc43 = loc("/orcd/home/002/osbo/ondemand/fluid-sim/Assets/Scripts/.torch_inductor_cache/5n/c5nkkt7e3667xgerk3t5225d24gvb7rdk3mvjjyu6bwcuzdrkmxh.py":49:19)
#loc44 = loc("/orcd/home/002/osbo/ondemand/fluid-sim/Assets/Scripts/.torch_inductor_cache/5n/c5nkkt7e3667xgerk3t5225d24gvb7rdk3mvjjyu6bwcuzdrkmxh.py":50:19)
#loc45 = loc("/orcd/home/002/osbo/ondemand/fluid-sim/Assets/Scripts/.torch_inductor_cache/5n/c5nkkt7e3667xgerk3t5225d24gvb7rdk3mvjjyu6bwcuzdrkmxh.py":52:20)
#loc46 = loc("/orcd/home/002/osbo/ondemand/fluid-sim/Assets/Scripts/.torch_inductor_cache/5n/c5nkkt7e3667xgerk3t5225d24gvb7rdk3mvjjyu6bwcuzdrkmxh.py":53:20)
#loc47 = loc("/orcd/home/002/osbo/ondemand/fluid-sim/Assets/Scripts/.torch_inductor_cache/5n/c5nkkt7e3667xgerk3t5225d24gvb7rdk3mvjjyu6bwcuzdrkmxh.py":54:20)
#loc48 = loc("/orcd/home/002/osbo/ondemand/fluid-sim/Assets/Scripts/.torch_inductor_cache/5n/c5nkkt7e3667xgerk3t5225d24gvb7rdk3mvjjyu6bwcuzdrkmxh.py":55:20)
#loc49 = loc("/orcd/home/002/osbo/ondemand/fluid-sim/Assets/Scripts/.torch_inductor_cache/5n/c5nkkt7e3667xgerk3t5225d24gvb7rdk3mvjjyu6bwcuzdrkmxh.py":56:20)
#loc50 = loc("/orcd/home/002/osbo/ondemand/fluid-sim/Assets/Scripts/.torch_inductor_cache/5n/c5nkkt7e3667xgerk3t5225d24gvb7rdk3mvjjyu6bwcuzdrkmxh.py":57:20)
#loc51 = loc("/orcd/home/002/osbo/ondemand/fluid-sim/Assets/Scripts/.torch_inductor_cache/5n/c5nkkt7e3667xgerk3t5225d24gvb7rdk3mvjjyu6bwcuzdrkmxh.py":61:35)
#loc52 = loc("/home/osbo/.conda/envs/fluid/lib/python3.12/site-packages/triton/language/standard.py":267:36)
#loc53 = loc("/orcd/home/002/osbo/ondemand/fluid-sim/Assets/Scripts/.torch_inductor_cache/5n/c5nkkt7e3667xgerk3t5225d24gvb7rdk3mvjjyu6bwcuzdrkmxh.py":62:26)
#loc54 = loc("/home/osbo/.conda/envs/fluid/lib/python3.12/site-packages/triton/language/standard.py":256:15)
#loc55 = loc("/orcd/home/002/osbo/ondemand/fluid-sim/Assets/Scripts/.torch_inductor_cache/5n/c5nkkt7e3667xgerk3t5225d24gvb7rdk3mvjjyu6bwcuzdrkmxh.py":62:29)
#loc56 = loc("/orcd/home/002/osbo/ondemand/fluid-sim/Assets/Scripts/.torch_inductor_cache/5n/c5nkkt7e3667xgerk3t5225d24gvb7rdk3mvjjyu6bwcuzdrkmxh.py":65:20)
#loc57 = loc("/orcd/home/002/osbo/ondemand/fluid-sim/Assets/Scripts/.torch_inductor_cache/5n/c5nkkt7e3667xgerk3t5225d24gvb7rdk3mvjjyu6bwcuzdrkmxh.py":66:20)
#loc58 = loc("/orcd/home/002/osbo/ondemand/fluid-sim/Assets/Scripts/.torch_inductor_cache/5n/c5nkkt7e3667xgerk3t5225d24gvb7rdk3mvjjyu6bwcuzdrkmxh.py":67:20)
#loc59 = loc("/orcd/home/002/osbo/ondemand/fluid-sim/Assets/Scripts/.torch_inductor_cache/5n/c5nkkt7e3667xgerk3t5225d24gvb7rdk3mvjjyu6bwcuzdrkmxh.py":69:35)
#loc60 = loc("/orcd/home/002/osbo/ondemand/fluid-sim/Assets/Scripts/.torch_inductor_cache/5n/c5nkkt7e3667xgerk3t5225d24gvb7rdk3mvjjyu6bwcuzdrkmxh.py":70:26)
#loc61 = loc("/orcd/home/002/osbo/ondemand/fluid-sim/Assets/Scripts/.torch_inductor_cache/5n/c5nkkt7e3667xgerk3t5225d24gvb7rdk3mvjjyu6bwcuzdrkmxh.py":70:29)
#loc62 = loc("/orcd/home/002/osbo/ondemand/fluid-sim/Assets/Scripts/.torch_inductor_cache/5n/c5nkkt7e3667xgerk3t5225d24gvb7rdk3mvjjyu6bwcuzdrkmxh.py":73:20)
#loc63 = loc("/orcd/home/002/osbo/ondemand/fluid-sim/Assets/Scripts/.torch_inductor_cache/5n/c5nkkt7e3667xgerk3t5225d24gvb7rdk3mvjjyu6bwcuzdrkmxh.py":75:20)
#loc64 = loc("/orcd/home/002/osbo/ondemand/fluid-sim/Assets/Scripts/.torch_inductor_cache/5n/c5nkkt7e3667xgerk3t5225d24gvb7rdk3mvjjyu6bwcuzdrkmxh.py":76:28)
#loc65 = loc("/orcd/home/002/osbo/ondemand/fluid-sim/Assets/Scripts/.torch_inductor_cache/5n/c5nkkt7e3667xgerk3t5225d24gvb7rdk3mvjjyu6bwcuzdrkmxh.py":77:20)
#loc66 = loc("/orcd/home/002/osbo/ondemand/fluid-sim/Assets/Scripts/.torch_inductor_cache/5n/c5nkkt7e3667xgerk3t5225d24gvb7rdk3mvjjyu6bwcuzdrkmxh.py":78:20)
#loc67 = loc("/orcd/home/002/osbo/ondemand/fluid-sim/Assets/Scripts/.torch_inductor_cache/5n/c5nkkt7e3667xgerk3t5225d24gvb7rdk3mvjjyu6bwcuzdrkmxh.py":79:20)
#loc68 = loc("/orcd/home/002/osbo/ondemand/fluid-sim/Assets/Scripts/.torch_inductor_cache/5n/c5nkkt7e3667xgerk3t5225d24gvb7rdk3mvjjyu6bwcuzdrkmxh.py":80:50)
#loc69 = loc("/orcd/home/002/osbo/ondemand/fluid-sim/Assets/Scripts/.torch_inductor_cache/5n/c5nkkt7e3667xgerk3t5225d24gvb7rdk3mvjjyu6bwcuzdrkmxh.py":81:25)
#loc70 = loc("/orcd/home/002/osbo/ondemand/fluid-sim/Assets/Scripts/.torch_inductor_cache/5n/c5nkkt7e3667xgerk3t5225d24gvb7rdk3mvjjyu6bwcuzdrkmxh.py":81:47)
#loc71 = loc("/orcd/home/002/osbo/ondemand/fluid-sim/Assets/Scripts/.torch_inductor_cache/5n/c5nkkt7e3667xgerk3t5225d24gvb7rdk3mvjjyu6bwcuzdrkmxh.py":81:4)
#loc72 = loc(callsite(#loc52 at #loc53))
#loc73 = loc(callsite(#loc54 at #loc52))
#loc74 = loc(callsite(#loc52 at #loc60))
#loc75 = loc(callsite(#loc73 at #loc53))
#loc76 = loc(callsite(#loc73 at #loc60))
