#loc = loc("/orcd/home/002/osbo/ondemand/fluid-sim/Assets/Scripts/.torch_inductor_cache/so/csoeqlmkcqzu3nya7pov6urnjxhjxjojdk4rjrae6gfpxnmnwn5h.py":18:0)
#loc1 = loc(unknown)
module {
  tt.func public @triton_(%arg0: !tt.ptr<f32> {tt.divisibility = 16 : i32} loc("/orcd/home/002/osbo/ondemand/fluid-sim/Assets/Scripts/.torch_inductor_cache/so/csoeqlmkcqzu3nya7pov6urnjxhjxjojdk4rjrae6gfpxnmnwn5h.py":18:0), %arg1: !tt.ptr<f32> {tt.divisibility = 16 : i32} loc("/orcd/home/002/osbo/ondemand/fluid-sim/Assets/Scripts/.torch_inductor_cache/so/csoeqlmkcqzu3nya7pov6urnjxhjxjojdk4rjrae6gfpxnmnwn5h.py":18:0), %arg2: i32 {tt.divisibility = 16 : i32} loc("/orcd/home/002/osbo/ondemand/fluid-sim/Assets/Scripts/.torch_inductor_cache/so/csoeqlmkcqzu3nya7pov6urnjxhjxjojdk4rjrae6gfpxnmnwn5h.py":18:0), %arg3: i32 {tt.divisibility = 16 : i32} loc("/orcd/home/002/osbo/ondemand/fluid-sim/Assets/Scripts/.torch_inductor_cache/so/csoeqlmkcqzu3nya7pov6urnjxhjxjojdk4rjrae6gfpxnmnwn5h.py":18:0)) attributes {noinline = false} {
    %cst = arith.constant dense<16896> : tensor<32x1xi32> loc(#loc1)
    %cst_0 = arith.constant dense<3.200000e+01> : tensor<32x1xf32> loc(#loc1)
    %cst_1 = arith.constant dense<8.000000e+00> : tensor<32x32xf32> loc(#loc1)
    %cst_2 = arith.constant dense<16384> : tensor<32x1xi32> loc(#loc1)
    %cst_3 = arith.constant dense<512> : tensor<1x32xi32> loc(#loc1)
    %cst_4 = arith.constant dense<512> : tensor<32x1xi32> loc(#loc1)
    %c32_i32 = arith.constant 32 : i32 loc(#loc1)
    %0 = tt.get_program_id x : i32 loc(#loc2)
    %1 = arith.muli %0, %c32_i32 : i32 loc(#loc3)
    %2 = tt.make_range {end = 32 : i32, start = 0 : i32} : tensor<32xi32> loc(#loc4)
    %3 = tt.expand_dims %2 {axis = 1 : i32} : tensor<32xi32> -> tensor<32x1xi32> loc(#loc5)
    %4 = tt.splat %1 : i32 -> tensor<32x1xi32> loc(#loc6)
    %5 = arith.addi %4, %3 : tensor<32x1xi32> loc(#loc6)
    %6 = tt.expand_dims %2 {axis = 0 : i32} : tensor<32xi32> -> tensor<1x32xi32> loc(#loc7)
    %7 = arith.remsi %5, %cst_4 : tensor<32x1xi32> loc(#loc8)
    %8 = arith.divsi %5, %cst_4 : tensor<32x1xi32> loc(#loc9)
    %9 = arith.muli %6, %cst_3 : tensor<1x32xi32> loc(#loc10)
    %10 = tt.broadcast %7 : tensor<32x1xi32> -> tensor<32x32xi32> loc(#loc11)
    %11 = tt.broadcast %9 : tensor<1x32xi32> -> tensor<32x32xi32> loc(#loc11)
    %12 = arith.addi %10, %11 : tensor<32x32xi32> loc(#loc11)
    %13 = arith.muli %8, %cst_2 : tensor<32x1xi32> loc(#loc12)
    %14 = tt.broadcast %13 : tensor<32x1xi32> -> tensor<32x32xi32> loc(#loc13)
    %15 = arith.addi %12, %14 : tensor<32x32xi32> loc(#loc13)
    %16 = tt.splat %arg0 : !tt.ptr<f32> -> tensor<32x32x!tt.ptr<f32>> loc(#loc14)
    %17 = tt.addptr %16, %15 : tensor<32x32x!tt.ptr<f32>>, tensor<32x32xi32> loc(#loc14)
    %18 = tt.load %17 : tensor<32x32x!tt.ptr<f32>> loc(#loc15)
    %19 = arith.divf %18, %cst_1 : tensor<32x32xf32> loc(#loc16)
    %20 = "tt.reduce"(%19) <{axis = 1 : i32}> ({
    ^bb0(%arg4: f32 loc(unknown), %arg5: f32 loc(unknown)):
      %27 = arith.addf %arg4, %arg5 : f32 loc(#loc29)
      tt.reduce.return %27 : f32 loc(#loc27)
    }) : (tensor<32x32xf32>) -> tensor<32xf32> loc(#loc27)
    %21 = tt.expand_dims %20 {axis = 1 : i32} : tensor<32xf32> -> tensor<32x1xf32> loc(#loc20)
    %22 = arith.divf %21, %cst_0 : tensor<32x1xf32> loc(#loc21)
    %23 = arith.muli %8, %cst : tensor<32x1xi32> loc(#loc22)
    %24 = arith.addi %7, %23 : tensor<32x1xi32> loc(#loc23)
    %25 = tt.splat %arg1 : !tt.ptr<f32> -> tensor<32x1x!tt.ptr<f32>> loc(#loc24)
    %26 = tt.addptr %25, %24 : tensor<32x1x!tt.ptr<f32>>, tensor<32x1xi32> loc(#loc24)
    tt.store %26, %22 : tensor<32x1x!tt.ptr<f32>> loc(#loc25)
    tt.return loc(#loc26)
  } loc(#loc)
} loc(#loc)
#loc2 = loc("/orcd/home/002/osbo/ondemand/fluid-sim/Assets/Scripts/.torch_inductor_cache/so/csoeqlmkcqzu3nya7pov6urnjxhjxjojdk4rjrae6gfpxnmnwn5h.py":22:28)
#loc3 = loc("/orcd/home/002/osbo/ondemand/fluid-sim/Assets/Scripts/.torch_inductor_cache/so/csoeqlmkcqzu3nya7pov6urnjxhjxjojdk4rjrae6gfpxnmnwn5h.py":22:33)
#loc4 = loc("/orcd/home/002/osbo/ondemand/fluid-sim/Assets/Scripts/.torch_inductor_cache/so/csoeqlmkcqzu3nya7pov6urnjxhjxjojdk4rjrae6gfpxnmnwn5h.py":23:36)
#loc5 = loc("/orcd/home/002/osbo/ondemand/fluid-sim/Assets/Scripts/.torch_inductor_cache/so/csoeqlmkcqzu3nya7pov6urnjxhjxjojdk4rjrae6gfpxnmnwn5h.py":23:44)
#loc6 = loc("/orcd/home/002/osbo/ondemand/fluid-sim/Assets/Scripts/.torch_inductor_cache/so/csoeqlmkcqzu3nya7pov6urnjxhjxjojdk4rjrae6gfpxnmnwn5h.py":23:23)
#loc7 = loc("/orcd/home/002/osbo/ondemand/fluid-sim/Assets/Scripts/.torch_inductor_cache/so/csoeqlmkcqzu3nya7pov6urnjxhjxjojdk4rjrae6gfpxnmnwn5h.py":25:34)
#loc8 = loc("/orcd/home/002/osbo/ondemand/fluid-sim/Assets/Scripts/.torch_inductor_cache/so/csoeqlmkcqzu3nya7pov6urnjxhjxjojdk4rjrae6gfpxnmnwn5h.py":29:18)
#loc9 = loc("/orcd/home/002/osbo/ondemand/fluid-sim/Assets/Scripts/.torch_inductor_cache/so/csoeqlmkcqzu3nya7pov6urnjxhjxjojdk4rjrae6gfpxnmnwn5h.py":30:20)
#loc10 = loc("/orcd/home/002/osbo/ondemand/fluid-sim/Assets/Scripts/.torch_inductor_cache/so/csoeqlmkcqzu3nya7pov6urnjxhjxjojdk4rjrae6gfpxnmnwn5h.py":32:40)
#loc11 = loc("/orcd/home/002/osbo/ondemand/fluid-sim/Assets/Scripts/.torch_inductor_cache/so/csoeqlmkcqzu3nya7pov6urnjxhjxjojdk4rjrae6gfpxnmnwn5h.py":32:36)
#loc12 = loc("/orcd/home/002/osbo/ondemand/fluid-sim/Assets/Scripts/.torch_inductor_cache/so/csoeqlmkcqzu3nya7pov6urnjxhjxjojdk4rjrae6gfpxnmnwn5h.py":32:53)
#loc13 = loc("/orcd/home/002/osbo/ondemand/fluid-sim/Assets/Scripts/.torch_inductor_cache/so/csoeqlmkcqzu3nya7pov6urnjxhjxjojdk4rjrae6gfpxnmnwn5h.py":32:47)
#loc14 = loc("/orcd/home/002/osbo/ondemand/fluid-sim/Assets/Scripts/.torch_inductor_cache/so/csoeqlmkcqzu3nya7pov6urnjxhjxjojdk4rjrae6gfpxnmnwn5h.py":32:30)
#loc15 = loc("/orcd/home/002/osbo/ondemand/fluid-sim/Assets/Scripts/.torch_inductor_cache/so/csoeqlmkcqzu3nya7pov6urnjxhjxjojdk4rjrae6gfpxnmnwn5h.py":32:59)
#loc16 = loc("/orcd/home/002/osbo/ondemand/fluid-sim/Assets/Scripts/.torch_inductor_cache/so/csoeqlmkcqzu3nya7pov6urnjxhjxjojdk4rjrae6gfpxnmnwn5h.py":34:18)
#loc17 = loc("/home/osbo/.conda/envs/fluid/lib/python3.12/site-packages/triton/language/standard.py":267:36)
#loc18 = loc("/orcd/home/002/osbo/ondemand/fluid-sim/Assets/Scripts/.torch_inductor_cache/so/csoeqlmkcqzu3nya7pov6urnjxhjxjojdk4rjrae6gfpxnmnwn5h.py":36:24)
#loc19 = loc("/home/osbo/.conda/envs/fluid/lib/python3.12/site-packages/triton/language/standard.py":256:15)
#loc20 = loc("/orcd/home/002/osbo/ondemand/fluid-sim/Assets/Scripts/.torch_inductor_cache/so/csoeqlmkcqzu3nya7pov6urnjxhjxjojdk4rjrae6gfpxnmnwn5h.py":36:27)
#loc21 = loc("/orcd/home/002/osbo/ondemand/fluid-sim/Assets/Scripts/.torch_inductor_cache/so/csoeqlmkcqzu3nya7pov6urnjxhjxjojdk4rjrae6gfpxnmnwn5h.py":38:18)
#loc22 = loc("/orcd/home/002/osbo/ondemand/fluid-sim/Assets/Scripts/.torch_inductor_cache/so/csoeqlmkcqzu3nya7pov6urnjxhjxjojdk4rjrae6gfpxnmnwn5h.py":39:37)
#loc23 = loc("/orcd/home/002/osbo/ondemand/fluid-sim/Assets/Scripts/.torch_inductor_cache/so/csoeqlmkcqzu3nya7pov6urnjxhjxjojdk4rjrae6gfpxnmnwn5h.py":39:31)
#loc24 = loc("/orcd/home/002/osbo/ondemand/fluid-sim/Assets/Scripts/.torch_inductor_cache/so/csoeqlmkcqzu3nya7pov6urnjxhjxjojdk4rjrae6gfpxnmnwn5h.py":39:25)
#loc25 = loc("/orcd/home/002/osbo/ondemand/fluid-sim/Assets/Scripts/.torch_inductor_cache/so/csoeqlmkcqzu3nya7pov6urnjxhjxjojdk4rjrae6gfpxnmnwn5h.py":39:49)
#loc26 = loc("/orcd/home/002/osbo/ondemand/fluid-sim/Assets/Scripts/.torch_inductor_cache/so/csoeqlmkcqzu3nya7pov6urnjxhjxjojdk4rjrae6gfpxnmnwn5h.py":39:4)
#loc27 = loc(callsite(#loc17 at #loc18))
#loc28 = loc(callsite(#loc19 at #loc17))
#loc29 = loc(callsite(#loc28 at #loc18))
