#loc = loc("/orcd/home/002/osbo/ondemand/fluid-sim/Assets/Scripts/.torch_inductor_cache/pk/cpknxznilpwi47a7xhqbotx2wqkbfdnyg4yii4qf2qmemrgnar7p.py":18:0)
#loc1 = loc(unknown)
module {
  tt.func public @triton_(%arg0: !tt.ptr<f32> {tt.divisibility = 16 : i32} loc("/orcd/home/002/osbo/ondemand/fluid-sim/Assets/Scripts/.torch_inductor_cache/pk/cpknxznilpwi47a7xhqbotx2wqkbfdnyg4yii4qf2qmemrgnar7p.py":18:0), %arg1: !tt.ptr<f32> {tt.divisibility = 16 : i32} loc("/orcd/home/002/osbo/ondemand/fluid-sim/Assets/Scripts/.torch_inductor_cache/pk/cpknxznilpwi47a7xhqbotx2wqkbfdnyg4yii4qf2qmemrgnar7p.py":18:0), %arg2: !tt.ptr<f32> {tt.divisibility = 16 : i32} loc("/orcd/home/002/osbo/ondemand/fluid-sim/Assets/Scripts/.torch_inductor_cache/pk/cpknxznilpwi47a7xhqbotx2wqkbfdnyg4yii4qf2qmemrgnar7p.py":18:0), %arg3: !tt.ptr<i64> {tt.divisibility = 16 : i32} loc("/orcd/home/002/osbo/ondemand/fluid-sim/Assets/Scripts/.torch_inductor_cache/pk/cpknxznilpwi47a7xhqbotx2wqkbfdnyg4yii4qf2qmemrgnar7p.py":18:0), %arg4: !tt.ptr<f32> {tt.divisibility = 16 : i32} loc("/orcd/home/002/osbo/ondemand/fluid-sim/Assets/Scripts/.torch_inductor_cache/pk/cpknxznilpwi47a7xhqbotx2wqkbfdnyg4yii4qf2qmemrgnar7p.py":18:0), %arg5: !tt.ptr<f32> {tt.divisibility = 16 : i32} loc("/orcd/home/002/osbo/ondemand/fluid-sim/Assets/Scripts/.torch_inductor_cache/pk/cpknxznilpwi47a7xhqbotx2wqkbfdnyg4yii4qf2qmemrgnar7p.py":18:0), %arg6: !tt.ptr<f32> {tt.divisibility = 16 : i32} loc("/orcd/home/002/osbo/ondemand/fluid-sim/Assets/Scripts/.torch_inductor_cache/pk/cpknxznilpwi47a7xhqbotx2wqkbfdnyg4yii4qf2qmemrgnar7p.py":18:0), %arg7: !tt.ptr<f32> {tt.divisibility = 16 : i32} loc("/orcd/home/002/osbo/ondemand/fluid-sim/Assets/Scripts/.torch_inductor_cache/pk/cpknxznilpwi47a7xhqbotx2wqkbfdnyg4yii4qf2qmemrgnar7p.py":18:0), %arg8: !tt.ptr<f32> {tt.divisibility = 16 : i32} loc("/orcd/home/002/osbo/ondemand/fluid-sim/Assets/Scripts/.torch_inductor_cache/pk/cpknxznilpwi47a7xhqbotx2wqkbfdnyg4yii4qf2qmemrgnar7p.py":18:0), %arg9: !tt.ptr<f32> {tt.divisibility = 16 : i32} loc("/orcd/home/002/osbo/ondemand/fluid-sim/Assets/Scripts/.torch_inductor_cache/pk/cpknxznilpwi47a7xhqbotx2wqkbfdnyg4yii4qf2qmemrgnar7p.py":18:0), %arg10: !tt.ptr<f32> {tt.divisibility = 16 : i32} loc("/orcd/home/002/osbo/ondemand/fluid-sim/Assets/Scripts/.torch_inductor_cache/pk/cpknxznilpwi47a7xhqbotx2wqkbfdnyg4yii4qf2qmemrgnar7p.py":18:0), %arg11: i32 {tt.divisibility = 16 : i32} loc("/orcd/home/002/osbo/ondemand/fluid-sim/Assets/Scripts/.torch_inductor_cache/pk/cpknxznilpwi47a7xhqbotx2wqkbfdnyg4yii4qf2qmemrgnar7p.py":18:0), %arg12: i32 {tt.divisibility = 16 : i32} loc("/orcd/home/002/osbo/ondemand/fluid-sim/Assets/Scripts/.torch_inductor_cache/pk/cpknxznilpwi47a7xhqbotx2wqkbfdnyg4yii4qf2qmemrgnar7p.py":18:0)) attributes {noinline = false} {
    %c512_i32 = arith.constant 512 : i32 loc(#loc1)
    %cst = arith.constant dense<16384> : tensor<1x1xi64> loc(#loc1)
    %true = arith.constant true loc(#loc1)
    %cst_0 = arith.constant dense<64> : tensor<1x1xi64> loc(#loc1)
    %c128_i32 = arith.constant 128 : i32 loc(#loc1)
    %c4736_i32 = arith.constant 4736 : i32 loc(#loc1)
    %cst_1 = arith.constant dense<0> : tensor<1x1xi64> loc(#loc1)
    %cst_2 = arith.constant dense<9.99999974E-6> : tensor<1x1xf32> loc(#loc1)
    %cst_3 = arith.constant dense<1.280000e+02> : tensor<1x1xf32> loc(#loc1)
    %cst_4 = arith.constant dense<0.000000e+00> : tensor<1x128xf32> loc(#loc1)
    %0 = tt.get_program_id x : i32 loc(#loc2)
    %1 = arith.cmpi slt, %0, %c4736_i32 : i32 loc(#loc3)
    %2 = tt.splat %1 : i1 -> tensor<1x1xi1> loc(#loc3)
    %3 = tt.make_range {end = 128 : i32, start = 0 : i32} : tensor<128xi32> loc(#loc4)
    %4 = tt.expand_dims %3 {axis = 0 : i32} : tensor<128xi32> -> tensor<1x128xi32> loc(#loc5)
    %5 = arith.divsi %0, %c128_i32 : i32 loc(#loc6)
    %6 = arith.remsi %0, %c128_i32 : i32 loc(#loc7)
    %7 = arith.muli %0, %c128_i32 : i32 loc(#loc8)
    %8 = tt.splat %7 : i32 -> tensor<1x128xi32> loc(#loc9)
    %9 = arith.addi %4, %8 : tensor<1x128xi32> loc(#loc9)
    %10 = tt.splat %arg0 : !tt.ptr<f32> -> tensor<1x128x!tt.ptr<f32>> loc(#loc10)
    %11 = tt.addptr %10, %9 : tensor<1x128x!tt.ptr<f32>>, tensor<1x128xi32> loc(#loc10)
    %12 = tt.splat %1 : i1 -> tensor<1x128xi1> loc(#loc11)
    %13 = tt.load %11, %12, %cst_4 : tensor<1x128x!tt.ptr<f32>> loc(#loc11)
    %14 = tt.splat %arg1 : !tt.ptr<f32> -> tensor<1x128x!tt.ptr<f32>> loc(#loc12)
    %15 = tt.addptr %14, %9 : tensor<1x128x!tt.ptr<f32>>, tensor<1x128xi32> loc(#loc12)
    %16 = tt.load %15, %12, %cst_4 : tensor<1x128x!tt.ptr<f32>> loc(#loc13)
    %17 = tt.splat %arg2 : !tt.ptr<f32> -> tensor<1x128x!tt.ptr<f32>> loc(#loc14)
    %18 = tt.addptr %17, %4 : tensor<1x128x!tt.ptr<f32>>, tensor<1x128xi32> loc(#loc14)
    %19 = tt.load %18 evictionPolicy = evict_last : tensor<1x128x!tt.ptr<f32>> loc(#loc15)
    %20 = tt.addptr %arg3, %5 : !tt.ptr<i64>, i32 loc(#loc16)
    %21 = tt.splat %20 : !tt.ptr<i64> -> tensor<1x1x!tt.ptr<i64>> loc(#loc16)
    %22 = tt.load %21, %2 evictionPolicy = evict_last : tensor<1x1x!tt.ptr<i64>> loc(#loc17)
    %23 = tt.splat %arg4 : !tt.ptr<f32> -> tensor<1x128x!tt.ptr<f32>> loc(#loc18)
    %24 = tt.addptr %23, %4 : tensor<1x128x!tt.ptr<f32>>, tensor<1x128xi32> loc(#loc18)
    %25 = tt.load %24 evictionPolicy = evict_last : tensor<1x128x!tt.ptr<f32>> loc(#loc19)
    %26 = tt.splat %arg5 : !tt.ptr<f32> -> tensor<1x128x!tt.ptr<f32>> loc(#loc20)
    %27 = tt.addptr %26, %4 : tensor<1x128x!tt.ptr<f32>>, tensor<1x128xi32> loc(#loc20)
    %28 = tt.load %27 evictionPolicy = evict_last : tensor<1x128x!tt.ptr<f32>> loc(#loc21)
    %29 = arith.addf %16, %19 : tensor<1x128xf32> loc(#loc22)
    %30 = arith.addf %13, %29 : tensor<1x128xf32> loc(#loc23)
    %31 = arith.select %12, %30, %cst_4 : tensor<1x128xi1>, tensor<1x128xf32> loc(#loc24)
    %32 = "tt.reduce"(%31) <{axis = 1 : i32}> ({
    ^bb0(%arg13: f32 loc(unknown), %arg14: f32 loc(unknown)):
      %82 = arith.addf %arg13, %arg14 : f32 loc(#loc70)
      tt.reduce.return %82 : f32 loc(#loc67)
    }) : (tensor<1x128xf32>) -> tensor<1xf32> loc(#loc67)
    %33 = tt.expand_dims %32 {axis = 1 : i32} : tensor<1xf32> -> tensor<1x1xf32> loc(#loc28)
    %34 = arith.divf %33, %cst_3 : tensor<1x1xf32> loc(#loc29)
    %35 = tt.broadcast %34 : tensor<1x1xf32> -> tensor<1x128xf32> loc(#loc30)
    %36 = arith.subf %30, %35 : tensor<1x128xf32> loc(#loc30)
    %37 = arith.mulf %36, %36 : tensor<1x128xf32> loc(#loc31)
    %38 = arith.select %12, %37, %cst_4 : tensor<1x128xi1>, tensor<1x128xf32> loc(#loc32)
    %39 = "tt.reduce"(%38) <{axis = 1 : i32}> ({
    ^bb0(%arg13: f32 loc(unknown), %arg14: f32 loc(unknown)):
      %82 = arith.addf %arg13, %arg14 : f32 loc(#loc71)
      tt.reduce.return %82 : f32 loc(#loc69)
    }) : (tensor<1x128xf32>) -> tensor<1xf32> loc(#loc69)
    %40 = tt.expand_dims %39 {axis = 1 : i32} : tensor<1xf32> -> tensor<1x1xf32> loc(#loc34)
    %41 = arith.addi %22, %cst_0 : tensor<1x1xi64> loc(#loc35)
    %42 = arith.cmpi slt, %22, %cst_1 : tensor<1x1xi64> loc(#loc36)
    %43 = arith.select %42, %41, %22 : tensor<1x1xi1>, tensor<1x1xi64> loc(#loc37)
    %44 = arith.cmpi sge, %43, %cst_1 : tensor<1x1xi64> loc(#loc38)
    %45 = arith.cmpi slt, %43, %cst_0 : tensor<1x1xi64> loc(#loc39)
    %46 = arith.andi %44, %45 : tensor<1x1xi1> loc(#loc40)
    %47 = arith.xori %1, %true : i1 loc(#loc41)
    %48 = tt.splat %47 : i1 -> tensor<1x1xi1> loc(#loc41)
    %49 = arith.ori %46, %48 : tensor<1x1xi1> loc(#loc42)
    %50 = tt.broadcast %49 : tensor<1x1xi1> -> tensor<1x128xi1> loc(#loc42)
    tt.assert %50, "index out of bounds: 0 <= tmp25 < 64", "unknown", "unknown", 0 : tensor<1x128xi1> loc(#loc43)
    %51 = arith.divf %40, %cst_3 : tensor<1x1xf32> loc(#loc44)
    %52 = arith.addf %51, %cst_2 : tensor<1x1xf32> loc(#loc45)
    %53 = tt.extern_elementwise %52 {libname = "", libpath = "", pure = true, symbol = "__nv_rsqrtf"} : (tensor<1x1xf32>) -> tensor<1x1xf32> loc(#loc46)
    %54 = tt.broadcast %53 : tensor<1x1xf32> -> tensor<1x128xf32> loc(#loc47)
    %55 = arith.mulf %36, %54 : tensor<1x128xf32> loc(#loc47)
    %56 = arith.mulf %55, %25 : tensor<1x128xf32> loc(#loc48)
    %57 = arith.addf %56, %28 : tensor<1x128xf32> loc(#loc49)
    %58 = arith.muli %6, %c128_i32 : i32 loc(#loc50)
    %59 = tt.splat %58 : i32 -> tensor<1x128xi32> loc(#loc51)
    %60 = arith.addi %4, %59 : tensor<1x128xi32> loc(#loc51)
    %61 = arith.muli %43, %cst : tensor<1x1xi64> loc(#loc52)
    %62 = tt.broadcast %61 : tensor<1x1xi64> -> tensor<1x128xi64> loc(#loc52)
    %63 = arith.extsi %60 : tensor<1x128xi32> to tensor<1x128xi64> loc(#loc53)
    %64 = arith.addi %63, %62 : tensor<1x128xi64> loc(#loc53)
    %65 = tt.splat %arg6 : !tt.ptr<f32> -> tensor<1x128x!tt.ptr<f32>> loc(#loc54)
    %66 = tt.addptr %65, %64 : tensor<1x128x!tt.ptr<f32>>, tensor<1x128xi64> loc(#loc54)
    %67 = tt.atomic_rmw fadd, relaxed, gpu, %66, %30, %12 : (tensor<1x128x!tt.ptr<f32>>, tensor<1x128xf32>, tensor<1x128xi1>) -> tensor<1x128xf32> loc(#loc55)
    %68 = tt.splat %arg7 : !tt.ptr<f32> -> tensor<1x128x!tt.ptr<f32>> loc(#loc56)
    %69 = tt.addptr %68, %64 : tensor<1x128x!tt.ptr<f32>>, tensor<1x128xi64> loc(#loc56)
    %70 = tt.atomic_rmw fadd, relaxed, gpu, %69, %30, %12 : (tensor<1x128x!tt.ptr<f32>>, tensor<1x128xf32>, tensor<1x128xi1>) -> tensor<1x128xf32> loc(#loc57)
    %71 = arith.muli %0, %c512_i32 : i32 loc(#loc58)
    %72 = tt.splat %71 : i32 -> tensor<1x128xi32> loc(#loc59)
    %73 = arith.addi %4, %72 : tensor<1x128xi32> loc(#loc59)
    %74 = tt.splat %arg8 : !tt.ptr<f32> -> tensor<1x128x!tt.ptr<f32>> loc(#loc60)
    %75 = tt.addptr %74, %73 : tensor<1x128x!tt.ptr<f32>>, tensor<1x128xi32> loc(#loc60)
    tt.store %75, %57, %12 : tensor<1x128x!tt.ptr<f32>> loc(#loc61)
    %76 = tt.splat %arg9 : !tt.ptr<f32> -> tensor<1x128x!tt.ptr<f32>> loc(#loc62)
    %77 = tt.addptr %76, %64 : tensor<1x128x!tt.ptr<f32>>, tensor<1x128xi64> loc(#loc62)
    %78 = tt.atomic_rmw fadd, relaxed, gpu, %77, %13, %12 : (tensor<1x128x!tt.ptr<f32>>, tensor<1x128xf32>, tensor<1x128xi1>) -> tensor<1x128xf32> loc(#loc63)
    %79 = tt.splat %arg10 : !tt.ptr<f32> -> tensor<1x128x!tt.ptr<f32>> loc(#loc64)
    %80 = tt.addptr %79, %64 : tensor<1x128x!tt.ptr<f32>>, tensor<1x128xi64> loc(#loc64)
    %81 = tt.atomic_rmw fadd, relaxed, gpu, %80, %13, %12 : (tensor<1x128x!tt.ptr<f32>>, tensor<1x128xf32>, tensor<1x128xi1>) -> tensor<1x128xf32> loc(#loc65)
    tt.return loc(#loc66)
  } loc(#loc)
} loc(#loc)
#loc2 = loc("/orcd/home/002/osbo/ondemand/fluid-sim/Assets/Scripts/.torch_inductor_cache/pk/cpknxznilpwi47a7xhqbotx2wqkbfdnyg4yii4qf2qmemrgnar7p.py":22:28)
#loc3 = loc("/orcd/home/002/osbo/ondemand/fluid-sim/Assets/Scripts/.torch_inductor_cache/pk/cpknxznilpwi47a7xhqbotx2wqkbfdnyg4yii4qf2qmemrgnar7p.py":24:21)
#loc4 = loc("/orcd/home/002/osbo/ondemand/fluid-sim/Assets/Scripts/.torch_inductor_cache/pk/cpknxznilpwi47a7xhqbotx2wqkbfdnyg4yii4qf2qmemrgnar7p.py":25:26)
#loc5 = loc("/orcd/home/002/osbo/ondemand/fluid-sim/Assets/Scripts/.torch_inductor_cache/pk/cpknxznilpwi47a7xhqbotx2wqkbfdnyg4yii4qf2qmemrgnar7p.py":25:34)
#loc6 = loc("/orcd/home/002/osbo/ondemand/fluid-sim/Assets/Scripts/.torch_inductor_cache/pk/cpknxznilpwi47a7xhqbotx2wqkbfdnyg4yii4qf2qmemrgnar7p.py":30:20)
#loc7 = loc("/orcd/home/002/osbo/ondemand/fluid-sim/Assets/Scripts/.torch_inductor_cache/pk/cpknxznilpwi47a7xhqbotx2wqkbfdnyg4yii4qf2qmemrgnar7p.py":31:18)
#loc8 = loc("/orcd/home/002/osbo/ondemand/fluid-sim/Assets/Scripts/.torch_inductor_cache/pk/cpknxznilpwi47a7xhqbotx2wqkbfdnyg4yii4qf2qmemrgnar7p.py":32:40)
#loc9 = loc("/orcd/home/002/osbo/ondemand/fluid-sim/Assets/Scripts/.torch_inductor_cache/pk/cpknxznilpwi47a7xhqbotx2wqkbfdnyg4yii4qf2qmemrgnar7p.py":32:36)
#loc10 = loc("/orcd/home/002/osbo/ondemand/fluid-sim/Assets/Scripts/.torch_inductor_cache/pk/cpknxznilpwi47a7xhqbotx2wqkbfdnyg4yii4qf2qmemrgnar7p.py":32:30)
#loc11 = loc("/orcd/home/002/osbo/ondemand/fluid-sim/Assets/Scripts/.torch_inductor_cache/pk/cpknxznilpwi47a7xhqbotx2wqkbfdnyg4yii4qf2qmemrgnar7p.py":32:46)
#loc12 = loc("/orcd/home/002/osbo/ondemand/fluid-sim/Assets/Scripts/.torch_inductor_cache/pk/cpknxznilpwi47a7xhqbotx2wqkbfdnyg4yii4qf2qmemrgnar7p.py":33:30)
#loc13 = loc("/orcd/home/002/osbo/ondemand/fluid-sim/Assets/Scripts/.torch_inductor_cache/pk/cpknxznilpwi47a7xhqbotx2wqkbfdnyg4yii4qf2qmemrgnar7p.py":33:46)
#loc14 = loc("/orcd/home/002/osbo/ondemand/fluid-sim/Assets/Scripts/.torch_inductor_cache/pk/cpknxznilpwi47a7xhqbotx2wqkbfdnyg4yii4qf2qmemrgnar7p.py":34:30)
#loc15 = loc("/orcd/home/002/osbo/ondemand/fluid-sim/Assets/Scripts/.torch_inductor_cache/pk/cpknxznilpwi47a7xhqbotx2wqkbfdnyg4yii4qf2qmemrgnar7p.py":34:35)
#loc16 = loc("/orcd/home/002/osbo/ondemand/fluid-sim/Assets/Scripts/.torch_inductor_cache/pk/cpknxznilpwi47a7xhqbotx2wqkbfdnyg4yii4qf2qmemrgnar7p.py":35:31)
#loc17 = loc("/orcd/home/002/osbo/ondemand/fluid-sim/Assets/Scripts/.torch_inductor_cache/pk/cpknxznilpwi47a7xhqbotx2wqkbfdnyg4yii4qf2qmemrgnar7p.py":35:36)
#loc18 = loc("/orcd/home/002/osbo/ondemand/fluid-sim/Assets/Scripts/.torch_inductor_cache/pk/cpknxznilpwi47a7xhqbotx2wqkbfdnyg4yii4qf2qmemrgnar7p.py":36:31)
#loc19 = loc("/orcd/home/002/osbo/ondemand/fluid-sim/Assets/Scripts/.torch_inductor_cache/pk/cpknxznilpwi47a7xhqbotx2wqkbfdnyg4yii4qf2qmemrgnar7p.py":36:36)
#loc20 = loc("/orcd/home/002/osbo/ondemand/fluid-sim/Assets/Scripts/.torch_inductor_cache/pk/cpknxznilpwi47a7xhqbotx2wqkbfdnyg4yii4qf2qmemrgnar7p.py":37:31)
#loc21 = loc("/orcd/home/002/osbo/ondemand/fluid-sim/Assets/Scripts/.torch_inductor_cache/pk/cpknxznilpwi47a7xhqbotx2wqkbfdnyg4yii4qf2qmemrgnar7p.py":37:36)
#loc22 = loc("/orcd/home/002/osbo/ondemand/fluid-sim/Assets/Scripts/.torch_inductor_cache/pk/cpknxznilpwi47a7xhqbotx2wqkbfdnyg4yii4qf2qmemrgnar7p.py":38:18)
#loc23 = loc("/orcd/home/002/osbo/ondemand/fluid-sim/Assets/Scripts/.torch_inductor_cache/pk/cpknxznilpwi47a7xhqbotx2wqkbfdnyg4yii4qf2qmemrgnar7p.py":39:18)
#loc24 = loc("/orcd/home/002/osbo/ondemand/fluid-sim/Assets/Scripts/.torch_inductor_cache/pk/cpknxznilpwi47a7xhqbotx2wqkbfdnyg4yii4qf2qmemrgnar7p.py":43:34)
#loc25 = loc("/home/osbo/.conda/envs/fluid/lib/python3.12/site-packages/triton/language/standard.py":267:36)
#loc26 = loc("/orcd/home/002/osbo/ondemand/fluid-sim/Assets/Scripts/.torch_inductor_cache/pk/cpknxznilpwi47a7xhqbotx2wqkbfdnyg4yii4qf2qmemrgnar7p.py":44:26)
#loc27 = loc("/home/osbo/.conda/envs/fluid/lib/python3.12/site-packages/triton/language/standard.py":256:15)
#loc28 = loc("/orcd/home/002/osbo/ondemand/fluid-sim/Assets/Scripts/.torch_inductor_cache/pk/cpknxznilpwi47a7xhqbotx2wqkbfdnyg4yii4qf2qmemrgnar7p.py":44:29)
#loc29 = loc("/orcd/home/002/osbo/ondemand/fluid-sim/Assets/Scripts/.torch_inductor_cache/pk/cpknxznilpwi47a7xhqbotx2wqkbfdnyg4yii4qf2qmemrgnar7p.py":47:20)
#loc30 = loc("/orcd/home/002/osbo/ondemand/fluid-sim/Assets/Scripts/.torch_inductor_cache/pk/cpknxznilpwi47a7xhqbotx2wqkbfdnyg4yii4qf2qmemrgnar7p.py":48:19)
#loc31 = loc("/orcd/home/002/osbo/ondemand/fluid-sim/Assets/Scripts/.torch_inductor_cache/pk/cpknxznilpwi47a7xhqbotx2wqkbfdnyg4yii4qf2qmemrgnar7p.py":49:20)
#loc32 = loc("/orcd/home/002/osbo/ondemand/fluid-sim/Assets/Scripts/.torch_inductor_cache/pk/cpknxznilpwi47a7xhqbotx2wqkbfdnyg4yii4qf2qmemrgnar7p.py":51:35)
#loc33 = loc("/orcd/home/002/osbo/ondemand/fluid-sim/Assets/Scripts/.torch_inductor_cache/pk/cpknxznilpwi47a7xhqbotx2wqkbfdnyg4yii4qf2qmemrgnar7p.py":52:26)
#loc34 = loc("/orcd/home/002/osbo/ondemand/fluid-sim/Assets/Scripts/.torch_inductor_cache/pk/cpknxznilpwi47a7xhqbotx2wqkbfdnyg4yii4qf2qmemrgnar7p.py":52:29)
#loc35 = loc("/orcd/home/002/osbo/ondemand/fluid-sim/Assets/Scripts/.torch_inductor_cache/pk/cpknxznilpwi47a7xhqbotx2wqkbfdnyg4yii4qf2qmemrgnar7p.py":54:20)
#loc36 = loc("/orcd/home/002/osbo/ondemand/fluid-sim/Assets/Scripts/.torch_inductor_cache/pk/cpknxznilpwi47a7xhqbotx2wqkbfdnyg4yii4qf2qmemrgnar7p.py":55:20)
#loc37 = loc("/orcd/home/002/osbo/ondemand/fluid-sim/Assets/Scripts/.torch_inductor_cache/pk/cpknxznilpwi47a7xhqbotx2wqkbfdnyg4yii4qf2qmemrgnar7p.py":56:35)
#loc38 = loc("/orcd/home/002/osbo/ondemand/fluid-sim/Assets/Scripts/.torch_inductor_cache/pk/cpknxznilpwi47a7xhqbotx2wqkbfdnyg4yii4qf2qmemrgnar7p.py":57:28)
#loc39 = loc("/orcd/home/002/osbo/ondemand/fluid-sim/Assets/Scripts/.torch_inductor_cache/pk/cpknxznilpwi47a7xhqbotx2wqkbfdnyg4yii4qf2qmemrgnar7p.py":57:46)
#loc40 = loc("/orcd/home/002/osbo/ondemand/fluid-sim/Assets/Scripts/.torch_inductor_cache/pk/cpknxznilpwi47a7xhqbotx2wqkbfdnyg4yii4qf2qmemrgnar7p.py":57:38)
#loc41 = loc("/orcd/home/002/osbo/ondemand/fluid-sim/Assets/Scripts/.torch_inductor_cache/pk/cpknxznilpwi47a7xhqbotx2wqkbfdnyg4yii4qf2qmemrgnar7p.py":57:55)
#loc42 = loc("/orcd/home/002/osbo/ondemand/fluid-sim/Assets/Scripts/.torch_inductor_cache/pk/cpknxznilpwi47a7xhqbotx2wqkbfdnyg4yii4qf2qmemrgnar7p.py":57:53)
#loc43 = loc("/orcd/home/002/osbo/ondemand/fluid-sim/Assets/Scripts/.torch_inductor_cache/pk/cpknxznilpwi47a7xhqbotx2wqkbfdnyg4yii4qf2qmemrgnar7p.py":57:63)
#loc44 = loc("/orcd/home/002/osbo/ondemand/fluid-sim/Assets/Scripts/.torch_inductor_cache/pk/cpknxznilpwi47a7xhqbotx2wqkbfdnyg4yii4qf2qmemrgnar7p.py":60:20)
#loc45 = loc("/orcd/home/002/osbo/ondemand/fluid-sim/Assets/Scripts/.torch_inductor_cache/pk/cpknxznilpwi47a7xhqbotx2wqkbfdnyg4yii4qf2qmemrgnar7p.py":62:20)
#loc46 = loc("/orcd/home/002/osbo/ondemand/fluid-sim/Assets/Scripts/.torch_inductor_cache/pk/cpknxznilpwi47a7xhqbotx2wqkbfdnyg4yii4qf2qmemrgnar7p.py":63:28)
#loc47 = loc("/orcd/home/002/osbo/ondemand/fluid-sim/Assets/Scripts/.torch_inductor_cache/pk/cpknxznilpwi47a7xhqbotx2wqkbfdnyg4yii4qf2qmemrgnar7p.py":64:20)
#loc48 = loc("/orcd/home/002/osbo/ondemand/fluid-sim/Assets/Scripts/.torch_inductor_cache/pk/cpknxznilpwi47a7xhqbotx2wqkbfdnyg4yii4qf2qmemrgnar7p.py":65:20)
#loc49 = loc("/orcd/home/002/osbo/ondemand/fluid-sim/Assets/Scripts/.torch_inductor_cache/pk/cpknxznilpwi47a7xhqbotx2wqkbfdnyg4yii4qf2qmemrgnar7p.py":66:20)
#loc50 = loc("/orcd/home/002/osbo/ondemand/fluid-sim/Assets/Scripts/.torch_inductor_cache/pk/cpknxznilpwi47a7xhqbotx2wqkbfdnyg4yii4qf2qmemrgnar7p.py":67:40)
#loc51 = loc("/orcd/home/002/osbo/ondemand/fluid-sim/Assets/Scripts/.torch_inductor_cache/pk/cpknxznilpwi47a7xhqbotx2wqkbfdnyg4yii4qf2qmemrgnar7p.py":67:36)
#loc52 = loc("/orcd/home/002/osbo/ondemand/fluid-sim/Assets/Scripts/.torch_inductor_cache/pk/cpknxznilpwi47a7xhqbotx2wqkbfdnyg4yii4qf2qmemrgnar7p.py":67:53)
#loc53 = loc("/orcd/home/002/osbo/ondemand/fluid-sim/Assets/Scripts/.torch_inductor_cache/pk/cpknxznilpwi47a7xhqbotx2wqkbfdnyg4yii4qf2qmemrgnar7p.py":67:47)
#loc54 = loc("/orcd/home/002/osbo/ondemand/fluid-sim/Assets/Scripts/.torch_inductor_cache/pk/cpknxznilpwi47a7xhqbotx2wqkbfdnyg4yii4qf2qmemrgnar7p.py":67:30)
#loc55 = loc("/orcd/home/002/osbo/ondemand/fluid-sim/Assets/Scripts/.torch_inductor_cache/pk/cpknxznilpwi47a7xhqbotx2wqkbfdnyg4yii4qf2qmemrgnar7p.py":67:68)
#loc56 = loc("/orcd/home/002/osbo/ondemand/fluid-sim/Assets/Scripts/.torch_inductor_cache/pk/cpknxznilpwi47a7xhqbotx2wqkbfdnyg4yii4qf2qmemrgnar7p.py":68:30)
#loc57 = loc("/orcd/home/002/osbo/ondemand/fluid-sim/Assets/Scripts/.torch_inductor_cache/pk/cpknxznilpwi47a7xhqbotx2wqkbfdnyg4yii4qf2qmemrgnar7p.py":68:68)
#loc58 = loc("/orcd/home/002/osbo/ondemand/fluid-sim/Assets/Scripts/.torch_inductor_cache/pk/cpknxznilpwi47a7xhqbotx2wqkbfdnyg4yii4qf2qmemrgnar7p.py":69:35)
#loc59 = loc("/orcd/home/002/osbo/ondemand/fluid-sim/Assets/Scripts/.torch_inductor_cache/pk/cpknxznilpwi47a7xhqbotx2wqkbfdnyg4yii4qf2qmemrgnar7p.py":69:31)
#loc60 = loc("/orcd/home/002/osbo/ondemand/fluid-sim/Assets/Scripts/.torch_inductor_cache/pk/cpknxznilpwi47a7xhqbotx2wqkbfdnyg4yii4qf2qmemrgnar7p.py":69:25)
#loc61 = loc("/orcd/home/002/osbo/ondemand/fluid-sim/Assets/Scripts/.torch_inductor_cache/pk/cpknxznilpwi47a7xhqbotx2wqkbfdnyg4yii4qf2qmemrgnar7p.py":69:48)
#loc62 = loc("/orcd/home/002/osbo/ondemand/fluid-sim/Assets/Scripts/.torch_inductor_cache/pk/cpknxznilpwi47a7xhqbotx2wqkbfdnyg4yii4qf2qmemrgnar7p.py":70:30)
#loc63 = loc("/orcd/home/002/osbo/ondemand/fluid-sim/Assets/Scripts/.torch_inductor_cache/pk/cpknxznilpwi47a7xhqbotx2wqkbfdnyg4yii4qf2qmemrgnar7p.py":70:68)
#loc64 = loc("/orcd/home/002/osbo/ondemand/fluid-sim/Assets/Scripts/.torch_inductor_cache/pk/cpknxznilpwi47a7xhqbotx2wqkbfdnyg4yii4qf2qmemrgnar7p.py":71:30)
#loc65 = loc("/orcd/home/002/osbo/ondemand/fluid-sim/Assets/Scripts/.torch_inductor_cache/pk/cpknxznilpwi47a7xhqbotx2wqkbfdnyg4yii4qf2qmemrgnar7p.py":71:68)
#loc66 = loc("/orcd/home/002/osbo/ondemand/fluid-sim/Assets/Scripts/.torch_inductor_cache/pk/cpknxznilpwi47a7xhqbotx2wqkbfdnyg4yii4qf2qmemrgnar7p.py":71:4)
#loc67 = loc(callsite(#loc25 at #loc26))
#loc68 = loc(callsite(#loc27 at #loc25))
#loc69 = loc(callsite(#loc25 at #loc33))
#loc70 = loc(callsite(#loc68 at #loc26))
#loc71 = loc(callsite(#loc68 at #loc33))
