#loc = loc("/orcd/home/002/osbo/ondemand/fluid-sim/Assets/Scripts/.torch_inductor_cache/mb/cmbepfesyc54jr6lr3zhaiff7w7huvb6k5o3eupfzcxzdero7q3c.py":18:0)
module {
  tt.func public @triton_(%arg0: !tt.ptr<f32> {tt.divisibility = 16 : i32} loc("/orcd/home/002/osbo/ondemand/fluid-sim/Assets/Scripts/.torch_inductor_cache/mb/cmbepfesyc54jr6lr3zhaiff7w7huvb6k5o3eupfzcxzdero7q3c.py":18:0), %arg1: !tt.ptr<f32> {tt.divisibility = 16 : i32} loc("/orcd/home/002/osbo/ondemand/fluid-sim/Assets/Scripts/.torch_inductor_cache/mb/cmbepfesyc54jr6lr3zhaiff7w7huvb6k5o3eupfzcxzdero7q3c.py":18:0), %arg2: !tt.ptr<f32> {tt.divisibility = 16 : i32} loc("/orcd/home/002/osbo/ondemand/fluid-sim/Assets/Scripts/.torch_inductor_cache/mb/cmbepfesyc54jr6lr3zhaiff7w7huvb6k5o3eupfzcxzdero7q3c.py":18:0), %arg3: !tt.ptr<f32> {tt.divisibility = 16 : i32} loc("/orcd/home/002/osbo/ondemand/fluid-sim/Assets/Scripts/.torch_inductor_cache/mb/cmbepfesyc54jr6lr3zhaiff7w7huvb6k5o3eupfzcxzdero7q3c.py":18:0), %arg4: i32 {tt.divisibility = 16 : i32} loc("/orcd/home/002/osbo/ondemand/fluid-sim/Assets/Scripts/.torch_inductor_cache/mb/cmbepfesyc54jr6lr3zhaiff7w7huvb6k5o3eupfzcxzdero7q3c.py":18:0)) attributes {noinline = false} {
    %cst = arith.constant dense<4.000000e+00> : tensor<512xf32> loc(#loc1)
    %cst_0 = arith.constant dense<1536> : tensor<512xi32> loc(#loc1)
    %cst_1 = arith.constant dense<1024> : tensor<512xi32> loc(#loc1)
    %cst_2 = arith.constant dense<2048> : tensor<512xi32> loc(#loc1)
    %cst_3 = arith.constant dense<512> : tensor<512xi32> loc(#loc1)
    %c512_i32 = arith.constant 512 : i32 loc(#loc1)
    %0 = tt.get_program_id x : i32 loc(#loc2)
    %1 = arith.muli %0, %c512_i32 : i32 loc(#loc3)
    %2 = tt.make_range {end = 512 : i32, start = 0 : i32} : tensor<512xi32> loc(#loc4)
    %3 = tt.splat %1 : i32 -> tensor<512xi32> loc(#loc5)
    %4 = arith.addi %3, %2 : tensor<512xi32> loc(#loc5)
    %5 = arith.remsi %4, %cst_3 : tensor<512xi32> loc(#loc6)
    %6 = arith.divsi %4, %cst_3 : tensor<512xi32> loc(#loc7)
    %7 = tt.splat %arg1 : !tt.ptr<f32> -> tensor<512x!tt.ptr<f32>> loc(#loc8)
    %8 = tt.addptr %7, %4 : tensor<512x!tt.ptr<f32>>, tensor<512xi32> loc(#loc8)
    %9 = tt.load %8 : tensor<512x!tt.ptr<f32>> loc(#loc9)
    %10 = tt.splat %arg0 : !tt.ptr<f32> -> tensor<512x!tt.ptr<f32>> loc(#loc10)
    %11 = tt.addptr %10, %4 : tensor<512x!tt.ptr<f32>>, tensor<512xi32> loc(#loc10)
    %12 = tt.load %11 : tensor<512x!tt.ptr<f32>> loc(#loc11)
    %13 = tt.splat %arg2 : !tt.ptr<f32> -> tensor<512x!tt.ptr<f32>> loc(#loc12)
    %14 = tt.addptr %13, %5 : tensor<512x!tt.ptr<f32>>, tensor<512xi32> loc(#loc12)
    %15 = tt.load %14 evictionPolicy = evict_last : tensor<512x!tt.ptr<f32>> loc(#loc13)
    %16 = arith.muli %6, %cst_2 : tensor<512xi32> loc(#loc14)
    %17 = arith.addi %5, %16 : tensor<512xi32> loc(#loc15)
    %18 = tt.splat %arg3 : !tt.ptr<f32> -> tensor<512x!tt.ptr<f32>> loc(#loc16)
    %19 = tt.addptr %18, %17 : tensor<512x!tt.ptr<f32>>, tensor<512xi32> loc(#loc16)
    %20 = tt.load %19 : tensor<512x!tt.ptr<f32>> loc(#loc17)
    %21 = arith.addi %5, %cst_3 : tensor<512xi32> loc(#loc18)
    %22 = arith.addi %21, %16 : tensor<512xi32> loc(#loc19)
    %23 = tt.addptr %18, %22 : tensor<512x!tt.ptr<f32>>, tensor<512xi32> loc(#loc20)
    %24 = tt.load %23 : tensor<512x!tt.ptr<f32>> loc(#loc21)
    %25 = arith.addi %5, %cst_1 : tensor<512xi32> loc(#loc22)
    %26 = arith.addi %25, %16 : tensor<512xi32> loc(#loc23)
    %27 = tt.addptr %18, %26 : tensor<512x!tt.ptr<f32>>, tensor<512xi32> loc(#loc24)
    %28 = tt.load %27 : tensor<512x!tt.ptr<f32>> loc(#loc25)
    %29 = arith.addi %5, %cst_0 : tensor<512xi32> loc(#loc26)
    %30 = arith.addi %29, %16 : tensor<512xi32> loc(#loc27)
    %31 = tt.addptr %18, %30 : tensor<512x!tt.ptr<f32>>, tensor<512xi32> loc(#loc28)
    %32 = tt.load %31 : tensor<512x!tt.ptr<f32>> loc(#loc29)
    %33 = arith.addf %12, %15 : tensor<512xf32> loc(#loc30)
    %34 = arith.addf %9, %33 : tensor<512xf32> loc(#loc31)
    %35 = arith.addf %20, %24 : tensor<512xf32> loc(#loc32)
    %36 = arith.addf %35, %28 : tensor<512xf32> loc(#loc33)
    %37 = arith.addf %36, %32 : tensor<512xf32> loc(#loc34)
    %38 = arith.divf %37, %cst : tensor<512xf32> loc(#loc35)
    %39 = arith.subf %34, %38 : tensor<512xf32> loc(#loc36)
    tt.store %11, %39 : tensor<512x!tt.ptr<f32>> loc(#loc37)
    tt.return loc(#loc38)
  } loc(#loc)
} loc(#loc)
#loc1 = loc(unknown)
#loc2 = loc("/orcd/home/002/osbo/ondemand/fluid-sim/Assets/Scripts/.torch_inductor_cache/mb/cmbepfesyc54jr6lr3zhaiff7w7huvb6k5o3eupfzcxzdero7q3c.py":20:28)
#loc3 = loc("/orcd/home/002/osbo/ondemand/fluid-sim/Assets/Scripts/.torch_inductor_cache/mb/cmbepfesyc54jr6lr3zhaiff7w7huvb6k5o3eupfzcxzdero7q3c.py":20:33)
#loc4 = loc("/orcd/home/002/osbo/ondemand/fluid-sim/Assets/Scripts/.torch_inductor_cache/mb/cmbepfesyc54jr6lr3zhaiff7w7huvb6k5o3eupfzcxzdero7q3c.py":21:36)
#loc5 = loc("/orcd/home/002/osbo/ondemand/fluid-sim/Assets/Scripts/.torch_inductor_cache/mb/cmbepfesyc54jr6lr3zhaiff7w7huvb6k5o3eupfzcxzdero7q3c.py":21:23)
#loc6 = loc("/orcd/home/002/osbo/ondemand/fluid-sim/Assets/Scripts/.torch_inductor_cache/mb/cmbepfesyc54jr6lr3zhaiff7w7huvb6k5o3eupfzcxzdero7q3c.py":24:18)
#loc7 = loc("/orcd/home/002/osbo/ondemand/fluid-sim/Assets/Scripts/.torch_inductor_cache/mb/cmbepfesyc54jr6lr3zhaiff7w7huvb6k5o3eupfzcxzdero7q3c.py":25:20)
#loc8 = loc("/orcd/home/002/osbo/ondemand/fluid-sim/Assets/Scripts/.torch_inductor_cache/mb/cmbepfesyc54jr6lr3zhaiff7w7huvb6k5o3eupfzcxzdero7q3c.py":26:30)
#loc9 = loc("/orcd/home/002/osbo/ondemand/fluid-sim/Assets/Scripts/.torch_inductor_cache/mb/cmbepfesyc54jr6lr3zhaiff7w7huvb6k5o3eupfzcxzdero7q3c.py":26:35)
#loc10 = loc("/orcd/home/002/osbo/ondemand/fluid-sim/Assets/Scripts/.torch_inductor_cache/mb/cmbepfesyc54jr6lr3zhaiff7w7huvb6k5o3eupfzcxzdero7q3c.py":27:34)
#loc11 = loc("/orcd/home/002/osbo/ondemand/fluid-sim/Assets/Scripts/.torch_inductor_cache/mb/cmbepfesyc54jr6lr3zhaiff7w7huvb6k5o3eupfzcxzdero7q3c.py":27:39)
#loc12 = loc("/orcd/home/002/osbo/ondemand/fluid-sim/Assets/Scripts/.torch_inductor_cache/mb/cmbepfesyc54jr6lr3zhaiff7w7huvb6k5o3eupfzcxzdero7q3c.py":28:30)
#loc13 = loc("/orcd/home/002/osbo/ondemand/fluid-sim/Assets/Scripts/.torch_inductor_cache/mb/cmbepfesyc54jr6lr3zhaiff7w7huvb6k5o3eupfzcxzdero7q3c.py":28:35)
#loc14 = loc("/orcd/home/002/osbo/ondemand/fluid-sim/Assets/Scripts/.torch_inductor_cache/mb/cmbepfesyc54jr6lr3zhaiff7w7huvb6k5o3eupfzcxzdero7q3c.py":29:41)
#loc15 = loc("/orcd/home/002/osbo/ondemand/fluid-sim/Assets/Scripts/.torch_inductor_cache/mb/cmbepfesyc54jr6lr3zhaiff7w7huvb6k5o3eupfzcxzdero7q3c.py":29:36)
#loc16 = loc("/orcd/home/002/osbo/ondemand/fluid-sim/Assets/Scripts/.torch_inductor_cache/mb/cmbepfesyc54jr6lr3zhaiff7w7huvb6k5o3eupfzcxzdero7q3c.py":29:30)
#loc17 = loc("/orcd/home/002/osbo/ondemand/fluid-sim/Assets/Scripts/.torch_inductor_cache/mb/cmbepfesyc54jr6lr3zhaiff7w7huvb6k5o3eupfzcxzdero7q3c.py":29:47)
#loc18 = loc("/orcd/home/002/osbo/ondemand/fluid-sim/Assets/Scripts/.torch_inductor_cache/mb/cmbepfesyc54jr6lr3zhaiff7w7huvb6k5o3eupfzcxzdero7q3c.py":30:36)
#loc19 = loc("/orcd/home/002/osbo/ondemand/fluid-sim/Assets/Scripts/.torch_inductor_cache/mb/cmbepfesyc54jr6lr3zhaiff7w7huvb6k5o3eupfzcxzdero7q3c.py":30:42)
#loc20 = loc("/orcd/home/002/osbo/ondemand/fluid-sim/Assets/Scripts/.torch_inductor_cache/mb/cmbepfesyc54jr6lr3zhaiff7w7huvb6k5o3eupfzcxzdero7q3c.py":30:30)
#loc21 = loc("/orcd/home/002/osbo/ondemand/fluid-sim/Assets/Scripts/.torch_inductor_cache/mb/cmbepfesyc54jr6lr3zhaiff7w7huvb6k5o3eupfzcxzdero7q3c.py":30:53)
#loc22 = loc("/orcd/home/002/osbo/ondemand/fluid-sim/Assets/Scripts/.torch_inductor_cache/mb/cmbepfesyc54jr6lr3zhaiff7w7huvb6k5o3eupfzcxzdero7q3c.py":31:37)
#loc23 = loc("/orcd/home/002/osbo/ondemand/fluid-sim/Assets/Scripts/.torch_inductor_cache/mb/cmbepfesyc54jr6lr3zhaiff7w7huvb6k5o3eupfzcxzdero7q3c.py":31:43)
#loc24 = loc("/orcd/home/002/osbo/ondemand/fluid-sim/Assets/Scripts/.torch_inductor_cache/mb/cmbepfesyc54jr6lr3zhaiff7w7huvb6k5o3eupfzcxzdero7q3c.py":31:30)
#loc25 = loc("/orcd/home/002/osbo/ondemand/fluid-sim/Assets/Scripts/.torch_inductor_cache/mb/cmbepfesyc54jr6lr3zhaiff7w7huvb6k5o3eupfzcxzdero7q3c.py":31:54)
#loc26 = loc("/orcd/home/002/osbo/ondemand/fluid-sim/Assets/Scripts/.torch_inductor_cache/mb/cmbepfesyc54jr6lr3zhaiff7w7huvb6k5o3eupfzcxzdero7q3c.py":32:38)
#loc27 = loc("/orcd/home/002/osbo/ondemand/fluid-sim/Assets/Scripts/.torch_inductor_cache/mb/cmbepfesyc54jr6lr3zhaiff7w7huvb6k5o3eupfzcxzdero7q3c.py":32:44)
#loc28 = loc("/orcd/home/002/osbo/ondemand/fluid-sim/Assets/Scripts/.torch_inductor_cache/mb/cmbepfesyc54jr6lr3zhaiff7w7huvb6k5o3eupfzcxzdero7q3c.py":32:31)
#loc29 = loc("/orcd/home/002/osbo/ondemand/fluid-sim/Assets/Scripts/.torch_inductor_cache/mb/cmbepfesyc54jr6lr3zhaiff7w7huvb6k5o3eupfzcxzdero7q3c.py":32:55)
#loc30 = loc("/orcd/home/002/osbo/ondemand/fluid-sim/Assets/Scripts/.torch_inductor_cache/mb/cmbepfesyc54jr6lr3zhaiff7w7huvb6k5o3eupfzcxzdero7q3c.py":33:18)
#loc31 = loc("/orcd/home/002/osbo/ondemand/fluid-sim/Assets/Scripts/.torch_inductor_cache/mb/cmbepfesyc54jr6lr3zhaiff7w7huvb6k5o3eupfzcxzdero7q3c.py":34:18)
#loc32 = loc("/orcd/home/002/osbo/ondemand/fluid-sim/Assets/Scripts/.torch_inductor_cache/mb/cmbepfesyc54jr6lr3zhaiff7w7huvb6k5o3eupfzcxzdero7q3c.py":35:18)
#loc33 = loc("/orcd/home/002/osbo/ondemand/fluid-sim/Assets/Scripts/.torch_inductor_cache/mb/cmbepfesyc54jr6lr3zhaiff7w7huvb6k5o3eupfzcxzdero7q3c.py":36:18)
#loc34 = loc("/orcd/home/002/osbo/ondemand/fluid-sim/Assets/Scripts/.torch_inductor_cache/mb/cmbepfesyc54jr6lr3zhaiff7w7huvb6k5o3eupfzcxzdero7q3c.py":37:19)
#loc35 = loc("/orcd/home/002/osbo/ondemand/fluid-sim/Assets/Scripts/.torch_inductor_cache/mb/cmbepfesyc54jr6lr3zhaiff7w7huvb6k5o3eupfzcxzdero7q3c.py":39:20)
#loc36 = loc("/orcd/home/002/osbo/ondemand/fluid-sim/Assets/Scripts/.torch_inductor_cache/mb/cmbepfesyc54jr6lr3zhaiff7w7huvb6k5o3eupfzcxzdero7q3c.py":40:19)
#loc37 = loc("/orcd/home/002/osbo/ondemand/fluid-sim/Assets/Scripts/.torch_inductor_cache/mb/cmbepfesyc54jr6lr3zhaiff7w7huvb6k5o3eupfzcxzdero7q3c.py":41:40)
#loc38 = loc("/orcd/home/002/osbo/ondemand/fluid-sim/Assets/Scripts/.torch_inductor_cache/mb/cmbepfesyc54jr6lr3zhaiff7w7huvb6k5o3eupfzcxzdero7q3c.py":41:4)
