#loc = loc("/orcd/home/002/osbo/ondemand/fluid-sim/Assets/Scripts/.torch_inductor_cache/nc/cnckpklxzuv6id4s2yzgut6uh7v3i6g7oqpdcphhwreomkcuj2vh.py":18:0)
module {
  tt.func public @triton_(%arg0: !tt.ptr<f32> {tt.divisibility = 16 : i32} loc("/orcd/home/002/osbo/ondemand/fluid-sim/Assets/Scripts/.torch_inductor_cache/nc/cnckpklxzuv6id4s2yzgut6uh7v3i6g7oqpdcphhwreomkcuj2vh.py":18:0), %arg1: !tt.ptr<f32> {tt.divisibility = 16 : i32} loc("/orcd/home/002/osbo/ondemand/fluid-sim/Assets/Scripts/.torch_inductor_cache/nc/cnckpklxzuv6id4s2yzgut6uh7v3i6g7oqpdcphhwreomkcuj2vh.py":18:0), %arg2: !tt.ptr<f32> {tt.divisibility = 16 : i32} loc("/orcd/home/002/osbo/ondemand/fluid-sim/Assets/Scripts/.torch_inductor_cache/nc/cnckpklxzuv6id4s2yzgut6uh7v3i6g7oqpdcphhwreomkcuj2vh.py":18:0), %arg3: i32 {tt.divisibility = 16 : i32} loc("/orcd/home/002/osbo/ondemand/fluid-sim/Assets/Scripts/.torch_inductor_cache/nc/cnckpklxzuv6id4s2yzgut6uh7v3i6g7oqpdcphhwreomkcuj2vh.py":18:0)) attributes {noinline = false} {
    %cst = arith.constant dense<4.000000e+00> : tensor<512xf32> loc(#loc1)
    %cst_0 = arith.constant dense<516> : tensor<512xi32> loc(#loc1)
    %cst_1 = arith.constant dense<512> : tensor<512xi32> loc(#loc1)
    %cst_2 = arith.constant dense<1024> : tensor<512xi32> loc(#loc1)
    %cst_3 = arith.constant dense<8> : tensor<512xi32> loc(#loc1)
    %cst_4 = arith.constant dense<256> : tensor<512xi32> loc(#loc1)
    %cst_5 = arith.constant dense<64> : tensor<512xi32> loc(#loc1)
    %cst_6 = arith.constant dense<4> : tensor<512xi32> loc(#loc1)
    %c512_i32 = arith.constant 512 : i32 loc(#loc1)
    %0 = tt.get_program_id x : i32 loc(#loc2)
    %1 = arith.muli %0, %c512_i32 : i32 loc(#loc3)
    %2 = tt.make_range {end = 512 : i32, start = 0 : i32} : tensor<512xi32> loc(#loc4)
    %3 = tt.splat %1 : i32 -> tensor<512xi32> loc(#loc5)
    %4 = arith.addi %3, %2 : tensor<512xi32> loc(#loc5)
    %5 = arith.remsi %4, %cst_6 : tensor<512xi32> loc(#loc6)
    %6 = arith.divsi %4, %cst_6 : tensor<512xi32> loc(#loc7)
    %7 = arith.remsi %6, %cst_5 : tensor<512xi32> loc(#loc8)
    %8 = arith.divsi %4, %cst_4 : tensor<512xi32> loc(#loc9)
    %9 = arith.muli %7, %cst_3 : tensor<512xi32> loc(#loc10)
    %10 = arith.addi %5, %9 : tensor<512xi32> loc(#loc11)
    %11 = arith.muli %8, %cst_2 : tensor<512xi32> loc(#loc12)
    %12 = arith.addi %10, %11 : tensor<512xi32> loc(#loc13)
    %13 = tt.splat %arg0 : !tt.ptr<f32> -> tensor<512x!tt.ptr<f32>> loc(#loc14)
    %14 = tt.addptr %13, %12 : tensor<512x!tt.ptr<f32>>, tensor<512xi32> loc(#loc14)
    %15 = tt.load %14 : tensor<512x!tt.ptr<f32>> loc(#loc15)
    %16 = arith.addi %5, %cst_6 : tensor<512xi32> loc(#loc16)
    %17 = arith.addi %16, %9 : tensor<512xi32> loc(#loc17)
    %18 = arith.addi %17, %11 : tensor<512xi32> loc(#loc18)
    %19 = tt.addptr %13, %18 : tensor<512x!tt.ptr<f32>>, tensor<512xi32> loc(#loc19)
    %20 = tt.load %19 : tensor<512x!tt.ptr<f32>> loc(#loc20)
    %21 = arith.addi %5, %cst_1 : tensor<512xi32> loc(#loc21)
    %22 = arith.addi %21, %9 : tensor<512xi32> loc(#loc22)
    %23 = arith.addi %22, %11 : tensor<512xi32> loc(#loc23)
    %24 = tt.addptr %13, %23 : tensor<512x!tt.ptr<f32>>, tensor<512xi32> loc(#loc24)
    %25 = tt.load %24 : tensor<512x!tt.ptr<f32>> loc(#loc25)
    %26 = arith.addi %5, %cst_0 : tensor<512xi32> loc(#loc26)
    %27 = arith.addi %26, %9 : tensor<512xi32> loc(#loc27)
    %28 = arith.addi %27, %11 : tensor<512xi32> loc(#loc28)
    %29 = tt.addptr %13, %28 : tensor<512x!tt.ptr<f32>>, tensor<512xi32> loc(#loc29)
    %30 = tt.load %29 : tensor<512x!tt.ptr<f32>> loc(#loc30)
    %31 = arith.addf %15, %20 : tensor<512xf32> loc(#loc31)
    %32 = arith.addf %31, %25 : tensor<512xf32> loc(#loc32)
    %33 = arith.addf %32, %30 : tensor<512xf32> loc(#loc33)
    %34 = arith.divf %33, %cst : tensor<512xf32> loc(#loc34)
    %35 = tt.splat %arg1 : !tt.ptr<f32> -> tensor<512x!tt.ptr<f32>> loc(#loc35)
    %36 = tt.addptr %35, %4 : tensor<512x!tt.ptr<f32>>, tensor<512xi32> loc(#loc35)
    tt.store %36, %34 : tensor<512x!tt.ptr<f32>> loc(#loc36)
    %37 = tt.splat %arg2 : !tt.ptr<f32> -> tensor<512x!tt.ptr<f32>> loc(#loc37)
    %38 = tt.addptr %37, %4 : tensor<512x!tt.ptr<f32>>, tensor<512xi32> loc(#loc37)
    tt.store %38, %34 : tensor<512x!tt.ptr<f32>> loc(#loc38)
    tt.return loc(#loc39)
  } loc(#loc)
} loc(#loc)
#loc1 = loc(unknown)
#loc2 = loc("/orcd/home/002/osbo/ondemand/fluid-sim/Assets/Scripts/.torch_inductor_cache/nc/cnckpklxzuv6id4s2yzgut6uh7v3i6g7oqpdcphhwreomkcuj2vh.py":20:28)
#loc3 = loc("/orcd/home/002/osbo/ondemand/fluid-sim/Assets/Scripts/.torch_inductor_cache/nc/cnckpklxzuv6id4s2yzgut6uh7v3i6g7oqpdcphhwreomkcuj2vh.py":20:33)
#loc4 = loc("/orcd/home/002/osbo/ondemand/fluid-sim/Assets/Scripts/.torch_inductor_cache/nc/cnckpklxzuv6id4s2yzgut6uh7v3i6g7oqpdcphhwreomkcuj2vh.py":21:36)
#loc5 = loc("/orcd/home/002/osbo/ondemand/fluid-sim/Assets/Scripts/.torch_inductor_cache/nc/cnckpklxzuv6id4s2yzgut6uh7v3i6g7oqpdcphhwreomkcuj2vh.py":21:23)
#loc6 = loc("/orcd/home/002/osbo/ondemand/fluid-sim/Assets/Scripts/.torch_inductor_cache/nc/cnckpklxzuv6id4s2yzgut6uh7v3i6g7oqpdcphhwreomkcuj2vh.py":23:18)
#loc7 = loc("/orcd/home/002/osbo/ondemand/fluid-sim/Assets/Scripts/.torch_inductor_cache/nc/cnckpklxzuv6id4s2yzgut6uh7v3i6g7oqpdcphhwreomkcuj2vh.py":24:20)
#loc8 = loc("/orcd/home/002/osbo/ondemand/fluid-sim/Assets/Scripts/.torch_inductor_cache/nc/cnckpklxzuv6id4s2yzgut6uh7v3i6g7oqpdcphhwreomkcuj2vh.py":24:25)
#loc9 = loc("/orcd/home/002/osbo/ondemand/fluid-sim/Assets/Scripts/.torch_inductor_cache/nc/cnckpklxzuv6id4s2yzgut6uh7v3i6g7oqpdcphhwreomkcuj2vh.py":25:20)
#loc10 = loc("/orcd/home/002/osbo/ondemand/fluid-sim/Assets/Scripts/.torch_inductor_cache/nc/cnckpklxzuv6id4s2yzgut6uh7v3i6g7oqpdcphhwreomkcuj2vh.py":27:38)
#loc11 = loc("/orcd/home/002/osbo/ondemand/fluid-sim/Assets/Scripts/.torch_inductor_cache/nc/cnckpklxzuv6id4s2yzgut6uh7v3i6g7oqpdcphhwreomkcuj2vh.py":27:36)
#loc12 = loc("/orcd/home/002/osbo/ondemand/fluid-sim/Assets/Scripts/.torch_inductor_cache/nc/cnckpklxzuv6id4s2yzgut6uh7v3i6g7oqpdcphhwreomkcuj2vh.py":27:50)
#loc13 = loc("/orcd/home/002/osbo/ondemand/fluid-sim/Assets/Scripts/.torch_inductor_cache/nc/cnckpklxzuv6id4s2yzgut6uh7v3i6g7oqpdcphhwreomkcuj2vh.py":27:45)
#loc14 = loc("/orcd/home/002/osbo/ondemand/fluid-sim/Assets/Scripts/.torch_inductor_cache/nc/cnckpklxzuv6id4s2yzgut6uh7v3i6g7oqpdcphhwreomkcuj2vh.py":27:30)
#loc15 = loc("/orcd/home/002/osbo/ondemand/fluid-sim/Assets/Scripts/.torch_inductor_cache/nc/cnckpklxzuv6id4s2yzgut6uh7v3i6g7oqpdcphhwreomkcuj2vh.py":27:56)
#loc16 = loc("/orcd/home/002/osbo/ondemand/fluid-sim/Assets/Scripts/.torch_inductor_cache/nc/cnckpklxzuv6id4s2yzgut6uh7v3i6g7oqpdcphhwreomkcuj2vh.py":28:34)
#loc17 = loc("/orcd/home/002/osbo/ondemand/fluid-sim/Assets/Scripts/.torch_inductor_cache/nc/cnckpklxzuv6id4s2yzgut6uh7v3i6g7oqpdcphhwreomkcuj2vh.py":28:40)
#loc18 = loc("/orcd/home/002/osbo/ondemand/fluid-sim/Assets/Scripts/.torch_inductor_cache/nc/cnckpklxzuv6id4s2yzgut6uh7v3i6g7oqpdcphhwreomkcuj2vh.py":28:49)
#loc19 = loc("/orcd/home/002/osbo/ondemand/fluid-sim/Assets/Scripts/.torch_inductor_cache/nc/cnckpklxzuv6id4s2yzgut6uh7v3i6g7oqpdcphhwreomkcuj2vh.py":28:30)
#loc20 = loc("/orcd/home/002/osbo/ondemand/fluid-sim/Assets/Scripts/.torch_inductor_cache/nc/cnckpklxzuv6id4s2yzgut6uh7v3i6g7oqpdcphhwreomkcuj2vh.py":28:60)
#loc21 = loc("/orcd/home/002/osbo/ondemand/fluid-sim/Assets/Scripts/.torch_inductor_cache/nc/cnckpklxzuv6id4s2yzgut6uh7v3i6g7oqpdcphhwreomkcuj2vh.py":29:36)
#loc22 = loc("/orcd/home/002/osbo/ondemand/fluid-sim/Assets/Scripts/.torch_inductor_cache/nc/cnckpklxzuv6id4s2yzgut6uh7v3i6g7oqpdcphhwreomkcuj2vh.py":29:42)
#loc23 = loc("/orcd/home/002/osbo/ondemand/fluid-sim/Assets/Scripts/.torch_inductor_cache/nc/cnckpklxzuv6id4s2yzgut6uh7v3i6g7oqpdcphhwreomkcuj2vh.py":29:51)
#loc24 = loc("/orcd/home/002/osbo/ondemand/fluid-sim/Assets/Scripts/.torch_inductor_cache/nc/cnckpklxzuv6id4s2yzgut6uh7v3i6g7oqpdcphhwreomkcuj2vh.py":29:30)
#loc25 = loc("/orcd/home/002/osbo/ondemand/fluid-sim/Assets/Scripts/.torch_inductor_cache/nc/cnckpklxzuv6id4s2yzgut6uh7v3i6g7oqpdcphhwreomkcuj2vh.py":29:62)
#loc26 = loc("/orcd/home/002/osbo/ondemand/fluid-sim/Assets/Scripts/.torch_inductor_cache/nc/cnckpklxzuv6id4s2yzgut6uh7v3i6g7oqpdcphhwreomkcuj2vh.py":30:36)
#loc27 = loc("/orcd/home/002/osbo/ondemand/fluid-sim/Assets/Scripts/.torch_inductor_cache/nc/cnckpklxzuv6id4s2yzgut6uh7v3i6g7oqpdcphhwreomkcuj2vh.py":30:42)
#loc28 = loc("/orcd/home/002/osbo/ondemand/fluid-sim/Assets/Scripts/.torch_inductor_cache/nc/cnckpklxzuv6id4s2yzgut6uh7v3i6g7oqpdcphhwreomkcuj2vh.py":30:51)
#loc29 = loc("/orcd/home/002/osbo/ondemand/fluid-sim/Assets/Scripts/.torch_inductor_cache/nc/cnckpklxzuv6id4s2yzgut6uh7v3i6g7oqpdcphhwreomkcuj2vh.py":30:30)
#loc30 = loc("/orcd/home/002/osbo/ondemand/fluid-sim/Assets/Scripts/.torch_inductor_cache/nc/cnckpklxzuv6id4s2yzgut6uh7v3i6g7oqpdcphhwreomkcuj2vh.py":30:62)
#loc31 = loc("/orcd/home/002/osbo/ondemand/fluid-sim/Assets/Scripts/.torch_inductor_cache/nc/cnckpklxzuv6id4s2yzgut6uh7v3i6g7oqpdcphhwreomkcuj2vh.py":31:18)
#loc32 = loc("/orcd/home/002/osbo/ondemand/fluid-sim/Assets/Scripts/.torch_inductor_cache/nc/cnckpklxzuv6id4s2yzgut6uh7v3i6g7oqpdcphhwreomkcuj2vh.py":32:18)
#loc33 = loc("/orcd/home/002/osbo/ondemand/fluid-sim/Assets/Scripts/.torch_inductor_cache/nc/cnckpklxzuv6id4s2yzgut6uh7v3i6g7oqpdcphhwreomkcuj2vh.py":33:18)
#loc34 = loc("/orcd/home/002/osbo/ondemand/fluid-sim/Assets/Scripts/.torch_inductor_cache/nc/cnckpklxzuv6id4s2yzgut6uh7v3i6g7oqpdcphhwreomkcuj2vh.py":35:18)
#loc35 = loc("/orcd/home/002/osbo/ondemand/fluid-sim/Assets/Scripts/.torch_inductor_cache/nc/cnckpklxzuv6id4s2yzgut6uh7v3i6g7oqpdcphhwreomkcuj2vh.py":36:25)
#loc36 = loc("/orcd/home/002/osbo/ondemand/fluid-sim/Assets/Scripts/.torch_inductor_cache/nc/cnckpklxzuv6id4s2yzgut6uh7v3i6g7oqpdcphhwreomkcuj2vh.py":36:36)
#loc37 = loc("/orcd/home/002/osbo/ondemand/fluid-sim/Assets/Scripts/.torch_inductor_cache/nc/cnckpklxzuv6id4s2yzgut6uh7v3i6g7oqpdcphhwreomkcuj2vh.py":37:25)
#loc38 = loc("/orcd/home/002/osbo/ondemand/fluid-sim/Assets/Scripts/.torch_inductor_cache/nc/cnckpklxzuv6id4s2yzgut6uh7v3i6g7oqpdcphhwreomkcuj2vh.py":37:36)
#loc39 = loc("/orcd/home/002/osbo/ondemand/fluid-sim/Assets/Scripts/.torch_inductor_cache/nc/cnckpklxzuv6id4s2yzgut6uh7v3i6g7oqpdcphhwreomkcuj2vh.py":37:4)
