#loc = loc("/orcd/home/002/osbo/ondemand/fluid-sim/Assets/Scripts/.torch_inductor_cache/3o/c3o2sxiuy3gfn2qfwdnjpyizzdb2wt6eebvsumutbkxfenhaykum.py":18:0)
module {
  tt.func public @triton_(%arg0: !tt.ptr<f32> {tt.divisibility = 16 : i32} loc("/orcd/home/002/osbo/ondemand/fluid-sim/Assets/Scripts/.torch_inductor_cache/3o/c3o2sxiuy3gfn2qfwdnjpyizzdb2wt6eebvsumutbkxfenhaykum.py":18:0), %arg1: !tt.ptr<f32> {tt.divisibility = 16 : i32} loc("/orcd/home/002/osbo/ondemand/fluid-sim/Assets/Scripts/.torch_inductor_cache/3o/c3o2sxiuy3gfn2qfwdnjpyizzdb2wt6eebvsumutbkxfenhaykum.py":18:0), %arg2: !tt.ptr<f32> {tt.divisibility = 16 : i32} loc("/orcd/home/002/osbo/ondemand/fluid-sim/Assets/Scripts/.torch_inductor_cache/3o/c3o2sxiuy3gfn2qfwdnjpyizzdb2wt6eebvsumutbkxfenhaykum.py":18:0), %arg3: !tt.ptr<f32> {tt.divisibility = 16 : i32} loc("/orcd/home/002/osbo/ondemand/fluid-sim/Assets/Scripts/.torch_inductor_cache/3o/c3o2sxiuy3gfn2qfwdnjpyizzdb2wt6eebvsumutbkxfenhaykum.py":18:0), %arg4: !tt.ptr<f32> {tt.divisibility = 16 : i32} loc("/orcd/home/002/osbo/ondemand/fluid-sim/Assets/Scripts/.torch_inductor_cache/3o/c3o2sxiuy3gfn2qfwdnjpyizzdb2wt6eebvsumutbkxfenhaykum.py":18:0), %arg5: !tt.ptr<f32> {tt.divisibility = 16 : i32} loc("/orcd/home/002/osbo/ondemand/fluid-sim/Assets/Scripts/.torch_inductor_cache/3o/c3o2sxiuy3gfn2qfwdnjpyizzdb2wt6eebvsumutbkxfenhaykum.py":18:0), %arg6: i32 {tt.divisibility = 16 : i32} loc("/orcd/home/002/osbo/ondemand/fluid-sim/Assets/Scripts/.torch_inductor_cache/3o/c3o2sxiuy3gfn2qfwdnjpyizzdb2wt6eebvsumutbkxfenhaykum.py":18:0)) attributes {noinline = false} {
    %cst = arith.constant dense<-512> : tensor<128xi32> loc(#loc1)
    %cst_0 = arith.constant dense<0.000000e+00> : tensor<128xf32> loc(#loc1)
    %cst_1 = arith.constant dense<512> : tensor<128xi32> loc(#loc1)
    %cst_2 = arith.constant dense<2> : tensor<128xi32> loc(#loc1)
    %cst_3 = arith.constant dense<512> : tensor<128xi64> loc(#loc1)
    %cst_4 = arith.constant dense<1024> : tensor<128xi32> loc(#loc1)
    %c128_i32 = arith.constant 128 : i32 loc(#loc1)
    %0 = tt.get_program_id x : i32 loc(#loc2)
    %1 = arith.muli %0, %c128_i32 : i32 loc(#loc3)
    %2 = tt.make_range {end = 128 : i32, start = 0 : i32} : tensor<128xi32> loc(#loc4)
    %3 = tt.splat %1 : i32 -> tensor<128xi32> loc(#loc5)
    %4 = arith.addi %3, %2 : tensor<128xi32> loc(#loc5)
    %5 = arith.remsi %4, %cst_4 : tensor<128xi32> loc(#loc6)
    %6 = arith.divsi %4, %cst_4 : tensor<128xi32> loc(#loc7)
    %7 = arith.extsi %5 : tensor<128xi32> to tensor<128xi64> loc(#loc8)
    %8 = arith.cmpi slt, %7, %cst_3 : tensor<128xi64> loc(#loc8)
    %9 = arith.divsi %6, %cst_2 : tensor<128xi32> loc(#loc9)
    %10 = arith.muli %9, %cst_1 : tensor<128xi32> loc(#loc10)
    %11 = arith.addi %10, %5 : tensor<128xi32> loc(#loc11)
    %12 = tt.splat %arg0 : !tt.ptr<f32> -> tensor<128x!tt.ptr<f32>> loc(#loc12)
    %13 = tt.addptr %12, %11 : tensor<128x!tt.ptr<f32>>, tensor<128xi32> loc(#loc12)
    %14 = tt.load %13, %8, %cst_0 evictionPolicy = evict_last : tensor<128x!tt.ptr<f32>> loc(#loc13)
    %15 = tt.splat %arg1 : !tt.ptr<f32> -> tensor<128x!tt.ptr<f32>> loc(#loc14)
    %16 = tt.addptr %15, %5 : tensor<128x!tt.ptr<f32>>, tensor<128xi32> loc(#loc14)
    %17 = tt.load %16, %8, %cst_0 evictionPolicy = evict_last : tensor<128x!tt.ptr<f32>> loc(#loc15)
    %18 = arith.addf %14, %17 : tensor<128xf32> loc(#loc16)
    %19 = arith.cmpi sge, %7, %cst_3 : tensor<128xi64> loc(#loc17)
    %20 = arith.muli %6, %cst_1 : tensor<128xi32> loc(#loc18)
    %21 = arith.addi %5, %cst : tensor<128xi32> loc(#loc19)
    %22 = arith.addi %20, %21 : tensor<128xi32> loc(#loc20)
    %23 = tt.splat %arg2 : !tt.ptr<f32> -> tensor<128x!tt.ptr<f32>> loc(#loc21)
    %24 = tt.addptr %23, %22 : tensor<128x!tt.ptr<f32>>, tensor<128xi32> loc(#loc21)
    %25 = tt.load %24, %19, %cst_0 evictionPolicy = evict_last : tensor<128x!tt.ptr<f32>> loc(#loc22)
    %26 = tt.splat %arg3 : !tt.ptr<f32> -> tensor<128x!tt.ptr<f32>> loc(#loc23)
    %27 = tt.addptr %26, %22 : tensor<128x!tt.ptr<f32>>, tensor<128xi32> loc(#loc23)
    %28 = tt.load %27, %19, %cst_0 evictionPolicy = evict_last : tensor<128x!tt.ptr<f32>> loc(#loc24)
    %29 = tt.splat %arg4 : !tt.ptr<f32> -> tensor<128x!tt.ptr<f32>> loc(#loc25)
    %30 = tt.addptr %29, %21 : tensor<128x!tt.ptr<f32>>, tensor<128xi32> loc(#loc25)
    %31 = tt.load %30, %19, %cst_0 evictionPolicy = evict_last : tensor<128x!tt.ptr<f32>> loc(#loc26)
    %32 = arith.addf %28, %31 : tensor<128xf32> loc(#loc27)
    %33 = arith.addf %25, %32 : tensor<128xf32> loc(#loc28)
    %34 = arith.select %19, %33, %cst_0 : tensor<128xi1>, tensor<128xf32> loc(#loc29)
    %35 = arith.select %8, %18, %34 : tensor<128xi1>, tensor<128xf32> loc(#loc35)
    %36 = tt.splat %arg5 : !tt.ptr<f32> -> tensor<128x!tt.ptr<f32>> loc(#loc32)
    %37 = tt.addptr %36, %4 : tensor<128x!tt.ptr<f32>>, tensor<128xi32> loc(#loc32)
    tt.store %37, %35 : tensor<128x!tt.ptr<f32>> loc(#loc33)
    tt.return loc(#loc34)
  } loc(#loc)
} loc(#loc)
#loc1 = loc(unknown)
#loc2 = loc("/orcd/home/002/osbo/ondemand/fluid-sim/Assets/Scripts/.torch_inductor_cache/3o/c3o2sxiuy3gfn2qfwdnjpyizzdb2wt6eebvsumutbkxfenhaykum.py":20:28)
#loc3 = loc("/orcd/home/002/osbo/ondemand/fluid-sim/Assets/Scripts/.torch_inductor_cache/3o/c3o2sxiuy3gfn2qfwdnjpyizzdb2wt6eebvsumutbkxfenhaykum.py":20:33)
#loc4 = loc("/orcd/home/002/osbo/ondemand/fluid-sim/Assets/Scripts/.torch_inductor_cache/3o/c3o2sxiuy3gfn2qfwdnjpyizzdb2wt6eebvsumutbkxfenhaykum.py":21:36)
#loc5 = loc("/orcd/home/002/osbo/ondemand/fluid-sim/Assets/Scripts/.torch_inductor_cache/3o/c3o2sxiuy3gfn2qfwdnjpyizzdb2wt6eebvsumutbkxfenhaykum.py":21:23)
#loc6 = loc("/orcd/home/002/osbo/ondemand/fluid-sim/Assets/Scripts/.torch_inductor_cache/3o/c3o2sxiuy3gfn2qfwdnjpyizzdb2wt6eebvsumutbkxfenhaykum.py":23:18)
#loc7 = loc("/orcd/home/002/osbo/ondemand/fluid-sim/Assets/Scripts/.torch_inductor_cache/3o/c3o2sxiuy3gfn2qfwdnjpyizzdb2wt6eebvsumutbkxfenhaykum.py":24:20)
#loc8 = loc("/orcd/home/002/osbo/ondemand/fluid-sim/Assets/Scripts/.torch_inductor_cache/3o/c3o2sxiuy3gfn2qfwdnjpyizzdb2wt6eebvsumutbkxfenhaykum.py":30:18)
#loc9 = loc("/orcd/home/002/osbo/ondemand/fluid-sim/Assets/Scripts/.torch_inductor_cache/3o/c3o2sxiuy3gfn2qfwdnjpyizzdb2wt6eebvsumutbkxfenhaykum.py":31:42)
#loc10 = loc("/orcd/home/002/osbo/ondemand/fluid-sim/Assets/Scripts/.torch_inductor_cache/3o/c3o2sxiuy3gfn2qfwdnjpyizzdb2wt6eebvsumutbkxfenhaykum.py":31:36)
#loc11 = loc("/orcd/home/002/osbo/ondemand/fluid-sim/Assets/Scripts/.torch_inductor_cache/3o/c3o2sxiuy3gfn2qfwdnjpyizzdb2wt6eebvsumutbkxfenhaykum.py":31:48)
#loc12 = loc("/orcd/home/002/osbo/ondemand/fluid-sim/Assets/Scripts/.torch_inductor_cache/3o/c3o2sxiuy3gfn2qfwdnjpyizzdb2wt6eebvsumutbkxfenhaykum.py":31:30)
#loc13 = loc("/orcd/home/002/osbo/ondemand/fluid-sim/Assets/Scripts/.torch_inductor_cache/3o/c3o2sxiuy3gfn2qfwdnjpyizzdb2wt6eebvsumutbkxfenhaykum.py":31:53)
#loc14 = loc("/orcd/home/002/osbo/ondemand/fluid-sim/Assets/Scripts/.torch_inductor_cache/3o/c3o2sxiuy3gfn2qfwdnjpyizzdb2wt6eebvsumutbkxfenhaykum.py":32:30)
#loc15 = loc("/orcd/home/002/osbo/ondemand/fluid-sim/Assets/Scripts/.torch_inductor_cache/3o/c3o2sxiuy3gfn2qfwdnjpyizzdb2wt6eebvsumutbkxfenhaykum.py":32:35)
#loc16 = loc("/orcd/home/002/osbo/ondemand/fluid-sim/Assets/Scripts/.torch_inductor_cache/3o/c3o2sxiuy3gfn2qfwdnjpyizzdb2wt6eebvsumutbkxfenhaykum.py":33:18)
#loc17 = loc("/orcd/home/002/osbo/ondemand/fluid-sim/Assets/Scripts/.torch_inductor_cache/3o/c3o2sxiuy3gfn2qfwdnjpyizzdb2wt6eebvsumutbkxfenhaykum.py":36:20)
#loc18 = loc("/orcd/home/002/osbo/ondemand/fluid-sim/Assets/Scripts/.torch_inductor_cache/3o/c3o2sxiuy3gfn2qfwdnjpyizzdb2wt6eebvsumutbkxfenhaykum.py":39:36)
#loc19 = loc("/orcd/home/002/osbo/ondemand/fluid-sim/Assets/Scripts/.torch_inductor_cache/3o/c3o2sxiuy3gfn2qfwdnjpyizzdb2wt6eebvsumutbkxfenhaykum.py":39:52)
#loc20 = loc("/orcd/home/002/osbo/ondemand/fluid-sim/Assets/Scripts/.torch_inductor_cache/3o/c3o2sxiuy3gfn2qfwdnjpyizzdb2wt6eebvsumutbkxfenhaykum.py":39:43)
#loc21 = loc("/orcd/home/002/osbo/ondemand/fluid-sim/Assets/Scripts/.torch_inductor_cache/3o/c3o2sxiuy3gfn2qfwdnjpyizzdb2wt6eebvsumutbkxfenhaykum.py":39:31)
#loc22 = loc("/orcd/home/002/osbo/ondemand/fluid-sim/Assets/Scripts/.torch_inductor_cache/3o/c3o2sxiuy3gfn2qfwdnjpyizzdb2wt6eebvsumutbkxfenhaykum.py":39:58)
#loc23 = loc("/orcd/home/002/osbo/ondemand/fluid-sim/Assets/Scripts/.torch_inductor_cache/3o/c3o2sxiuy3gfn2qfwdnjpyizzdb2wt6eebvsumutbkxfenhaykum.py":40:31)
#loc24 = loc("/orcd/home/002/osbo/ondemand/fluid-sim/Assets/Scripts/.torch_inductor_cache/3o/c3o2sxiuy3gfn2qfwdnjpyizzdb2wt6eebvsumutbkxfenhaykum.py":40:58)
#loc25 = loc("/orcd/home/002/osbo/ondemand/fluid-sim/Assets/Scripts/.torch_inductor_cache/3o/c3o2sxiuy3gfn2qfwdnjpyizzdb2wt6eebvsumutbkxfenhaykum.py":41:31)
#loc26 = loc("/orcd/home/002/osbo/ondemand/fluid-sim/Assets/Scripts/.torch_inductor_cache/3o/c3o2sxiuy3gfn2qfwdnjpyizzdb2wt6eebvsumutbkxfenhaykum.py":41:45)
#loc27 = loc("/orcd/home/002/osbo/ondemand/fluid-sim/Assets/Scripts/.torch_inductor_cache/3o/c3o2sxiuy3gfn2qfwdnjpyizzdb2wt6eebvsumutbkxfenhaykum.py":42:20)
#loc28 = loc("/orcd/home/002/osbo/ondemand/fluid-sim/Assets/Scripts/.torch_inductor_cache/3o/c3o2sxiuy3gfn2qfwdnjpyizzdb2wt6eebvsumutbkxfenhaykum.py":43:20)
#loc29 = loc("/orcd/home/002/osbo/ondemand/fluid-sim/Assets/Scripts/.torch_inductor_cache/3o/c3o2sxiuy3gfn2qfwdnjpyizzdb2wt6eebvsumutbkxfenhaykum.py":45:35)
#loc30 = loc("/orcd/home/002/osbo/ondemand/fluid-sim/Assets/Scripts/.torch_inductor_cache/3o/c3o2sxiuy3gfn2qfwdnjpyizzdb2wt6eebvsumutbkxfenhaykum.py":46:33)
#loc31 = loc("/orcd/home/002/osbo/ondemand/fluid-sim/Assets/Scripts/.torch_inductor_cache/3o/c3o2sxiuy3gfn2qfwdnjpyizzdb2wt6eebvsumutbkxfenhaykum.py":35:32)
#loc32 = loc("/orcd/home/002/osbo/ondemand/fluid-sim/Assets/Scripts/.torch_inductor_cache/3o/c3o2sxiuy3gfn2qfwdnjpyizzdb2wt6eebvsumutbkxfenhaykum.py":47:25)
#loc33 = loc("/orcd/home/002/osbo/ondemand/fluid-sim/Assets/Scripts/.torch_inductor_cache/3o/c3o2sxiuy3gfn2qfwdnjpyizzdb2wt6eebvsumutbkxfenhaykum.py":47:37)
#loc34 = loc("/orcd/home/002/osbo/ondemand/fluid-sim/Assets/Scripts/.torch_inductor_cache/3o/c3o2sxiuy3gfn2qfwdnjpyizzdb2wt6eebvsumutbkxfenhaykum.py":47:4)
#loc35 = loc(fused[#loc30, #loc31])
