#loc = loc("/orcd/home/002/osbo/ondemand/fluid-sim/Assets/Scripts/.torch_inductor_cache/7i/c7ioncobppzhj4mxipgr2traybpbitfokdkfvurxaoyqfvomkiof.py":18:0)
module {
  tt.func public @triton_(%arg0: !tt.ptr<f32> {tt.divisibility = 16 : i32} loc("/orcd/home/002/osbo/ondemand/fluid-sim/Assets/Scripts/.torch_inductor_cache/7i/c7ioncobppzhj4mxipgr2traybpbitfokdkfvurxaoyqfvomkiof.py":18:0), %arg1: !tt.ptr<f32> {tt.divisibility = 16 : i32} loc("/orcd/home/002/osbo/ondemand/fluid-sim/Assets/Scripts/.torch_inductor_cache/7i/c7ioncobppzhj4mxipgr2traybpbitfokdkfvurxaoyqfvomkiof.py":18:0), %arg2: !tt.ptr<f32> {tt.divisibility = 16 : i32} loc("/orcd/home/002/osbo/ondemand/fluid-sim/Assets/Scripts/.torch_inductor_cache/7i/c7ioncobppzhj4mxipgr2traybpbitfokdkfvurxaoyqfvomkiof.py":18:0), %arg3: i32 {tt.divisibility = 16 : i32} loc("/orcd/home/002/osbo/ondemand/fluid-sim/Assets/Scripts/.torch_inductor_cache/7i/c7ioncobppzhj4mxipgr2traybpbitfokdkfvurxaoyqfvomkiof.py":18:0), %arg4: i32 loc("/orcd/home/002/osbo/ondemand/fluid-sim/Assets/Scripts/.torch_inductor_cache/7i/c7ioncobppzhj4mxipgr2traybpbitfokdkfvurxaoyqfvomkiof.py":18:0)) attributes {noinline = false} {
    %c1536_i32 = arith.constant 1536 : i32 loc(#loc1)
    %c33_i32 = arith.constant 33 : i32 loc(#loc1)
    %cst = arith.constant dense<33> : tensor<1x1024xi32> loc(#loc1)
    %cst_0 = arith.constant dense<50688> : tensor<1x1024xi32> loc(#loc1)
    %cst_1 = arith.constant dense<512> : tensor<1x1024xi32> loc(#loc1)
    %cst_2 = arith.constant dense<249344> : tensor<1x1024xi32> loc(#loc1)
    %c1024_i32 = arith.constant 1024 : i32 loc(#loc1)
    %0 = tt.get_program_id y : i32 loc(#loc2)
    %1 = tt.get_program_id z : i32 loc(#loc3)
    %2 = tt.get_num_programs y : i32 loc(#loc4)
    %3 = arith.muli %1, %2 : i32 loc(#loc5)
    %4 = arith.addi %0, %3 : i32 loc(#loc6)
    %5 = arith.muli %4, %c1024_i32 : i32 loc(#loc7)
    %6 = tt.make_range {end = 1024 : i32, start = 0 : i32} : tensor<1024xi32> loc(#loc8)
    %7 = tt.expand_dims %6 {axis = 0 : i32} : tensor<1024xi32> -> tensor<1x1024xi32> loc(#loc9)
    %8 = tt.splat %5 : i32 -> tensor<1x1024xi32> loc(#loc10)
    %9 = arith.addi %8, %7 : tensor<1x1024xi32> loc(#loc10)
    %10 = arith.cmpi slt, %9, %cst_2 : tensor<1x1024xi32> loc(#loc11)
    %11 = tt.get_program_id x : i32 loc(#loc12)
    %12 = arith.cmpi slt, %11, %c33_i32 : i32 loc(#loc13)
    %13 = arith.remsi %9, %cst_1 : tensor<1x1024xi32> loc(#loc14)
    %14 = arith.divsi %9, %cst_1 : tensor<1x1024xi32> loc(#loc15)
    %15 = arith.addi %13, %cst_1 : tensor<1x1024xi32> loc(#loc16)
    %16 = arith.muli %11, %c1536_i32 : i32 loc(#loc17)
    %17 = tt.splat %16 : i32 -> tensor<1x1024xi32> loc(#loc18)
    %18 = arith.addi %15, %17 : tensor<1x1024xi32> loc(#loc18)
    %19 = arith.muli %14, %cst_0 : tensor<1x1024xi32> loc(#loc19)
    %20 = arith.addi %18, %19 : tensor<1x1024xi32> loc(#loc20)
    %21 = tt.splat %arg0 : !tt.ptr<f32> -> tensor<1x1024x!tt.ptr<f32>> loc(#loc21)
    %22 = tt.addptr %21, %20 : tensor<1x1024x!tt.ptr<f32>>, tensor<1x1024xi32> loc(#loc21)
    %23 = tt.splat %12 : i1 -> tensor<1x1024xi1> loc(#loc22)
    %24 = arith.andi %23, %10 : tensor<1x1024xi1> loc(#loc22)
    %25 = tt.load %22, %24 evictionPolicy = evict_last : tensor<1x1024x!tt.ptr<f32>> loc(#loc23)
    %26 = tt.splat %arg1 : !tt.ptr<f32> -> tensor<1x1024x!tt.ptr<f32>> loc(#loc24)
    %27 = tt.addptr %26, %15 : tensor<1x1024x!tt.ptr<f32>>, tensor<1x1024xi32> loc(#loc24)
    %28 = tt.load %27, %10 evictionPolicy = evict_last : tensor<1x1024x!tt.ptr<f32>> loc(#loc25)
    %29 = arith.addf %25, %28 : tensor<1x1024xf32> loc(#loc26)
    %30 = arith.muli %9, %cst : tensor<1x1024xi32> loc(#loc27)
    %31 = tt.splat %11 : i32 -> tensor<1x1024xi32> loc(#loc28)
    %32 = arith.addi %31, %30 : tensor<1x1024xi32> loc(#loc28)
    %33 = tt.splat %arg2 : !tt.ptr<f32> -> tensor<1x1024x!tt.ptr<f32>> loc(#loc29)
    %34 = tt.addptr %33, %32 : tensor<1x1024x!tt.ptr<f32>>, tensor<1x1024xi32> loc(#loc29)
    tt.store %34, %29, %24 : tensor<1x1024x!tt.ptr<f32>> loc(#loc30)
    tt.return loc(#loc31)
  } loc(#loc)
} loc(#loc)
#loc1 = loc(unknown)
#loc2 = loc("/orcd/home/002/osbo/ondemand/fluid-sim/Assets/Scripts/.torch_inductor_cache/7i/c7ioncobppzhj4mxipgr2traybpbitfokdkfvurxaoyqfvomkiof.py":21:29)
#loc3 = loc("/orcd/home/002/osbo/ondemand/fluid-sim/Assets/Scripts/.torch_inductor_cache/7i/c7ioncobppzhj4mxipgr2traybpbitfokdkfvurxaoyqfvomkiof.py":21:48)
#loc4 = loc("/orcd/home/002/osbo/ondemand/fluid-sim/Assets/Scripts/.torch_inductor_cache/7i/c7ioncobppzhj4mxipgr2traybpbitfokdkfvurxaoyqfvomkiof.py":21:69)
#loc5 = loc("/orcd/home/002/osbo/ondemand/fluid-sim/Assets/Scripts/.torch_inductor_cache/7i/c7ioncobppzhj4mxipgr2traybpbitfokdkfvurxaoyqfvomkiof.py":21:53)
#loc6 = loc("/orcd/home/002/osbo/ondemand/fluid-sim/Assets/Scripts/.torch_inductor_cache/7i/c7ioncobppzhj4mxipgr2traybpbitfokdkfvurxaoyqfvomkiof.py":21:34)
#loc7 = loc("/orcd/home/002/osbo/ondemand/fluid-sim/Assets/Scripts/.torch_inductor_cache/7i/c7ioncobppzhj4mxipgr2traybpbitfokdkfvurxaoyqfvomkiof.py":21:75)
#loc8 = loc("/orcd/home/002/osbo/ondemand/fluid-sim/Assets/Scripts/.torch_inductor_cache/7i/c7ioncobppzhj4mxipgr2traybpbitfokdkfvurxaoyqfvomkiof.py":22:36)
#loc9 = loc("/orcd/home/002/osbo/ondemand/fluid-sim/Assets/Scripts/.torch_inductor_cache/7i/c7ioncobppzhj4mxipgr2traybpbitfokdkfvurxaoyqfvomkiof.py":22:44)
#loc10 = loc("/orcd/home/002/osbo/ondemand/fluid-sim/Assets/Scripts/.torch_inductor_cache/7i/c7ioncobppzhj4mxipgr2traybpbitfokdkfvurxaoyqfvomkiof.py":22:23)
#loc11 = loc("/orcd/home/002/osbo/ondemand/fluid-sim/Assets/Scripts/.torch_inductor_cache/7i/c7ioncobppzhj4mxipgr2traybpbitfokdkfvurxaoyqfvomkiof.py":23:21)
#loc12 = loc("/orcd/home/002/osbo/ondemand/fluid-sim/Assets/Scripts/.torch_inductor_cache/7i/c7ioncobppzhj4mxipgr2traybpbitfokdkfvurxaoyqfvomkiof.py":24:28)
#loc13 = loc("/orcd/home/002/osbo/ondemand/fluid-sim/Assets/Scripts/.torch_inductor_cache/7i/c7ioncobppzhj4mxipgr2traybpbitfokdkfvurxaoyqfvomkiof.py":26:21)
#loc14 = loc("/orcd/home/002/osbo/ondemand/fluid-sim/Assets/Scripts/.torch_inductor_cache/7i/c7ioncobppzhj4mxipgr2traybpbitfokdkfvurxaoyqfvomkiof.py":28:18)
#loc15 = loc("/orcd/home/002/osbo/ondemand/fluid-sim/Assets/Scripts/.torch_inductor_cache/7i/c7ioncobppzhj4mxipgr2traybpbitfokdkfvurxaoyqfvomkiof.py":29:20)
#loc16 = loc("/orcd/home/002/osbo/ondemand/fluid-sim/Assets/Scripts/.torch_inductor_cache/7i/c7ioncobppzhj4mxipgr2traybpbitfokdkfvurxaoyqfvomkiof.py":31:36)
#loc17 = loc("/orcd/home/002/osbo/ondemand/fluid-sim/Assets/Scripts/.torch_inductor_cache/7i/c7ioncobppzhj4mxipgr2traybpbitfokdkfvurxaoyqfvomkiof.py":31:47)
#loc18 = loc("/orcd/home/002/osbo/ondemand/fluid-sim/Assets/Scripts/.torch_inductor_cache/7i/c7ioncobppzhj4mxipgr2traybpbitfokdkfvurxaoyqfvomkiof.py":31:42)
#loc19 = loc("/orcd/home/002/osbo/ondemand/fluid-sim/Assets/Scripts/.torch_inductor_cache/7i/c7ioncobppzhj4mxipgr2traybpbitfokdkfvurxaoyqfvomkiof.py":31:60)
#loc20 = loc("/orcd/home/002/osbo/ondemand/fluid-sim/Assets/Scripts/.torch_inductor_cache/7i/c7ioncobppzhj4mxipgr2traybpbitfokdkfvurxaoyqfvomkiof.py":31:54)
#loc21 = loc("/orcd/home/002/osbo/ondemand/fluid-sim/Assets/Scripts/.torch_inductor_cache/7i/c7ioncobppzhj4mxipgr2traybpbitfokdkfvurxaoyqfvomkiof.py":31:30)
#loc22 = loc("/orcd/home/002/osbo/ondemand/fluid-sim/Assets/Scripts/.torch_inductor_cache/7i/c7ioncobppzhj4mxipgr2traybpbitfokdkfvurxaoyqfvomkiof.py":31:74)
#loc23 = loc("/orcd/home/002/osbo/ondemand/fluid-sim/Assets/Scripts/.torch_inductor_cache/7i/c7ioncobppzhj4mxipgr2traybpbitfokdkfvurxaoyqfvomkiof.py":31:66)
#loc24 = loc("/orcd/home/002/osbo/ondemand/fluid-sim/Assets/Scripts/.torch_inductor_cache/7i/c7ioncobppzhj4mxipgr2traybpbitfokdkfvurxaoyqfvomkiof.py":32:30)
#loc25 = loc("/orcd/home/002/osbo/ondemand/fluid-sim/Assets/Scripts/.torch_inductor_cache/7i/c7ioncobppzhj4mxipgr2traybpbitfokdkfvurxaoyqfvomkiof.py":32:41)
#loc26 = loc("/orcd/home/002/osbo/ondemand/fluid-sim/Assets/Scripts/.torch_inductor_cache/7i/c7ioncobppzhj4mxipgr2traybpbitfokdkfvurxaoyqfvomkiof.py":33:18)
#loc27 = loc("/orcd/home/002/osbo/ondemand/fluid-sim/Assets/Scripts/.torch_inductor_cache/7i/c7ioncobppzhj4mxipgr2traybpbitfokdkfvurxaoyqfvomkiof.py":34:34)
#loc28 = loc("/orcd/home/002/osbo/ondemand/fluid-sim/Assets/Scripts/.torch_inductor_cache/7i/c7ioncobppzhj4mxipgr2traybpbitfokdkfvurxaoyqfvomkiof.py":34:31)
#loc29 = loc("/orcd/home/002/osbo/ondemand/fluid-sim/Assets/Scripts/.torch_inductor_cache/7i/c7ioncobppzhj4mxipgr2traybpbitfokdkfvurxaoyqfvomkiof.py":34:25)
#loc30 = loc("/orcd/home/002/osbo/ondemand/fluid-sim/Assets/Scripts/.torch_inductor_cache/7i/c7ioncobppzhj4mxipgr2traybpbitfokdkfvurxaoyqfvomkiof.py":34:46)
#loc31 = loc("/orcd/home/002/osbo/ondemand/fluid-sim/Assets/Scripts/.torch_inductor_cache/7i/c7ioncobppzhj4mxipgr2traybpbitfokdkfvurxaoyqfvomkiof.py":34:4)
