#loc = loc("/orcd/home/002/osbo/ondemand/fluid-sim/Assets/Scripts/.torch_inductor_cache/vl/cvl2qv354sr5rx36c6tdmfbxr2a7euusetioa4ri7ppmtzqvf6ih.py":18:0)
module {
  tt.func public @triton_(%arg0: !tt.ptr<f32> {tt.divisibility = 16 : i32} loc("/orcd/home/002/osbo/ondemand/fluid-sim/Assets/Scripts/.torch_inductor_cache/vl/cvl2qv354sr5rx36c6tdmfbxr2a7euusetioa4ri7ppmtzqvf6ih.py":18:0), %arg1: !tt.ptr<f32> {tt.divisibility = 16 : i32} loc("/orcd/home/002/osbo/ondemand/fluid-sim/Assets/Scripts/.torch_inductor_cache/vl/cvl2qv354sr5rx36c6tdmfbxr2a7euusetioa4ri7ppmtzqvf6ih.py":18:0), %arg2: i32 {tt.divisibility = 16 : i32} loc("/orcd/home/002/osbo/ondemand/fluid-sim/Assets/Scripts/.torch_inductor_cache/vl/cvl2qv354sr5rx36c6tdmfbxr2a7euusetioa4ri7ppmtzqvf6ih.py":18:0)) attributes {noinline = false} {
    %cst = arith.constant dense<1.000000e+00> : tensor<1024xf32> loc(#loc1)
    %cst_0 = arith.constant dense<0.707106769> : tensor<1024xf32> loc(#loc1)
    %cst_1 = arith.constant dense<5.000000e-01> : tensor<1024xf32> loc(#loc1)
    %cst_2 = arith.constant dense<2048> : tensor<1024xi32> loc(#loc1)
    %c1024_i32 = arith.constant 1024 : i32 loc(#loc1)
    %0 = tt.get_program_id x : i32 loc(#loc2)
    %1 = arith.muli %0, %c1024_i32 : i32 loc(#loc3)
    %2 = tt.make_range {end = 1024 : i32, start = 0 : i32} : tensor<1024xi32> loc(#loc4)
    %3 = tt.splat %1 : i32 -> tensor<1024xi32> loc(#loc5)
    %4 = arith.addi %3, %2 : tensor<1024xi32> loc(#loc5)
    %5 = arith.remsi %4, %cst_2 : tensor<1024xi32> loc(#loc6)
    %6 = tt.splat %arg0 : !tt.ptr<f32> -> tensor<1024x!tt.ptr<f32>> loc(#loc7)
    %7 = tt.addptr %6, %4 : tensor<1024x!tt.ptr<f32>>, tensor<1024xi32> loc(#loc7)
    %8 = tt.load %7 : tensor<1024x!tt.ptr<f32>> loc(#loc8)
    %9 = tt.splat %arg1 : !tt.ptr<f32> -> tensor<1024x!tt.ptr<f32>> loc(#loc9)
    %10 = tt.addptr %9, %5 : tensor<1024x!tt.ptr<f32>>, tensor<1024xi32> loc(#loc9)
    %11 = tt.load %10 evictionPolicy = evict_last : tensor<1024x!tt.ptr<f32>> loc(#loc10)
    %12 = arith.addf %8, %11 : tensor<1024xf32> loc(#loc11)
    %13 = arith.mulf %12, %cst_1 : tensor<1024xf32> loc(#loc12)
    %14 = arith.mulf %12, %cst_0 : tensor<1024xf32> loc(#loc13)
    %15 = tt.extern_elementwise %14 {libname = "", libpath = "", pure = true, symbol = "__nv_erff"} : (tensor<1024xf32>) -> tensor<1024xf32> loc(#loc14)
    %16 = arith.addf %15, %cst : tensor<1024xf32> loc(#loc15)
    %17 = arith.mulf %13, %16 : tensor<1024xf32> loc(#loc16)
    tt.store %7, %17 : tensor<1024x!tt.ptr<f32>> loc(#loc17)
    tt.return loc(#loc18)
  } loc(#loc)
} loc(#loc)
#loc1 = loc(unknown)
#loc2 = loc("/orcd/home/002/osbo/ondemand/fluid-sim/Assets/Scripts/.torch_inductor_cache/vl/cvl2qv354sr5rx36c6tdmfbxr2a7euusetioa4ri7ppmtzqvf6ih.py":20:28)
#loc3 = loc("/orcd/home/002/osbo/ondemand/fluid-sim/Assets/Scripts/.torch_inductor_cache/vl/cvl2qv354sr5rx36c6tdmfbxr2a7euusetioa4ri7ppmtzqvf6ih.py":20:33)
#loc4 = loc("/orcd/home/002/osbo/ondemand/fluid-sim/Assets/Scripts/.torch_inductor_cache/vl/cvl2qv354sr5rx36c6tdmfbxr2a7euusetioa4ri7ppmtzqvf6ih.py":21:36)
#loc5 = loc("/orcd/home/002/osbo/ondemand/fluid-sim/Assets/Scripts/.torch_inductor_cache/vl/cvl2qv354sr5rx36c6tdmfbxr2a7euusetioa4ri7ppmtzqvf6ih.py":21:23)
#loc6 = loc("/orcd/home/002/osbo/ondemand/fluid-sim/Assets/Scripts/.torch_inductor_cache/vl/cvl2qv354sr5rx36c6tdmfbxr2a7euusetioa4ri7ppmtzqvf6ih.py":24:18)
#loc7 = loc("/orcd/home/002/osbo/ondemand/fluid-sim/Assets/Scripts/.torch_inductor_cache/vl/cvl2qv354sr5rx36c6tdmfbxr2a7euusetioa4ri7ppmtzqvf6ih.py":25:34)
#loc8 = loc("/orcd/home/002/osbo/ondemand/fluid-sim/Assets/Scripts/.torch_inductor_cache/vl/cvl2qv354sr5rx36c6tdmfbxr2a7euusetioa4ri7ppmtzqvf6ih.py":25:39)
#loc9 = loc("/orcd/home/002/osbo/ondemand/fluid-sim/Assets/Scripts/.torch_inductor_cache/vl/cvl2qv354sr5rx36c6tdmfbxr2a7euusetioa4ri7ppmtzqvf6ih.py":26:30)
#loc10 = loc("/orcd/home/002/osbo/ondemand/fluid-sim/Assets/Scripts/.torch_inductor_cache/vl/cvl2qv354sr5rx36c6tdmfbxr2a7euusetioa4ri7ppmtzqvf6ih.py":26:35)
#loc11 = loc("/orcd/home/002/osbo/ondemand/fluid-sim/Assets/Scripts/.torch_inductor_cache/vl/cvl2qv354sr5rx36c6tdmfbxr2a7euusetioa4ri7ppmtzqvf6ih.py":27:18)
#loc12 = loc("/orcd/home/002/osbo/ondemand/fluid-sim/Assets/Scripts/.torch_inductor_cache/vl/cvl2qv354sr5rx36c6tdmfbxr2a7euusetioa4ri7ppmtzqvf6ih.py":29:18)
#loc13 = loc("/orcd/home/002/osbo/ondemand/fluid-sim/Assets/Scripts/.torch_inductor_cache/vl/cvl2qv354sr5rx36c6tdmfbxr2a7euusetioa4ri7ppmtzqvf6ih.py":31:18)
#loc14 = loc("/orcd/home/002/osbo/ondemand/fluid-sim/Assets/Scripts/.torch_inductor_cache/vl/cvl2qv354sr5rx36c6tdmfbxr2a7euusetioa4ri7ppmtzqvf6ih.py":32:25)
#loc15 = loc("/orcd/home/002/osbo/ondemand/fluid-sim/Assets/Scripts/.torch_inductor_cache/vl/cvl2qv354sr5rx36c6tdmfbxr2a7euusetioa4ri7ppmtzqvf6ih.py":34:18)
#loc16 = loc("/orcd/home/002/osbo/ondemand/fluid-sim/Assets/Scripts/.torch_inductor_cache/vl/cvl2qv354sr5rx36c6tdmfbxr2a7euusetioa4ri7ppmtzqvf6ih.py":35:19)
#loc17 = loc("/orcd/home/002/osbo/ondemand/fluid-sim/Assets/Scripts/.torch_inductor_cache/vl/cvl2qv354sr5rx36c6tdmfbxr2a7euusetioa4ri7ppmtzqvf6ih.py":36:40)
#loc18 = loc("/orcd/home/002/osbo/ondemand/fluid-sim/Assets/Scripts/.torch_inductor_cache/vl/cvl2qv354sr5rx36c6tdmfbxr2a7euusetioa4ri7ppmtzqvf6ih.py":36:4)
