#loc = loc("/orcd/home/002/osbo/ondemand/fluid-sim/Assets/Scripts/.torch_inductor_cache/rq/crqqaoahii4ycraer6jsjjzg5oni52z4eqh7vo3wkyynf7vl7tsf.py":18:0)
#loc1 = loc(unknown)
module {
  tt.func public @triton_(%arg0: !tt.ptr<f32> {tt.divisibility = 16 : i32} loc("/orcd/home/002/osbo/ondemand/fluid-sim/Assets/Scripts/.torch_inductor_cache/rq/crqqaoahii4ycraer6jsjjzg5oni52z4eqh7vo3wkyynf7vl7tsf.py":18:0), %arg1: !tt.ptr<f32> {tt.divisibility = 16 : i32} loc("/orcd/home/002/osbo/ondemand/fluid-sim/Assets/Scripts/.torch_inductor_cache/rq/crqqaoahii4ycraer6jsjjzg5oni52z4eqh7vo3wkyynf7vl7tsf.py":18:0), %arg2: i32 {tt.divisibility = 16 : i32} loc("/orcd/home/002/osbo/ondemand/fluid-sim/Assets/Scripts/.torch_inductor_cache/rq/crqqaoahii4ycraer6jsjjzg5oni52z4eqh7vo3wkyynf7vl7tsf.py":18:0), %arg3: i32 {tt.divisibility = 16 : i32} loc("/orcd/home/002/osbo/ondemand/fluid-sim/Assets/Scripts/.torch_inductor_cache/rq/crqqaoahii4ycraer6jsjjzg5oni52z4eqh7vo3wkyynf7vl7tsf.py":18:0)) attributes {noinline = false} {
    %cst = arith.constant dense<66048> : tensor<4x1xi32> loc(#loc1)
    %cst_0 = arith.constant dense<1.280000e+02> : tensor<4x1xf32> loc(#loc1)
    %cst_1 = arith.constant dense<65536> : tensor<4x1xi32> loc(#loc1)
    %cst_2 = arith.constant dense<512> : tensor<1x128xi32> loc(#loc1)
    %cst_3 = arith.constant dense<128> : tensor<1x128xi32> loc(#loc1)
    %cst_4 = arith.constant dense<0.000000e+00> : tensor<4x128xf32> loc(#loc1)
    %cst_5 = arith.constant dense<512> : tensor<4x1xi32> loc(#loc1)
    %c4_i32 = arith.constant 4 : i32 loc(#loc1)
    %0 = tt.get_program_id x : i32 loc(#loc2)
    %1 = arith.muli %0, %c4_i32 : i32 loc(#loc3)
    %2 = tt.make_range {end = 4 : i32, start = 0 : i32} : tensor<4xi32> loc(#loc4)
    %3 = tt.expand_dims %2 {axis = 1 : i32} : tensor<4xi32> -> tensor<4x1xi32> loc(#loc5)
    %4 = tt.splat %1 : i32 -> tensor<4x1xi32> loc(#loc6)
    %5 = arith.addi %4, %3 : tensor<4x1xi32> loc(#loc6)
    %6 = tt.make_range {end = 128 : i32, start = 0 : i32} : tensor<128xi32> loc(#loc7)
    %7 = tt.expand_dims %6 {axis = 0 : i32} : tensor<128xi32> -> tensor<1x128xi32> loc(#loc8)
    %8 = arith.remsi %5, %cst_5 : tensor<4x1xi32> loc(#loc9)
    %9 = arith.divsi %5, %cst_5 : tensor<4x1xi32> loc(#loc10)
    %10 = arith.cmpi slt, %7, %cst_3 : tensor<1x128xi32> loc(#loc11)
    %11 = arith.muli %7, %cst_2 : tensor<1x128xi32> loc(#loc12)
    %12 = tt.broadcast %8 : tensor<4x1xi32> -> tensor<4x128xi32> loc(#loc13)
    %13 = tt.broadcast %11 : tensor<1x128xi32> -> tensor<4x128xi32> loc(#loc13)
    %14 = arith.addi %12, %13 : tensor<4x128xi32> loc(#loc13)
    %15 = arith.muli %9, %cst_1 : tensor<4x1xi32> loc(#loc14)
    %16 = tt.broadcast %15 : tensor<4x1xi32> -> tensor<4x128xi32> loc(#loc15)
    %17 = arith.addi %14, %16 : tensor<4x128xi32> loc(#loc15)
    %18 = tt.splat %arg0 : !tt.ptr<f32> -> tensor<4x128x!tt.ptr<f32>> loc(#loc16)
    %19 = tt.addptr %18, %17 : tensor<4x128x!tt.ptr<f32>>, tensor<4x128xi32> loc(#loc16)
    %20 = tt.broadcast %10 : tensor<1x128xi1> -> tensor<4x128xi1> loc(#loc17)
    %21 = tt.load %19, %20, %cst_4 evictionPolicy = evict_first : tensor<4x128x!tt.ptr<f32>> loc(#loc17)
    %22 = arith.addf %21, %cst_4 : tensor<4x128xf32> loc(#loc18)
    %23 = arith.select %20, %22, %cst_4 : tensor<4x128xi1>, tensor<4x128xf32> loc(#loc19)
    %24 = "tt.reduce"(%23) <{axis = 1 : i32}> ({
    ^bb0(%arg4: f32 loc(unknown), %arg5: f32 loc(unknown)):
      %31 = arith.addf %arg4, %arg5 : f32 loc(#loc32)
      tt.reduce.return %31 : f32 loc(#loc30)
    }) : (tensor<4x128xf32>) -> tensor<4xf32> loc(#loc30)
    %25 = tt.expand_dims %24 {axis = 1 : i32} : tensor<4xf32> -> tensor<4x1xf32> loc(#loc23)
    %26 = arith.divf %25, %cst_0 : tensor<4x1xf32> loc(#loc24)
    %27 = arith.muli %9, %cst : tensor<4x1xi32> loc(#loc25)
    %28 = arith.addi %8, %27 : tensor<4x1xi32> loc(#loc26)
    %29 = tt.splat %arg1 : !tt.ptr<f32> -> tensor<4x1x!tt.ptr<f32>> loc(#loc27)
    %30 = tt.addptr %29, %28 : tensor<4x1x!tt.ptr<f32>>, tensor<4x1xi32> loc(#loc27)
    tt.store %30, %26 : tensor<4x1x!tt.ptr<f32>> loc(#loc28)
    tt.return loc(#loc29)
  } loc(#loc)
} loc(#loc)
#loc2 = loc("/orcd/home/002/osbo/ondemand/fluid-sim/Assets/Scripts/.torch_inductor_cache/rq/crqqaoahii4ycraer6jsjjzg5oni52z4eqh7vo3wkyynf7vl7tsf.py":21:28)
#loc3 = loc("/orcd/home/002/osbo/ondemand/fluid-sim/Assets/Scripts/.torch_inductor_cache/rq/crqqaoahii4ycraer6jsjjzg5oni52z4eqh7vo3wkyynf7vl7tsf.py":21:33)
#loc4 = loc("/orcd/home/002/osbo/ondemand/fluid-sim/Assets/Scripts/.torch_inductor_cache/rq/crqqaoahii4ycraer6jsjjzg5oni52z4eqh7vo3wkyynf7vl7tsf.py":22:36)
#loc5 = loc("/orcd/home/002/osbo/ondemand/fluid-sim/Assets/Scripts/.torch_inductor_cache/rq/crqqaoahii4ycraer6jsjjzg5oni52z4eqh7vo3wkyynf7vl7tsf.py":22:44)
#loc6 = loc("/orcd/home/002/osbo/ondemand/fluid-sim/Assets/Scripts/.torch_inductor_cache/rq/crqqaoahii4ycraer6jsjjzg5oni52z4eqh7vo3wkyynf7vl7tsf.py":22:23)
#loc7 = loc("/orcd/home/002/osbo/ondemand/fluid-sim/Assets/Scripts/.torch_inductor_cache/rq/crqqaoahii4ycraer6jsjjzg5oni52z4eqh7vo3wkyynf7vl7tsf.py":24:25)
#loc8 = loc("/orcd/home/002/osbo/ondemand/fluid-sim/Assets/Scripts/.torch_inductor_cache/rq/crqqaoahii4ycraer6jsjjzg5oni52z4eqh7vo3wkyynf7vl7tsf.py":24:33)
#loc9 = loc("/orcd/home/002/osbo/ondemand/fluid-sim/Assets/Scripts/.torch_inductor_cache/rq/crqqaoahii4ycraer6jsjjzg5oni52z4eqh7vo3wkyynf7vl7tsf.py":25:18)
#loc10 = loc("/orcd/home/002/osbo/ondemand/fluid-sim/Assets/Scripts/.torch_inductor_cache/rq/crqqaoahii4ycraer6jsjjzg5oni52z4eqh7vo3wkyynf7vl7tsf.py":26:20)
#loc11 = loc("/orcd/home/002/osbo/ondemand/fluid-sim/Assets/Scripts/.torch_inductor_cache/rq/crqqaoahii4ycraer6jsjjzg5oni52z4eqh7vo3wkyynf7vl7tsf.py":31:25)
#loc12 = loc("/orcd/home/002/osbo/ondemand/fluid-sim/Assets/Scripts/.torch_inductor_cache/rq/crqqaoahii4ycraer6jsjjzg5oni52z4eqh7vo3wkyynf7vl7tsf.py":33:44)
#loc13 = loc("/orcd/home/002/osbo/ondemand/fluid-sim/Assets/Scripts/.torch_inductor_cache/rq/crqqaoahii4ycraer6jsjjzg5oni52z4eqh7vo3wkyynf7vl7tsf.py":33:40)
#loc14 = loc("/orcd/home/002/osbo/ondemand/fluid-sim/Assets/Scripts/.torch_inductor_cache/rq/crqqaoahii4ycraer6jsjjzg5oni52z4eqh7vo3wkyynf7vl7tsf.py":33:57)
#loc15 = loc("/orcd/home/002/osbo/ondemand/fluid-sim/Assets/Scripts/.torch_inductor_cache/rq/crqqaoahii4ycraer6jsjjzg5oni52z4eqh7vo3wkyynf7vl7tsf.py":33:51)
#loc16 = loc("/orcd/home/002/osbo/ondemand/fluid-sim/Assets/Scripts/.torch_inductor_cache/rq/crqqaoahii4ycraer6jsjjzg5oni52z4eqh7vo3wkyynf7vl7tsf.py":33:34)
#loc17 = loc("/orcd/home/002/osbo/ondemand/fluid-sim/Assets/Scripts/.torch_inductor_cache/rq/crqqaoahii4ycraer6jsjjzg5oni52z4eqh7vo3wkyynf7vl7tsf.py":33:63)
#loc18 = loc("/orcd/home/002/osbo/ondemand/fluid-sim/Assets/Scripts/.torch_inductor_cache/rq/crqqaoahii4ycraer6jsjjzg5oni52z4eqh7vo3wkyynf7vl7tsf.py":35:23)
#loc19 = loc("/orcd/home/002/osbo/ondemand/fluid-sim/Assets/Scripts/.torch_inductor_cache/rq/crqqaoahii4ycraer6jsjjzg5oni52z4eqh7vo3wkyynf7vl7tsf.py":36:38)
#loc20 = loc("/home/osbo/.conda/envs/fluid/lib/python3.12/site-packages/triton/language/standard.py":267:36)
#loc21 = loc("/orcd/home/002/osbo/ondemand/fluid-sim/Assets/Scripts/.torch_inductor_cache/rq/crqqaoahii4ycraer6jsjjzg5oni52z4eqh7vo3wkyynf7vl7tsf.py":37:25)
#loc22 = loc("/home/osbo/.conda/envs/fluid/lib/python3.12/site-packages/triton/language/standard.py":256:15)
#loc23 = loc("/orcd/home/002/osbo/ondemand/fluid-sim/Assets/Scripts/.torch_inductor_cache/rq/crqqaoahii4ycraer6jsjjzg5oni52z4eqh7vo3wkyynf7vl7tsf.py":37:28)
#loc24 = loc("/orcd/home/002/osbo/ondemand/fluid-sim/Assets/Scripts/.torch_inductor_cache/rq/crqqaoahii4ycraer6jsjjzg5oni52z4eqh7vo3wkyynf7vl7tsf.py":39:18)
#loc25 = loc("/orcd/home/002/osbo/ondemand/fluid-sim/Assets/Scripts/.torch_inductor_cache/rq/crqqaoahii4ycraer6jsjjzg5oni52z4eqh7vo3wkyynf7vl7tsf.py":40:37)
#loc26 = loc("/orcd/home/002/osbo/ondemand/fluid-sim/Assets/Scripts/.torch_inductor_cache/rq/crqqaoahii4ycraer6jsjjzg5oni52z4eqh7vo3wkyynf7vl7tsf.py":40:31)
#loc27 = loc("/orcd/home/002/osbo/ondemand/fluid-sim/Assets/Scripts/.torch_inductor_cache/rq/crqqaoahii4ycraer6jsjjzg5oni52z4eqh7vo3wkyynf7vl7tsf.py":40:25)
#loc28 = loc("/orcd/home/002/osbo/ondemand/fluid-sim/Assets/Scripts/.torch_inductor_cache/rq/crqqaoahii4ycraer6jsjjzg5oni52z4eqh7vo3wkyynf7vl7tsf.py":40:49)
#loc29 = loc("/orcd/home/002/osbo/ondemand/fluid-sim/Assets/Scripts/.torch_inductor_cache/rq/crqqaoahii4ycraer6jsjjzg5oni52z4eqh7vo3wkyynf7vl7tsf.py":40:4)
#loc30 = loc(callsite(#loc20 at #loc21))
#loc31 = loc(callsite(#loc22 at #loc20))
#loc32 = loc(callsite(#loc31 at #loc21))
