#loc = loc("/orcd/home/002/osbo/ondemand/fluid-sim/Assets/Scripts/.torch_inductor_cache/7x/c7xrp4jwth5pzd5jrv2lekbcfak7vks63gci32tppsrxhpdlpahm.py":18:0)
#loc1 = loc(unknown)
module {
  tt.func public @triton_(%arg0: !tt.ptr<f32> {tt.divisibility = 16 : i32} loc("/orcd/home/002/osbo/ondemand/fluid-sim/Assets/Scripts/.torch_inductor_cache/7x/c7xrp4jwth5pzd5jrv2lekbcfak7vks63gci32tppsrxhpdlpahm.py":18:0), %arg1: !tt.ptr<f32> {tt.divisibility = 16 : i32} loc("/orcd/home/002/osbo/ondemand/fluid-sim/Assets/Scripts/.torch_inductor_cache/7x/c7xrp4jwth5pzd5jrv2lekbcfak7vks63gci32tppsrxhpdlpahm.py":18:0), %arg2: i32 {tt.divisibility = 16 : i32} loc("/orcd/home/002/osbo/ondemand/fluid-sim/Assets/Scripts/.torch_inductor_cache/7x/c7xrp4jwth5pzd5jrv2lekbcfak7vks63gci32tppsrxhpdlpahm.py":18:0), %arg3: i32 loc("/orcd/home/002/osbo/ondemand/fluid-sim/Assets/Scripts/.torch_inductor_cache/7x/c7xrp4jwth5pzd5jrv2lekbcfak7vks63gci32tppsrxhpdlpahm.py":18:0)) attributes {noinline = false} {
    %c1056_i32 = arith.constant 1056 : i32 loc(#loc1)
    %c133376_i32 = arith.constant 133376 : i32 loc(#loc1)
    %c16672_i32 = arith.constant 16672 : i32 loc(#loc1)
    %c1032_i32 = arith.constant 1032 : i32 loc(#loc1)
    %c129_i32 = arith.constant 129 : i32 loc(#loc1)
    %c8_i32 = arith.constant 8 : i32 loc(#loc1)
    %c33024_i32 = arith.constant 33024 : i32 loc(#loc1)
    %cst = arith.constant dense<129> : tensor<1x256xi32> loc(#loc1)
    %cst_0 = arith.constant dense<0.000000e+00> : tensor<1x256xf32> loc(#loc1)
    %0 = tt.get_program_id x : i32 loc(#loc2)
    %1 = arith.cmpi slt, %0, %c33024_i32 : i32 loc(#loc3)
    %2 = tt.splat %1 : i1 -> tensor<1x1xi1> loc(#loc3)
    %3 = tt.make_range {end = 256 : i32, start = 0 : i32} : tensor<256xi32> loc(#loc4)
    %4 = tt.expand_dims %3 {axis = 0 : i32} : tensor<256xi32> -> tensor<1x256xi32> loc(#loc5)
    %5 = arith.remsi %0, %c8_i32 : i32 loc(#loc6)
    %6 = arith.divsi %0, %c8_i32 : i32 loc(#loc7)
    %7 = arith.remsi %6, %c129_i32 : i32 loc(#loc8)
    %8 = arith.divsi %0, %c1032_i32 : i32 loc(#loc9)
    %9 = arith.remsi %0, %c1032_i32 : i32 loc(#loc10)
    %10 = arith.cmpi slt, %4, %cst : tensor<1x256xi32> loc(#loc11)
    %11 = arith.muli %7, %c129_i32 : i32 loc(#loc12)
    %12 = tt.splat %11 : i32 -> tensor<1x256xi32> loc(#loc13)
    %13 = arith.addi %4, %12 : tensor<1x256xi32> loc(#loc13)
    %14 = arith.muli %5, %c16672_i32 : i32 loc(#loc14)
    %15 = tt.splat %14 : i32 -> tensor<1x256xi32> loc(#loc15)
    %16 = arith.addi %13, %15 : tensor<1x256xi32> loc(#loc15)
    %17 = arith.muli %8, %c133376_i32 : i32 loc(#loc16)
    %18 = tt.splat %17 : i32 -> tensor<1x256xi32> loc(#loc17)
    %19 = arith.addi %16, %18 : tensor<1x256xi32> loc(#loc17)
    %20 = tt.splat %arg0 : !tt.ptr<f32> -> tensor<1x256x!tt.ptr<f32>> loc(#loc18)
    %21 = tt.addptr %20, %19 : tensor<1x256x!tt.ptr<f32>>, tensor<1x256xi32> loc(#loc18)
    %22 = tt.splat %1 : i1 -> tensor<1x256xi1> loc(#loc19)
    %23 = arith.andi %10, %22 : tensor<1x256xi1> loc(#loc19)
    %24 = tt.load %21, %23, %cst_0 evictionPolicy = evict_last : tensor<1x256x!tt.ptr<f32>> loc(#loc20)
    %25 = arith.addf %24, %cst_0 : tensor<1x256xf32> loc(#loc21)
    %26 = arith.select %23, %25, %cst_0 : tensor<1x256xi1>, tensor<1x256xf32> loc(#loc22)
    %27 = "tt.reduce"(%26) <{axis = 1 : i32}> ({
    ^bb0(%arg4: f32 loc(unknown), %arg5: f32 loc(unknown)):
      %33 = arith.addf %arg4, %arg5 : f32 loc(#loc34)
      tt.reduce.return %33 : f32 loc(#loc32)
    }) : (tensor<1x256xf32>) -> tensor<1xf32> loc(#loc32)
    %28 = tt.expand_dims %27 {axis = 1 : i32} : tensor<1xf32> -> tensor<1x1xf32> loc(#loc26)
    %29 = arith.muli %8, %c1056_i32 : i32 loc(#loc27)
    %30 = arith.addi %9, %29 : i32 loc(#loc28)
    %31 = tt.addptr %arg1, %30 : !tt.ptr<f32>, i32 loc(#loc29)
    %32 = tt.splat %31 : !tt.ptr<f32> -> tensor<1x1x!tt.ptr<f32>> loc(#loc29)
    tt.store %32, %28, %2 : tensor<1x1x!tt.ptr<f32>> loc(#loc30)
    tt.return loc(#loc31)
  } loc(#loc)
} loc(#loc)
#loc2 = loc("/orcd/home/002/osbo/ondemand/fluid-sim/Assets/Scripts/.torch_inductor_cache/7x/c7xrp4jwth5pzd5jrv2lekbcfak7vks63gci32tppsrxhpdlpahm.py":21:28)
#loc3 = loc("/orcd/home/002/osbo/ondemand/fluid-sim/Assets/Scripts/.torch_inductor_cache/7x/c7xrp4jwth5pzd5jrv2lekbcfak7vks63gci32tppsrxhpdlpahm.py":23:21)
#loc4 = loc("/orcd/home/002/osbo/ondemand/fluid-sim/Assets/Scripts/.torch_inductor_cache/7x/c7xrp4jwth5pzd5jrv2lekbcfak7vks63gci32tppsrxhpdlpahm.py":24:25)
#loc5 = loc("/orcd/home/002/osbo/ondemand/fluid-sim/Assets/Scripts/.torch_inductor_cache/7x/c7xrp4jwth5pzd5jrv2lekbcfak7vks63gci32tppsrxhpdlpahm.py":24:33)
#loc6 = loc("/orcd/home/002/osbo/ondemand/fluid-sim/Assets/Scripts/.torch_inductor_cache/7x/c7xrp4jwth5pzd5jrv2lekbcfak7vks63gci32tppsrxhpdlpahm.py":25:18)
#loc7 = loc("/orcd/home/002/osbo/ondemand/fluid-sim/Assets/Scripts/.torch_inductor_cache/7x/c7xrp4jwth5pzd5jrv2lekbcfak7vks63gci32tppsrxhpdlpahm.py":26:20)
#loc8 = loc("/orcd/home/002/osbo/ondemand/fluid-sim/Assets/Scripts/.torch_inductor_cache/7x/c7xrp4jwth5pzd5jrv2lekbcfak7vks63gci32tppsrxhpdlpahm.py":26:25)
#loc9 = loc("/orcd/home/002/osbo/ondemand/fluid-sim/Assets/Scripts/.torch_inductor_cache/7x/c7xrp4jwth5pzd5jrv2lekbcfak7vks63gci32tppsrxhpdlpahm.py":27:20)
#loc10 = loc("/orcd/home/002/osbo/ondemand/fluid-sim/Assets/Scripts/.torch_inductor_cache/7x/c7xrp4jwth5pzd5jrv2lekbcfak7vks63gci32tppsrxhpdlpahm.py":29:18)
#loc11 = loc("/orcd/home/002/osbo/ondemand/fluid-sim/Assets/Scripts/.torch_inductor_cache/7x/c7xrp4jwth5pzd5jrv2lekbcfak7vks63gci32tppsrxhpdlpahm.py":32:25)
#loc12 = loc("/orcd/home/002/osbo/ondemand/fluid-sim/Assets/Scripts/.torch_inductor_cache/7x/c7xrp4jwth5pzd5jrv2lekbcfak7vks63gci32tppsrxhpdlpahm.py":34:44)
#loc13 = loc("/orcd/home/002/osbo/ondemand/fluid-sim/Assets/Scripts/.torch_inductor_cache/7x/c7xrp4jwth5pzd5jrv2lekbcfak7vks63gci32tppsrxhpdlpahm.py":34:40)
#loc14 = loc("/orcd/home/002/osbo/ondemand/fluid-sim/Assets/Scripts/.torch_inductor_cache/7x/c7xrp4jwth5pzd5jrv2lekbcfak7vks63gci32tppsrxhpdlpahm.py":34:57)
#loc15 = loc("/orcd/home/002/osbo/ondemand/fluid-sim/Assets/Scripts/.torch_inductor_cache/7x/c7xrp4jwth5pzd5jrv2lekbcfak7vks63gci32tppsrxhpdlpahm.py":34:51)
#loc16 = loc("/orcd/home/002/osbo/ondemand/fluid-sim/Assets/Scripts/.torch_inductor_cache/7x/c7xrp4jwth5pzd5jrv2lekbcfak7vks63gci32tppsrxhpdlpahm.py":34:71)
#loc17 = loc("/orcd/home/002/osbo/ondemand/fluid-sim/Assets/Scripts/.torch_inductor_cache/7x/c7xrp4jwth5pzd5jrv2lekbcfak7vks63gci32tppsrxhpdlpahm.py":34:64)
#loc18 = loc("/orcd/home/002/osbo/ondemand/fluid-sim/Assets/Scripts/.torch_inductor_cache/7x/c7xrp4jwth5pzd5jrv2lekbcfak7vks63gci32tppsrxhpdlpahm.py":34:34)
#loc19 = loc("/orcd/home/002/osbo/ondemand/fluid-sim/Assets/Scripts/.torch_inductor_cache/7x/c7xrp4jwth5pzd5jrv2lekbcfak7vks63gci32tppsrxhpdlpahm.py":34:85)
#loc20 = loc("/orcd/home/002/osbo/ondemand/fluid-sim/Assets/Scripts/.torch_inductor_cache/7x/c7xrp4jwth5pzd5jrv2lekbcfak7vks63gci32tppsrxhpdlpahm.py":34:77)
#loc21 = loc("/orcd/home/002/osbo/ondemand/fluid-sim/Assets/Scripts/.torch_inductor_cache/7x/c7xrp4jwth5pzd5jrv2lekbcfak7vks63gci32tppsrxhpdlpahm.py":36:23)
#loc22 = loc("/orcd/home/002/osbo/ondemand/fluid-sim/Assets/Scripts/.torch_inductor_cache/7x/c7xrp4jwth5pzd5jrv2lekbcfak7vks63gci32tppsrxhpdlpahm.py":37:46)
#loc23 = loc("/home/osbo/.conda/envs/fluid/lib/python3.12/site-packages/triton/language/standard.py":267:36)
#loc24 = loc("/orcd/home/002/osbo/ondemand/fluid-sim/Assets/Scripts/.torch_inductor_cache/7x/c7xrp4jwth5pzd5jrv2lekbcfak7vks63gci32tppsrxhpdlpahm.py":38:25)
#loc25 = loc("/home/osbo/.conda/envs/fluid/lib/python3.12/site-packages/triton/language/standard.py":256:15)
#loc26 = loc("/orcd/home/002/osbo/ondemand/fluid-sim/Assets/Scripts/.torch_inductor_cache/7x/c7xrp4jwth5pzd5jrv2lekbcfak7vks63gci32tppsrxhpdlpahm.py":38:28)
#loc27 = loc("/orcd/home/002/osbo/ondemand/fluid-sim/Assets/Scripts/.torch_inductor_cache/7x/c7xrp4jwth5pzd5jrv2lekbcfak7vks63gci32tppsrxhpdlpahm.py":39:36)
#loc28 = loc("/orcd/home/002/osbo/ondemand/fluid-sim/Assets/Scripts/.torch_inductor_cache/7x/c7xrp4jwth5pzd5jrv2lekbcfak7vks63gci32tppsrxhpdlpahm.py":39:31)
#loc29 = loc("/orcd/home/002/osbo/ondemand/fluid-sim/Assets/Scripts/.torch_inductor_cache/7x/c7xrp4jwth5pzd5jrv2lekbcfak7vks63gci32tppsrxhpdlpahm.py":39:25)
#loc30 = loc("/orcd/home/002/osbo/ondemand/fluid-sim/Assets/Scripts/.torch_inductor_cache/7x/c7xrp4jwth5pzd5jrv2lekbcfak7vks63gci32tppsrxhpdlpahm.py":39:48)
#loc31 = loc("/orcd/home/002/osbo/ondemand/fluid-sim/Assets/Scripts/.torch_inductor_cache/7x/c7xrp4jwth5pzd5jrv2lekbcfak7vks63gci32tppsrxhpdlpahm.py":39:4)
#loc32 = loc(callsite(#loc23 at #loc24))
#loc33 = loc(callsite(#loc25 at #loc23))
#loc34 = loc(callsite(#loc33 at #loc24))
