#loc = loc("/orcd/home/002/osbo/ondemand/fluid-sim/Assets/Scripts/.torch_inductor_cache/xp/cxpv5d6uvd74go27ysv7rszj7pjgr5gcogyuzhddx3dgsmwrlvop.py":18:0)
#loc1 = loc(unknown)
module {
  tt.func public @triton_(%arg0: !tt.ptr<f32> {tt.divisibility = 16 : i32} loc("/orcd/home/002/osbo/ondemand/fluid-sim/Assets/Scripts/.torch_inductor_cache/xp/cxpv5d6uvd74go27ysv7rszj7pjgr5gcogyuzhddx3dgsmwrlvop.py":18:0), %arg1: !tt.ptr<f32> {tt.divisibility = 16 : i32} loc("/orcd/home/002/osbo/ondemand/fluid-sim/Assets/Scripts/.torch_inductor_cache/xp/cxpv5d6uvd74go27ysv7rszj7pjgr5gcogyuzhddx3dgsmwrlvop.py":18:0), %arg2: !tt.ptr<f32> {tt.divisibility = 16 : i32} loc("/orcd/home/002/osbo/ondemand/fluid-sim/Assets/Scripts/.torch_inductor_cache/xp/cxpv5d6uvd74go27ysv7rszj7pjgr5gcogyuzhddx3dgsmwrlvop.py":18:0), %arg3: !tt.ptr<f32> {tt.divisibility = 16 : i32} loc("/orcd/home/002/osbo/ondemand/fluid-sim/Assets/Scripts/.torch_inductor_cache/xp/cxpv5d6uvd74go27ysv7rszj7pjgr5gcogyuzhddx3dgsmwrlvop.py":18:0), %arg4: i32 {tt.divisibility = 16 : i32} loc("/orcd/home/002/osbo/ondemand/fluid-sim/Assets/Scripts/.torch_inductor_cache/xp/cxpv5d6uvd74go27ysv7rszj7pjgr5gcogyuzhddx3dgsmwrlvop.py":18:0), %arg5: i32 {tt.divisibility = 16 : i32} loc("/orcd/home/002/osbo/ondemand/fluid-sim/Assets/Scripts/.torch_inductor_cache/xp/cxpv5d6uvd74go27ysv7rszj7pjgr5gcogyuzhddx3dgsmwrlvop.py":18:0)) attributes {noinline = false} {
    %cst = arith.constant 9.99999974E-6 : f32 loc(#loc1)
    %cst_0 = arith.constant 2.560000e+02 : f32 loc(#loc1)
    %cst_1 = arith.constant 0.000000e+00 : f32 loc(#loc1)
    %c256_i32 = arith.constant 256 : i32 loc(#loc1)
    %0 = tt.get_program_id x : i32 loc(#loc2)
    %1 = tt.make_range {end = 256 : i32, start = 0 : i32} : tensor<256xi32> loc(#loc3)
    %2 = arith.muli %0, %c256_i32 : i32 loc(#loc4)
    %3 = tt.splat %2 : i32 -> tensor<256xi32> loc(#loc5)
    %4 = arith.addi %1, %3 : tensor<256xi32> loc(#loc5)
    %5 = tt.splat %arg0 : !tt.ptr<f32> -> tensor<256x!tt.ptr<f32>> loc(#loc6)
    %6 = tt.addptr %5, %4 : tensor<256x!tt.ptr<f32>>, tensor<256xi32> loc(#loc6)
    %7 = tt.load %6 : tensor<256x!tt.ptr<f32>> loc(#loc7)
    %8 = tt.splat %arg1 : !tt.ptr<f32> -> tensor<256x!tt.ptr<f32>> loc(#loc8)
    %9 = tt.addptr %8, %1 : tensor<256x!tt.ptr<f32>>, tensor<256xi32> loc(#loc8)
    %10 = tt.load %9 evictionPolicy = evict_last : tensor<256x!tt.ptr<f32>> loc(#loc9)
    %11 = tt.splat %arg2 : !tt.ptr<f32> -> tensor<256x!tt.ptr<f32>> loc(#loc10)
    %12 = tt.addptr %11, %1 : tensor<256x!tt.ptr<f32>>, tensor<256xi32> loc(#loc10)
    %13 = tt.load %12 evictionPolicy = evict_last : tensor<256x!tt.ptr<f32>> loc(#loc11)
    %14 = "tt.reduce"(%7) <{axis = 0 : i32}> ({
    ^bb0(%arg6: f32 loc(unknown), %arg7: f32 loc(unknown)):
      %31 = arith.addf %arg6, %arg7 : f32 loc(#loc36)
      tt.reduce.return %31 : f32 loc(#loc31)
    }) : (tensor<256xf32>) -> f32 loc(#loc31)
    %15 = arith.addf %14, %cst_1 : f32 loc(#loc33)
    %16 = arith.divf %15, %cst_0 : f32 loc(#loc17)
    %17 = tt.splat %16 : f32 -> tensor<256xf32> loc(#loc18)
    %18 = arith.subf %7, %17 : tensor<256xf32> loc(#loc18)
    %19 = arith.mulf %18, %18 : tensor<256xf32> loc(#loc19)
    %20 = "tt.reduce"(%19) <{axis = 0 : i32}> ({
    ^bb0(%arg6: f32 loc(unknown), %arg7: f32 loc(unknown)):
      %31 = arith.addf %arg6, %arg7 : f32 loc(#loc37)
      tt.reduce.return %31 : f32 loc(#loc34)
    }) : (tensor<256xf32>) -> f32 loc(#loc34)
    %21 = arith.addf %20, %cst_1 : f32 loc(#loc35)
    %22 = arith.divf %21, %cst_0 : f32 loc(#loc22)
    %23 = arith.addf %22, %cst : f32 loc(#loc23)
    %24 = tt.extern_elementwise %23 {libname = "", libpath = "", pure = true, symbol = "__nv_rsqrtf"} : (f32) -> f32 loc(#loc24)
    %25 = tt.splat %24 : f32 -> tensor<256xf32> loc(#loc25)
    %26 = arith.mulf %18, %25 : tensor<256xf32> loc(#loc25)
    %27 = arith.mulf %26, %10 : tensor<256xf32> loc(#loc26)
    %28 = arith.addf %27, %13 : tensor<256xf32> loc(#loc27)
    %29 = tt.splat %arg3 : !tt.ptr<f32> -> tensor<256x!tt.ptr<f32>> loc(#loc28)
    %30 = tt.addptr %29, %4 : tensor<256x!tt.ptr<f32>>, tensor<256xi32> loc(#loc28)
    tt.store %30, %28 : tensor<256x!tt.ptr<f32>> loc(#loc29)
    tt.return loc(#loc30)
  } loc(#loc)
} loc(#loc)
#loc2 = loc("/orcd/home/002/osbo/ondemand/fluid-sim/Assets/Scripts/.torch_inductor_cache/xp/cxpv5d6uvd74go27ysv7rszj7pjgr5gcogyuzhddx3dgsmwrlvop.py":23:28)
#loc3 = loc("/orcd/home/002/osbo/ondemand/fluid-sim/Assets/Scripts/.torch_inductor_cache/xp/cxpv5d6uvd74go27ysv7rszj7pjgr5gcogyuzhddx3dgsmwrlvop.py":26:26)
#loc4 = loc("/orcd/home/002/osbo/ondemand/fluid-sim/Assets/Scripts/.torch_inductor_cache/xp/cxpv5d6uvd74go27ysv7rszj7pjgr5gcogyuzhddx3dgsmwrlvop.py":31:40)
#loc5 = loc("/orcd/home/002/osbo/ondemand/fluid-sim/Assets/Scripts/.torch_inductor_cache/xp/cxpv5d6uvd74go27ysv7rszj7pjgr5gcogyuzhddx3dgsmwrlvop.py":31:36)
#loc6 = loc("/orcd/home/002/osbo/ondemand/fluid-sim/Assets/Scripts/.torch_inductor_cache/xp/cxpv5d6uvd74go27ysv7rszj7pjgr5gcogyuzhddx3dgsmwrlvop.py":31:30)
#loc7 = loc("/orcd/home/002/osbo/ondemand/fluid-sim/Assets/Scripts/.torch_inductor_cache/xp/cxpv5d6uvd74go27ysv7rszj7pjgr5gcogyuzhddx3dgsmwrlvop.py":31:46)
#loc8 = loc("/orcd/home/002/osbo/ondemand/fluid-sim/Assets/Scripts/.torch_inductor_cache/xp/cxpv5d6uvd74go27ysv7rszj7pjgr5gcogyuzhddx3dgsmwrlvop.py":32:31)
#loc9 = loc("/orcd/home/002/osbo/ondemand/fluid-sim/Assets/Scripts/.torch_inductor_cache/xp/cxpv5d6uvd74go27ysv7rszj7pjgr5gcogyuzhddx3dgsmwrlvop.py":32:36)
#loc10 = loc("/orcd/home/002/osbo/ondemand/fluid-sim/Assets/Scripts/.torch_inductor_cache/xp/cxpv5d6uvd74go27ysv7rszj7pjgr5gcogyuzhddx3dgsmwrlvop.py":33:31)
#loc11 = loc("/orcd/home/002/osbo/ondemand/fluid-sim/Assets/Scripts/.torch_inductor_cache/xp/cxpv5d6uvd74go27ysv7rszj7pjgr5gcogyuzhddx3dgsmwrlvop.py":33:36)
#loc12 = loc("/home/osbo/.conda/envs/fluid/lib/python3.12/site-packages/triton/language/standard.py":267:36)
#loc13 = loc("/orcd/home/002/osbo/ondemand/fluid-sim/Assets/Scripts/.torch_inductor_cache/xp/cxpv5d6uvd74go27ysv7rszj7pjgr5gcogyuzhddx3dgsmwrlvop.py":36:57)
#loc14 = loc("/home/osbo/.conda/envs/fluid/lib/python3.12/site-packages/triton/language/standard.py":256:15)
#loc15 = loc("/home/osbo/.conda/envs/fluid/lib/python3.12/site-packages/torch/_inductor/runtime/triton_helpers.py":37:15)
#loc16 = loc("/orcd/home/002/osbo/ondemand/fluid-sim/Assets/Scripts/.torch_inductor_cache/xp/cxpv5d6uvd74go27ysv7rszj7pjgr5gcogyuzhddx3dgsmwrlvop.py":36:44)
#loc17 = loc("/orcd/home/002/osbo/ondemand/fluid-sim/Assets/Scripts/.torch_inductor_cache/xp/cxpv5d6uvd74go27ysv7rszj7pjgr5gcogyuzhddx3dgsmwrlvop.py":39:18)
#loc18 = loc("/orcd/home/002/osbo/ondemand/fluid-sim/Assets/Scripts/.torch_inductor_cache/xp/cxpv5d6uvd74go27ysv7rszj7pjgr5gcogyuzhddx3dgsmwrlvop.py":40:18)
#loc19 = loc("/orcd/home/002/osbo/ondemand/fluid-sim/Assets/Scripts/.torch_inductor_cache/xp/cxpv5d6uvd74go27ysv7rszj7pjgr5gcogyuzhddx3dgsmwrlvop.py":41:19)
#loc20 = loc("/orcd/home/002/osbo/ondemand/fluid-sim/Assets/Scripts/.torch_inductor_cache/xp/cxpv5d6uvd74go27ysv7rszj7pjgr5gcogyuzhddx3dgsmwrlvop.py":43:59)
#loc21 = loc("/orcd/home/002/osbo/ondemand/fluid-sim/Assets/Scripts/.torch_inductor_cache/xp/cxpv5d6uvd74go27ysv7rszj7pjgr5gcogyuzhddx3dgsmwrlvop.py":43:45)
#loc22 = loc("/orcd/home/002/osbo/ondemand/fluid-sim/Assets/Scripts/.torch_inductor_cache/xp/cxpv5d6uvd74go27ysv7rszj7pjgr5gcogyuzhddx3dgsmwrlvop.py":46:20)
#loc23 = loc("/orcd/home/002/osbo/ondemand/fluid-sim/Assets/Scripts/.torch_inductor_cache/xp/cxpv5d6uvd74go27ysv7rszj7pjgr5gcogyuzhddx3dgsmwrlvop.py":48:20)
#loc24 = loc("/orcd/home/002/osbo/ondemand/fluid-sim/Assets/Scripts/.torch_inductor_cache/xp/cxpv5d6uvd74go27ysv7rszj7pjgr5gcogyuzhddx3dgsmwrlvop.py":49:28)
#loc25 = loc("/orcd/home/002/osbo/ondemand/fluid-sim/Assets/Scripts/.torch_inductor_cache/xp/cxpv5d6uvd74go27ysv7rszj7pjgr5gcogyuzhddx3dgsmwrlvop.py":50:20)
#loc26 = loc("/orcd/home/002/osbo/ondemand/fluid-sim/Assets/Scripts/.torch_inductor_cache/xp/cxpv5d6uvd74go27ysv7rszj7pjgr5gcogyuzhddx3dgsmwrlvop.py":51:20)
#loc27 = loc("/orcd/home/002/osbo/ondemand/fluid-sim/Assets/Scripts/.torch_inductor_cache/xp/cxpv5d6uvd74go27ysv7rszj7pjgr5gcogyuzhddx3dgsmwrlvop.py":52:20)
#loc28 = loc("/orcd/home/002/osbo/ondemand/fluid-sim/Assets/Scripts/.torch_inductor_cache/xp/cxpv5d6uvd74go27ysv7rszj7pjgr5gcogyuzhddx3dgsmwrlvop.py":53:25)
#loc29 = loc("/orcd/home/002/osbo/ondemand/fluid-sim/Assets/Scripts/.torch_inductor_cache/xp/cxpv5d6uvd74go27ysv7rszj7pjgr5gcogyuzhddx3dgsmwrlvop.py":53:48)
#loc30 = loc("/orcd/home/002/osbo/ondemand/fluid-sim/Assets/Scripts/.torch_inductor_cache/xp/cxpv5d6uvd74go27ysv7rszj7pjgr5gcogyuzhddx3dgsmwrlvop.py":53:4)
#loc31 = loc(callsite(#loc12 at #loc13))
#loc32 = loc(callsite(#loc14 at #loc12))
#loc33 = loc(callsite(#loc15 at #loc16))
#loc34 = loc(callsite(#loc12 at #loc20))
#loc35 = loc(callsite(#loc15 at #loc21))
#loc36 = loc(callsite(#loc32 at #loc13))
#loc37 = loc(callsite(#loc32 at #loc20))
