#loc = loc("/orcd/home/002/osbo/ondemand/fluid-sim/Assets/Scripts/.torch_inductor_cache/qc/cqce5qruqymspobuctiq6xbcbc4ih7sftnlwghuubj4gqphoe4vl.py":18:0)
#loc1 = loc(unknown)
module {
  tt.func public @triton_(%arg0: !tt.ptr<f32> {tt.divisibility = 16 : i32} loc("/orcd/home/002/osbo/ondemand/fluid-sim/Assets/Scripts/.torch_inductor_cache/qc/cqce5qruqymspobuctiq6xbcbc4ih7sftnlwghuubj4gqphoe4vl.py":18:0), %arg1: !tt.ptr<f32> {tt.divisibility = 16 : i32} loc("/orcd/home/002/osbo/ondemand/fluid-sim/Assets/Scripts/.torch_inductor_cache/qc/cqce5qruqymspobuctiq6xbcbc4ih7sftnlwghuubj4gqphoe4vl.py":18:0), %arg2: !tt.ptr<f32> {tt.divisibility = 16 : i32} loc("/orcd/home/002/osbo/ondemand/fluid-sim/Assets/Scripts/.torch_inductor_cache/qc/cqce5qruqymspobuctiq6xbcbc4ih7sftnlwghuubj4gqphoe4vl.py":18:0), %arg3: !tt.ptr<f32> {tt.divisibility = 16 : i32} loc("/orcd/home/002/osbo/ondemand/fluid-sim/Assets/Scripts/.torch_inductor_cache/qc/cqce5qruqymspobuctiq6xbcbc4ih7sftnlwghuubj4gqphoe4vl.py":18:0), %arg4: !tt.ptr<f32> {tt.divisibility = 16 : i32} loc("/orcd/home/002/osbo/ondemand/fluid-sim/Assets/Scripts/.torch_inductor_cache/qc/cqce5qruqymspobuctiq6xbcbc4ih7sftnlwghuubj4gqphoe4vl.py":18:0), %arg5: !tt.ptr<f32> {tt.divisibility = 16 : i32} loc("/orcd/home/002/osbo/ondemand/fluid-sim/Assets/Scripts/.torch_inductor_cache/qc/cqce5qruqymspobuctiq6xbcbc4ih7sftnlwghuubj4gqphoe4vl.py":18:0), %arg6: i32 {tt.divisibility = 16 : i32} loc("/orcd/home/002/osbo/ondemand/fluid-sim/Assets/Scripts/.torch_inductor_cache/qc/cqce5qruqymspobuctiq6xbcbc4ih7sftnlwghuubj4gqphoe4vl.py":18:0), %arg7: i32 {tt.divisibility = 16 : i32} loc("/orcd/home/002/osbo/ondemand/fluid-sim/Assets/Scripts/.torch_inductor_cache/qc/cqce5qruqymspobuctiq6xbcbc4ih7sftnlwghuubj4gqphoe4vl.py":18:0)) attributes {noinline = false} {
    %c2048_i32 = arith.constant 2048 : i32 loc(#loc1)
    %c16_i32 = arith.constant 16 : i32 loc(#loc1)
    %c128_i32 = arith.constant 128 : i32 loc(#loc1)
    %c32_i32 = arith.constant 32 : i32 loc(#loc1)
    %c4_i32 = arith.constant 4 : i32 loc(#loc1)
    %cst = arith.constant dense<1.600000e+01> : tensor<1x1xf32> loc(#loc1)
    %cst_0 = arith.constant dense<512> : tensor<1x16xi32> loc(#loc1)
    %cst_1 = arith.constant dense<4> : tensor<1x16xi32> loc(#loc1)
    %0 = tt.get_program_id x : i32 loc(#loc2)
    %1 = tt.make_range {end = 16 : i32, start = 0 : i32} : tensor<16xi32> loc(#loc3)
    %2 = tt.expand_dims %1 {axis = 0 : i32} : tensor<16xi32> -> tensor<1x16xi32> loc(#loc4)
    %3 = arith.remsi %2, %cst_1 : tensor<1x16xi32> loc(#loc5)
    %4 = arith.divsi %2, %cst_1 : tensor<1x16xi32> loc(#loc6)
    %5 = arith.remsi %0, %c4_i32 : i32 loc(#loc7)
    %6 = arith.divsi %0, %c4_i32 : i32 loc(#loc8)
    %7 = arith.remsi %6, %c32_i32 : i32 loc(#loc9)
    %8 = arith.divsi %0, %c128_i32 : i32 loc(#loc10)
    %9 = arith.muli %3, %cst_1 : tensor<1x16xi32> loc(#loc11)
    %10 = tt.splat %5 : i32 -> tensor<1x16xi32> loc(#loc12)
    %11 = arith.addi %10, %9 : tensor<1x16xi32> loc(#loc12)
    %12 = arith.muli %7, %c16_i32 : i32 loc(#loc13)
    %13 = tt.splat %12 : i32 -> tensor<1x16xi32> loc(#loc14)
    %14 = arith.addi %11, %13 : tensor<1x16xi32> loc(#loc14)
    %15 = arith.muli %4, %cst_0 : tensor<1x16xi32> loc(#loc15)
    %16 = arith.addi %14, %15 : tensor<1x16xi32> loc(#loc16)
    %17 = arith.muli %8, %c2048_i32 : i32 loc(#loc17)
    %18 = tt.splat %17 : i32 -> tensor<1x16xi32> loc(#loc18)
    %19 = arith.addi %16, %18 : tensor<1x16xi32> loc(#loc18)
    %20 = tt.splat %arg0 : !tt.ptr<f32> -> tensor<1x16x!tt.ptr<f32>> loc(#loc19)
    %21 = tt.addptr %20, %19 : tensor<1x16x!tt.ptr<f32>>, tensor<1x16xi32> loc(#loc19)
    %22 = tt.load %21 : tensor<1x16x!tt.ptr<f32>> loc(#loc20)
    %23 = "tt.reduce"(%22) <{axis = 1 : i32}> ({
    ^bb0(%arg8: f32 loc(unknown), %arg9: f32 loc(unknown)):
      %36 = arith.addf %arg8, %arg9 : f32 loc(#loc39)
      tt.reduce.return %36 : f32 loc(#loc37)
    }) : (tensor<1x16xf32>) -> tensor<1xf32> loc(#loc37)
    %24 = tt.expand_dims %23 {axis = 1 : i32} : tensor<1xf32> -> tensor<1x1xf32> loc(#loc24)
    %25 = arith.divf %24, %cst : tensor<1x1xf32> loc(#loc25)
    %26 = tt.addptr %arg1, %0 : !tt.ptr<f32>, i32 loc(#loc26)
    %27 = tt.splat %26 : !tt.ptr<f32> -> tensor<1x1x!tt.ptr<f32>> loc(#loc26)
    tt.store %27, %25 : tensor<1x1x!tt.ptr<f32>> loc(#loc27)
    %28 = tt.addptr %arg2, %0 : !tt.ptr<f32>, i32 loc(#loc28)
    %29 = tt.splat %28 : !tt.ptr<f32> -> tensor<1x1x!tt.ptr<f32>> loc(#loc28)
    tt.store %29, %25 : tensor<1x1x!tt.ptr<f32>> loc(#loc29)
    %30 = tt.addptr %arg3, %0 : !tt.ptr<f32>, i32 loc(#loc30)
    %31 = tt.splat %30 : !tt.ptr<f32> -> tensor<1x1x!tt.ptr<f32>> loc(#loc30)
    tt.store %31, %25 : tensor<1x1x!tt.ptr<f32>> loc(#loc31)
    %32 = tt.addptr %arg4, %0 : !tt.ptr<f32>, i32 loc(#loc32)
    %33 = tt.splat %32 : !tt.ptr<f32> -> tensor<1x1x!tt.ptr<f32>> loc(#loc32)
    tt.store %33, %25 : tensor<1x1x!tt.ptr<f32>> loc(#loc33)
    %34 = tt.addptr %arg5, %0 : !tt.ptr<f32>, i32 loc(#loc34)
    %35 = tt.splat %34 : !tt.ptr<f32> -> tensor<1x1x!tt.ptr<f32>> loc(#loc34)
    tt.store %35, %25 : tensor<1x1x!tt.ptr<f32>> loc(#loc35)
    tt.return loc(#loc36)
  } loc(#loc)
} loc(#loc)
#loc2 = loc("/orcd/home/002/osbo/ondemand/fluid-sim/Assets/Scripts/.torch_inductor_cache/qc/cqce5qruqymspobuctiq6xbcbc4ih7sftnlwghuubj4gqphoe4vl.py":22:28)
#loc3 = loc("/orcd/home/002/osbo/ondemand/fluid-sim/Assets/Scripts/.torch_inductor_cache/qc/cqce5qruqymspobuctiq6xbcbc4ih7sftnlwghuubj4gqphoe4vl.py":25:26)
#loc4 = loc("/orcd/home/002/osbo/ondemand/fluid-sim/Assets/Scripts/.torch_inductor_cache/qc/cqce5qruqymspobuctiq6xbcbc4ih7sftnlwghuubj4gqphoe4vl.py":25:34)
#loc5 = loc("/orcd/home/002/osbo/ondemand/fluid-sim/Assets/Scripts/.torch_inductor_cache/qc/cqce5qruqymspobuctiq6xbcbc4ih7sftnlwghuubj4gqphoe4vl.py":28:18)
#loc6 = loc("/orcd/home/002/osbo/ondemand/fluid-sim/Assets/Scripts/.torch_inductor_cache/qc/cqce5qruqymspobuctiq6xbcbc4ih7sftnlwghuubj4gqphoe4vl.py":29:20)
#loc7 = loc("/orcd/home/002/osbo/ondemand/fluid-sim/Assets/Scripts/.torch_inductor_cache/qc/cqce5qruqymspobuctiq6xbcbc4ih7sftnlwghuubj4gqphoe4vl.py":30:18)
#loc8 = loc("/orcd/home/002/osbo/ondemand/fluid-sim/Assets/Scripts/.torch_inductor_cache/qc/cqce5qruqymspobuctiq6xbcbc4ih7sftnlwghuubj4gqphoe4vl.py":31:20)
#loc9 = loc("/orcd/home/002/osbo/ondemand/fluid-sim/Assets/Scripts/.torch_inductor_cache/qc/cqce5qruqymspobuctiq6xbcbc4ih7sftnlwghuubj4gqphoe4vl.py":31:25)
#loc10 = loc("/orcd/home/002/osbo/ondemand/fluid-sim/Assets/Scripts/.torch_inductor_cache/qc/cqce5qruqymspobuctiq6xbcbc4ih7sftnlwghuubj4gqphoe4vl.py":32:20)
#loc11 = loc("/orcd/home/002/osbo/ondemand/fluid-sim/Assets/Scripts/.torch_inductor_cache/qc/cqce5qruqymspobuctiq6xbcbc4ih7sftnlwghuubj4gqphoe4vl.py":34:38)
#loc12 = loc("/orcd/home/002/osbo/ondemand/fluid-sim/Assets/Scripts/.torch_inductor_cache/qc/cqce5qruqymspobuctiq6xbcbc4ih7sftnlwghuubj4gqphoe4vl.py":34:36)
#loc13 = loc("/orcd/home/002/osbo/ondemand/fluid-sim/Assets/Scripts/.torch_inductor_cache/qc/cqce5qruqymspobuctiq6xbcbc4ih7sftnlwghuubj4gqphoe4vl.py":34:48)
#loc14 = loc("/orcd/home/002/osbo/ondemand/fluid-sim/Assets/Scripts/.torch_inductor_cache/qc/cqce5qruqymspobuctiq6xbcbc4ih7sftnlwghuubj4gqphoe4vl.py":34:45)
#loc15 = loc("/orcd/home/002/osbo/ondemand/fluid-sim/Assets/Scripts/.torch_inductor_cache/qc/cqce5qruqymspobuctiq6xbcbc4ih7sftnlwghuubj4gqphoe4vl.py":34:59)
#loc16 = loc("/orcd/home/002/osbo/ondemand/fluid-sim/Assets/Scripts/.torch_inductor_cache/qc/cqce5qruqymspobuctiq6xbcbc4ih7sftnlwghuubj4gqphoe4vl.py":34:55)
#loc17 = loc("/orcd/home/002/osbo/ondemand/fluid-sim/Assets/Scripts/.torch_inductor_cache/qc/cqce5qruqymspobuctiq6xbcbc4ih7sftnlwghuubj4gqphoe4vl.py":34:71)
#loc18 = loc("/orcd/home/002/osbo/ondemand/fluid-sim/Assets/Scripts/.torch_inductor_cache/qc/cqce5qruqymspobuctiq6xbcbc4ih7sftnlwghuubj4gqphoe4vl.py":34:66)
#loc19 = loc("/orcd/home/002/osbo/ondemand/fluid-sim/Assets/Scripts/.torch_inductor_cache/qc/cqce5qruqymspobuctiq6xbcbc4ih7sftnlwghuubj4gqphoe4vl.py":34:30)
#loc20 = loc("/orcd/home/002/osbo/ondemand/fluid-sim/Assets/Scripts/.torch_inductor_cache/qc/cqce5qruqymspobuctiq6xbcbc4ih7sftnlwghuubj4gqphoe4vl.py":34:77)
#loc21 = loc("/home/osbo/.conda/envs/fluid/lib/python3.12/site-packages/triton/language/standard.py":267:36)
#loc22 = loc("/orcd/home/002/osbo/ondemand/fluid-sim/Assets/Scripts/.torch_inductor_cache/qc/cqce5qruqymspobuctiq6xbcbc4ih7sftnlwghuubj4gqphoe4vl.py":36:24)
#loc23 = loc("/home/osbo/.conda/envs/fluid/lib/python3.12/site-packages/triton/language/standard.py":256:15)
#loc24 = loc("/orcd/home/002/osbo/ondemand/fluid-sim/Assets/Scripts/.torch_inductor_cache/qc/cqce5qruqymspobuctiq6xbcbc4ih7sftnlwghuubj4gqphoe4vl.py":36:27)
#loc25 = loc("/orcd/home/002/osbo/ondemand/fluid-sim/Assets/Scripts/.torch_inductor_cache/qc/cqce5qruqymspobuctiq6xbcbc4ih7sftnlwghuubj4gqphoe4vl.py":38:18)
#loc26 = loc("/orcd/home/002/osbo/ondemand/fluid-sim/Assets/Scripts/.torch_inductor_cache/qc/cqce5qruqymspobuctiq6xbcbc4ih7sftnlwghuubj4gqphoe4vl.py":39:25)
#loc27 = loc("/orcd/home/002/osbo/ondemand/fluid-sim/Assets/Scripts/.torch_inductor_cache/qc/cqce5qruqymspobuctiq6xbcbc4ih7sftnlwghuubj4gqphoe4vl.py":39:36)
#loc28 = loc("/orcd/home/002/osbo/ondemand/fluid-sim/Assets/Scripts/.torch_inductor_cache/qc/cqce5qruqymspobuctiq6xbcbc4ih7sftnlwghuubj4gqphoe4vl.py":40:25)
#loc29 = loc("/orcd/home/002/osbo/ondemand/fluid-sim/Assets/Scripts/.torch_inductor_cache/qc/cqce5qruqymspobuctiq6xbcbc4ih7sftnlwghuubj4gqphoe4vl.py":40:36)
#loc30 = loc("/orcd/home/002/osbo/ondemand/fluid-sim/Assets/Scripts/.torch_inductor_cache/qc/cqce5qruqymspobuctiq6xbcbc4ih7sftnlwghuubj4gqphoe4vl.py":41:25)
#loc31 = loc("/orcd/home/002/osbo/ondemand/fluid-sim/Assets/Scripts/.torch_inductor_cache/qc/cqce5qruqymspobuctiq6xbcbc4ih7sftnlwghuubj4gqphoe4vl.py":41:36)
#loc32 = loc("/orcd/home/002/osbo/ondemand/fluid-sim/Assets/Scripts/.torch_inductor_cache/qc/cqce5qruqymspobuctiq6xbcbc4ih7sftnlwghuubj4gqphoe4vl.py":42:25)
#loc33 = loc("/orcd/home/002/osbo/ondemand/fluid-sim/Assets/Scripts/.torch_inductor_cache/qc/cqce5qruqymspobuctiq6xbcbc4ih7sftnlwghuubj4gqphoe4vl.py":42:36)
#loc34 = loc("/orcd/home/002/osbo/ondemand/fluid-sim/Assets/Scripts/.torch_inductor_cache/qc/cqce5qruqymspobuctiq6xbcbc4ih7sftnlwghuubj4gqphoe4vl.py":43:25)
#loc35 = loc("/orcd/home/002/osbo/ondemand/fluid-sim/Assets/Scripts/.torch_inductor_cache/qc/cqce5qruqymspobuctiq6xbcbc4ih7sftnlwghuubj4gqphoe4vl.py":43:36)
#loc36 = loc("/orcd/home/002/osbo/ondemand/fluid-sim/Assets/Scripts/.torch_inductor_cache/qc/cqce5qruqymspobuctiq6xbcbc4ih7sftnlwghuubj4gqphoe4vl.py":43:4)
#loc37 = loc(callsite(#loc21 at #loc22))
#loc38 = loc(callsite(#loc23 at #loc21))
#loc39 = loc(callsite(#loc38 at #loc22))
