#loc = loc("/orcd/home/002/osbo/ondemand/fluid-sim/Assets/Scripts/.torch_inductor_cache/i4/ci477ed4ygxrio532kx46n3iikspw6kt5hvrvxkuhh7p54xcpjwo.py":18:0)
module {
  tt.func public @triton_(%arg0: !tt.ptr<f32> {tt.divisibility = 16 : i32} loc("/orcd/home/002/osbo/ondemand/fluid-sim/Assets/Scripts/.torch_inductor_cache/i4/ci477ed4ygxrio532kx46n3iikspw6kt5hvrvxkuhh7p54xcpjwo.py":18:0), %arg1: !tt.ptr<f32> {tt.divisibility = 16 : i32} loc("/orcd/home/002/osbo/ondemand/fluid-sim/Assets/Scripts/.torch_inductor_cache/i4/ci477ed4ygxrio532kx46n3iikspw6kt5hvrvxkuhh7p54xcpjwo.py":18:0), %arg2: !tt.ptr<f32> {tt.divisibility = 16 : i32} loc("/orcd/home/002/osbo/ondemand/fluid-sim/Assets/Scripts/.torch_inductor_cache/i4/ci477ed4ygxrio532kx46n3iikspw6kt5hvrvxkuhh7p54xcpjwo.py":18:0), %arg3: i32 {tt.divisibility = 16 : i32} loc("/orcd/home/002/osbo/ondemand/fluid-sim/Assets/Scripts/.torch_inductor_cache/i4/ci477ed4ygxrio532kx46n3iikspw6kt5hvrvxkuhh7p54xcpjwo.py":18:0)) attributes {noinline = false} {
    %cst = arith.constant dense<3> : tensor<512xi32> loc(#loc1)
    %cst_0 = arith.constant dense<4384> : tensor<512xi32> loc(#loc1)
    %cst_1 = arith.constant dense<1120> : tensor<512xi32> loc(#loc1)
    %cst_2 = arith.constant dense<4356> : tensor<512xi32> loc(#loc1)
    %cst_3 = arith.constant dense<1089> : tensor<512xi32> loc(#loc1)
    %cst_4 = arith.constant dense<4> : tensor<512xi32> loc(#loc1)
    %cst_5 = arith.constant dense<209088> : tensor<512xi32> loc(#loc1)
    %c512_i32 = arith.constant 512 : i32 loc(#loc1)
    %0 = tt.get_program_id x : i32 loc(#loc2)
    %1 = arith.muli %0, %c512_i32 : i32 loc(#loc3)
    %2 = tt.make_range {end = 512 : i32, start = 0 : i32} : tensor<512xi32> loc(#loc4)
    %3 = tt.splat %1 : i32 -> tensor<512xi32> loc(#loc5)
    %4 = arith.addi %3, %2 : tensor<512xi32> loc(#loc5)
    %5 = arith.cmpi slt, %4, %cst_5 : tensor<512xi32> loc(#loc6)
    %6 = arith.remsi %4, %cst_4 : tensor<512xi32> loc(#loc7)
    %7 = arith.divsi %4, %cst_4 : tensor<512xi32> loc(#loc8)
    %8 = arith.remsi %7, %cst_3 : tensor<512xi32> loc(#loc9)
    %9 = arith.divsi %4, %cst_2 : tensor<512xi32> loc(#loc10)
    %10 = arith.remsi %4, %cst_2 : tensor<512xi32> loc(#loc11)
    %11 = arith.muli %9, %cst_1 : tensor<512xi32> loc(#loc12)
    %12 = arith.addi %8, %11 : tensor<512xi32> loc(#loc13)
    %13 = tt.splat %arg0 : !tt.ptr<f32> -> tensor<512x!tt.ptr<f32>> loc(#loc14)
    %14 = tt.addptr %13, %12 : tensor<512x!tt.ptr<f32>>, tensor<512xi32> loc(#loc14)
    %15 = tt.load %14, %5 evictionPolicy = evict_last : tensor<512x!tt.ptr<f32>> loc(#loc15)
    %16 = arith.muli %9, %cst_0 : tensor<512xi32> loc(#loc16)
    %17 = arith.addi %10, %16 : tensor<512xi32> loc(#loc17)
    %18 = tt.splat %arg1 : !tt.ptr<f32> -> tensor<512x!tt.ptr<f32>> loc(#loc18)
    %19 = tt.addptr %18, %17 : tensor<512x!tt.ptr<f32>>, tensor<512xi32> loc(#loc18)
    %20 = tt.load %19, %5 : tensor<512x!tt.ptr<f32>> loc(#loc19)
    %21 = arith.cmpi eq, %6, %cst : tensor<512xi32> loc(#loc20)
    %22 = arith.select %21, %15, %20 : tensor<512xi1>, tensor<512xf32> loc(#loc21)
    %23 = tt.splat %arg2 : !tt.ptr<f32> -> tensor<512x!tt.ptr<f32>> loc(#loc22)
    %24 = tt.addptr %23, %17 : tensor<512x!tt.ptr<f32>>, tensor<512xi32> loc(#loc22)
    tt.store %24, %22, %5 : tensor<512x!tt.ptr<f32>> loc(#loc23)
    tt.return loc(#loc24)
  } loc(#loc)
} loc(#loc)
#loc1 = loc(unknown)
#loc2 = loc("/orcd/home/002/osbo/ondemand/fluid-sim/Assets/Scripts/.torch_inductor_cache/i4/ci477ed4ygxrio532kx46n3iikspw6kt5hvrvxkuhh7p54xcpjwo.py":20:28)
#loc3 = loc("/orcd/home/002/osbo/ondemand/fluid-sim/Assets/Scripts/.torch_inductor_cache/i4/ci477ed4ygxrio532kx46n3iikspw6kt5hvrvxkuhh7p54xcpjwo.py":20:33)
#loc4 = loc("/orcd/home/002/osbo/ondemand/fluid-sim/Assets/Scripts/.torch_inductor_cache/i4/ci477ed4ygxrio532kx46n3iikspw6kt5hvrvxkuhh7p54xcpjwo.py":21:36)
#loc5 = loc("/orcd/home/002/osbo/ondemand/fluid-sim/Assets/Scripts/.torch_inductor_cache/i4/ci477ed4ygxrio532kx46n3iikspw6kt5hvrvxkuhh7p54xcpjwo.py":21:23)
#loc6 = loc("/orcd/home/002/osbo/ondemand/fluid-sim/Assets/Scripts/.torch_inductor_cache/i4/ci477ed4ygxrio532kx46n3iikspw6kt5hvrvxkuhh7p54xcpjwo.py":22:21)
#loc7 = loc("/orcd/home/002/osbo/ondemand/fluid-sim/Assets/Scripts/.torch_inductor_cache/i4/ci477ed4ygxrio532kx46n3iikspw6kt5hvrvxkuhh7p54xcpjwo.py":23:18)
#loc8 = loc("/orcd/home/002/osbo/ondemand/fluid-sim/Assets/Scripts/.torch_inductor_cache/i4/ci477ed4ygxrio532kx46n3iikspw6kt5hvrvxkuhh7p54xcpjwo.py":24:20)
#loc9 = loc("/orcd/home/002/osbo/ondemand/fluid-sim/Assets/Scripts/.torch_inductor_cache/i4/ci477ed4ygxrio532kx46n3iikspw6kt5hvrvxkuhh7p54xcpjwo.py":24:25)
#loc10 = loc("/orcd/home/002/osbo/ondemand/fluid-sim/Assets/Scripts/.torch_inductor_cache/i4/ci477ed4ygxrio532kx46n3iikspw6kt5hvrvxkuhh7p54xcpjwo.py":25:20)
#loc11 = loc("/orcd/home/002/osbo/ondemand/fluid-sim/Assets/Scripts/.torch_inductor_cache/i4/ci477ed4ygxrio532kx46n3iikspw6kt5hvrvxkuhh7p54xcpjwo.py":26:18)
#loc12 = loc("/orcd/home/002/osbo/ondemand/fluid-sim/Assets/Scripts/.torch_inductor_cache/i4/ci477ed4ygxrio532kx46n3iikspw6kt5hvrvxkuhh7p54xcpjwo.py":27:41)
#loc13 = loc("/orcd/home/002/osbo/ondemand/fluid-sim/Assets/Scripts/.torch_inductor_cache/i4/ci477ed4ygxrio532kx46n3iikspw6kt5hvrvxkuhh7p54xcpjwo.py":27:36)
#loc14 = loc("/orcd/home/002/osbo/ondemand/fluid-sim/Assets/Scripts/.torch_inductor_cache/i4/ci477ed4ygxrio532kx46n3iikspw6kt5hvrvxkuhh7p54xcpjwo.py":27:30)
#loc15 = loc("/orcd/home/002/osbo/ondemand/fluid-sim/Assets/Scripts/.torch_inductor_cache/i4/ci477ed4ygxrio532kx46n3iikspw6kt5hvrvxkuhh7p54xcpjwo.py":27:47)
#loc16 = loc("/orcd/home/002/osbo/ondemand/fluid-sim/Assets/Scripts/.torch_inductor_cache/i4/ci477ed4ygxrio532kx46n3iikspw6kt5hvrvxkuhh7p54xcpjwo.py":28:41)
#loc17 = loc("/orcd/home/002/osbo/ondemand/fluid-sim/Assets/Scripts/.torch_inductor_cache/i4/ci477ed4ygxrio532kx46n3iikspw6kt5hvrvxkuhh7p54xcpjwo.py":28:36)
#loc18 = loc("/orcd/home/002/osbo/ondemand/fluid-sim/Assets/Scripts/.torch_inductor_cache/i4/ci477ed4ygxrio532kx46n3iikspw6kt5hvrvxkuhh7p54xcpjwo.py":28:30)
#loc19 = loc("/orcd/home/002/osbo/ondemand/fluid-sim/Assets/Scripts/.torch_inductor_cache/i4/ci477ed4ygxrio532kx46n3iikspw6kt5hvrvxkuhh7p54xcpjwo.py":28:47)
#loc20 = loc("/orcd/home/002/osbo/ondemand/fluid-sim/Assets/Scripts/.torch_inductor_cache/i4/ci477ed4ygxrio532kx46n3iikspw6kt5hvrvxkuhh7p54xcpjwo.py":31:19)
#loc21 = loc("/orcd/home/002/osbo/ondemand/fluid-sim/Assets/Scripts/.torch_inductor_cache/i4/ci477ed4ygxrio532kx46n3iikspw6kt5hvrvxkuhh7p54xcpjwo.py":32:32)
#loc22 = loc("/orcd/home/002/osbo/ondemand/fluid-sim/Assets/Scripts/.torch_inductor_cache/i4/ci477ed4ygxrio532kx46n3iikspw6kt5hvrvxkuhh7p54xcpjwo.py":33:25)
#loc23 = loc("/orcd/home/002/osbo/ondemand/fluid-sim/Assets/Scripts/.torch_inductor_cache/i4/ci477ed4ygxrio532kx46n3iikspw6kt5hvrvxkuhh7p54xcpjwo.py":33:48)
#loc24 = loc("/orcd/home/002/osbo/ondemand/fluid-sim/Assets/Scripts/.torch_inductor_cache/i4/ci477ed4ygxrio532kx46n3iikspw6kt5hvrvxkuhh7p54xcpjwo.py":33:4)
