#loc = loc("/orcd/home/002/osbo/ondemand/fluid-sim/Assets/Scripts/.torch_inductor_cache/6s/c6sx5lhad5fb75drc2n3orcrnnjrlzfqbplfhtxbh5sp367kdubk.py":18:0)
#loc1 = loc(unknown)
module {
  tt.func public @triton_(%arg0: !tt.ptr<f32> {tt.divisibility = 16 : i32} loc("/orcd/home/002/osbo/ondemand/fluid-sim/Assets/Scripts/.torch_inductor_cache/6s/c6sx5lhad5fb75drc2n3orcrnnjrlzfqbplfhtxbh5sp367kdubk.py":18:0), %arg1: !tt.ptr<f32> {tt.divisibility = 16 : i32} loc("/orcd/home/002/osbo/ondemand/fluid-sim/Assets/Scripts/.torch_inductor_cache/6s/c6sx5lhad5fb75drc2n3orcrnnjrlzfqbplfhtxbh5sp367kdubk.py":18:0), %arg2: i32 {tt.divisibility = 16 : i32} loc("/orcd/home/002/osbo/ondemand/fluid-sim/Assets/Scripts/.torch_inductor_cache/6s/c6sx5lhad5fb75drc2n3orcrnnjrlzfqbplfhtxbh5sp367kdubk.py":18:0), %arg3: i32 {tt.divisibility = 16 : i32} loc("/orcd/home/002/osbo/ondemand/fluid-sim/Assets/Scripts/.torch_inductor_cache/6s/c6sx5lhad5fb75drc2n3orcrnnjrlzfqbplfhtxbh5sp367kdubk.py":18:0)) attributes {noinline = false} {
    %c2048_i32 = arith.constant 2048 : i32 loc(#loc1)
    %c64_i32 = arith.constant 64 : i32 loc(#loc1)
    %c6976_i32 = arith.constant 6976 : i32 loc(#loc1)
    %cst = arith.constant dense<0.000000e+00> : tensor<1x32xf32> loc(#loc1)
    %cst_0 = arith.constant dense<64> : tensor<1x32xi32> loc(#loc1)
    %0 = tt.get_program_id x : i32 loc(#loc2)
    %1 = arith.cmpi slt, %0, %c6976_i32 : i32 loc(#loc3)
    %2 = tt.splat %1 : i1 -> tensor<1x1xi1> loc(#loc3)
    %3 = tt.make_range {end = 32 : i32, start = 0 : i32} : tensor<32xi32> loc(#loc4)
    %4 = tt.expand_dims %3 {axis = 0 : i32} : tensor<32xi32> -> tensor<1x32xi32> loc(#loc5)
    %5 = arith.remsi %0, %c64_i32 : i32 loc(#loc6)
    %6 = arith.divsi %0, %c64_i32 : i32 loc(#loc7)
    %7 = arith.muli %4, %cst_0 : tensor<1x32xi32> loc(#loc8)
    %8 = tt.splat %5 : i32 -> tensor<1x32xi32> loc(#loc9)
    %9 = arith.addi %8, %7 : tensor<1x32xi32> loc(#loc9)
    %10 = arith.muli %6, %c2048_i32 : i32 loc(#loc10)
    %11 = tt.splat %10 : i32 -> tensor<1x32xi32> loc(#loc11)
    %12 = arith.addi %9, %11 : tensor<1x32xi32> loc(#loc11)
    %13 = tt.splat %arg0 : !tt.ptr<f32> -> tensor<1x32x!tt.ptr<f32>> loc(#loc12)
    %14 = tt.addptr %13, %12 : tensor<1x32x!tt.ptr<f32>>, tensor<1x32xi32> loc(#loc12)
    %15 = tt.splat %1 : i1 -> tensor<1x32xi1> loc(#loc13)
    %16 = tt.load %14, %15, %cst : tensor<1x32x!tt.ptr<f32>> loc(#loc13)
    %17 = arith.select %15, %16, %cst : tensor<1x32xi1>, tensor<1x32xf32> loc(#loc14)
    %18 = "tt.reduce"(%17) <{axis = 1 : i32}> ({
    ^bb0(%arg4: f32 loc(unknown), %arg5: f32 loc(unknown)):
      %22 = arith.addf %arg4, %arg5 : f32 loc(#loc24)
      tt.reduce.return %22 : f32 loc(#loc22)
    }) : (tensor<1x32xf32>) -> tensor<1xf32> loc(#loc22)
    %19 = tt.expand_dims %18 {axis = 1 : i32} : tensor<1xf32> -> tensor<1x1xf32> loc(#loc18)
    %20 = tt.addptr %arg1, %0 : !tt.ptr<f32>, i32 loc(#loc19)
    %21 = tt.splat %20 : !tt.ptr<f32> -> tensor<1x1x!tt.ptr<f32>> loc(#loc19)
    tt.store %21, %19, %2 : tensor<1x1x!tt.ptr<f32>> loc(#loc20)
    tt.return loc(#loc21)
  } loc(#loc)
} loc(#loc)
#loc2 = loc("/orcd/home/002/osbo/ondemand/fluid-sim/Assets/Scripts/.torch_inductor_cache/6s/c6sx5lhad5fb75drc2n3orcrnnjrlzfqbplfhtxbh5sp367kdubk.py":22:28)
#loc3 = loc("/orcd/home/002/osbo/ondemand/fluid-sim/Assets/Scripts/.torch_inductor_cache/6s/c6sx5lhad5fb75drc2n3orcrnnjrlzfqbplfhtxbh5sp367kdubk.py":24:21)
#loc4 = loc("/orcd/home/002/osbo/ondemand/fluid-sim/Assets/Scripts/.torch_inductor_cache/6s/c6sx5lhad5fb75drc2n3orcrnnjrlzfqbplfhtxbh5sp367kdubk.py":25:26)
#loc5 = loc("/orcd/home/002/osbo/ondemand/fluid-sim/Assets/Scripts/.torch_inductor_cache/6s/c6sx5lhad5fb75drc2n3orcrnnjrlzfqbplfhtxbh5sp367kdubk.py":25:34)
#loc6 = loc("/orcd/home/002/osbo/ondemand/fluid-sim/Assets/Scripts/.torch_inductor_cache/6s/c6sx5lhad5fb75drc2n3orcrnnjrlzfqbplfhtxbh5sp367kdubk.py":29:18)
#loc7 = loc("/orcd/home/002/osbo/ondemand/fluid-sim/Assets/Scripts/.torch_inductor_cache/6s/c6sx5lhad5fb75drc2n3orcrnnjrlzfqbplfhtxbh5sp367kdubk.py":30:20)
#loc8 = loc("/orcd/home/002/osbo/ondemand/fluid-sim/Assets/Scripts/.torch_inductor_cache/6s/c6sx5lhad5fb75drc2n3orcrnnjrlzfqbplfhtxbh5sp367kdubk.py":32:39)
#loc9 = loc("/orcd/home/002/osbo/ondemand/fluid-sim/Assets/Scripts/.torch_inductor_cache/6s/c6sx5lhad5fb75drc2n3orcrnnjrlzfqbplfhtxbh5sp367kdubk.py":32:36)
#loc10 = loc("/orcd/home/002/osbo/ondemand/fluid-sim/Assets/Scripts/.torch_inductor_cache/6s/c6sx5lhad5fb75drc2n3orcrnnjrlzfqbplfhtxbh5sp367kdubk.py":32:51)
#loc11 = loc("/orcd/home/002/osbo/ondemand/fluid-sim/Assets/Scripts/.torch_inductor_cache/6s/c6sx5lhad5fb75drc2n3orcrnnjrlzfqbplfhtxbh5sp367kdubk.py":32:46)
#loc12 = loc("/orcd/home/002/osbo/ondemand/fluid-sim/Assets/Scripts/.torch_inductor_cache/6s/c6sx5lhad5fb75drc2n3orcrnnjrlzfqbplfhtxbh5sp367kdubk.py":32:30)
#loc13 = loc("/orcd/home/002/osbo/ondemand/fluid-sim/Assets/Scripts/.torch_inductor_cache/6s/c6sx5lhad5fb75drc2n3orcrnnjrlzfqbplfhtxbh5sp367kdubk.py":32:57)
#loc14 = loc("/orcd/home/002/osbo/ondemand/fluid-sim/Assets/Scripts/.torch_inductor_cache/6s/c6sx5lhad5fb75drc2n3orcrnnjrlzfqbplfhtxbh5sp367kdubk.py":34:33)
#loc15 = loc("/home/osbo/.conda/envs/fluid/lib/python3.12/site-packages/triton/language/standard.py":267:36)
#loc16 = loc("/orcd/home/002/osbo/ondemand/fluid-sim/Assets/Scripts/.torch_inductor_cache/6s/c6sx5lhad5fb75drc2n3orcrnnjrlzfqbplfhtxbh5sp367kdubk.py":35:24)
#loc17 = loc("/home/osbo/.conda/envs/fluid/lib/python3.12/site-packages/triton/language/standard.py":256:15)
#loc18 = loc("/orcd/home/002/osbo/ondemand/fluid-sim/Assets/Scripts/.torch_inductor_cache/6s/c6sx5lhad5fb75drc2n3orcrnnjrlzfqbplfhtxbh5sp367kdubk.py":35:27)
#loc19 = loc("/orcd/home/002/osbo/ondemand/fluid-sim/Assets/Scripts/.torch_inductor_cache/6s/c6sx5lhad5fb75drc2n3orcrnnjrlzfqbplfhtxbh5sp367kdubk.py":36:25)
#loc20 = loc("/orcd/home/002/osbo/ondemand/fluid-sim/Assets/Scripts/.torch_inductor_cache/6s/c6sx5lhad5fb75drc2n3orcrnnjrlzfqbplfhtxbh5sp367kdubk.py":36:36)
#loc21 = loc("/orcd/home/002/osbo/ondemand/fluid-sim/Assets/Scripts/.torch_inductor_cache/6s/c6sx5lhad5fb75drc2n3orcrnnjrlzfqbplfhtxbh5sp367kdubk.py":36:4)
#loc22 = loc(callsite(#loc15 at #loc16))
#loc23 = loc(callsite(#loc17 at #loc15))
#loc24 = loc(callsite(#loc23 at #loc16))
