#loc = loc("/orcd/home/002/osbo/ondemand/fluid-sim/Assets/Scripts/.torch_inductor_cache/xt/cxt7hgi4d33cqs3da3q22syvj7pwhjpbzvb5xumokyorvgt7sy5n.py":18:0)
module {
  tt.func public @triton_(%arg0: !tt.ptr<f32> {tt.divisibility = 16 : i32} loc("/orcd/home/002/osbo/ondemand/fluid-sim/Assets/Scripts/.torch_inductor_cache/xt/cxt7hgi4d33cqs3da3q22syvj7pwhjpbzvb5xumokyorvgt7sy5n.py":18:0), %arg1: !tt.ptr<f32> {tt.divisibility = 16 : i32} loc("/orcd/home/002/osbo/ondemand/fluid-sim/Assets/Scripts/.torch_inductor_cache/xt/cxt7hgi4d33cqs3da3q22syvj7pwhjpbzvb5xumokyorvgt7sy5n.py":18:0), %arg2: i32 {tt.divisibility = 16 : i32} loc("/orcd/home/002/osbo/ondemand/fluid-sim/Assets/Scripts/.torch_inductor_cache/xt/cxt7hgi4d33cqs3da3q22syvj7pwhjpbzvb5xumokyorvgt7sy5n.py":18:0)) attributes {noinline = false} {
    %cst = arith.constant dense<0.000000e+00> : tensor<128xf32> loc(#loc1)
    %cst_0 = arith.constant dense<1.000000e+00> : tensor<128xf32> loc(#loc1)
    %cst_1 = arith.constant dense<2.000000e+00> : tensor<128xf32> loc(#loc1)
    %c0_i32 = arith.constant 0 : i32 loc(#loc1)
    %cst_2 = arith.constant dense<1024> : tensor<128xi32> loc(#loc1)
    %c128_i32 = arith.constant 128 : i32 loc(#loc1)
    %0 = tt.get_program_id x : i32 loc(#loc2)
    %1 = arith.muli %0, %c128_i32 : i32 loc(#loc3)
    %2 = tt.make_range {end = 128 : i32, start = 0 : i32} : tensor<128xi32> loc(#loc4)
    %3 = tt.splat %1 : i32 -> tensor<128xi32> loc(#loc5)
    %4 = arith.addi %3, %2 : tensor<128xi32> loc(#loc5)
    %5 = arith.cmpi slt, %4, %cst_2 : tensor<128xi32> loc(#loc6)
    %6 = tt.splat %arg0 : !tt.ptr<f32> -> tensor<128x!tt.ptr<f32>> loc(#loc7)
    %7 = tt.addptr %6, %4 : tensor<128x!tt.ptr<f32>>, tensor<128xi32> loc(#loc7)
    %8 = tt.load %7, %5 : tensor<128x!tt.ptr<f32>> loc(#loc8)
    %9 = tt.addptr %arg1, %c0_i32 : !tt.ptr<f32>, i32 loc(#loc9)
    %10 = tt.load %9 : !tt.ptr<f32> loc(#loc10)
    %11 = tt.splat %10 : f32 -> tensor<128xf32> loc(#loc11)
    %12 = arith.addf %8, %11 : tensor<128xf32> loc(#loc12)
    %13 = arith.subf %cst, %12 : tensor<128xf32> loc(#loc21)
    %14 = math.exp %13 : tensor<128xf32> loc(#loc22)
    %15 = arith.addf %14, %cst_0 : tensor<128xf32> loc(#loc23)
    %16 = arith.divf %cst_0, %15 : tensor<128xf32> loc(#loc24)
    %17 = arith.mulf %16, %cst_1 : tensor<128xf32> loc(#loc18)
    tt.store %7, %17, %5 : tensor<128x!tt.ptr<f32>> loc(#loc19)
    tt.return loc(#loc20)
  } loc(#loc)
} loc(#loc)
#loc1 = loc(unknown)
#loc2 = loc("/orcd/home/002/osbo/ondemand/fluid-sim/Assets/Scripts/.torch_inductor_cache/xt/cxt7hgi4d33cqs3da3q22syvj7pwhjpbzvb5xumokyorvgt7sy5n.py":20:28)
#loc3 = loc("/orcd/home/002/osbo/ondemand/fluid-sim/Assets/Scripts/.torch_inductor_cache/xt/cxt7hgi4d33cqs3da3q22syvj7pwhjpbzvb5xumokyorvgt7sy5n.py":20:33)
#loc4 = loc("/orcd/home/002/osbo/ondemand/fluid-sim/Assets/Scripts/.torch_inductor_cache/xt/cxt7hgi4d33cqs3da3q22syvj7pwhjpbzvb5xumokyorvgt7sy5n.py":21:36)
#loc5 = loc("/orcd/home/002/osbo/ondemand/fluid-sim/Assets/Scripts/.torch_inductor_cache/xt/cxt7hgi4d33cqs3da3q22syvj7pwhjpbzvb5xumokyorvgt7sy5n.py":21:23)
#loc6 = loc("/orcd/home/002/osbo/ondemand/fluid-sim/Assets/Scripts/.torch_inductor_cache/xt/cxt7hgi4d33cqs3da3q22syvj7pwhjpbzvb5xumokyorvgt7sy5n.py":22:21)
#loc7 = loc("/orcd/home/002/osbo/ondemand/fluid-sim/Assets/Scripts/.torch_inductor_cache/xt/cxt7hgi4d33cqs3da3q22syvj7pwhjpbzvb5xumokyorvgt7sy5n.py":24:34)
#loc8 = loc("/orcd/home/002/osbo/ondemand/fluid-sim/Assets/Scripts/.torch_inductor_cache/xt/cxt7hgi4d33cqs3da3q22syvj7pwhjpbzvb5xumokyorvgt7sy5n.py":24:39)
#loc9 = loc("/orcd/home/002/osbo/ondemand/fluid-sim/Assets/Scripts/.torch_inductor_cache/xt/cxt7hgi4d33cqs3da3q22syvj7pwhjpbzvb5xumokyorvgt7sy5n.py":25:30)
#loc10 = loc("/orcd/home/002/osbo/ondemand/fluid-sim/Assets/Scripts/.torch_inductor_cache/xt/cxt7hgi4d33cqs3da3q22syvj7pwhjpbzvb5xumokyorvgt7sy5n.py":25:19)
#loc11 = loc("/orcd/home/002/osbo/ondemand/fluid-sim/Assets/Scripts/.torch_inductor_cache/xt/cxt7hgi4d33cqs3da3q22syvj7pwhjpbzvb5xumokyorvgt7sy5n.py":26:33)
#loc12 = loc("/orcd/home/002/osbo/ondemand/fluid-sim/Assets/Scripts/.torch_inductor_cache/xt/cxt7hgi4d33cqs3da3q22syvj7pwhjpbzvb5xumokyorvgt7sy5n.py":27:18)
#loc13 = loc("/home/osbo/.conda/envs/fluid/lib/python3.12/site-packages/triton/language/standard.py":51:30)
#loc14 = loc("/orcd/home/002/osbo/ondemand/fluid-sim/Assets/Scripts/.torch_inductor_cache/xt/cxt7hgi4d33cqs3da3q22syvj7pwhjpbzvb5xumokyorvgt7sy5n.py":28:22)
#loc15 = loc("/home/osbo/.conda/envs/fluid/lib/python3.12/site-packages/triton/language/standard.py":51:29)
#loc16 = loc("/home/osbo/.conda/envs/fluid/lib/python3.12/site-packages/triton/language/standard.py":51:20)
#loc17 = loc("/home/osbo/.conda/envs/fluid/lib/python3.12/site-packages/triton/language/standard.py":51:16)
#loc18 = loc("/orcd/home/002/osbo/ondemand/fluid-sim/Assets/Scripts/.torch_inductor_cache/xt/cxt7hgi4d33cqs3da3q22syvj7pwhjpbzvb5xumokyorvgt7sy5n.py":30:18)
#loc19 = loc("/orcd/home/002/osbo/ondemand/fluid-sim/Assets/Scripts/.torch_inductor_cache/xt/cxt7hgi4d33cqs3da3q22syvj7pwhjpbzvb5xumokyorvgt7sy5n.py":31:39)
#loc20 = loc("/orcd/home/002/osbo/ondemand/fluid-sim/Assets/Scripts/.torch_inductor_cache/xt/cxt7hgi4d33cqs3da3q22syvj7pwhjpbzvb5xumokyorvgt7sy5n.py":31:4)
#loc21 = loc(callsite(#loc13 at #loc14))
#loc22 = loc(callsite(#loc15 at #loc14))
#loc23 = loc(callsite(#loc16 at #loc14))
#loc24 = loc(callsite(#loc17 at #loc14))
