#loc = loc("/orcd/home/002/osbo/ondemand/fluid-sim/Assets/Scripts/.torch_inductor_cache/hr/chrcl3izcoyl2otkgbmln7obadli4kzs5wy3kbwzzj4mlpnql4pn.py":18:0)
#loc1 = loc(unknown)
module {
  tt.func public @triton_(%arg0: !tt.ptr<f32> {tt.divisibility = 16 : i32} loc("/orcd/home/002/osbo/ondemand/fluid-sim/Assets/Scripts/.torch_inductor_cache/hr/chrcl3izcoyl2otkgbmln7obadli4kzs5wy3kbwzzj4mlpnql4pn.py":18:0), %arg1: !tt.ptr<f32> {tt.divisibility = 16 : i32} loc("/orcd/home/002/osbo/ondemand/fluid-sim/Assets/Scripts/.torch_inductor_cache/hr/chrcl3izcoyl2otkgbmln7obadli4kzs5wy3kbwzzj4mlpnql4pn.py":18:0), %arg2: !tt.ptr<f32> {tt.divisibility = 16 : i32} loc("/orcd/home/002/osbo/ondemand/fluid-sim/Assets/Scripts/.torch_inductor_cache/hr/chrcl3izcoyl2otkgbmln7obadli4kzs5wy3kbwzzj4mlpnql4pn.py":18:0), %arg3: !tt.ptr<f32> {tt.divisibility = 16 : i32} loc("/orcd/home/002/osbo/ondemand/fluid-sim/Assets/Scripts/.torch_inductor_cache/hr/chrcl3izcoyl2otkgbmln7obadli4kzs5wy3kbwzzj4mlpnql4pn.py":18:0), %arg4: i32 {tt.divisibility = 16 : i32} loc("/orcd/home/002/osbo/ondemand/fluid-sim/Assets/Scripts/.torch_inductor_cache/hr/chrcl3izcoyl2otkgbmln7obadli4kzs5wy3kbwzzj4mlpnql4pn.py":18:0), %arg5: i32 {tt.divisibility = 16 : i32} loc("/orcd/home/002/osbo/ondemand/fluid-sim/Assets/Scripts/.torch_inductor_cache/hr/chrcl3izcoyl2otkgbmln7obadli4kzs5wy3kbwzzj4mlpnql4pn.py":18:0)) attributes {noinline = false} {
    %cst = arith.constant dense<3.200000e+01> : tensor<32x1xf32> loc(#loc1)
    %cst_0 = arith.constant dense<16384> : tensor<32x1xi32> loc(#loc1)
    %cst_1 = arith.constant dense<512> : tensor<1x32xi32> loc(#loc1)
    %cst_2 = arith.constant dense<512> : tensor<32x1xi32> loc(#loc1)
    %c32_i32 = arith.constant 32 : i32 loc(#loc1)
    %0 = tt.get_program_id x : i32 loc(#loc2)
    %1 = arith.muli %0, %c32_i32 : i32 loc(#loc3)
    %2 = tt.make_range {end = 32 : i32, start = 0 : i32} : tensor<32xi32> loc(#loc4)
    %3 = tt.expand_dims %2 {axis = 1 : i32} : tensor<32xi32> -> tensor<32x1xi32> loc(#loc5)
    %4 = tt.splat %1 : i32 -> tensor<32x1xi32> loc(#loc6)
    %5 = arith.addi %4, %3 : tensor<32x1xi32> loc(#loc6)
    %6 = tt.expand_dims %2 {axis = 0 : i32} : tensor<32xi32> -> tensor<1x32xi32> loc(#loc7)
    %7 = arith.remsi %5, %cst_2 : tensor<32x1xi32> loc(#loc8)
    %8 = arith.divsi %5, %cst_2 : tensor<32x1xi32> loc(#loc9)
    %9 = arith.muli %6, %cst_1 : tensor<1x32xi32> loc(#loc10)
    %10 = tt.broadcast %7 : tensor<32x1xi32> -> tensor<32x32xi32> loc(#loc11)
    %11 = tt.broadcast %9 : tensor<1x32xi32> -> tensor<32x32xi32> loc(#loc11)
    %12 = arith.addi %10, %11 : tensor<32x32xi32> loc(#loc11)
    %13 = arith.muli %8, %cst_0 : tensor<32x1xi32> loc(#loc12)
    %14 = tt.broadcast %13 : tensor<32x1xi32> -> tensor<32x32xi32> loc(#loc13)
    %15 = arith.addi %12, %14 : tensor<32x32xi32> loc(#loc13)
    %16 = tt.splat %arg1 : !tt.ptr<f32> -> tensor<32x32x!tt.ptr<f32>> loc(#loc14)
    %17 = tt.addptr %16, %15 : tensor<32x32x!tt.ptr<f32>>, tensor<32x32xi32> loc(#loc14)
    %18 = tt.load %17 : tensor<32x32x!tt.ptr<f32>> loc(#loc15)
    %19 = tt.splat %arg2 : !tt.ptr<f32> -> tensor<32x32x!tt.ptr<f32>> loc(#loc16)
    %20 = tt.addptr %19, %15 : tensor<32x32x!tt.ptr<f32>>, tensor<32x32xi32> loc(#loc16)
    %21 = tt.load %20 : tensor<32x32x!tt.ptr<f32>> loc(#loc17)
    %22 = tt.splat %arg3 : !tt.ptr<f32> -> tensor<32x1x!tt.ptr<f32>> loc(#loc18)
    %23 = tt.addptr %22, %7 : tensor<32x1x!tt.ptr<f32>>, tensor<32x1xi32> loc(#loc18)
    %24 = tt.load %23 evictionPolicy = evict_last : tensor<32x1x!tt.ptr<f32>> loc(#loc19)
    %25 = tt.broadcast %24 : tensor<32x1xf32> -> tensor<32x32xf32> loc(#loc20)
    %26 = arith.addf %21, %25 : tensor<32x32xf32> loc(#loc20)
    %27 = arith.addf %18, %26 : tensor<32x32xf32> loc(#loc21)
    %28 = "tt.reduce"(%27) <{axis = 1 : i32}> ({
    ^bb0(%arg6: f32 loc(unknown), %arg7: f32 loc(unknown)):
      %33 = arith.addf %arg6, %arg7 : f32 loc(#loc33)
      tt.reduce.return %33 : f32 loc(#loc31)
    }) : (tensor<32x32xf32>) -> tensor<32xf32> loc(#loc31)
    %29 = tt.expand_dims %28 {axis = 1 : i32} : tensor<32xf32> -> tensor<32x1xf32> loc(#loc25)
    %30 = arith.divf %29, %cst : tensor<32x1xf32> loc(#loc26)
    gpu.barrier loc(#loc27)
    %31 = tt.splat %arg0 : !tt.ptr<f32> -> tensor<32x1x!tt.ptr<f32>> loc(#loc28)
    %32 = tt.addptr %31, %5 : tensor<32x1x!tt.ptr<f32>>, tensor<32x1xi32> loc(#loc28)
    tt.store %32, %30 : tensor<32x1x!tt.ptr<f32>> loc(#loc29)
    tt.return loc(#loc30)
  } loc(#loc)
} loc(#loc)
#loc2 = loc("/orcd/home/002/osbo/ondemand/fluid-sim/Assets/Scripts/.torch_inductor_cache/hr/chrcl3izcoyl2otkgbmln7obadli4kzs5wy3kbwzzj4mlpnql4pn.py":22:28)
#loc3 = loc("/orcd/home/002/osbo/ondemand/fluid-sim/Assets/Scripts/.torch_inductor_cache/hr/chrcl3izcoyl2otkgbmln7obadli4kzs5wy3kbwzzj4mlpnql4pn.py":22:33)
#loc4 = loc("/orcd/home/002/osbo/ondemand/fluid-sim/Assets/Scripts/.torch_inductor_cache/hr/chrcl3izcoyl2otkgbmln7obadli4kzs5wy3kbwzzj4mlpnql4pn.py":23:36)
#loc5 = loc("/orcd/home/002/osbo/ondemand/fluid-sim/Assets/Scripts/.torch_inductor_cache/hr/chrcl3izcoyl2otkgbmln7obadli4kzs5wy3kbwzzj4mlpnql4pn.py":23:44)
#loc6 = loc("/orcd/home/002/osbo/ondemand/fluid-sim/Assets/Scripts/.torch_inductor_cache/hr/chrcl3izcoyl2otkgbmln7obadli4kzs5wy3kbwzzj4mlpnql4pn.py":23:23)
#loc7 = loc("/orcd/home/002/osbo/ondemand/fluid-sim/Assets/Scripts/.torch_inductor_cache/hr/chrcl3izcoyl2otkgbmln7obadli4kzs5wy3kbwzzj4mlpnql4pn.py":25:34)
#loc8 = loc("/orcd/home/002/osbo/ondemand/fluid-sim/Assets/Scripts/.torch_inductor_cache/hr/chrcl3izcoyl2otkgbmln7obadli4kzs5wy3kbwzzj4mlpnql4pn.py":29:18)
#loc9 = loc("/orcd/home/002/osbo/ondemand/fluid-sim/Assets/Scripts/.torch_inductor_cache/hr/chrcl3izcoyl2otkgbmln7obadli4kzs5wy3kbwzzj4mlpnql4pn.py":30:20)
#loc10 = loc("/orcd/home/002/osbo/ondemand/fluid-sim/Assets/Scripts/.torch_inductor_cache/hr/chrcl3izcoyl2otkgbmln7obadli4kzs5wy3kbwzzj4mlpnql4pn.py":32:40)
#loc11 = loc("/orcd/home/002/osbo/ondemand/fluid-sim/Assets/Scripts/.torch_inductor_cache/hr/chrcl3izcoyl2otkgbmln7obadli4kzs5wy3kbwzzj4mlpnql4pn.py":32:36)
#loc12 = loc("/orcd/home/002/osbo/ondemand/fluid-sim/Assets/Scripts/.torch_inductor_cache/hr/chrcl3izcoyl2otkgbmln7obadli4kzs5wy3kbwzzj4mlpnql4pn.py":32:53)
#loc13 = loc("/orcd/home/002/osbo/ondemand/fluid-sim/Assets/Scripts/.torch_inductor_cache/hr/chrcl3izcoyl2otkgbmln7obadli4kzs5wy3kbwzzj4mlpnql4pn.py":32:47)
#loc14 = loc("/orcd/home/002/osbo/ondemand/fluid-sim/Assets/Scripts/.torch_inductor_cache/hr/chrcl3izcoyl2otkgbmln7obadli4kzs5wy3kbwzzj4mlpnql4pn.py":32:30)
#loc15 = loc("/orcd/home/002/osbo/ondemand/fluid-sim/Assets/Scripts/.torch_inductor_cache/hr/chrcl3izcoyl2otkgbmln7obadli4kzs5wy3kbwzzj4mlpnql4pn.py":32:59)
#loc16 = loc("/orcd/home/002/osbo/ondemand/fluid-sim/Assets/Scripts/.torch_inductor_cache/hr/chrcl3izcoyl2otkgbmln7obadli4kzs5wy3kbwzzj4mlpnql4pn.py":33:30)
#loc17 = loc("/orcd/home/002/osbo/ondemand/fluid-sim/Assets/Scripts/.torch_inductor_cache/hr/chrcl3izcoyl2otkgbmln7obadli4kzs5wy3kbwzzj4mlpnql4pn.py":33:59)
#loc18 = loc("/orcd/home/002/osbo/ondemand/fluid-sim/Assets/Scripts/.torch_inductor_cache/hr/chrcl3izcoyl2otkgbmln7obadli4kzs5wy3kbwzzj4mlpnql4pn.py":34:30)
#loc19 = loc("/orcd/home/002/osbo/ondemand/fluid-sim/Assets/Scripts/.torch_inductor_cache/hr/chrcl3izcoyl2otkgbmln7obadli4kzs5wy3kbwzzj4mlpnql4pn.py":34:35)
#loc20 = loc("/orcd/home/002/osbo/ondemand/fluid-sim/Assets/Scripts/.torch_inductor_cache/hr/chrcl3izcoyl2otkgbmln7obadli4kzs5wy3kbwzzj4mlpnql4pn.py":35:18)
#loc21 = loc("/orcd/home/002/osbo/ondemand/fluid-sim/Assets/Scripts/.torch_inductor_cache/hr/chrcl3izcoyl2otkgbmln7obadli4kzs5wy3kbwzzj4mlpnql4pn.py":36:18)
#loc22 = loc("/home/osbo/.conda/envs/fluid/lib/python3.12/site-packages/triton/language/standard.py":267:36)
#loc23 = loc("/orcd/home/002/osbo/ondemand/fluid-sim/Assets/Scripts/.torch_inductor_cache/hr/chrcl3izcoyl2otkgbmln7obadli4kzs5wy3kbwzzj4mlpnql4pn.py":38:24)
#loc24 = loc("/home/osbo/.conda/envs/fluid/lib/python3.12/site-packages/triton/language/standard.py":256:15)
#loc25 = loc("/orcd/home/002/osbo/ondemand/fluid-sim/Assets/Scripts/.torch_inductor_cache/hr/chrcl3izcoyl2otkgbmln7obadli4kzs5wy3kbwzzj4mlpnql4pn.py":38:27)
#loc26 = loc("/orcd/home/002/osbo/ondemand/fluid-sim/Assets/Scripts/.torch_inductor_cache/hr/chrcl3izcoyl2otkgbmln7obadli4kzs5wy3kbwzzj4mlpnql4pn.py":40:18)
#loc27 = loc("/orcd/home/002/osbo/ondemand/fluid-sim/Assets/Scripts/.torch_inductor_cache/hr/chrcl3izcoyl2otkgbmln7obadli4kzs5wy3kbwzzj4mlpnql4pn.py":41:4)
#loc28 = loc("/orcd/home/002/osbo/ondemand/fluid-sim/Assets/Scripts/.torch_inductor_cache/hr/chrcl3izcoyl2otkgbmln7obadli4kzs5wy3kbwzzj4mlpnql4pn.py":42:28)
#loc29 = loc("/orcd/home/002/osbo/ondemand/fluid-sim/Assets/Scripts/.torch_inductor_cache/hr/chrcl3izcoyl2otkgbmln7obadli4kzs5wy3kbwzzj4mlpnql4pn.py":42:39)
#loc30 = loc("/orcd/home/002/osbo/ondemand/fluid-sim/Assets/Scripts/.torch_inductor_cache/hr/chrcl3izcoyl2otkgbmln7obadli4kzs5wy3kbwzzj4mlpnql4pn.py":42:4)
#loc31 = loc(callsite(#loc22 at #loc23))
#loc32 = loc(callsite(#loc24 at #loc22))
#loc33 = loc(callsite(#loc32 at #loc23))
