#loc = loc("/orcd/home/002/osbo/ondemand/fluid-sim/Assets/Scripts/.torch_inductor_cache/u7/cu7tbvekgvvagwc4if3dq23ivneaewfxrw7z6oft4nb3xeazj6v5.py":18:0)
module {
  tt.func public @triton_(%arg0: !tt.ptr<f32> {tt.divisibility = 16 : i32} loc("/orcd/home/002/osbo/ondemand/fluid-sim/Assets/Scripts/.torch_inductor_cache/u7/cu7tbvekgvvagwc4if3dq23ivneaewfxrw7z6oft4nb3xeazj6v5.py":18:0), %arg1: !tt.ptr<f32> {tt.divisibility = 16 : i32} loc("/orcd/home/002/osbo/ondemand/fluid-sim/Assets/Scripts/.torch_inductor_cache/u7/cu7tbvekgvvagwc4if3dq23ivneaewfxrw7z6oft4nb3xeazj6v5.py":18:0), %arg2: !tt.ptr<f32> {tt.divisibility = 16 : i32} loc("/orcd/home/002/osbo/ondemand/fluid-sim/Assets/Scripts/.torch_inductor_cache/u7/cu7tbvekgvvagwc4if3dq23ivneaewfxrw7z6oft4nb3xeazj6v5.py":18:0), %arg3: i32 {tt.divisibility = 16 : i32} loc("/orcd/home/002/osbo/ondemand/fluid-sim/Assets/Scripts/.torch_inductor_cache/u7/cu7tbvekgvvagwc4if3dq23ivneaewfxrw7z6oft4nb3xeazj6v5.py":18:0)) attributes {noinline = false} {
    %cst = arith.constant dense<-6> : tensor<256xi32> loc(#loc1)
    %cst_0 = arith.constant dense<0.000000e+00> : tensor<256xf32> loc(#loc1)
    %cst_1 = arith.constant dense<3> : tensor<256xi32> loc(#loc1)
    %cst_2 = arith.constant dense<9> : tensor<256xi32> loc(#loc1)
    %cst_3 = arith.constant dense<6> : tensor<256xi64> loc(#loc1)
    %cst_4 = arith.constant dense<18> : tensor<256xi32> loc(#loc1)
    %c256_i32 = arith.constant 256 : i32 loc(#loc1)
    %0 = tt.get_program_id x : i32 loc(#loc2)
    %1 = arith.muli %0, %c256_i32 : i32 loc(#loc3)
    %2 = tt.make_range {end = 256 : i32, start = 0 : i32} : tensor<256xi32> loc(#loc4)
    %3 = tt.splat %1 : i32 -> tensor<256xi32> loc(#loc5)
    %4 = arith.addi %3, %2 : tensor<256xi32> loc(#loc5)
    %5 = arith.remsi %4, %cst_4 : tensor<256xi32> loc(#loc6)
    %6 = arith.divsi %4, %cst_4 : tensor<256xi32> loc(#loc7)
    %7 = arith.extsi %5 : tensor<256xi32> to tensor<256xi64> loc(#loc8)
    %8 = arith.cmpi slt, %7, %cst_3 : tensor<256xi64> loc(#loc8)
    %9 = arith.muli %6, %cst_2 : tensor<256xi32> loc(#loc9)
    %10 = arith.addi %9, %cst_1 : tensor<256xi32> loc(#loc10)
    %11 = arith.addi %10, %5 : tensor<256xi32> loc(#loc11)
    %12 = tt.splat %arg0 : !tt.ptr<f32> -> tensor<256x!tt.ptr<f32>> loc(#loc12)
    %13 = tt.addptr %12, %11 : tensor<256x!tt.ptr<f32>>, tensor<256xi32> loc(#loc12)
    %14 = tt.load %13, %8, %cst_0 evictionPolicy = evict_last : tensor<256x!tt.ptr<f32>> loc(#loc13)
    %15 = arith.cmpi sge, %7, %cst_3 : tensor<256xi64> loc(#loc14)
    %16 = arith.addi %5, %cst : tensor<256xi32> loc(#loc15)
    %17 = tt.splat %arg1 : !tt.ptr<f32> -> tensor<256x!tt.ptr<f32>> loc(#loc16)
    %18 = tt.addptr %17, %16 : tensor<256x!tt.ptr<f32>>, tensor<256xi32> loc(#loc16)
    %19 = tt.load %18, %15, %cst_0 evictionPolicy = evict_last : tensor<256x!tt.ptr<f32>> loc(#loc17)
    %20 = arith.select %8, %14, %19 : tensor<256xi1>, tensor<256xf32> loc(#loc18)
    %21 = tt.splat %arg2 : !tt.ptr<f32> -> tensor<256x!tt.ptr<f32>> loc(#loc19)
    %22 = tt.addptr %21, %4 : tensor<256x!tt.ptr<f32>>, tensor<256xi32> loc(#loc19)
    tt.store %22, %20 : tensor<256x!tt.ptr<f32>> loc(#loc20)
    tt.return loc(#loc21)
  } loc(#loc)
} loc(#loc)
#loc1 = loc(unknown)
#loc2 = loc("/orcd/home/002/osbo/ondemand/fluid-sim/Assets/Scripts/.torch_inductor_cache/u7/cu7tbvekgvvagwc4if3dq23ivneaewfxrw7z6oft4nb3xeazj6v5.py":20:28)
#loc3 = loc("/orcd/home/002/osbo/ondemand/fluid-sim/Assets/Scripts/.torch_inductor_cache/u7/cu7tbvekgvvagwc4if3dq23ivneaewfxrw7z6oft4nb3xeazj6v5.py":20:33)
#loc4 = loc("/orcd/home/002/osbo/ondemand/fluid-sim/Assets/Scripts/.torch_inductor_cache/u7/cu7tbvekgvvagwc4if3dq23ivneaewfxrw7z6oft4nb3xeazj6v5.py":21:36)
#loc5 = loc("/orcd/home/002/osbo/ondemand/fluid-sim/Assets/Scripts/.torch_inductor_cache/u7/cu7tbvekgvvagwc4if3dq23ivneaewfxrw7z6oft4nb3xeazj6v5.py":21:23)
#loc6 = loc("/orcd/home/002/osbo/ondemand/fluid-sim/Assets/Scripts/.torch_inductor_cache/u7/cu7tbvekgvvagwc4if3dq23ivneaewfxrw7z6oft4nb3xeazj6v5.py":23:18)
#loc7 = loc("/orcd/home/002/osbo/ondemand/fluid-sim/Assets/Scripts/.torch_inductor_cache/u7/cu7tbvekgvvagwc4if3dq23ivneaewfxrw7z6oft4nb3xeazj6v5.py":24:20)
#loc8 = loc("/orcd/home/002/osbo/ondemand/fluid-sim/Assets/Scripts/.torch_inductor_cache/u7/cu7tbvekgvvagwc4if3dq23ivneaewfxrw7z6oft4nb3xeazj6v5.py":30:18)
#loc9 = loc("/orcd/home/002/osbo/ondemand/fluid-sim/Assets/Scripts/.torch_inductor_cache/u7/cu7tbvekgvvagwc4if3dq23ivneaewfxrw7z6oft4nb3xeazj6v5.py":31:37)
#loc10 = loc("/orcd/home/002/osbo/ondemand/fluid-sim/Assets/Scripts/.torch_inductor_cache/u7/cu7tbvekgvvagwc4if3dq23ivneaewfxrw7z6oft4nb3xeazj6v5.py":31:35)
#loc11 = loc("/orcd/home/002/osbo/ondemand/fluid-sim/Assets/Scripts/.torch_inductor_cache/u7/cu7tbvekgvvagwc4if3dq23ivneaewfxrw7z6oft4nb3xeazj6v5.py":31:43)
#loc12 = loc("/orcd/home/002/osbo/ondemand/fluid-sim/Assets/Scripts/.torch_inductor_cache/u7/cu7tbvekgvvagwc4if3dq23ivneaewfxrw7z6oft4nb3xeazj6v5.py":31:30)
#loc13 = loc("/orcd/home/002/osbo/ondemand/fluid-sim/Assets/Scripts/.torch_inductor_cache/u7/cu7tbvekgvvagwc4if3dq23ivneaewfxrw7z6oft4nb3xeazj6v5.py":31:48)
#loc14 = loc("/orcd/home/002/osbo/ondemand/fluid-sim/Assets/Scripts/.torch_inductor_cache/u7/cu7tbvekgvvagwc4if3dq23ivneaewfxrw7z6oft4nb3xeazj6v5.py":32:19)
#loc15 = loc("/orcd/home/002/osbo/ondemand/fluid-sim/Assets/Scripts/.torch_inductor_cache/u7/cu7tbvekgvvagwc4if3dq23ivneaewfxrw7z6oft4nb3xeazj6v5.py":35:37)
#loc16 = loc("/orcd/home/002/osbo/ondemand/fluid-sim/Assets/Scripts/.torch_inductor_cache/u7/cu7tbvekgvvagwc4if3dq23ivneaewfxrw7z6oft4nb3xeazj6v5.py":35:30)
#loc17 = loc("/orcd/home/002/osbo/ondemand/fluid-sim/Assets/Scripts/.torch_inductor_cache/u7/cu7tbvekgvvagwc4if3dq23ivneaewfxrw7z6oft4nb3xeazj6v5.py":35:42)
#loc18 = loc("/orcd/home/002/osbo/ondemand/fluid-sim/Assets/Scripts/.torch_inductor_cache/u7/cu7tbvekgvvagwc4if3dq23ivneaewfxrw7z6oft4nb3xeazj6v5.py":36:33)
#loc19 = loc("/orcd/home/002/osbo/ondemand/fluid-sim/Assets/Scripts/.torch_inductor_cache/u7/cu7tbvekgvvagwc4if3dq23ivneaewfxrw7z6oft4nb3xeazj6v5.py":37:25)
#loc20 = loc("/orcd/home/002/osbo/ondemand/fluid-sim/Assets/Scripts/.torch_inductor_cache/u7/cu7tbvekgvvagwc4if3dq23ivneaewfxrw7z6oft4nb3xeazj6v5.py":37:37)
#loc21 = loc("/orcd/home/002/osbo/ondemand/fluid-sim/Assets/Scripts/.torch_inductor_cache/u7/cu7tbvekgvvagwc4if3dq23ivneaewfxrw7z6oft4nb3xeazj6v5.py":37:4)
