#loc = loc("/orcd/home/002/osbo/ondemand/fluid-sim/Assets/Scripts/.torch_inductor_cache/ar/car42boka6lvzo6yeohqn3q3d32wpmez7tzqsqqaqqup72w5guko.py":18:0)
module {
  tt.func public @triton_(%arg0: !tt.ptr<f32> {tt.divisibility = 16 : i32} loc("/orcd/home/002/osbo/ondemand/fluid-sim/Assets/Scripts/.torch_inductor_cache/ar/car42boka6lvzo6yeohqn3q3d32wpmez7tzqsqqaqqup72w5guko.py":18:0), %arg1: !tt.ptr<f32> {tt.divisibility = 16 : i32} loc("/orcd/home/002/osbo/ondemand/fluid-sim/Assets/Scripts/.torch_inductor_cache/ar/car42boka6lvzo6yeohqn3q3d32wpmez7tzqsqqaqqup72w5guko.py":18:0), %arg2: i32 {tt.divisibility = 16 : i32} loc("/orcd/home/002/osbo/ondemand/fluid-sim/Assets/Scripts/.torch_inductor_cache/ar/car42boka6lvzo6yeohqn3q3d32wpmez7tzqsqqaqqup72w5guko.py":18:0)) attributes {noinline = false} {
    %cst = arith.constant dense<128> : tensor<1024xi32> loc(#loc1)
    %cst_0 = arith.constant dense<1024> : tensor<1024xi32> loc(#loc1)
    %cst_1 = arith.constant dense<32> : tensor<1024xi32> loc(#loc1)
    %cst_2 = arith.constant dense<8> : tensor<1024xi32> loc(#loc1)
    %cst_3 = arith.constant dense<4> : tensor<1024xi32> loc(#loc1)
    %cst_4 = arith.constant dense<111616> : tensor<1024xi32> loc(#loc1)
    %c1024_i32 = arith.constant 1024 : i32 loc(#loc1)
    %0 = tt.get_program_id x : i32 loc(#loc2)
    %1 = arith.muli %0, %c1024_i32 : i32 loc(#loc3)
    %2 = tt.make_range {end = 1024 : i32, start = 0 : i32} : tensor<1024xi32> loc(#loc4)
    %3 = tt.splat %1 : i32 -> tensor<1024xi32> loc(#loc5)
    %4 = arith.addi %3, %2 : tensor<1024xi32> loc(#loc5)
    %5 = arith.cmpi slt, %4, %cst_4 : tensor<1024xi32> loc(#loc6)
    %6 = arith.remsi %4, %cst_3 : tensor<1024xi32> loc(#loc7)
    %7 = arith.divsi %4, %cst_3 : tensor<1024xi32> loc(#loc8)
    %8 = arith.remsi %7, %cst_2 : tensor<1024xi32> loc(#loc9)
    %9 = arith.divsi %4, %cst_1 : tensor<1024xi32> loc(#loc10)
    %10 = arith.remsi %9, %cst_1 : tensor<1024xi32> loc(#loc11)
    %11 = arith.divsi %4, %cst_0 : tensor<1024xi32> loc(#loc12)
    %12 = tt.splat %arg0 : !tt.ptr<f32> -> tensor<1024x!tt.ptr<f32>> loc(#loc13)
    %13 = tt.addptr %12, %4 : tensor<1024x!tt.ptr<f32>>, tensor<1024xi32> loc(#loc13)
    %14 = tt.load %13, %5 : tensor<1024x!tt.ptr<f32>> loc(#loc14)
    %15 = arith.muli %10, %cst_3 : tensor<1024xi32> loc(#loc15)
    %16 = arith.addi %6, %15 : tensor<1024xi32> loc(#loc16)
    %17 = arith.muli %8, %cst : tensor<1024xi32> loc(#loc17)
    %18 = arith.addi %16, %17 : tensor<1024xi32> loc(#loc18)
    %19 = arith.muli %11, %cst_0 : tensor<1024xi32> loc(#loc19)
    %20 = arith.addi %18, %19 : tensor<1024xi32> loc(#loc20)
    %21 = tt.splat %arg1 : !tt.ptr<f32> -> tensor<1024x!tt.ptr<f32>> loc(#loc21)
    %22 = tt.addptr %21, %20 : tensor<1024x!tt.ptr<f32>>, tensor<1024xi32> loc(#loc21)
    %23 = tt.load %22, %5 : tensor<1024x!tt.ptr<f32>> loc(#loc22)
    %24 = arith.addf %14, %23 : tensor<1024xf32> loc(#loc23)
    tt.store %13, %24, %5 : tensor<1024x!tt.ptr<f32>> loc(#loc24)
    tt.return loc(#loc25)
  } loc(#loc)
} loc(#loc)
#loc1 = loc(unknown)
#loc2 = loc("/orcd/home/002/osbo/ondemand/fluid-sim/Assets/Scripts/.torch_inductor_cache/ar/car42boka6lvzo6yeohqn3q3d32wpmez7tzqsqqaqqup72w5guko.py":20:28)
#loc3 = loc("/orcd/home/002/osbo/ondemand/fluid-sim/Assets/Scripts/.torch_inductor_cache/ar/car42boka6lvzo6yeohqn3q3d32wpmez7tzqsqqaqqup72w5guko.py":20:33)
#loc4 = loc("/orcd/home/002/osbo/ondemand/fluid-sim/Assets/Scripts/.torch_inductor_cache/ar/car42boka6lvzo6yeohqn3q3d32wpmez7tzqsqqaqqup72w5guko.py":21:36)
#loc5 = loc("/orcd/home/002/osbo/ondemand/fluid-sim/Assets/Scripts/.torch_inductor_cache/ar/car42boka6lvzo6yeohqn3q3d32wpmez7tzqsqqaqqup72w5guko.py":21:23)
#loc6 = loc("/orcd/home/002/osbo/ondemand/fluid-sim/Assets/Scripts/.torch_inductor_cache/ar/car42boka6lvzo6yeohqn3q3d32wpmez7tzqsqqaqqup72w5guko.py":22:21)
#loc7 = loc("/orcd/home/002/osbo/ondemand/fluid-sim/Assets/Scripts/.torch_inductor_cache/ar/car42boka6lvzo6yeohqn3q3d32wpmez7tzqsqqaqqup72w5guko.py":24:18)
#loc8 = loc("/orcd/home/002/osbo/ondemand/fluid-sim/Assets/Scripts/.torch_inductor_cache/ar/car42boka6lvzo6yeohqn3q3d32wpmez7tzqsqqaqqup72w5guko.py":25:20)
#loc9 = loc("/orcd/home/002/osbo/ondemand/fluid-sim/Assets/Scripts/.torch_inductor_cache/ar/car42boka6lvzo6yeohqn3q3d32wpmez7tzqsqqaqqup72w5guko.py":25:25)
#loc10 = loc("/orcd/home/002/osbo/ondemand/fluid-sim/Assets/Scripts/.torch_inductor_cache/ar/car42boka6lvzo6yeohqn3q3d32wpmez7tzqsqqaqqup72w5guko.py":26:20)
#loc11 = loc("/orcd/home/002/osbo/ondemand/fluid-sim/Assets/Scripts/.torch_inductor_cache/ar/car42boka6lvzo6yeohqn3q3d32wpmez7tzqsqqaqqup72w5guko.py":26:26)
#loc12 = loc("/orcd/home/002/osbo/ondemand/fluid-sim/Assets/Scripts/.torch_inductor_cache/ar/car42boka6lvzo6yeohqn3q3d32wpmez7tzqsqqaqqup72w5guko.py":27:20)
#loc13 = loc("/orcd/home/002/osbo/ondemand/fluid-sim/Assets/Scripts/.torch_inductor_cache/ar/car42boka6lvzo6yeohqn3q3d32wpmez7tzqsqqaqqup72w5guko.py":28:34)
#loc14 = loc("/orcd/home/002/osbo/ondemand/fluid-sim/Assets/Scripts/.torch_inductor_cache/ar/car42boka6lvzo6yeohqn3q3d32wpmez7tzqsqqaqqup72w5guko.py":28:39)
#loc15 = loc("/orcd/home/002/osbo/ondemand/fluid-sim/Assets/Scripts/.torch_inductor_cache/ar/car42boka6lvzo6yeohqn3q3d32wpmez7tzqsqqaqqup72w5guko.py":29:38)
#loc16 = loc("/orcd/home/002/osbo/ondemand/fluid-sim/Assets/Scripts/.torch_inductor_cache/ar/car42boka6lvzo6yeohqn3q3d32wpmez7tzqsqqaqqup72w5guko.py":29:36)
#loc17 = loc("/orcd/home/002/osbo/ondemand/fluid-sim/Assets/Scripts/.torch_inductor_cache/ar/car42boka6lvzo6yeohqn3q3d32wpmez7tzqsqqaqqup72w5guko.py":29:49)
#loc18 = loc("/orcd/home/002/osbo/ondemand/fluid-sim/Assets/Scripts/.torch_inductor_cache/ar/car42boka6lvzo6yeohqn3q3d32wpmez7tzqsqqaqqup72w5guko.py":29:45)
#loc19 = loc("/orcd/home/002/osbo/ondemand/fluid-sim/Assets/Scripts/.torch_inductor_cache/ar/car42boka6lvzo6yeohqn3q3d32wpmez7tzqsqqaqqup72w5guko.py":29:61)
#loc20 = loc("/orcd/home/002/osbo/ondemand/fluid-sim/Assets/Scripts/.torch_inductor_cache/ar/car42boka6lvzo6yeohqn3q3d32wpmez7tzqsqqaqqup72w5guko.py":29:56)
#loc21 = loc("/orcd/home/002/osbo/ondemand/fluid-sim/Assets/Scripts/.torch_inductor_cache/ar/car42boka6lvzo6yeohqn3q3d32wpmez7tzqsqqaqqup72w5guko.py":29:30)
#loc22 = loc("/orcd/home/002/osbo/ondemand/fluid-sim/Assets/Scripts/.torch_inductor_cache/ar/car42boka6lvzo6yeohqn3q3d32wpmez7tzqsqqaqqup72w5guko.py":29:67)
#loc23 = loc("/orcd/home/002/osbo/ondemand/fluid-sim/Assets/Scripts/.torch_inductor_cache/ar/car42boka6lvzo6yeohqn3q3d32wpmez7tzqsqqaqqup72w5guko.py":30:18)
#loc24 = loc("/orcd/home/002/osbo/ondemand/fluid-sim/Assets/Scripts/.torch_inductor_cache/ar/car42boka6lvzo6yeohqn3q3d32wpmez7tzqsqqaqqup72w5guko.py":31:39)
#loc25 = loc("/orcd/home/002/osbo/ondemand/fluid-sim/Assets/Scripts/.torch_inductor_cache/ar/car42boka6lvzo6yeohqn3q3d32wpmez7tzqsqqaqqup72w5guko.py":31:4)
