#loc = loc("/orcd/home/002/osbo/ondemand/fluid-sim/Assets/Scripts/.torch_inductor_cache/cr/ccrjlbydrqmkqhjo3ycx6mzn4tpp42rvm5nbitpwpnnem5ce5avz.py":18:0)
module {
  tt.func public @triton_(%arg0: !tt.ptr<f32> {tt.divisibility = 16 : i32} loc("/orcd/home/002/osbo/ondemand/fluid-sim/Assets/Scripts/.torch_inductor_cache/cr/ccrjlbydrqmkqhjo3ycx6mzn4tpp42rvm5nbitpwpnnem5ce5avz.py":18:0), %arg1: !tt.ptr<f32> {tt.divisibility = 16 : i32} loc("/orcd/home/002/osbo/ondemand/fluid-sim/Assets/Scripts/.torch_inductor_cache/cr/ccrjlbydrqmkqhjo3ycx6mzn4tpp42rvm5nbitpwpnnem5ce5avz.py":18:0), %arg2: !tt.ptr<f32> {tt.divisibility = 16 : i32} loc("/orcd/home/002/osbo/ondemand/fluid-sim/Assets/Scripts/.torch_inductor_cache/cr/ccrjlbydrqmkqhjo3ycx6mzn4tpp42rvm5nbitpwpnnem5ce5avz.py":18:0), %arg3: i32 {tt.divisibility = 16 : i32} loc("/orcd/home/002/osbo/ondemand/fluid-sim/Assets/Scripts/.torch_inductor_cache/cr/ccrjlbydrqmkqhjo3ycx6mzn4tpp42rvm5nbitpwpnnem5ce5avz.py":18:0)) attributes {noinline = false} {
    %cst = arith.constant dense<1056> : tensor<1024xi32> loc(#loc1)
    %cst_0 = arith.constant dense<24960> : tensor<1024xi32> loc(#loc1)
    %cst_1 = arith.constant dense<384> : tensor<1024xi32> loc(#loc1)
    %cst_2 = arith.constant dense<256> : tensor<1024xi32> loc(#loc1)
    %cst_3 = arith.constant dense<8320> : tensor<1024xi32> loc(#loc1)
    %cst_4 = arith.constant dense<8> : tensor<1024xi32> loc(#loc1)
    %cst_5 = arith.constant dense<1040> : tensor<1024xi32> loc(#loc1)
    %cst_6 = arith.constant dense<65> : tensor<1024xi32> loc(#loc1)
    %cst_7 = arith.constant dense<16> : tensor<1024xi32> loc(#loc1)
    %cst_8 = arith.constant dense<1813760> : tensor<1024xi32> loc(#loc1)
    %c1024_i32 = arith.constant 1024 : i32 loc(#loc1)
    %0 = tt.get_program_id x : i32 loc(#loc2)
    %1 = arith.muli %0, %c1024_i32 : i32 loc(#loc3)
    %2 = tt.make_range {end = 1024 : i32, start = 0 : i32} : tensor<1024xi32> loc(#loc4)
    %3 = tt.splat %1 : i32 -> tensor<1024xi32> loc(#loc5)
    %4 = arith.addi %3, %2 : tensor<1024xi32> loc(#loc5)
    %5 = arith.cmpi slt, %4, %cst_8 : tensor<1024xi32> loc(#loc6)
    %6 = arith.remsi %4, %cst_7 : tensor<1024xi32> loc(#loc7)
    %7 = arith.divsi %4, %cst_7 : tensor<1024xi32> loc(#loc8)
    %8 = arith.remsi %7, %cst_6 : tensor<1024xi32> loc(#loc9)
    %9 = arith.divsi %4, %cst_5 : tensor<1024xi32> loc(#loc10)
    %10 = arith.remsi %9, %cst_4 : tensor<1024xi32> loc(#loc11)
    %11 = arith.divsi %4, %cst_3 : tensor<1024xi32> loc(#loc12)
    %12 = arith.remsi %4, %cst_5 : tensor<1024xi32> loc(#loc13)
    %13 = arith.addi %6, %cst_2 : tensor<1024xi32> loc(#loc14)
    %14 = arith.muli %10, %cst_7 : tensor<1024xi32> loc(#loc15)
    %15 = arith.addi %13, %14 : tensor<1024xi32> loc(#loc16)
    %16 = arith.muli %8, %cst_1 : tensor<1024xi32> loc(#loc17)
    %17 = arith.addi %15, %16 : tensor<1024xi32> loc(#loc18)
    %18 = arith.muli %11, %cst_0 : tensor<1024xi32> loc(#loc19)
    %19 = arith.addi %17, %18 : tensor<1024xi32> loc(#loc20)
    %20 = tt.splat %arg0 : !tt.ptr<f32> -> tensor<1024x!tt.ptr<f32>> loc(#loc21)
    %21 = tt.addptr %20, %19 : tensor<1024x!tt.ptr<f32>>, tensor<1024xi32> loc(#loc21)
    %22 = tt.load %21, %5 : tensor<1024x!tt.ptr<f32>> loc(#loc22)
    %23 = tt.splat %arg1 : !tt.ptr<f32> -> tensor<1024x!tt.ptr<f32>> loc(#loc23)
    %24 = tt.addptr %23, %15 : tensor<1024x!tt.ptr<f32>>, tensor<1024xi32> loc(#loc23)
    %25 = tt.load %24, %5 evictionPolicy = evict_last : tensor<1024x!tt.ptr<f32>> loc(#loc24)
    %26 = arith.addf %22, %25 : tensor<1024xf32> loc(#loc25)
    %27 = arith.muli %9, %cst : tensor<1024xi32> loc(#loc26)
    %28 = arith.addi %12, %27 : tensor<1024xi32> loc(#loc27)
    %29 = tt.splat %arg2 : !tt.ptr<f32> -> tensor<1024x!tt.ptr<f32>> loc(#loc28)
    %30 = tt.addptr %29, %28 : tensor<1024x!tt.ptr<f32>>, tensor<1024xi32> loc(#loc28)
    tt.store %30, %26, %5 : tensor<1024x!tt.ptr<f32>> loc(#loc29)
    tt.return loc(#loc30)
  } loc(#loc)
} loc(#loc)
#loc1 = loc(unknown)
#loc2 = loc("/orcd/home/002/osbo/ondemand/fluid-sim/Assets/Scripts/.torch_inductor_cache/cr/ccrjlbydrqmkqhjo3ycx6mzn4tpp42rvm5nbitpwpnnem5ce5avz.py":20:28)
#loc3 = loc("/orcd/home/002/osbo/ondemand/fluid-sim/Assets/Scripts/.torch_inductor_cache/cr/ccrjlbydrqmkqhjo3ycx6mzn4tpp42rvm5nbitpwpnnem5ce5avz.py":20:33)
#loc4 = loc("/orcd/home/002/osbo/ondemand/fluid-sim/Assets/Scripts/.torch_inductor_cache/cr/ccrjlbydrqmkqhjo3ycx6mzn4tpp42rvm5nbitpwpnnem5ce5avz.py":21:36)
#loc5 = loc("/orcd/home/002/osbo/ondemand/fluid-sim/Assets/Scripts/.torch_inductor_cache/cr/ccrjlbydrqmkqhjo3ycx6mzn4tpp42rvm5nbitpwpnnem5ce5avz.py":21:23)
#loc6 = loc("/orcd/home/002/osbo/ondemand/fluid-sim/Assets/Scripts/.torch_inductor_cache/cr/ccrjlbydrqmkqhjo3ycx6mzn4tpp42rvm5nbitpwpnnem5ce5avz.py":22:21)
#loc7 = loc("/orcd/home/002/osbo/ondemand/fluid-sim/Assets/Scripts/.torch_inductor_cache/cr/ccrjlbydrqmkqhjo3ycx6mzn4tpp42rvm5nbitpwpnnem5ce5avz.py":23:18)
#loc8 = loc("/orcd/home/002/osbo/ondemand/fluid-sim/Assets/Scripts/.torch_inductor_cache/cr/ccrjlbydrqmkqhjo3ycx6mzn4tpp42rvm5nbitpwpnnem5ce5avz.py":24:20)
#loc9 = loc("/orcd/home/002/osbo/ondemand/fluid-sim/Assets/Scripts/.torch_inductor_cache/cr/ccrjlbydrqmkqhjo3ycx6mzn4tpp42rvm5nbitpwpnnem5ce5avz.py":24:26)
#loc10 = loc("/orcd/home/002/osbo/ondemand/fluid-sim/Assets/Scripts/.torch_inductor_cache/cr/ccrjlbydrqmkqhjo3ycx6mzn4tpp42rvm5nbitpwpnnem5ce5avz.py":25:20)
#loc11 = loc("/orcd/home/002/osbo/ondemand/fluid-sim/Assets/Scripts/.torch_inductor_cache/cr/ccrjlbydrqmkqhjo3ycx6mzn4tpp42rvm5nbitpwpnnem5ce5avz.py":25:28)
#loc12 = loc("/orcd/home/002/osbo/ondemand/fluid-sim/Assets/Scripts/.torch_inductor_cache/cr/ccrjlbydrqmkqhjo3ycx6mzn4tpp42rvm5nbitpwpnnem5ce5avz.py":26:20)
#loc13 = loc("/orcd/home/002/osbo/ondemand/fluid-sim/Assets/Scripts/.torch_inductor_cache/cr/ccrjlbydrqmkqhjo3ycx6mzn4tpp42rvm5nbitpwpnnem5ce5avz.py":27:18)
#loc14 = loc("/orcd/home/002/osbo/ondemand/fluid-sim/Assets/Scripts/.torch_inductor_cache/cr/ccrjlbydrqmkqhjo3ycx6mzn4tpp42rvm5nbitpwpnnem5ce5avz.py":29:36)
#loc15 = loc("/orcd/home/002/osbo/ondemand/fluid-sim/Assets/Scripts/.torch_inductor_cache/cr/ccrjlbydrqmkqhjo3ycx6mzn4tpp42rvm5nbitpwpnnem5ce5avz.py":29:45)
#loc16 = loc("/orcd/home/002/osbo/ondemand/fluid-sim/Assets/Scripts/.torch_inductor_cache/cr/ccrjlbydrqmkqhjo3ycx6mzn4tpp42rvm5nbitpwpnnem5ce5avz.py":29:42)
#loc17 = loc("/orcd/home/002/osbo/ondemand/fluid-sim/Assets/Scripts/.torch_inductor_cache/cr/ccrjlbydrqmkqhjo3ycx6mzn4tpp42rvm5nbitpwpnnem5ce5avz.py":29:56)
#loc18 = loc("/orcd/home/002/osbo/ondemand/fluid-sim/Assets/Scripts/.torch_inductor_cache/cr/ccrjlbydrqmkqhjo3ycx6mzn4tpp42rvm5nbitpwpnnem5ce5avz.py":29:52)
#loc19 = loc("/orcd/home/002/osbo/ondemand/fluid-sim/Assets/Scripts/.torch_inductor_cache/cr/ccrjlbydrqmkqhjo3ycx6mzn4tpp42rvm5nbitpwpnnem5ce5avz.py":29:69)
#loc20 = loc("/orcd/home/002/osbo/ondemand/fluid-sim/Assets/Scripts/.torch_inductor_cache/cr/ccrjlbydrqmkqhjo3ycx6mzn4tpp42rvm5nbitpwpnnem5ce5avz.py":29:63)
#loc21 = loc("/orcd/home/002/osbo/ondemand/fluid-sim/Assets/Scripts/.torch_inductor_cache/cr/ccrjlbydrqmkqhjo3ycx6mzn4tpp42rvm5nbitpwpnnem5ce5avz.py":29:30)
#loc22 = loc("/orcd/home/002/osbo/ondemand/fluid-sim/Assets/Scripts/.torch_inductor_cache/cr/ccrjlbydrqmkqhjo3ycx6mzn4tpp42rvm5nbitpwpnnem5ce5avz.py":29:75)
#loc23 = loc("/orcd/home/002/osbo/ondemand/fluid-sim/Assets/Scripts/.torch_inductor_cache/cr/ccrjlbydrqmkqhjo3ycx6mzn4tpp42rvm5nbitpwpnnem5ce5avz.py":30:30)
#loc24 = loc("/orcd/home/002/osbo/ondemand/fluid-sim/Assets/Scripts/.torch_inductor_cache/cr/ccrjlbydrqmkqhjo3ycx6mzn4tpp42rvm5nbitpwpnnem5ce5avz.py":30:51)
#loc25 = loc("/orcd/home/002/osbo/ondemand/fluid-sim/Assets/Scripts/.torch_inductor_cache/cr/ccrjlbydrqmkqhjo3ycx6mzn4tpp42rvm5nbitpwpnnem5ce5avz.py":31:18)
#loc26 = loc("/orcd/home/002/osbo/ondemand/fluid-sim/Assets/Scripts/.torch_inductor_cache/cr/ccrjlbydrqmkqhjo3ycx6mzn4tpp42rvm5nbitpwpnnem5ce5avz.py":32:36)
#loc27 = loc("/orcd/home/002/osbo/ondemand/fluid-sim/Assets/Scripts/.torch_inductor_cache/cr/ccrjlbydrqmkqhjo3ycx6mzn4tpp42rvm5nbitpwpnnem5ce5avz.py":32:31)
#loc28 = loc("/orcd/home/002/osbo/ondemand/fluid-sim/Assets/Scripts/.torch_inductor_cache/cr/ccrjlbydrqmkqhjo3ycx6mzn4tpp42rvm5nbitpwpnnem5ce5avz.py":32:25)
#loc29 = loc("/orcd/home/002/osbo/ondemand/fluid-sim/Assets/Scripts/.torch_inductor_cache/cr/ccrjlbydrqmkqhjo3ycx6mzn4tpp42rvm5nbitpwpnnem5ce5avz.py":32:48)
#loc30 = loc("/orcd/home/002/osbo/ondemand/fluid-sim/Assets/Scripts/.torch_inductor_cache/cr/ccrjlbydrqmkqhjo3ycx6mzn4tpp42rvm5nbitpwpnnem5ce5avz.py":32:4)
