#loc = loc("/orcd/home/002/osbo/ondemand/fluid-sim/Assets/Scripts/.torch_inductor_cache/sx/csxxhlu4gdm2n7dnlhnryg2k6lbdy2c63oqr5r3hglddym6jj2d4.py":18:0)
module {
  tt.func public @triton_(%arg0: !tt.ptr<f32> {tt.divisibility = 16 : i32} loc("/orcd/home/002/osbo/ondemand/fluid-sim/Assets/Scripts/.torch_inductor_cache/sx/csxxhlu4gdm2n7dnlhnryg2k6lbdy2c63oqr5r3hglddym6jj2d4.py":18:0), %arg1: i32 {tt.divisibility = 16 : i32} loc("/orcd/home/002/osbo/ondemand/fluid-sim/Assets/Scripts/.torch_inductor_cache/sx/csxxhlu4gdm2n7dnlhnryg2k6lbdy2c63oqr5r3hglddym6jj2d4.py":18:0)) attributes {noinline = false} {
    %cst = arith.constant dense<0.000000e+00> : tensor<128xf32> loc(#loc1)
    %cst_0 = arith.constant dense<4224> : tensor<128xi32> loc(#loc1)
    %cst_1 = arith.constant dense<136> : tensor<128xi32> loc(#loc1)
    %cst_2 = arith.constant dense<128> : tensor<128xi32> loc(#loc1)
    %cst_3 = arith.constant dense<32> : tensor<128xi32> loc(#loc1)
    %cst_4 = arith.constant dense<4> : tensor<128xi32> loc(#loc1)
    %cst_5 = arith.constant dense<2432> : tensor<128xi32> loc(#loc1)
    %c128_i32 = arith.constant 128 : i32 loc(#loc1)
    %0 = tt.get_program_id x : i32 loc(#loc2)
    %1 = arith.muli %0, %c128_i32 : i32 loc(#loc3)
    %2 = tt.make_range {end = 128 : i32, start = 0 : i32} : tensor<128xi32> loc(#loc4)
    %3 = tt.splat %1 : i32 -> tensor<128xi32> loc(#loc5)
    %4 = arith.addi %3, %2 : tensor<128xi32> loc(#loc5)
    %5 = arith.cmpi slt, %4, %cst_5 : tensor<128xi32> loc(#loc6)
    %6 = arith.remsi %4, %cst_4 : tensor<128xi32> loc(#loc7)
    %7 = arith.divsi %4, %cst_4 : tensor<128xi32> loc(#loc8)
    %8 = arith.remsi %7, %cst_3 : tensor<128xi32> loc(#loc9)
    %9 = arith.divsi %4, %cst_2 : tensor<128xi32> loc(#loc10)
    %10 = arith.muli %8, %cst_1 : tensor<128xi32> loc(#loc11)
    %11 = arith.addi %6, %10 : tensor<128xi32> loc(#loc12)
    %12 = arith.muli %9, %cst_0 : tensor<128xi32> loc(#loc13)
    %13 = arith.addi %11, %12 : tensor<128xi32> loc(#loc14)
    %14 = tt.splat %arg0 : !tt.ptr<f32> -> tensor<128x!tt.ptr<f32>> loc(#loc15)
    %15 = tt.addptr %14, %13 : tensor<128x!tt.ptr<f32>>, tensor<128xi32> loc(#loc15)
    tt.store %15, %cst, %5 : tensor<128x!tt.ptr<f32>> loc(#loc16)
    tt.return loc(#loc17)
  } loc(#loc)
} loc(#loc)
#loc1 = loc(unknown)
#loc2 = loc("/orcd/home/002/osbo/ondemand/fluid-sim/Assets/Scripts/.torch_inductor_cache/sx/csxxhlu4gdm2n7dnlhnryg2k6lbdy2c63oqr5r3hglddym6jj2d4.py":20:28)
#loc3 = loc("/orcd/home/002/osbo/ondemand/fluid-sim/Assets/Scripts/.torch_inductor_cache/sx/csxxhlu4gdm2n7dnlhnryg2k6lbdy2c63oqr5r3hglddym6jj2d4.py":20:33)
#loc4 = loc("/orcd/home/002/osbo/ondemand/fluid-sim/Assets/Scripts/.torch_inductor_cache/sx/csxxhlu4gdm2n7dnlhnryg2k6lbdy2c63oqr5r3hglddym6jj2d4.py":21:36)
#loc5 = loc("/orcd/home/002/osbo/ondemand/fluid-sim/Assets/Scripts/.torch_inductor_cache/sx/csxxhlu4gdm2n7dnlhnryg2k6lbdy2c63oqr5r3hglddym6jj2d4.py":21:23)
#loc6 = loc("/orcd/home/002/osbo/ondemand/fluid-sim/Assets/Scripts/.torch_inductor_cache/sx/csxxhlu4gdm2n7dnlhnryg2k6lbdy2c63oqr5r3hglddym6jj2d4.py":22:21)
#loc7 = loc("/orcd/home/002/osbo/ondemand/fluid-sim/Assets/Scripts/.torch_inductor_cache/sx/csxxhlu4gdm2n7dnlhnryg2k6lbdy2c63oqr5r3hglddym6jj2d4.py":23:18)
#loc8 = loc("/orcd/home/002/osbo/ondemand/fluid-sim/Assets/Scripts/.torch_inductor_cache/sx/csxxhlu4gdm2n7dnlhnryg2k6lbdy2c63oqr5r3hglddym6jj2d4.py":24:20)
#loc9 = loc("/orcd/home/002/osbo/ondemand/fluid-sim/Assets/Scripts/.torch_inductor_cache/sx/csxxhlu4gdm2n7dnlhnryg2k6lbdy2c63oqr5r3hglddym6jj2d4.py":24:25)
#loc10 = loc("/orcd/home/002/osbo/ondemand/fluid-sim/Assets/Scripts/.torch_inductor_cache/sx/csxxhlu4gdm2n7dnlhnryg2k6lbdy2c63oqr5r3hglddym6jj2d4.py":25:20)
#loc11 = loc("/orcd/home/002/osbo/ondemand/fluid-sim/Assets/Scripts/.torch_inductor_cache/sx/csxxhlu4gdm2n7dnlhnryg2k6lbdy2c63oqr5r3hglddym6jj2d4.py":27:35)
#loc12 = loc("/orcd/home/002/osbo/ondemand/fluid-sim/Assets/Scripts/.torch_inductor_cache/sx/csxxhlu4gdm2n7dnlhnryg2k6lbdy2c63oqr5r3hglddym6jj2d4.py":27:31)
#loc13 = loc("/orcd/home/002/osbo/ondemand/fluid-sim/Assets/Scripts/.torch_inductor_cache/sx/csxxhlu4gdm2n7dnlhnryg2k6lbdy2c63oqr5r3hglddym6jj2d4.py":27:47)
#loc14 = loc("/orcd/home/002/osbo/ondemand/fluid-sim/Assets/Scripts/.torch_inductor_cache/sx/csxxhlu4gdm2n7dnlhnryg2k6lbdy2c63oqr5r3hglddym6jj2d4.py":27:42)
#loc15 = loc("/orcd/home/002/osbo/ondemand/fluid-sim/Assets/Scripts/.torch_inductor_cache/sx/csxxhlu4gdm2n7dnlhnryg2k6lbdy2c63oqr5r3hglddym6jj2d4.py":27:25)
#loc16 = loc("/orcd/home/002/osbo/ondemand/fluid-sim/Assets/Scripts/.torch_inductor_cache/sx/csxxhlu4gdm2n7dnlhnryg2k6lbdy2c63oqr5r3hglddym6jj2d4.py":27:59)
#loc17 = loc("/orcd/home/002/osbo/ondemand/fluid-sim/Assets/Scripts/.torch_inductor_cache/sx/csxxhlu4gdm2n7dnlhnryg2k6lbdy2c63oqr5r3hglddym6jj2d4.py":27:4)
