#loc = loc("/orcd/home/002/osbo/ondemand/fluid-sim/Assets/Scripts/.torch_inductor_cache/5l/c5lufh63jitzzsewhi7hn4zfm3vpzfkt2f5uoafdac5llxhux27t.py":18:0)
module {
  tt.func public @triton_(%arg0: !tt.ptr<f32> {tt.divisibility = 16 : i32} loc("/orcd/home/002/osbo/ondemand/fluid-sim/Assets/Scripts/.torch_inductor_cache/5l/c5lufh63jitzzsewhi7hn4zfm3vpzfkt2f5uoafdac5llxhux27t.py":18:0), %arg1: !tt.ptr<i64> {tt.divisibility = 16 : i32} loc("/orcd/home/002/osbo/ondemand/fluid-sim/Assets/Scripts/.torch_inductor_cache/5l/c5lufh63jitzzsewhi7hn4zfm3vpzfkt2f5uoafdac5llxhux27t.py":18:0), %arg2: !tt.ptr<f32> {tt.divisibility = 16 : i32} loc("/orcd/home/002/osbo/ondemand/fluid-sim/Assets/Scripts/.torch_inductor_cache/5l/c5lufh63jitzzsewhi7hn4zfm3vpzfkt2f5uoafdac5llxhux27t.py":18:0), %arg3: !tt.ptr<f32> {tt.divisibility = 16 : i32} loc("/orcd/home/002/osbo/ondemand/fluid-sim/Assets/Scripts/.torch_inductor_cache/5l/c5lufh63jitzzsewhi7hn4zfm3vpzfkt2f5uoafdac5llxhux27t.py":18:0), %arg4: !tt.ptr<f32> {tt.divisibility = 16 : i32} loc("/orcd/home/002/osbo/ondemand/fluid-sim/Assets/Scripts/.torch_inductor_cache/5l/c5lufh63jitzzsewhi7hn4zfm3vpzfkt2f5uoafdac5llxhux27t.py":18:0), %arg5: i32 {tt.divisibility = 16 : i32} loc("/orcd/home/002/osbo/ondemand/fluid-sim/Assets/Scripts/.torch_inductor_cache/5l/c5lufh63jitzzsewhi7hn4zfm3vpzfkt2f5uoafdac5llxhux27t.py":18:0)) attributes {noinline = false} {
    %cst = arith.constant dense<2176> : tensor<512xi32> loc(#loc1)
    %cst_0 = arith.constant dense<2.000000e+00> : tensor<512xf32> loc(#loc1)
    %cst_1 = arith.constant dense<256> : tensor<512xi32> loc(#loc1)
    %cst_2 = arith.constant dense<2048> : tensor<512xi32> loc(#loc1)
    %cst_3 = arith.constant dense<128> : tensor<512xi32> loc(#loc1)
    %c512_i32 = arith.constant 512 : i32 loc(#loc1)
    %0 = tt.get_program_id x : i32 loc(#loc2)
    %1 = arith.muli %0, %c512_i32 : i32 loc(#loc3)
    %2 = tt.make_range {end = 512 : i32, start = 0 : i32} : tensor<512xi32> loc(#loc4)
    %3 = tt.splat %1 : i32 -> tensor<512xi32> loc(#loc5)
    %4 = arith.addi %3, %2 : tensor<512xi32> loc(#loc5)
    %5 = arith.remsi %4, %cst_3 : tensor<512xi32> loc(#loc6)
    %6 = arith.divsi %4, %cst_3 : tensor<512xi32> loc(#loc7)
    %7 = arith.divsi %4, %cst_2 : tensor<512xi32> loc(#loc8)
    %8 = arith.remsi %4, %cst_2 : tensor<512xi32> loc(#loc9)
    %9 = arith.muli %6, %cst_1 : tensor<512xi32> loc(#loc10)
    %10 = arith.addi %5, %9 : tensor<512xi32> loc(#loc11)
    %11 = tt.splat %arg0 : !tt.ptr<f32> -> tensor<512x!tt.ptr<f32>> loc(#loc12)
    %12 = tt.addptr %11, %10 : tensor<512x!tt.ptr<f32>>, tensor<512xi32> loc(#loc12)
    %13 = tt.load %12 : tensor<512x!tt.ptr<f32>> loc(#loc13)
    %14 = tt.splat %arg1 : !tt.ptr<i64> -> tensor<512x!tt.ptr<i64>> loc(#loc14)
    %15 = tt.addptr %14, %7 : tensor<512x!tt.ptr<i64>>, tensor<512xi32> loc(#loc14)
    %16 = tt.load %15 evictionPolicy = evict_last : tensor<512x!tt.ptr<i64>> loc(#loc15)
    %17 = tt.splat %arg2 : !tt.ptr<f32> -> tensor<512x!tt.ptr<f32>> loc(#loc16)
    %18 = tt.addptr %17, %10 : tensor<512x!tt.ptr<f32>>, tensor<512xi32> loc(#loc16)
    %19 = tt.load %18 : tensor<512x!tt.ptr<f32>> loc(#loc17)
    %20 = arith.addi %5, %cst_3 : tensor<512xi32> loc(#loc18)
    %21 = arith.addi %20, %9 : tensor<512xi32> loc(#loc19)
    %22 = tt.addptr %11, %21 : tensor<512x!tt.ptr<f32>>, tensor<512xi32> loc(#loc20)
    %23 = tt.load %22 : tensor<512x!tt.ptr<f32>> loc(#loc21)
    %24 = tt.addptr %17, %21 : tensor<512x!tt.ptr<f32>>, tensor<512xi32> loc(#loc22)
    %25 = tt.load %24 : tensor<512x!tt.ptr<f32>> loc(#loc23)
    %26 = arith.sitofp %16 : tensor<512xi64> to tensor<512xf32> loc(#loc24)
    %27 = arith.divf %13, %26 : tensor<512xf32> loc(#loc25)
    %28 = arith.divf %19, %26 : tensor<512xf32> loc(#loc26)
    %29 = arith.addf %27, %28 : tensor<512xf32> loc(#loc27)
    %30 = arith.divf %23, %26 : tensor<512xf32> loc(#loc28)
    %31 = arith.divf %25, %26 : tensor<512xf32> loc(#loc29)
    %32 = arith.addf %30, %31 : tensor<512xf32> loc(#loc30)
    %33 = arith.addf %29, %32 : tensor<512xf32> loc(#loc31)
    %34 = arith.divf %33, %cst_0 : tensor<512xf32> loc(#loc32)
    %35 = tt.splat %arg3 : !tt.ptr<f32> -> tensor<512x!tt.ptr<f32>> loc(#loc33)
    %36 = tt.addptr %35, %4 : tensor<512x!tt.ptr<f32>>, tensor<512xi32> loc(#loc33)
    tt.store %36, %34 : tensor<512x!tt.ptr<f32>> loc(#loc34)
    %37 = arith.muli %7, %cst : tensor<512xi32> loc(#loc35)
    %38 = arith.addi %8, %37 : tensor<512xi32> loc(#loc36)
    %39 = tt.splat %arg4 : !tt.ptr<f32> -> tensor<512x!tt.ptr<f32>> loc(#loc37)
    %40 = tt.addptr %39, %38 : tensor<512x!tt.ptr<f32>>, tensor<512xi32> loc(#loc37)
    tt.store %40, %34 : tensor<512x!tt.ptr<f32>> loc(#loc38)
    tt.return loc(#loc39)
  } loc(#loc)
} loc(#loc)
#loc1 = loc(unknown)
#loc2 = loc("/orcd/home/002/osbo/ondemand/fluid-sim/Assets/Scripts/.torch_inductor_cache/5l/c5lufh63jitzzsewhi7hn4zfm3vpzfkt2f5uoafdac5llxhux27t.py":20:28)
#loc3 = loc("/orcd/home/002/osbo/ondemand/fluid-sim/Assets/Scripts/.torch_inductor_cache/5l/c5lufh63jitzzsewhi7hn4zfm3vpzfkt2f5uoafdac5llxhux27t.py":20:33)
#loc4 = loc("/orcd/home/002/osbo/ondemand/fluid-sim/Assets/Scripts/.torch_inductor_cache/5l/c5lufh63jitzzsewhi7hn4zfm3vpzfkt2f5uoafdac5llxhux27t.py":21:36)
#loc5 = loc("/orcd/home/002/osbo/ondemand/fluid-sim/Assets/Scripts/.torch_inductor_cache/5l/c5lufh63jitzzsewhi7hn4zfm3vpzfkt2f5uoafdac5llxhux27t.py":21:23)
#loc6 = loc("/orcd/home/002/osbo/ondemand/fluid-sim/Assets/Scripts/.torch_inductor_cache/5l/c5lufh63jitzzsewhi7hn4zfm3vpzfkt2f5uoafdac5llxhux27t.py":23:18)
#loc7 = loc("/orcd/home/002/osbo/ondemand/fluid-sim/Assets/Scripts/.torch_inductor_cache/5l/c5lufh63jitzzsewhi7hn4zfm3vpzfkt2f5uoafdac5llxhux27t.py":24:20)
#loc8 = loc("/orcd/home/002/osbo/ondemand/fluid-sim/Assets/Scripts/.torch_inductor_cache/5l/c5lufh63jitzzsewhi7hn4zfm3vpzfkt2f5uoafdac5llxhux27t.py":25:20)
#loc9 = loc("/orcd/home/002/osbo/ondemand/fluid-sim/Assets/Scripts/.torch_inductor_cache/5l/c5lufh63jitzzsewhi7hn4zfm3vpzfkt2f5uoafdac5llxhux27t.py":27:18)
#loc10 = loc("/orcd/home/002/osbo/ondemand/fluid-sim/Assets/Scripts/.torch_inductor_cache/5l/c5lufh63jitzzsewhi7hn4zfm3vpzfkt2f5uoafdac5llxhux27t.py":28:40)
#loc11 = loc("/orcd/home/002/osbo/ondemand/fluid-sim/Assets/Scripts/.torch_inductor_cache/5l/c5lufh63jitzzsewhi7hn4zfm3vpzfkt2f5uoafdac5llxhux27t.py":28:36)
#loc12 = loc("/orcd/home/002/osbo/ondemand/fluid-sim/Assets/Scripts/.torch_inductor_cache/5l/c5lufh63jitzzsewhi7hn4zfm3vpzfkt2f5uoafdac5llxhux27t.py":28:30)
#loc13 = loc("/orcd/home/002/osbo/ondemand/fluid-sim/Assets/Scripts/.torch_inductor_cache/5l/c5lufh63jitzzsewhi7hn4zfm3vpzfkt2f5uoafdac5llxhux27t.py":28:46)
#loc14 = loc("/orcd/home/002/osbo/ondemand/fluid-sim/Assets/Scripts/.torch_inductor_cache/5l/c5lufh63jitzzsewhi7hn4zfm3vpzfkt2f5uoafdac5llxhux27t.py":29:30)
#loc15 = loc("/orcd/home/002/osbo/ondemand/fluid-sim/Assets/Scripts/.torch_inductor_cache/5l/c5lufh63jitzzsewhi7hn4zfm3vpzfkt2f5uoafdac5llxhux27t.py":29:35)
#loc16 = loc("/orcd/home/002/osbo/ondemand/fluid-sim/Assets/Scripts/.torch_inductor_cache/5l/c5lufh63jitzzsewhi7hn4zfm3vpzfkt2f5uoafdac5llxhux27t.py":30:30)
#loc17 = loc("/orcd/home/002/osbo/ondemand/fluid-sim/Assets/Scripts/.torch_inductor_cache/5l/c5lufh63jitzzsewhi7hn4zfm3vpzfkt2f5uoafdac5llxhux27t.py":30:46)
#loc18 = loc("/orcd/home/002/osbo/ondemand/fluid-sim/Assets/Scripts/.torch_inductor_cache/5l/c5lufh63jitzzsewhi7hn4zfm3vpzfkt2f5uoafdac5llxhux27t.py":31:36)
#loc19 = loc("/orcd/home/002/osbo/ondemand/fluid-sim/Assets/Scripts/.torch_inductor_cache/5l/c5lufh63jitzzsewhi7hn4zfm3vpzfkt2f5uoafdac5llxhux27t.py":31:42)
#loc20 = loc("/orcd/home/002/osbo/ondemand/fluid-sim/Assets/Scripts/.torch_inductor_cache/5l/c5lufh63jitzzsewhi7hn4zfm3vpzfkt2f5uoafdac5llxhux27t.py":31:30)
#loc21 = loc("/orcd/home/002/osbo/ondemand/fluid-sim/Assets/Scripts/.torch_inductor_cache/5l/c5lufh63jitzzsewhi7hn4zfm3vpzfkt2f5uoafdac5llxhux27t.py":31:52)
#loc22 = loc("/orcd/home/002/osbo/ondemand/fluid-sim/Assets/Scripts/.torch_inductor_cache/5l/c5lufh63jitzzsewhi7hn4zfm3vpzfkt2f5uoafdac5llxhux27t.py":32:30)
#loc23 = loc("/orcd/home/002/osbo/ondemand/fluid-sim/Assets/Scripts/.torch_inductor_cache/5l/c5lufh63jitzzsewhi7hn4zfm3vpzfkt2f5uoafdac5llxhux27t.py":32:52)
#loc24 = loc("/orcd/home/002/osbo/ondemand/fluid-sim/Assets/Scripts/.torch_inductor_cache/5l/c5lufh63jitzzsewhi7hn4zfm3vpzfkt2f5uoafdac5llxhux27t.py":33:19)
#loc25 = loc("/orcd/home/002/osbo/ondemand/fluid-sim/Assets/Scripts/.torch_inductor_cache/5l/c5lufh63jitzzsewhi7hn4zfm3vpzfkt2f5uoafdac5llxhux27t.py":34:18)
#loc26 = loc("/orcd/home/002/osbo/ondemand/fluid-sim/Assets/Scripts/.torch_inductor_cache/5l/c5lufh63jitzzsewhi7hn4zfm3vpzfkt2f5uoafdac5llxhux27t.py":35:18)
#loc27 = loc("/orcd/home/002/osbo/ondemand/fluid-sim/Assets/Scripts/.torch_inductor_cache/5l/c5lufh63jitzzsewhi7hn4zfm3vpzfkt2f5uoafdac5llxhux27t.py":36:18)
#loc28 = loc("/orcd/home/002/osbo/ondemand/fluid-sim/Assets/Scripts/.torch_inductor_cache/5l/c5lufh63jitzzsewhi7hn4zfm3vpzfkt2f5uoafdac5llxhux27t.py":37:18)
#loc29 = loc("/orcd/home/002/osbo/ondemand/fluid-sim/Assets/Scripts/.torch_inductor_cache/5l/c5lufh63jitzzsewhi7hn4zfm3vpzfkt2f5uoafdac5llxhux27t.py":38:19)
#loc30 = loc("/orcd/home/002/osbo/ondemand/fluid-sim/Assets/Scripts/.torch_inductor_cache/5l/c5lufh63jitzzsewhi7hn4zfm3vpzfkt2f5uoafdac5llxhux27t.py":39:19)
#loc31 = loc("/orcd/home/002/osbo/ondemand/fluid-sim/Assets/Scripts/.torch_inductor_cache/5l/c5lufh63jitzzsewhi7hn4zfm3vpzfkt2f5uoafdac5llxhux27t.py":40:19)
#loc32 = loc("/orcd/home/002/osbo/ondemand/fluid-sim/Assets/Scripts/.torch_inductor_cache/5l/c5lufh63jitzzsewhi7hn4zfm3vpzfkt2f5uoafdac5llxhux27t.py":42:20)
#loc33 = loc("/orcd/home/002/osbo/ondemand/fluid-sim/Assets/Scripts/.torch_inductor_cache/5l/c5lufh63jitzzsewhi7hn4zfm3vpzfkt2f5uoafdac5llxhux27t.py":43:25)
#loc34 = loc("/orcd/home/002/osbo/ondemand/fluid-sim/Assets/Scripts/.torch_inductor_cache/5l/c5lufh63jitzzsewhi7hn4zfm3vpzfkt2f5uoafdac5llxhux27t.py":43:37)
#loc35 = loc("/orcd/home/002/osbo/ondemand/fluid-sim/Assets/Scripts/.torch_inductor_cache/5l/c5lufh63jitzzsewhi7hn4zfm3vpzfkt2f5uoafdac5llxhux27t.py":44:36)
#loc36 = loc("/orcd/home/002/osbo/ondemand/fluid-sim/Assets/Scripts/.torch_inductor_cache/5l/c5lufh63jitzzsewhi7hn4zfm3vpzfkt2f5uoafdac5llxhux27t.py":44:31)
#loc37 = loc("/orcd/home/002/osbo/ondemand/fluid-sim/Assets/Scripts/.torch_inductor_cache/5l/c5lufh63jitzzsewhi7hn4zfm3vpzfkt2f5uoafdac5llxhux27t.py":44:25)
#loc38 = loc("/orcd/home/002/osbo/ondemand/fluid-sim/Assets/Scripts/.torch_inductor_cache/5l/c5lufh63jitzzsewhi7hn4zfm3vpzfkt2f5uoafdac5llxhux27t.py":44:49)
#loc39 = loc("/orcd/home/002/osbo/ondemand/fluid-sim/Assets/Scripts/.torch_inductor_cache/5l/c5lufh63jitzzsewhi7hn4zfm3vpzfkt2f5uoafdac5llxhux27t.py":44:4)
