#loc = loc("/orcd/home/002/osbo/ondemand/fluid-sim/Assets/Scripts/.torch_inductor_cache/y2/cy2kbizg37vwjhty7bxvye6xgg4tcozsd3xnlo3a6gj7tas6ntpg.py":18:0)
module {
  tt.func public @triton_(%arg0: !tt.ptr<f32> {tt.divisibility = 16 : i32} loc("/orcd/home/002/osbo/ondemand/fluid-sim/Assets/Scripts/.torch_inductor_cache/y2/cy2kbizg37vwjhty7bxvye6xgg4tcozsd3xnlo3a6gj7tas6ntpg.py":18:0), %arg1: !tt.ptr<f32> {tt.divisibility = 16 : i32} loc("/orcd/home/002/osbo/ondemand/fluid-sim/Assets/Scripts/.torch_inductor_cache/y2/cy2kbizg37vwjhty7bxvye6xgg4tcozsd3xnlo3a6gj7tas6ntpg.py":18:0), %arg2: !tt.ptr<f32> {tt.divisibility = 16 : i32} loc("/orcd/home/002/osbo/ondemand/fluid-sim/Assets/Scripts/.torch_inductor_cache/y2/cy2kbizg37vwjhty7bxvye6xgg4tcozsd3xnlo3a6gj7tas6ntpg.py":18:0), %arg3: !tt.ptr<f32> {tt.divisibility = 16 : i32} loc("/orcd/home/002/osbo/ondemand/fluid-sim/Assets/Scripts/.torch_inductor_cache/y2/cy2kbizg37vwjhty7bxvye6xgg4tcozsd3xnlo3a6gj7tas6ntpg.py":18:0), %arg4: i32 {tt.divisibility = 16 : i32} loc("/orcd/home/002/osbo/ondemand/fluid-sim/Assets/Scripts/.torch_inductor_cache/y2/cy2kbizg37vwjhty7bxvye6xgg4tcozsd3xnlo3a6gj7tas6ntpg.py":18:0)) attributes {noinline = false} {
    %cst = arith.constant dense<-2310144> : tensor<512xi32> loc(#loc1)
    %cst_0 = arith.constant dense<-524288> : tensor<512xi32> loc(#loc1)
    %cst_1 = arith.constant dense<0.000000e+00> : tensor<512xf32> loc(#loc1)
    %cst_2 = arith.constant dense<524288> : tensor<512xi64> loc(#loc1)
    %cst_3 = arith.constant dense<2310144> : tensor<512xi64> loc(#loc1)
    %c512_i32 = arith.constant 512 : i32 loc(#loc1)
    %0 = tt.get_program_id x : i32 loc(#loc2)
    %1 = arith.muli %0, %c512_i32 : i32 loc(#loc3)
    %2 = tt.make_range {end = 512 : i32, start = 0 : i32} : tensor<512xi32> loc(#loc4)
    %3 = tt.splat %1 : i32 -> tensor<512xi32> loc(#loc5)
    %4 = arith.addi %3, %2 : tensor<512xi32> loc(#loc5)
    %5 = arith.extsi %4 : tensor<512xi32> to tensor<512xi64> loc(#loc6)
    %6 = arith.cmpi slt, %5, %cst_3 : tensor<512xi64> loc(#loc6)
    %7 = arith.cmpi slt, %5, %cst_2 : tensor<512xi64> loc(#loc7)
    %8 = arith.andi %7, %6 : tensor<512xi1> loc(#loc8)
    %9 = tt.splat %arg0 : !tt.ptr<f32> -> tensor<512x!tt.ptr<f32>> loc(#loc9)
    %10 = tt.addptr %9, %4 : tensor<512x!tt.ptr<f32>>, tensor<512xi32> loc(#loc9)
    %11 = tt.load %10, %8, %cst_1 evictionPolicy = evict_last : tensor<512x!tt.ptr<f32>> loc(#loc10)
    %12 = arith.cmpi sge, %5, %cst_2 : tensor<512xi64> loc(#loc11)
    %13 = arith.andi %12, %6 : tensor<512xi1> loc(#loc12)
    %14 = arith.addi %4, %cst_0 : tensor<512xi32> loc(#loc13)
    %15 = tt.splat %arg1 : !tt.ptr<f32> -> tensor<512x!tt.ptr<f32>> loc(#loc14)
    %16 = tt.addptr %15, %14 : tensor<512x!tt.ptr<f32>>, tensor<512xi32> loc(#loc14)
    %17 = tt.load %16, %13, %cst_1 evictionPolicy = evict_last : tensor<512x!tt.ptr<f32>> loc(#loc15)
    %18 = arith.select %7, %11, %17 : tensor<512xi1>, tensor<512xf32> loc(#loc16)
    %19 = arith.cmpi sge, %5, %cst_3 : tensor<512xi64> loc(#loc17)
    %20 = arith.addi %4, %cst : tensor<512xi32> loc(#loc18)
    %21 = tt.splat %arg2 : !tt.ptr<f32> -> tensor<512x!tt.ptr<f32>> loc(#loc19)
    %22 = tt.addptr %21, %20 : tensor<512x!tt.ptr<f32>>, tensor<512xi32> loc(#loc19)
    %23 = tt.load %22, %19, %cst_1 evictionPolicy = evict_last : tensor<512x!tt.ptr<f32>> loc(#loc20)
    %24 = arith.select %6, %18, %23 : tensor<512xi1>, tensor<512xf32> loc(#loc26)
    %25 = tt.splat %arg3 : !tt.ptr<f32> -> tensor<512x!tt.ptr<f32>> loc(#loc23)
    %26 = tt.addptr %25, %4 : tensor<512x!tt.ptr<f32>>, tensor<512xi32> loc(#loc23)
    tt.store %26, %24 : tensor<512x!tt.ptr<f32>> loc(#loc24)
    tt.return loc(#loc25)
  } loc(#loc)
} loc(#loc)
#loc1 = loc(unknown)
#loc2 = loc("/orcd/home/002/osbo/ondemand/fluid-sim/Assets/Scripts/.torch_inductor_cache/y2/cy2kbizg37vwjhty7bxvye6xgg4tcozsd3xnlo3a6gj7tas6ntpg.py":20:28)
#loc3 = loc("/orcd/home/002/osbo/ondemand/fluid-sim/Assets/Scripts/.torch_inductor_cache/y2/cy2kbizg37vwjhty7bxvye6xgg4tcozsd3xnlo3a6gj7tas6ntpg.py":20:33)
#loc4 = loc("/orcd/home/002/osbo/ondemand/fluid-sim/Assets/Scripts/.torch_inductor_cache/y2/cy2kbizg37vwjhty7bxvye6xgg4tcozsd3xnlo3a6gj7tas6ntpg.py":21:36)
#loc5 = loc("/orcd/home/002/osbo/ondemand/fluid-sim/Assets/Scripts/.torch_inductor_cache/y2/cy2kbizg37vwjhty7bxvye6xgg4tcozsd3xnlo3a6gj7tas6ntpg.py":21:23)
#loc6 = loc("/orcd/home/002/osbo/ondemand/fluid-sim/Assets/Scripts/.torch_inductor_cache/y2/cy2kbizg37vwjhty7bxvye6xgg4tcozsd3xnlo3a6gj7tas6ntpg.py":28:18)
#loc7 = loc("/orcd/home/002/osbo/ondemand/fluid-sim/Assets/Scripts/.torch_inductor_cache/y2/cy2kbizg37vwjhty7bxvye6xgg4tcozsd3xnlo3a6gj7tas6ntpg.py":30:18)
#loc8 = loc("/orcd/home/002/osbo/ondemand/fluid-sim/Assets/Scripts/.torch_inductor_cache/y2/cy2kbizg37vwjhty7bxvye6xgg4tcozsd3xnlo3a6gj7tas6ntpg.py":31:18)
#loc9 = loc("/orcd/home/002/osbo/ondemand/fluid-sim/Assets/Scripts/.torch_inductor_cache/y2/cy2kbizg37vwjhty7bxvye6xgg4tcozsd3xnlo3a6gj7tas6ntpg.py":32:30)
#loc10 = loc("/orcd/home/002/osbo/ondemand/fluid-sim/Assets/Scripts/.torch_inductor_cache/y2/cy2kbizg37vwjhty7bxvye6xgg4tcozsd3xnlo3a6gj7tas6ntpg.py":32:35)
#loc11 = loc("/orcd/home/002/osbo/ondemand/fluid-sim/Assets/Scripts/.torch_inductor_cache/y2/cy2kbizg37vwjhty7bxvye6xgg4tcozsd3xnlo3a6gj7tas6ntpg.py":33:19)
#loc12 = loc("/orcd/home/002/osbo/ondemand/fluid-sim/Assets/Scripts/.torch_inductor_cache/y2/cy2kbizg37vwjhty7bxvye6xgg4tcozsd3xnlo3a6gj7tas6ntpg.py":34:19)
#loc13 = loc("/orcd/home/002/osbo/ondemand/fluid-sim/Assets/Scripts/.torch_inductor_cache/y2/cy2kbizg37vwjhty7bxvye6xgg4tcozsd3xnlo3a6gj7tas6ntpg.py":35:43)
#loc14 = loc("/orcd/home/002/osbo/ondemand/fluid-sim/Assets/Scripts/.torch_inductor_cache/y2/cy2kbizg37vwjhty7bxvye6xgg4tcozsd3xnlo3a6gj7tas6ntpg.py":35:31)
#loc15 = loc("/orcd/home/002/osbo/ondemand/fluid-sim/Assets/Scripts/.torch_inductor_cache/y2/cy2kbizg37vwjhty7bxvye6xgg4tcozsd3xnlo3a6gj7tas6ntpg.py":35:48)
#loc16 = loc("/orcd/home/002/osbo/ondemand/fluid-sim/Assets/Scripts/.torch_inductor_cache/y2/cy2kbizg37vwjhty7bxvye6xgg4tcozsd3xnlo3a6gj7tas6ntpg.py":36:33)
#loc17 = loc("/orcd/home/002/osbo/ondemand/fluid-sim/Assets/Scripts/.torch_inductor_cache/y2/cy2kbizg37vwjhty7bxvye6xgg4tcozsd3xnlo3a6gj7tas6ntpg.py":39:20)
#loc18 = loc("/orcd/home/002/osbo/ondemand/fluid-sim/Assets/Scripts/.torch_inductor_cache/y2/cy2kbizg37vwjhty7bxvye6xgg4tcozsd3xnlo3a6gj7tas6ntpg.py":42:44)
#loc19 = loc("/orcd/home/002/osbo/ondemand/fluid-sim/Assets/Scripts/.torch_inductor_cache/y2/cy2kbizg37vwjhty7bxvye6xgg4tcozsd3xnlo3a6gj7tas6ntpg.py":42:31)
#loc20 = loc("/orcd/home/002/osbo/ondemand/fluid-sim/Assets/Scripts/.torch_inductor_cache/y2/cy2kbizg37vwjhty7bxvye6xgg4tcozsd3xnlo3a6gj7tas6ntpg.py":42:49)
#loc21 = loc("/orcd/home/002/osbo/ondemand/fluid-sim/Assets/Scripts/.torch_inductor_cache/y2/cy2kbizg37vwjhty7bxvye6xgg4tcozsd3xnlo3a6gj7tas6ntpg.py":43:34)
#loc22 = loc("/orcd/home/002/osbo/ondemand/fluid-sim/Assets/Scripts/.torch_inductor_cache/y2/cy2kbizg37vwjhty7bxvye6xgg4tcozsd3xnlo3a6gj7tas6ntpg.py":38:34)
#loc23 = loc("/orcd/home/002/osbo/ondemand/fluid-sim/Assets/Scripts/.torch_inductor_cache/y2/cy2kbizg37vwjhty7bxvye6xgg4tcozsd3xnlo3a6gj7tas6ntpg.py":44:25)
#loc24 = loc("/orcd/home/002/osbo/ondemand/fluid-sim/Assets/Scripts/.torch_inductor_cache/y2/cy2kbizg37vwjhty7bxvye6xgg4tcozsd3xnlo3a6gj7tas6ntpg.py":44:37)
#loc25 = loc("/orcd/home/002/osbo/ondemand/fluid-sim/Assets/Scripts/.torch_inductor_cache/y2/cy2kbizg37vwjhty7bxvye6xgg4tcozsd3xnlo3a6gj7tas6ntpg.py":44:4)
#loc26 = loc(fused[#loc21, #loc22])
