#loc = loc("/orcd/home/002/osbo/ondemand/fluid-sim/Assets/Scripts/.torch_inductor_cache/yx/cyxvk7ih3ehxdhnr6qqg26ccptuyvwu7zap6nq76t5763hh5e5z4.py":18:0)
#loc1 = loc(unknown)
module {
  tt.func public @triton_(%arg0: !tt.ptr<f32> {tt.divisibility = 16 : i32} loc("/orcd/home/002/osbo/ondemand/fluid-sim/Assets/Scripts/.torch_inductor_cache/yx/cyxvk7ih3ehxdhnr6qqg26ccptuyvwu7zap6nq76t5763hh5e5z4.py":18:0), %arg1: !tt.ptr<f32> {tt.divisibility = 16 : i32} loc("/orcd/home/002/osbo/ondemand/fluid-sim/Assets/Scripts/.torch_inductor_cache/yx/cyxvk7ih3ehxdhnr6qqg26ccptuyvwu7zap6nq76t5763hh5e5z4.py":18:0), %arg2: i32 {tt.divisibility = 16 : i32} loc("/orcd/home/002/osbo/ondemand/fluid-sim/Assets/Scripts/.torch_inductor_cache/yx/cyxvk7ih3ehxdhnr6qqg26ccptuyvwu7zap6nq76t5763hh5e5z4.py":18:0), %arg3: i32 {tt.divisibility = 16 : i32} loc("/orcd/home/002/osbo/ondemand/fluid-sim/Assets/Scripts/.torch_inductor_cache/yx/cyxvk7ih3ehxdhnr6qqg26ccptuyvwu7zap6nq76t5763hh5e5z4.py":18:0)) attributes {noinline = false} {
    %c2056_i32 = arith.constant 2056 : i32 loc(#loc1)
    %c8_i32 = arith.constant 8 : i32 loc(#loc1)
    %c32_i32 = arith.constant 32 : i32 loc(#loc1)
    %cst = arith.constant dense<257> : tensor<1x64xi32> loc(#loc1)
    %cst_0 = arith.constant dense<8> : tensor<1x64xi32> loc(#loc1)
    %0 = tt.get_program_id x : i32 loc(#loc2)
    %1 = tt.make_range {end = 64 : i32, start = 0 : i32} : tensor<64xi32> loc(#loc3)
    %2 = tt.expand_dims %1 {axis = 0 : i32} : tensor<64xi32> -> tensor<1x64xi32> loc(#loc4)
    %3 = arith.remsi %2, %cst_0 : tensor<1x64xi32> loc(#loc5)
    %4 = arith.divsi %2, %cst_0 : tensor<1x64xi32> loc(#loc6)
    %5 = arith.remsi %0, %c32_i32 : i32 loc(#loc7)
    %6 = arith.divsi %0, %c32_i32 : i32 loc(#loc8)
    %7 = arith.muli %5, %c8_i32 : i32 loc(#loc9)
    %8 = tt.splat %7 : i32 -> tensor<1x64xi32> loc(#loc10)
    %9 = arith.addi %3, %8 : tensor<1x64xi32> loc(#loc10)
    %10 = arith.muli %4, %cst : tensor<1x64xi32> loc(#loc11)
    %11 = arith.addi %9, %10 : tensor<1x64xi32> loc(#loc12)
    %12 = arith.muli %6, %c2056_i32 : i32 loc(#loc13)
    %13 = tt.splat %12 : i32 -> tensor<1x64xi32> loc(#loc14)
    %14 = arith.addi %11, %13 : tensor<1x64xi32> loc(#loc14)
    %15 = tt.splat %arg0 : !tt.ptr<f32> -> tensor<1x64x!tt.ptr<f32>> loc(#loc15)
    %16 = tt.addptr %15, %14 : tensor<1x64x!tt.ptr<f32>>, tensor<1x64xi32> loc(#loc15)
    %17 = tt.load %16 : tensor<1x64x!tt.ptr<f32>> loc(#loc16)
    %18 = "tt.reduce"(%17) <{axis = 1 : i32}> ({
    ^bb0(%arg4: f32 loc(unknown), %arg5: f32 loc(unknown)):
      %22 = arith.cmpf ogt, %arg4, %arg5 : f32 loc(#loc32)
      %23 = arith.cmpf une, %arg4, %arg4 : f32 loc(#loc33)
      %24 = arith.ori %22, %23 : i1 loc(#loc34)
      %25 = arith.select %24, %arg4, %arg5 : f32 loc(#loc35)
      tt.reduce.return %25 : f32 loc(#loc27)
    }) : (tensor<1x64xf32>) -> tensor<1xf32> loc(#loc27)
    %19 = tt.expand_dims %18 {axis = 1 : i32} : tensor<1xf32> -> tensor<1x1xf32> loc(#loc23)
    %20 = tt.addptr %arg1, %0 : !tt.ptr<f32>, i32 loc(#loc24)
    %21 = tt.splat %20 : !tt.ptr<f32> -> tensor<1x1x!tt.ptr<f32>> loc(#loc24)
    tt.store %21, %19 : tensor<1x1x!tt.ptr<f32>> loc(#loc25)
    tt.return loc(#loc26)
  } loc(#loc)
} loc(#loc)
#loc2 = loc("/orcd/home/002/osbo/ondemand/fluid-sim/Assets/Scripts/.torch_inductor_cache/yx/cyxvk7ih3ehxdhnr6qqg26ccptuyvwu7zap6nq76t5763hh5e5z4.py":22:28)
#loc3 = loc("/orcd/home/002/osbo/ondemand/fluid-sim/Assets/Scripts/.torch_inductor_cache/yx/cyxvk7ih3ehxdhnr6qqg26ccptuyvwu7zap6nq76t5763hh5e5z4.py":25:26)
#loc4 = loc("/orcd/home/002/osbo/ondemand/fluid-sim/Assets/Scripts/.torch_inductor_cache/yx/cyxvk7ih3ehxdhnr6qqg26ccptuyvwu7zap6nq76t5763hh5e5z4.py":25:34)
#loc5 = loc("/orcd/home/002/osbo/ondemand/fluid-sim/Assets/Scripts/.torch_inductor_cache/yx/cyxvk7ih3ehxdhnr6qqg26ccptuyvwu7zap6nq76t5763hh5e5z4.py":28:18)
#loc6 = loc("/orcd/home/002/osbo/ondemand/fluid-sim/Assets/Scripts/.torch_inductor_cache/yx/cyxvk7ih3ehxdhnr6qqg26ccptuyvwu7zap6nq76t5763hh5e5z4.py":29:20)
#loc7 = loc("/orcd/home/002/osbo/ondemand/fluid-sim/Assets/Scripts/.torch_inductor_cache/yx/cyxvk7ih3ehxdhnr6qqg26ccptuyvwu7zap6nq76t5763hh5e5z4.py":30:18)
#loc8 = loc("/orcd/home/002/osbo/ondemand/fluid-sim/Assets/Scripts/.torch_inductor_cache/yx/cyxvk7ih3ehxdhnr6qqg26ccptuyvwu7zap6nq76t5763hh5e5z4.py":31:20)
#loc9 = loc("/orcd/home/002/osbo/ondemand/fluid-sim/Assets/Scripts/.torch_inductor_cache/yx/cyxvk7ih3ehxdhnr6qqg26ccptuyvwu7zap6nq76t5763hh5e5z4.py":33:38)
#loc10 = loc("/orcd/home/002/osbo/ondemand/fluid-sim/Assets/Scripts/.torch_inductor_cache/yx/cyxvk7ih3ehxdhnr6qqg26ccptuyvwu7zap6nq76t5763hh5e5z4.py":33:36)
#loc11 = loc("/orcd/home/002/osbo/ondemand/fluid-sim/Assets/Scripts/.torch_inductor_cache/yx/cyxvk7ih3ehxdhnr6qqg26ccptuyvwu7zap6nq76t5763hh5e5z4.py":33:49)
#loc12 = loc("/orcd/home/002/osbo/ondemand/fluid-sim/Assets/Scripts/.torch_inductor_cache/yx/cyxvk7ih3ehxdhnr6qqg26ccptuyvwu7zap6nq76t5763hh5e5z4.py":33:45)
#loc13 = loc("/orcd/home/002/osbo/ondemand/fluid-sim/Assets/Scripts/.torch_inductor_cache/yx/cyxvk7ih3ehxdhnr6qqg26ccptuyvwu7zap6nq76t5763hh5e5z4.py":33:61)
#loc14 = loc("/orcd/home/002/osbo/ondemand/fluid-sim/Assets/Scripts/.torch_inductor_cache/yx/cyxvk7ih3ehxdhnr6qqg26ccptuyvwu7zap6nq76t5763hh5e5z4.py":33:56)
#loc15 = loc("/orcd/home/002/osbo/ondemand/fluid-sim/Assets/Scripts/.torch_inductor_cache/yx/cyxvk7ih3ehxdhnr6qqg26ccptuyvwu7zap6nq76t5763hh5e5z4.py":33:30)
#loc16 = loc("/orcd/home/002/osbo/ondemand/fluid-sim/Assets/Scripts/.torch_inductor_cache/yx/cyxvk7ih3ehxdhnr6qqg26ccptuyvwu7zap6nq76t5763hh5e5z4.py":33:67)
#loc17 = loc("/home/osbo/.conda/envs/fluid/lib/python3.12/site-packages/torch/_inductor/runtime/triton_helpers.py":95:29)
#loc18 = loc("/orcd/home/002/osbo/ondemand/fluid-sim/Assets/Scripts/.torch_inductor_cache/yx/cyxvk7ih3ehxdhnr6qqg26ccptuyvwu7zap6nq76t5763hh5e5z4.py":35:37)
#loc19 = loc("/home/osbo/.conda/envs/fluid/lib/python3.12/site-packages/torch/_inductor/runtime/triton_helpers.py":82:15)
#loc20 = loc("/home/osbo/.conda/envs/fluid/lib/python3.12/site-packages/torch/_inductor/runtime/triton_helpers.py":84:21)
#loc21 = loc("/home/osbo/.conda/envs/fluid/lib/python3.12/site-packages/torch/_inductor/runtime/triton_helpers.py":84:16)
#loc22 = loc("/home/osbo/.conda/envs/fluid/lib/python3.12/site-packages/torch/_inductor/runtime/triton_helpers.py":85:29)
#loc23 = loc("/orcd/home/002/osbo/ondemand/fluid-sim/Assets/Scripts/.torch_inductor_cache/yx/cyxvk7ih3ehxdhnr6qqg26ccptuyvwu7zap6nq76t5763hh5e5z4.py":35:40)
#loc24 = loc("/orcd/home/002/osbo/ondemand/fluid-sim/Assets/Scripts/.torch_inductor_cache/yx/cyxvk7ih3ehxdhnr6qqg26ccptuyvwu7zap6nq76t5763hh5e5z4.py":36:25)
#loc25 = loc("/orcd/home/002/osbo/ondemand/fluid-sim/Assets/Scripts/.torch_inductor_cache/yx/cyxvk7ih3ehxdhnr6qqg26ccptuyvwu7zap6nq76t5763hh5e5z4.py":36:36)
#loc26 = loc("/orcd/home/002/osbo/ondemand/fluid-sim/Assets/Scripts/.torch_inductor_cache/yx/cyxvk7ih3ehxdhnr6qqg26ccptuyvwu7zap6nq76t5763hh5e5z4.py":36:4)
#loc27 = loc(callsite(#loc17 at #loc18))
#loc28 = loc(callsite(#loc19 at #loc17))
#loc29 = loc(callsite(#loc20 at #loc17))
#loc30 = loc(callsite(#loc21 at #loc17))
#loc31 = loc(callsite(#loc22 at #loc17))
#loc32 = loc(callsite(#loc28 at #loc18))
#loc33 = loc(callsite(#loc29 at #loc18))
#loc34 = loc(callsite(#loc30 at #loc18))
#loc35 = loc(callsite(#loc31 at #loc18))
