#loc = loc("/orcd/home/002/osbo/ondemand/fluid-sim/Assets/Scripts/.torch_inductor_cache/3c/c3ctm3unduuu35nc4ufxhlg4y4idkkdiymn3rlit7tamtpxy6wzn.py":18:0)
module {
  tt.func public @triton_(%arg0: !tt.ptr<f32> {tt.divisibility = 16 : i32} loc("/orcd/home/002/osbo/ondemand/fluid-sim/Assets/Scripts/.torch_inductor_cache/3c/c3ctm3unduuu35nc4ufxhlg4y4idkkdiymn3rlit7tamtpxy6wzn.py":18:0), %arg1: !tt.ptr<f32> {tt.divisibility = 16 : i32} loc("/orcd/home/002/osbo/ondemand/fluid-sim/Assets/Scripts/.torch_inductor_cache/3c/c3ctm3unduuu35nc4ufxhlg4y4idkkdiymn3rlit7tamtpxy6wzn.py":18:0), %arg2: !tt.ptr<f32> {tt.divisibility = 16 : i32} loc("/orcd/home/002/osbo/ondemand/fluid-sim/Assets/Scripts/.torch_inductor_cache/3c/c3ctm3unduuu35nc4ufxhlg4y4idkkdiymn3rlit7tamtpxy6wzn.py":18:0), %arg3: i32 {tt.divisibility = 16 : i32} loc("/orcd/home/002/osbo/ondemand/fluid-sim/Assets/Scripts/.torch_inductor_cache/3c/c3ctm3unduuu35nc4ufxhlg4y4idkkdiymn3rlit7tamtpxy6wzn.py":18:0), %arg4: i32 loc("/orcd/home/002/osbo/ondemand/fluid-sim/Assets/Scripts/.torch_inductor_cache/3c/c3ctm3unduuu35nc4ufxhlg4y4idkkdiymn3rlit7tamtpxy6wzn.py":18:0)) attributes {noinline = false} {
    %c384_i32 = arith.constant 384 : i32 loc(#loc1)
    %c33_i32 = arith.constant 33 : i32 loc(#loc1)
    %cst = arith.constant dense<33> : tensor<1x1024xi32> loc(#loc1)
    %cst_0 = arith.constant dense<12672> : tensor<1x1024xi32> loc(#loc1)
    %cst_1 = arith.constant dense<128> : tensor<1x1024xi32> loc(#loc1)
    %c1024_i32 = arith.constant 1024 : i32 loc(#loc1)
    %0 = tt.get_program_id y : i32 loc(#loc2)
    %1 = arith.muli %0, %c1024_i32 : i32 loc(#loc3)
    %2 = tt.make_range {end = 1024 : i32, start = 0 : i32} : tensor<1024xi32> loc(#loc4)
    %3 = tt.expand_dims %2 {axis = 0 : i32} : tensor<1024xi32> -> tensor<1x1024xi32> loc(#loc5)
    %4 = tt.splat %1 : i32 -> tensor<1x1024xi32> loc(#loc6)
    %5 = arith.addi %4, %3 : tensor<1x1024xi32> loc(#loc6)
    %6 = tt.get_program_id x : i32 loc(#loc7)
    %7 = arith.cmpi slt, %6, %c33_i32 : i32 loc(#loc8)
    %8 = arith.remsi %5, %cst_1 : tensor<1x1024xi32> loc(#loc9)
    %9 = arith.divsi %5, %cst_1 : tensor<1x1024xi32> loc(#loc10)
    %10 = arith.addi %8, %cst_1 : tensor<1x1024xi32> loc(#loc11)
    %11 = arith.muli %6, %c384_i32 : i32 loc(#loc12)
    %12 = tt.splat %11 : i32 -> tensor<1x1024xi32> loc(#loc13)
    %13 = arith.addi %10, %12 : tensor<1x1024xi32> loc(#loc13)
    %14 = arith.muli %9, %cst_0 : tensor<1x1024xi32> loc(#loc14)
    %15 = arith.addi %13, %14 : tensor<1x1024xi32> loc(#loc15)
    %16 = tt.splat %arg0 : !tt.ptr<f32> -> tensor<1x1024x!tt.ptr<f32>> loc(#loc16)
    %17 = tt.addptr %16, %15 : tensor<1x1024x!tt.ptr<f32>>, tensor<1x1024xi32> loc(#loc16)
    %18 = tt.splat %7 : i1 -> tensor<1x1024xi1> loc(#loc17)
    %19 = tt.load %17, %18 evictionPolicy = evict_last : tensor<1x1024x!tt.ptr<f32>> loc(#loc17)
    %20 = tt.splat %arg1 : !tt.ptr<f32> -> tensor<1x1024x!tt.ptr<f32>> loc(#loc18)
    %21 = tt.addptr %20, %10 : tensor<1x1024x!tt.ptr<f32>>, tensor<1x1024xi32> loc(#loc18)
    %22 = tt.load %21 evictionPolicy = evict_last : tensor<1x1024x!tt.ptr<f32>> loc(#loc19)
    %23 = arith.addf %19, %22 : tensor<1x1024xf32> loc(#loc20)
    %24 = arith.muli %5, %cst : tensor<1x1024xi32> loc(#loc21)
    %25 = tt.splat %6 : i32 -> tensor<1x1024xi32> loc(#loc22)
    %26 = arith.addi %25, %24 : tensor<1x1024xi32> loc(#loc22)
    %27 = tt.splat %arg2 : !tt.ptr<f32> -> tensor<1x1024x!tt.ptr<f32>> loc(#loc23)
    %28 = tt.addptr %27, %26 : tensor<1x1024x!tt.ptr<f32>>, tensor<1x1024xi32> loc(#loc23)
    tt.store %28, %23, %18 : tensor<1x1024x!tt.ptr<f32>> loc(#loc24)
    tt.return loc(#loc25)
  } loc(#loc)
} loc(#loc)
#loc1 = loc(unknown)
#loc2 = loc("/orcd/home/002/osbo/ondemand/fluid-sim/Assets/Scripts/.torch_inductor_cache/3c/c3ctm3unduuu35nc4ufxhlg4y4idkkdiymn3rlit7tamtpxy6wzn.py":21:28)
#loc3 = loc("/orcd/home/002/osbo/ondemand/fluid-sim/Assets/Scripts/.torch_inductor_cache/3c/c3ctm3unduuu35nc4ufxhlg4y4idkkdiymn3rlit7tamtpxy6wzn.py":21:33)
#loc4 = loc("/orcd/home/002/osbo/ondemand/fluid-sim/Assets/Scripts/.torch_inductor_cache/3c/c3ctm3unduuu35nc4ufxhlg4y4idkkdiymn3rlit7tamtpxy6wzn.py":22:36)
#loc5 = loc("/orcd/home/002/osbo/ondemand/fluid-sim/Assets/Scripts/.torch_inductor_cache/3c/c3ctm3unduuu35nc4ufxhlg4y4idkkdiymn3rlit7tamtpxy6wzn.py":22:44)
#loc6 = loc("/orcd/home/002/osbo/ondemand/fluid-sim/Assets/Scripts/.torch_inductor_cache/3c/c3ctm3unduuu35nc4ufxhlg4y4idkkdiymn3rlit7tamtpxy6wzn.py":22:23)
#loc7 = loc("/orcd/home/002/osbo/ondemand/fluid-sim/Assets/Scripts/.torch_inductor_cache/3c/c3ctm3unduuu35nc4ufxhlg4y4idkkdiymn3rlit7tamtpxy6wzn.py":24:28)
#loc8 = loc("/orcd/home/002/osbo/ondemand/fluid-sim/Assets/Scripts/.torch_inductor_cache/3c/c3ctm3unduuu35nc4ufxhlg4y4idkkdiymn3rlit7tamtpxy6wzn.py":26:21)
#loc9 = loc("/orcd/home/002/osbo/ondemand/fluid-sim/Assets/Scripts/.torch_inductor_cache/3c/c3ctm3unduuu35nc4ufxhlg4y4idkkdiymn3rlit7tamtpxy6wzn.py":28:18)
#loc10 = loc("/orcd/home/002/osbo/ondemand/fluid-sim/Assets/Scripts/.torch_inductor_cache/3c/c3ctm3unduuu35nc4ufxhlg4y4idkkdiymn3rlit7tamtpxy6wzn.py":29:20)
#loc11 = loc("/orcd/home/002/osbo/ondemand/fluid-sim/Assets/Scripts/.torch_inductor_cache/3c/c3ctm3unduuu35nc4ufxhlg4y4idkkdiymn3rlit7tamtpxy6wzn.py":31:36)
#loc12 = loc("/orcd/home/002/osbo/ondemand/fluid-sim/Assets/Scripts/.torch_inductor_cache/3c/c3ctm3unduuu35nc4ufxhlg4y4idkkdiymn3rlit7tamtpxy6wzn.py":31:46)
#loc13 = loc("/orcd/home/002/osbo/ondemand/fluid-sim/Assets/Scripts/.torch_inductor_cache/3c/c3ctm3unduuu35nc4ufxhlg4y4idkkdiymn3rlit7tamtpxy6wzn.py":31:42)
#loc14 = loc("/orcd/home/002/osbo/ondemand/fluid-sim/Assets/Scripts/.torch_inductor_cache/3c/c3ctm3unduuu35nc4ufxhlg4y4idkkdiymn3rlit7tamtpxy6wzn.py":31:59)
#loc15 = loc("/orcd/home/002/osbo/ondemand/fluid-sim/Assets/Scripts/.torch_inductor_cache/3c/c3ctm3unduuu35nc4ufxhlg4y4idkkdiymn3rlit7tamtpxy6wzn.py":31:53)
#loc16 = loc("/orcd/home/002/osbo/ondemand/fluid-sim/Assets/Scripts/.torch_inductor_cache/3c/c3ctm3unduuu35nc4ufxhlg4y4idkkdiymn3rlit7tamtpxy6wzn.py":31:30)
#loc17 = loc("/orcd/home/002/osbo/ondemand/fluid-sim/Assets/Scripts/.torch_inductor_cache/3c/c3ctm3unduuu35nc4ufxhlg4y4idkkdiymn3rlit7tamtpxy6wzn.py":31:65)
#loc18 = loc("/orcd/home/002/osbo/ondemand/fluid-sim/Assets/Scripts/.torch_inductor_cache/3c/c3ctm3unduuu35nc4ufxhlg4y4idkkdiymn3rlit7tamtpxy6wzn.py":32:30)
#loc19 = loc("/orcd/home/002/osbo/ondemand/fluid-sim/Assets/Scripts/.torch_inductor_cache/3c/c3ctm3unduuu35nc4ufxhlg4y4idkkdiymn3rlit7tamtpxy6wzn.py":32:41)
#loc20 = loc("/orcd/home/002/osbo/ondemand/fluid-sim/Assets/Scripts/.torch_inductor_cache/3c/c3ctm3unduuu35nc4ufxhlg4y4idkkdiymn3rlit7tamtpxy6wzn.py":33:18)
#loc21 = loc("/orcd/home/002/osbo/ondemand/fluid-sim/Assets/Scripts/.torch_inductor_cache/3c/c3ctm3unduuu35nc4ufxhlg4y4idkkdiymn3rlit7tamtpxy6wzn.py":34:34)
#loc22 = loc("/orcd/home/002/osbo/ondemand/fluid-sim/Assets/Scripts/.torch_inductor_cache/3c/c3ctm3unduuu35nc4ufxhlg4y4idkkdiymn3rlit7tamtpxy6wzn.py":34:31)
#loc23 = loc("/orcd/home/002/osbo/ondemand/fluid-sim/Assets/Scripts/.torch_inductor_cache/3c/c3ctm3unduuu35nc4ufxhlg4y4idkkdiymn3rlit7tamtpxy6wzn.py":34:25)
#loc24 = loc("/orcd/home/002/osbo/ondemand/fluid-sim/Assets/Scripts/.torch_inductor_cache/3c/c3ctm3unduuu35nc4ufxhlg4y4idkkdiymn3rlit7tamtpxy6wzn.py":34:46)
#loc25 = loc("/orcd/home/002/osbo/ondemand/fluid-sim/Assets/Scripts/.torch_inductor_cache/3c/c3ctm3unduuu35nc4ufxhlg4y4idkkdiymn3rlit7tamtpxy6wzn.py":34:4)
