#loc = loc("/orcd/home/002/osbo/ondemand/fluid-sim/Assets/Scripts/.torch_inductor_cache/4x/c4xqu5ms7lpge3ertzos3qnw2a2y34ca577qvf5o3d2ylrkz2jid.py":18:0)
#loc1 = loc(unknown)
module {
  tt.func public @triton_(%arg0: !tt.ptr<f32> {tt.divisibility = 16 : i32} loc("/orcd/home/002/osbo/ondemand/fluid-sim/Assets/Scripts/.torch_inductor_cache/4x/c4xqu5ms7lpge3ertzos3qnw2a2y34ca577qvf5o3d2ylrkz2jid.py":18:0), %arg1: !tt.ptr<f32> {tt.divisibility = 16 : i32} loc("/orcd/home/002/osbo/ondemand/fluid-sim/Assets/Scripts/.torch_inductor_cache/4x/c4xqu5ms7lpge3ertzos3qnw2a2y34ca577qvf5o3d2ylrkz2jid.py":18:0), %arg2: i32 {tt.divisibility = 16 : i32} loc("/orcd/home/002/osbo/ondemand/fluid-sim/Assets/Scripts/.torch_inductor_cache/4x/c4xqu5ms7lpge3ertzos3qnw2a2y34ca577qvf5o3d2ylrkz2jid.py":18:0), %arg3: i32 loc("/orcd/home/002/osbo/ondemand/fluid-sim/Assets/Scripts/.torch_inductor_cache/4x/c4xqu5ms7lpge3ertzos3qnw2a2y34ca577qvf5o3d2ylrkz2jid.py":18:0)) attributes {noinline = false} {
    %c132_i32 = arith.constant 132 : i32 loc(#loc1)
    %c8224_i32 = arith.constant 8224 : i32 loc(#loc1)
    %c1024_i32 = arith.constant 1024 : i32 loc(#loc1)
    %c4_i32 = arith.constant 4 : i32 loc(#loc1)
    %c768_i32 = arith.constant 768 : i32 loc(#loc1)
    %cst = arith.constant dense<8.000000e+00> : tensor<1x1xf32> loc(#loc1)
    %cst_0 = arith.constant dense<0.000000e+00> : tensor<1x8xf32> loc(#loc1)
    %cst_1 = arith.constant dense<1028> : tensor<1x8xi32> loc(#loc1)
    %0 = tt.get_program_id x : i32 loc(#loc2)
    %1 = arith.cmpi slt, %0, %c768_i32 : i32 loc(#loc3)
    %2 = tt.splat %1 : i1 -> tensor<1x1xi1> loc(#loc3)
    %3 = tt.make_range {end = 8 : i32, start = 0 : i32} : tensor<8xi32> loc(#loc4)
    %4 = tt.expand_dims %3 {axis = 0 : i32} : tensor<8xi32> -> tensor<1x8xi32> loc(#loc5)
    %5 = arith.remsi %0, %c4_i32 : i32 loc(#loc6)
    %6 = arith.divsi %0, %c4_i32 : i32 loc(#loc7)
    %7 = arith.addi %5, %c1024_i32 : i32 loc(#loc8)
    %8 = arith.muli %4, %cst_1 : tensor<1x8xi32> loc(#loc9)
    %9 = tt.splat %7 : i32 -> tensor<1x8xi32> loc(#loc10)
    %10 = arith.addi %9, %8 : tensor<1x8xi32> loc(#loc10)
    %11 = arith.muli %6, %c8224_i32 : i32 loc(#loc11)
    %12 = tt.splat %11 : i32 -> tensor<1x8xi32> loc(#loc12)
    %13 = arith.addi %10, %12 : tensor<1x8xi32> loc(#loc12)
    %14 = tt.splat %arg0 : !tt.ptr<f32> -> tensor<1x8x!tt.ptr<f32>> loc(#loc13)
    %15 = tt.addptr %14, %13 : tensor<1x8x!tt.ptr<f32>>, tensor<1x8xi32> loc(#loc13)
    %16 = tt.splat %1 : i1 -> tensor<1x8xi1> loc(#loc14)
    %17 = tt.load %15, %16, %cst_0 : tensor<1x8x!tt.ptr<f32>> loc(#loc14)
    %18 = arith.select %16, %17, %cst_0 : tensor<1x8xi1>, tensor<1x8xf32> loc(#loc15)
    %19 = "tt.reduce"(%18) <{axis = 1 : i32}> ({
    ^bb0(%arg4: f32 loc(unknown), %arg5: f32 loc(unknown)):
      %26 = arith.addf %arg4, %arg5 : f32 loc(#loc28)
      tt.reduce.return %26 : f32 loc(#loc26)
    }) : (tensor<1x8xf32>) -> tensor<1xf32> loc(#loc26)
    %20 = tt.expand_dims %19 {axis = 1 : i32} : tensor<1xf32> -> tensor<1x1xf32> loc(#loc19)
    %21 = arith.divf %20, %cst : tensor<1x1xf32> loc(#loc20)
    %22 = arith.muli %6, %c132_i32 : i32 loc(#loc21)
    %23 = arith.addi %5, %22 : i32 loc(#loc22)
    %24 = tt.addptr %arg1, %23 : !tt.ptr<f32>, i32 loc(#loc23)
    %25 = tt.splat %24 : !tt.ptr<f32> -> tensor<1x1x!tt.ptr<f32>> loc(#loc23)
    tt.store %25, %21, %2 : tensor<1x1x!tt.ptr<f32>> loc(#loc24)
    tt.return loc(#loc25)
  } loc(#loc)
} loc(#loc)
#loc2 = loc("/orcd/home/002/osbo/ondemand/fluid-sim/Assets/Scripts/.torch_inductor_cache/4x/c4xqu5ms7lpge3ertzos3qnw2a2y34ca577qvf5o3d2ylrkz2jid.py":22:28)
#loc3 = loc("/orcd/home/002/osbo/ondemand/fluid-sim/Assets/Scripts/.torch_inductor_cache/4x/c4xqu5ms7lpge3ertzos3qnw2a2y34ca577qvf5o3d2ylrkz2jid.py":24:21)
#loc4 = loc("/orcd/home/002/osbo/ondemand/fluid-sim/Assets/Scripts/.torch_inductor_cache/4x/c4xqu5ms7lpge3ertzos3qnw2a2y34ca577qvf5o3d2ylrkz2jid.py":25:26)
#loc5 = loc("/orcd/home/002/osbo/ondemand/fluid-sim/Assets/Scripts/.torch_inductor_cache/4x/c4xqu5ms7lpge3ertzos3qnw2a2y34ca577qvf5o3d2ylrkz2jid.py":25:34)
#loc6 = loc("/orcd/home/002/osbo/ondemand/fluid-sim/Assets/Scripts/.torch_inductor_cache/4x/c4xqu5ms7lpge3ertzos3qnw2a2y34ca577qvf5o3d2ylrkz2jid.py":29:18)
#loc7 = loc("/orcd/home/002/osbo/ondemand/fluid-sim/Assets/Scripts/.torch_inductor_cache/4x/c4xqu5ms7lpge3ertzos3qnw2a2y34ca577qvf5o3d2ylrkz2jid.py":30:20)
#loc8 = loc("/orcd/home/002/osbo/ondemand/fluid-sim/Assets/Scripts/.torch_inductor_cache/4x/c4xqu5ms7lpge3ertzos3qnw2a2y34ca577qvf5o3d2ylrkz2jid.py":32:37)
#loc9 = loc("/orcd/home/002/osbo/ondemand/fluid-sim/Assets/Scripts/.torch_inductor_cache/4x/c4xqu5ms7lpge3ertzos3qnw2a2y34ca577qvf5o3d2ylrkz2jid.py":32:48)
#loc10 = loc("/orcd/home/002/osbo/ondemand/fluid-sim/Assets/Scripts/.torch_inductor_cache/4x/c4xqu5ms7lpge3ertzos3qnw2a2y34ca577qvf5o3d2ylrkz2jid.py":32:43)
#loc11 = loc("/orcd/home/002/osbo/ondemand/fluid-sim/Assets/Scripts/.torch_inductor_cache/4x/c4xqu5ms7lpge3ertzos3qnw2a2y34ca577qvf5o3d2ylrkz2jid.py":32:60)
#loc12 = loc("/orcd/home/002/osbo/ondemand/fluid-sim/Assets/Scripts/.torch_inductor_cache/4x/c4xqu5ms7lpge3ertzos3qnw2a2y34ca577qvf5o3d2ylrkz2jid.py":32:55)
#loc13 = loc("/orcd/home/002/osbo/ondemand/fluid-sim/Assets/Scripts/.torch_inductor_cache/4x/c4xqu5ms7lpge3ertzos3qnw2a2y34ca577qvf5o3d2ylrkz2jid.py":32:30)
#loc14 = loc("/orcd/home/002/osbo/ondemand/fluid-sim/Assets/Scripts/.torch_inductor_cache/4x/c4xqu5ms7lpge3ertzos3qnw2a2y34ca577qvf5o3d2ylrkz2jid.py":32:66)
#loc15 = loc("/orcd/home/002/osbo/ondemand/fluid-sim/Assets/Scripts/.torch_inductor_cache/4x/c4xqu5ms7lpge3ertzos3qnw2a2y34ca577qvf5o3d2ylrkz2jid.py":34:33)
#loc16 = loc("/home/osbo/.conda/envs/fluid/lib/python3.12/site-packages/triton/language/standard.py":267:36)
#loc17 = loc("/orcd/home/002/osbo/ondemand/fluid-sim/Assets/Scripts/.torch_inductor_cache/4x/c4xqu5ms7lpge3ertzos3qnw2a2y34ca577qvf5o3d2ylrkz2jid.py":35:24)
#loc18 = loc("/home/osbo/.conda/envs/fluid/lib/python3.12/site-packages/triton/language/standard.py":256:15)
#loc19 = loc("/orcd/home/002/osbo/ondemand/fluid-sim/Assets/Scripts/.torch_inductor_cache/4x/c4xqu5ms7lpge3ertzos3qnw2a2y34ca577qvf5o3d2ylrkz2jid.py":35:27)
#loc20 = loc("/orcd/home/002/osbo/ondemand/fluid-sim/Assets/Scripts/.torch_inductor_cache/4x/c4xqu5ms7lpge3ertzos3qnw2a2y34ca577qvf5o3d2ylrkz2jid.py":37:18)
#loc21 = loc("/orcd/home/002/osbo/ondemand/fluid-sim/Assets/Scripts/.torch_inductor_cache/4x/c4xqu5ms7lpge3ertzos3qnw2a2y34ca577qvf5o3d2ylrkz2jid.py":38:35)
#loc22 = loc("/orcd/home/002/osbo/ondemand/fluid-sim/Assets/Scripts/.torch_inductor_cache/4x/c4xqu5ms7lpge3ertzos3qnw2a2y34ca577qvf5o3d2ylrkz2jid.py":38:31)
#loc23 = loc("/orcd/home/002/osbo/ondemand/fluid-sim/Assets/Scripts/.torch_inductor_cache/4x/c4xqu5ms7lpge3ertzos3qnw2a2y34ca577qvf5o3d2ylrkz2jid.py":38:25)
#loc24 = loc("/orcd/home/002/osbo/ondemand/fluid-sim/Assets/Scripts/.torch_inductor_cache/4x/c4xqu5ms7lpge3ertzos3qnw2a2y34ca577qvf5o3d2ylrkz2jid.py":38:47)
#loc25 = loc("/orcd/home/002/osbo/ondemand/fluid-sim/Assets/Scripts/.torch_inductor_cache/4x/c4xqu5ms7lpge3ertzos3qnw2a2y34ca577qvf5o3d2ylrkz2jid.py":38:4)
#loc26 = loc(callsite(#loc16 at #loc17))
#loc27 = loc(callsite(#loc18 at #loc16))
#loc28 = loc(callsite(#loc27 at #loc17))
