#loc = loc("/orcd/home/002/osbo/ondemand/fluid-sim/Assets/Scripts/.torch_inductor_cache/lb/clb2sfwzcfqcr523gi7adddtaivytcurkca3cymtxzk6zuoc63xf.py":18:0)
module {
  tt.func public @triton_(%arg0: !tt.ptr<f32> {tt.divisibility = 16 : i32} loc("/orcd/home/002/osbo/ondemand/fluid-sim/Assets/Scripts/.torch_inductor_cache/lb/clb2sfwzcfqcr523gi7adddtaivytcurkca3cymtxzk6zuoc63xf.py":18:0), %arg1: !tt.ptr<f32> {tt.divisibility = 16 : i32} loc("/orcd/home/002/osbo/ondemand/fluid-sim/Assets/Scripts/.torch_inductor_cache/lb/clb2sfwzcfqcr523gi7adddtaivytcurkca3cymtxzk6zuoc63xf.py":18:0), %arg2: !tt.ptr<f32> {tt.divisibility = 16 : i32} loc("/orcd/home/002/osbo/ondemand/fluid-sim/Assets/Scripts/.torch_inductor_cache/lb/clb2sfwzcfqcr523gi7adddtaivytcurkca3cymtxzk6zuoc63xf.py":18:0), %arg3: !tt.ptr<f32> {tt.divisibility = 16 : i32} loc("/orcd/home/002/osbo/ondemand/fluid-sim/Assets/Scripts/.torch_inductor_cache/lb/clb2sfwzcfqcr523gi7adddtaivytcurkca3cymtxzk6zuoc63xf.py":18:0), %arg4: !tt.ptr<f32> {tt.divisibility = 16 : i32} loc("/orcd/home/002/osbo/ondemand/fluid-sim/Assets/Scripts/.torch_inductor_cache/lb/clb2sfwzcfqcr523gi7adddtaivytcurkca3cymtxzk6zuoc63xf.py":18:0), %arg5: !tt.ptr<f32> {tt.divisibility = 16 : i32} loc("/orcd/home/002/osbo/ondemand/fluid-sim/Assets/Scripts/.torch_inductor_cache/lb/clb2sfwzcfqcr523gi7adddtaivytcurkca3cymtxzk6zuoc63xf.py":18:0), %arg6: i32 {tt.divisibility = 16 : i32} loc("/orcd/home/002/osbo/ondemand/fluid-sim/Assets/Scripts/.torch_inductor_cache/lb/clb2sfwzcfqcr523gi7adddtaivytcurkca3cymtxzk6zuoc63xf.py":18:0)) attributes {noinline = false} {
    %cst = arith.constant dense<-16> : tensor<128xi32> loc(#loc1)
    %cst_0 = arith.constant dense<0.000000e+00> : tensor<128xf32> loc(#loc1)
    %cst_1 = arith.constant dense<4224> : tensor<128xi32> loc(#loc1)
    %cst_2 = arith.constant dense<4096> : tensor<128xi32> loc(#loc1)
    %cst_3 = arith.constant dense<16> : tensor<128xi64> loc(#loc1)
    %cst_4 = arith.constant dense<128> : tensor<128xi32> loc(#loc1)
    %c128_i32 = arith.constant 128 : i32 loc(#loc1)
    %0 = tt.get_program_id x : i32 loc(#loc2)
    %1 = arith.muli %0, %c128_i32 : i32 loc(#loc3)
    %2 = tt.make_range {end = 128 : i32, start = 0 : i32} : tensor<128xi32> loc(#loc4)
    %3 = tt.splat %1 : i32 -> tensor<128xi32> loc(#loc5)
    %4 = arith.addi %3, %2 : tensor<128xi32> loc(#loc5)
    %5 = arith.divsi %4, %cst_4 : tensor<128xi32> loc(#loc6)
    %6 = arith.remsi %4, %cst_4 : tensor<128xi32> loc(#loc7)
    %7 = tt.splat %arg3 : !tt.ptr<f32> -> tensor<128x!tt.ptr<f32>> loc(#loc8)
    %8 = tt.addptr %7, %4 : tensor<128x!tt.ptr<f32>>, tensor<128xi32> loc(#loc8)
    %9 = tt.load %8 : tensor<128x!tt.ptr<f32>> loc(#loc9)
    %10 = tt.splat %arg4 : !tt.ptr<f32> -> tensor<128x!tt.ptr<f32>> loc(#loc10)
    %11 = tt.addptr %10, %6 : tensor<128x!tt.ptr<f32>>, tensor<128xi32> loc(#loc10)
    %12 = tt.load %11 evictionPolicy = evict_last : tensor<128x!tt.ptr<f32>> loc(#loc11)
    %13 = tt.splat %arg0 : !tt.ptr<f32> -> tensor<128x!tt.ptr<f32>> loc(#loc12)
    %14 = tt.addptr %13, %4 : tensor<128x!tt.ptr<f32>>, tensor<128xi32> loc(#loc12)
    %15 = tt.load %14 : tensor<128x!tt.ptr<f32>> loc(#loc13)
    %16 = tt.splat %arg5 : !tt.ptr<f32> -> tensor<128x!tt.ptr<f32>> loc(#loc14)
    %17 = tt.addptr %16, %6 : tensor<128x!tt.ptr<f32>>, tensor<128xi32> loc(#loc14)
    %18 = tt.load %17 evictionPolicy = evict_last : tensor<128x!tt.ptr<f32>> loc(#loc15)
    %19 = arith.extsi %5 : tensor<128xi32> to tensor<128xi64> loc(#loc16)
    %20 = arith.cmpi slt, %19, %cst_3 : tensor<128xi64> loc(#loc16)
    %21 = arith.addi %6, %cst_2 : tensor<128xi32> loc(#loc17)
    %22 = arith.muli %5, %cst_1 : tensor<128xi32> loc(#loc18)
    %23 = arith.addi %21, %22 : tensor<128xi32> loc(#loc19)
    %24 = tt.splat %arg1 : !tt.ptr<f32> -> tensor<128x!tt.ptr<f32>> loc(#loc20)
    %25 = tt.addptr %24, %23 : tensor<128x!tt.ptr<f32>>, tensor<128xi32> loc(#loc20)
    %26 = tt.load %25, %20, %cst_0 : tensor<128x!tt.ptr<f32>> loc(#loc21)
    %27 = arith.cmpi sge, %19, %cst_3 : tensor<128xi64> loc(#loc22)
    %28 = arith.addi %5, %cst : tensor<128xi32> loc(#loc23)
    %29 = arith.muli %28, %cst_1 : tensor<128xi32> loc(#loc24)
    %30 = arith.addi %21, %29 : tensor<128xi32> loc(#loc25)
    %31 = tt.splat %arg2 : !tt.ptr<f32> -> tensor<128x!tt.ptr<f32>> loc(#loc26)
    %32 = tt.addptr %31, %30 : tensor<128x!tt.ptr<f32>>, tensor<128xi32> loc(#loc26)
    %33 = tt.load %32, %27, %cst_0 : tensor<128x!tt.ptr<f32>> loc(#loc27)
    %34 = arith.select %20, %26, %33 : tensor<128xi1>, tensor<128xf32> loc(#loc28)
    %35 = arith.addf %9, %12 : tensor<128xf32> loc(#loc29)
    %36 = arith.addf %34, %35 : tensor<128xf32> loc(#loc30)
    %37 = arith.addf %15, %18 : tensor<128xf32> loc(#loc31)
    %38 = arith.addf %36, %37 : tensor<128xf32> loc(#loc32)
    tt.store %14, %38 : tensor<128x!tt.ptr<f32>> loc(#loc33)
    tt.return loc(#loc34)
  } loc(#loc)
} loc(#loc)
#loc1 = loc(unknown)
#loc2 = loc("/orcd/home/002/osbo/ondemand/fluid-sim/Assets/Scripts/.torch_inductor_cache/lb/clb2sfwzcfqcr523gi7adddtaivytcurkca3cymtxzk6zuoc63xf.py":20:28)
#loc3 = loc("/orcd/home/002/osbo/ondemand/fluid-sim/Assets/Scripts/.torch_inductor_cache/lb/clb2sfwzcfqcr523gi7adddtaivytcurkca3cymtxzk6zuoc63xf.py":20:33)
#loc4 = loc("/orcd/home/002/osbo/ondemand/fluid-sim/Assets/Scripts/.torch_inductor_cache/lb/clb2sfwzcfqcr523gi7adddtaivytcurkca3cymtxzk6zuoc63xf.py":21:36)
#loc5 = loc("/orcd/home/002/osbo/ondemand/fluid-sim/Assets/Scripts/.torch_inductor_cache/lb/clb2sfwzcfqcr523gi7adddtaivytcurkca3cymtxzk6zuoc63xf.py":21:23)
#loc6 = loc("/orcd/home/002/osbo/ondemand/fluid-sim/Assets/Scripts/.torch_inductor_cache/lb/clb2sfwzcfqcr523gi7adddtaivytcurkca3cymtxzk6zuoc63xf.py":23:20)
#loc7 = loc("/orcd/home/002/osbo/ondemand/fluid-sim/Assets/Scripts/.torch_inductor_cache/lb/clb2sfwzcfqcr523gi7adddtaivytcurkca3cymtxzk6zuoc63xf.py":24:18)
#loc8 = loc("/orcd/home/002/osbo/ondemand/fluid-sim/Assets/Scripts/.torch_inductor_cache/lb/clb2sfwzcfqcr523gi7adddtaivytcurkca3cymtxzk6zuoc63xf.py":26:31)
#loc9 = loc("/orcd/home/002/osbo/ondemand/fluid-sim/Assets/Scripts/.torch_inductor_cache/lb/clb2sfwzcfqcr523gi7adddtaivytcurkca3cymtxzk6zuoc63xf.py":26:36)
#loc10 = loc("/orcd/home/002/osbo/ondemand/fluid-sim/Assets/Scripts/.torch_inductor_cache/lb/clb2sfwzcfqcr523gi7adddtaivytcurkca3cymtxzk6zuoc63xf.py":27:31)
#loc11 = loc("/orcd/home/002/osbo/ondemand/fluid-sim/Assets/Scripts/.torch_inductor_cache/lb/clb2sfwzcfqcr523gi7adddtaivytcurkca3cymtxzk6zuoc63xf.py":27:36)
#loc12 = loc("/orcd/home/002/osbo/ondemand/fluid-sim/Assets/Scripts/.torch_inductor_cache/lb/clb2sfwzcfqcr523gi7adddtaivytcurkca3cymtxzk6zuoc63xf.py":28:35)
#loc13 = loc("/orcd/home/002/osbo/ondemand/fluid-sim/Assets/Scripts/.torch_inductor_cache/lb/clb2sfwzcfqcr523gi7adddtaivytcurkca3cymtxzk6zuoc63xf.py":28:40)
#loc14 = loc("/orcd/home/002/osbo/ondemand/fluid-sim/Assets/Scripts/.torch_inductor_cache/lb/clb2sfwzcfqcr523gi7adddtaivytcurkca3cymtxzk6zuoc63xf.py":29:31)
#loc15 = loc("/orcd/home/002/osbo/ondemand/fluid-sim/Assets/Scripts/.torch_inductor_cache/lb/clb2sfwzcfqcr523gi7adddtaivytcurkca3cymtxzk6zuoc63xf.py":29:36)
#loc16 = loc("/orcd/home/002/osbo/ondemand/fluid-sim/Assets/Scripts/.torch_inductor_cache/lb/clb2sfwzcfqcr523gi7adddtaivytcurkca3cymtxzk6zuoc63xf.py":34:18)
#loc17 = loc("/orcd/home/002/osbo/ondemand/fluid-sim/Assets/Scripts/.torch_inductor_cache/lb/clb2sfwzcfqcr523gi7adddtaivytcurkca3cymtxzk6zuoc63xf.py":35:37)
#loc18 = loc("/orcd/home/002/osbo/ondemand/fluid-sim/Assets/Scripts/.torch_inductor_cache/lb/clb2sfwzcfqcr523gi7adddtaivytcurkca3cymtxzk6zuoc63xf.py":35:48)
#loc19 = loc("/orcd/home/002/osbo/ondemand/fluid-sim/Assets/Scripts/.torch_inductor_cache/lb/clb2sfwzcfqcr523gi7adddtaivytcurkca3cymtxzk6zuoc63xf.py":35:43)
#loc20 = loc("/orcd/home/002/osbo/ondemand/fluid-sim/Assets/Scripts/.torch_inductor_cache/lb/clb2sfwzcfqcr523gi7adddtaivytcurkca3cymtxzk6zuoc63xf.py":35:30)
#loc21 = loc("/orcd/home/002/osbo/ondemand/fluid-sim/Assets/Scripts/.torch_inductor_cache/lb/clb2sfwzcfqcr523gi7adddtaivytcurkca3cymtxzk6zuoc63xf.py":35:54)
#loc22 = loc("/orcd/home/002/osbo/ondemand/fluid-sim/Assets/Scripts/.torch_inductor_cache/lb/clb2sfwzcfqcr523gi7adddtaivytcurkca3cymtxzk6zuoc63xf.py":36:19)
#loc23 = loc("/orcd/home/002/osbo/ondemand/fluid-sim/Assets/Scripts/.torch_inductor_cache/lb/clb2sfwzcfqcr523gi7adddtaivytcurkca3cymtxzk6zuoc63xf.py":39:57)
#loc24 = loc("/orcd/home/002/osbo/ondemand/fluid-sim/Assets/Scripts/.torch_inductor_cache/lb/clb2sfwzcfqcr523gi7adddtaivytcurkca3cymtxzk6zuoc63xf.py":39:49)
#loc25 = loc("/orcd/home/002/osbo/ondemand/fluid-sim/Assets/Scripts/.torch_inductor_cache/lb/clb2sfwzcfqcr523gi7adddtaivytcurkca3cymtxzk6zuoc63xf.py":39:43)
#loc26 = loc("/orcd/home/002/osbo/ondemand/fluid-sim/Assets/Scripts/.torch_inductor_cache/lb/clb2sfwzcfqcr523gi7adddtaivytcurkca3cymtxzk6zuoc63xf.py":39:30)
#loc27 = loc("/orcd/home/002/osbo/ondemand/fluid-sim/Assets/Scripts/.torch_inductor_cache/lb/clb2sfwzcfqcr523gi7adddtaivytcurkca3cymtxzk6zuoc63xf.py":39:64)
#loc28 = loc("/orcd/home/002/osbo/ondemand/fluid-sim/Assets/Scripts/.torch_inductor_cache/lb/clb2sfwzcfqcr523gi7adddtaivytcurkca3cymtxzk6zuoc63xf.py":40:33)
#loc29 = loc("/orcd/home/002/osbo/ondemand/fluid-sim/Assets/Scripts/.torch_inductor_cache/lb/clb2sfwzcfqcr523gi7adddtaivytcurkca3cymtxzk6zuoc63xf.py":41:20)
#loc30 = loc("/orcd/home/002/osbo/ondemand/fluid-sim/Assets/Scripts/.torch_inductor_cache/lb/clb2sfwzcfqcr523gi7adddtaivytcurkca3cymtxzk6zuoc63xf.py":42:20)
#loc31 = loc("/orcd/home/002/osbo/ondemand/fluid-sim/Assets/Scripts/.torch_inductor_cache/lb/clb2sfwzcfqcr523gi7adddtaivytcurkca3cymtxzk6zuoc63xf.py":43:20)
#loc32 = loc("/orcd/home/002/osbo/ondemand/fluid-sim/Assets/Scripts/.torch_inductor_cache/lb/clb2sfwzcfqcr523gi7adddtaivytcurkca3cymtxzk6zuoc63xf.py":44:20)
#loc33 = loc("/orcd/home/002/osbo/ondemand/fluid-sim/Assets/Scripts/.torch_inductor_cache/lb/clb2sfwzcfqcr523gi7adddtaivytcurkca3cymtxzk6zuoc63xf.py":45:40)
#loc34 = loc("/orcd/home/002/osbo/ondemand/fluid-sim/Assets/Scripts/.torch_inductor_cache/lb/clb2sfwzcfqcr523gi7adddtaivytcurkca3cymtxzk6zuoc63xf.py":45:4)
