#loc = loc("/orcd/home/002/osbo/ondemand/fluid-sim/Assets/Scripts/.torch_inductor_cache/75/c75zld463bhfpg6n5lklxi76oil2rgr6kj4cs6x6hlkn3cyeyhsp.py":18:0)
module {
  tt.func public @triton_(%arg0: !tt.ptr<f32> {tt.divisibility = 16 : i32} loc("/orcd/home/002/osbo/ondemand/fluid-sim/Assets/Scripts/.torch_inductor_cache/75/c75zld463bhfpg6n5lklxi76oil2rgr6kj4cs6x6hlkn3cyeyhsp.py":18:0), %arg1: !tt.ptr<f32> {tt.divisibility = 16 : i32} loc("/orcd/home/002/osbo/ondemand/fluid-sim/Assets/Scripts/.torch_inductor_cache/75/c75zld463bhfpg6n5lklxi76oil2rgr6kj4cs6x6hlkn3cyeyhsp.py":18:0), %arg2: !tt.ptr<f32> {tt.divisibility = 16 : i32} loc("/orcd/home/002/osbo/ondemand/fluid-sim/Assets/Scripts/.torch_inductor_cache/75/c75zld463bhfpg6n5lklxi76oil2rgr6kj4cs6x6hlkn3cyeyhsp.py":18:0), %arg3: i32 {tt.divisibility = 16 : i32} loc("/orcd/home/002/osbo/ondemand/fluid-sim/Assets/Scripts/.torch_inductor_cache/75/c75zld463bhfpg6n5lklxi76oil2rgr6kj4cs6x6hlkn3cyeyhsp.py":18:0)) attributes {noinline = false} {
    %cst = arith.constant dense<1.000000e+00> : tensor<1024xf32> loc(#loc1)
    %cst_0 = arith.constant dense<0.000000e+00> : tensor<1024xf32> loc(#loc1)
    %cst_1 = arith.constant dense<3> : tensor<1024xi32> loc(#loc1)
    %cst_2 = arith.constant dense<32> : tensor<1024xi32> loc(#loc1)
    %cst_3 = arith.constant dense<33> : tensor<1024xi32> loc(#loc1)
    %cst_4 = arith.constant dense<4> : tensor<1024xi32> loc(#loc1)
    %c1024_i32 = arith.constant 1024 : i32 loc(#loc1)
    %0 = tt.get_program_id x : i32 loc(#loc2)
    %1 = arith.muli %0, %c1024_i32 : i32 loc(#loc3)
    %2 = tt.make_range {end = 1024 : i32, start = 0 : i32} : tensor<1024xi32> loc(#loc4)
    %3 = tt.splat %1 : i32 -> tensor<1024xi32> loc(#loc5)
    %4 = arith.addi %3, %2 : tensor<1024xi32> loc(#loc5)
    %5 = arith.divsi %4, %cst_4 : tensor<1024xi32> loc(#loc6)
    %6 = arith.remsi %5, %cst_3 : tensor<1024xi32> loc(#loc7)
    %7 = arith.remsi %4, %cst_4 : tensor<1024xi32> loc(#loc8)
    %8 = tt.splat %arg0 : !tt.ptr<f32> -> tensor<1024x!tt.ptr<f32>> loc(#loc9)
    %9 = tt.addptr %8, %4 : tensor<1024x!tt.ptr<f32>>, tensor<1024xi32> loc(#loc9)
    %10 = tt.load %9 : tensor<1024x!tt.ptr<f32>> loc(#loc10)
    %11 = arith.cmpi eq, %6, %cst_2 : tensor<1024xi32> loc(#loc11)
    %12 = arith.cmpi eq, %7, %cst_1 : tensor<1024xi32> loc(#loc12)
    %13 = arith.select %12, %cst, %cst_0 : tensor<1024xi1>, tensor<1024xf32> loc(#loc13)
    %14 = arith.select %11, %13, %10 : tensor<1024xi1>, tensor<1024xf32> loc(#loc21)
    %15 = tt.splat %arg1 : !tt.ptr<f32> -> tensor<1024x!tt.ptr<f32>> loc(#loc16)
    %16 = tt.addptr %15, %4 : tensor<1024x!tt.ptr<f32>>, tensor<1024xi32> loc(#loc16)
    tt.store %16, %14 : tensor<1024x!tt.ptr<f32>> loc(#loc17)
    %17 = tt.splat %arg2 : !tt.ptr<f32> -> tensor<1024x!tt.ptr<f32>> loc(#loc18)
    %18 = tt.addptr %17, %4 : tensor<1024x!tt.ptr<f32>>, tensor<1024xi32> loc(#loc18)
    tt.store %18, %14 : tensor<1024x!tt.ptr<f32>> loc(#loc19)
    tt.return loc(#loc20)
  } loc(#loc)
} loc(#loc)
#loc1 = loc(unknown)
#loc2 = loc("/orcd/home/002/osbo/ondemand/fluid-sim/Assets/Scripts/.torch_inductor_cache/75/c75zld463bhfpg6n5lklxi76oil2rgr6kj4cs6x6hlkn3cyeyhsp.py":20:28)
#loc3 = loc("/orcd/home/002/osbo/ondemand/fluid-sim/Assets/Scripts/.torch_inductor_cache/75/c75zld463bhfpg6n5lklxi76oil2rgr6kj4cs6x6hlkn3cyeyhsp.py":20:33)
#loc4 = loc("/orcd/home/002/osbo/ondemand/fluid-sim/Assets/Scripts/.torch_inductor_cache/75/c75zld463bhfpg6n5lklxi76oil2rgr6kj4cs6x6hlkn3cyeyhsp.py":21:36)
#loc5 = loc("/orcd/home/002/osbo/ondemand/fluid-sim/Assets/Scripts/.torch_inductor_cache/75/c75zld463bhfpg6n5lklxi76oil2rgr6kj4cs6x6hlkn3cyeyhsp.py":21:23)
#loc6 = loc("/orcd/home/002/osbo/ondemand/fluid-sim/Assets/Scripts/.torch_inductor_cache/75/c75zld463bhfpg6n5lklxi76oil2rgr6kj4cs6x6hlkn3cyeyhsp.py":23:20)
#loc7 = loc("/orcd/home/002/osbo/ondemand/fluid-sim/Assets/Scripts/.torch_inductor_cache/75/c75zld463bhfpg6n5lklxi76oil2rgr6kj4cs6x6hlkn3cyeyhsp.py":23:25)
#loc8 = loc("/orcd/home/002/osbo/ondemand/fluid-sim/Assets/Scripts/.torch_inductor_cache/75/c75zld463bhfpg6n5lklxi76oil2rgr6kj4cs6x6hlkn3cyeyhsp.py":24:18)
#loc9 = loc("/orcd/home/002/osbo/ondemand/fluid-sim/Assets/Scripts/.torch_inductor_cache/75/c75zld463bhfpg6n5lklxi76oil2rgr6kj4cs6x6hlkn3cyeyhsp.py":28:31)
#loc10 = loc("/orcd/home/002/osbo/ondemand/fluid-sim/Assets/Scripts/.torch_inductor_cache/75/c75zld463bhfpg6n5lklxi76oil2rgr6kj4cs6x6hlkn3cyeyhsp.py":28:36)
#loc11 = loc("/orcd/home/002/osbo/ondemand/fluid-sim/Assets/Scripts/.torch_inductor_cache/75/c75zld463bhfpg6n5lklxi76oil2rgr6kj4cs6x6hlkn3cyeyhsp.py":31:19)
#loc12 = loc("/orcd/home/002/osbo/ondemand/fluid-sim/Assets/Scripts/.torch_inductor_cache/75/c75zld463bhfpg6n5lklxi76oil2rgr6kj4cs6x6hlkn3cyeyhsp.py":34:19)
#loc13 = loc("/orcd/home/002/osbo/ondemand/fluid-sim/Assets/Scripts/.torch_inductor_cache/75/c75zld463bhfpg6n5lklxi76oil2rgr6kj4cs6x6hlkn3cyeyhsp.py":39:34)
#loc14 = loc("/orcd/home/002/osbo/ondemand/fluid-sim/Assets/Scripts/.torch_inductor_cache/75/c75zld463bhfpg6n5lklxi76oil2rgr6kj4cs6x6hlkn3cyeyhsp.py":41:34)
#loc15 = loc("/orcd/home/002/osbo/ondemand/fluid-sim/Assets/Scripts/.torch_inductor_cache/75/c75zld463bhfpg6n5lklxi76oil2rgr6kj4cs6x6hlkn3cyeyhsp.py":40:33)
#loc16 = loc("/orcd/home/002/osbo/ondemand/fluid-sim/Assets/Scripts/.torch_inductor_cache/75/c75zld463bhfpg6n5lklxi76oil2rgr6kj4cs6x6hlkn3cyeyhsp.py":42:25)
#loc17 = loc("/orcd/home/002/osbo/ondemand/fluid-sim/Assets/Scripts/.torch_inductor_cache/75/c75zld463bhfpg6n5lklxi76oil2rgr6kj4cs6x6hlkn3cyeyhsp.py":42:37)
#loc18 = loc("/orcd/home/002/osbo/ondemand/fluid-sim/Assets/Scripts/.torch_inductor_cache/75/c75zld463bhfpg6n5lklxi76oil2rgr6kj4cs6x6hlkn3cyeyhsp.py":43:25)
#loc19 = loc("/orcd/home/002/osbo/ondemand/fluid-sim/Assets/Scripts/.torch_inductor_cache/75/c75zld463bhfpg6n5lklxi76oil2rgr6kj4cs6x6hlkn3cyeyhsp.py":43:37)
#loc20 = loc("/orcd/home/002/osbo/ondemand/fluid-sim/Assets/Scripts/.torch_inductor_cache/75/c75zld463bhfpg6n5lklxi76oil2rgr6kj4cs6x6hlkn3cyeyhsp.py":43:4)
#loc21 = loc(fused[#loc14, #loc15])
