#loc = loc("/orcd/home/002/osbo/ondemand/fluid-sim/Assets/Scripts/.torch_inductor_cache/sp/cspwhvqs7pv3pgt55zc3wbmcj6h2zihpacmalhsxm7rqmi7cq6dt.py":18:0)
#loc1 = loc(unknown)
module {
  tt.func public @triton_(%arg0: !tt.ptr<f32> {tt.divisibility = 16 : i32} loc("/orcd/home/002/osbo/ondemand/fluid-sim/Assets/Scripts/.torch_inductor_cache/sp/cspwhvqs7pv3pgt55zc3wbmcj6h2zihpacmalhsxm7rqmi7cq6dt.py":18:0), %arg1: !tt.ptr<f32> {tt.divisibility = 16 : i32} loc("/orcd/home/002/osbo/ondemand/fluid-sim/Assets/Scripts/.torch_inductor_cache/sp/cspwhvqs7pv3pgt55zc3wbmcj6h2zihpacmalhsxm7rqmi7cq6dt.py":18:0), %arg2: i32 {tt.divisibility = 16 : i32} loc("/orcd/home/002/osbo/ondemand/fluid-sim/Assets/Scripts/.torch_inductor_cache/sp/cspwhvqs7pv3pgt55zc3wbmcj6h2zihpacmalhsxm7rqmi7cq6dt.py":18:0), %arg3: i32 {tt.divisibility = 16 : i32} loc("/orcd/home/002/osbo/ondemand/fluid-sim/Assets/Scripts/.torch_inductor_cache/sp/cspwhvqs7pv3pgt55zc3wbmcj6h2zihpacmalhsxm7rqmi7cq6dt.py":18:0)) attributes {noinline = false} {
    %cst = arith.constant dense<16896> : tensor<128x1xi32> loc(#loc1)
    %cst_0 = arith.constant dense<3.200000e+01> : tensor<128x1xf32> loc(#loc1)
    %cst_1 = arith.constant dense<8.000000e+00> : tensor<128x32xf32> loc(#loc1)
    %cst_2 = arith.constant dense<0.000000e+00> : tensor<128x32xf32> loc(#loc1)
    %cst_3 = arith.constant dense<16384> : tensor<128x1xi32> loc(#loc1)
    %cst_4 = arith.constant dense<512> : tensor<1x32xi32> loc(#loc1)
    %cst_5 = arith.constant dense<512> : tensor<128x1xi32> loc(#loc1)
    %cst_6 = arith.constant dense<3072> : tensor<128x1xi32> loc(#loc1)
    %c128_i32 = arith.constant 128 : i32 loc(#loc1)
    %0 = tt.get_program_id x : i32 loc(#loc2)
    %1 = arith.muli %0, %c128_i32 : i32 loc(#loc3)
    %2 = tt.make_range {end = 128 : i32, start = 0 : i32} : tensor<128xi32> loc(#loc4)
    %3 = tt.expand_dims %2 {axis = 1 : i32} : tensor<128xi32> -> tensor<128x1xi32> loc(#loc5)
    %4 = tt.splat %1 : i32 -> tensor<128x1xi32> loc(#loc6)
    %5 = arith.addi %4, %3 : tensor<128x1xi32> loc(#loc6)
    %6 = arith.cmpi slt, %5, %cst_6 : tensor<128x1xi32> loc(#loc7)
    %7 = tt.make_range {end = 32 : i32, start = 0 : i32} : tensor<32xi32> loc(#loc8)
    %8 = tt.expand_dims %7 {axis = 0 : i32} : tensor<32xi32> -> tensor<1x32xi32> loc(#loc9)
    %9 = arith.remsi %5, %cst_5 : tensor<128x1xi32> loc(#loc10)
    %10 = arith.divsi %5, %cst_5 : tensor<128x1xi32> loc(#loc11)
    %11 = arith.muli %8, %cst_4 : tensor<1x32xi32> loc(#loc12)
    %12 = tt.broadcast %9 : tensor<128x1xi32> -> tensor<128x32xi32> loc(#loc13)
    %13 = tt.broadcast %11 : tensor<1x32xi32> -> tensor<128x32xi32> loc(#loc13)
    %14 = arith.addi %12, %13 : tensor<128x32xi32> loc(#loc13)
    %15 = arith.muli %10, %cst_3 : tensor<128x1xi32> loc(#loc14)
    %16 = tt.broadcast %15 : tensor<128x1xi32> -> tensor<128x32xi32> loc(#loc15)
    %17 = arith.addi %14, %16 : tensor<128x32xi32> loc(#loc15)
    %18 = tt.splat %arg0 : !tt.ptr<f32> -> tensor<128x32x!tt.ptr<f32>> loc(#loc16)
    %19 = tt.addptr %18, %17 : tensor<128x32x!tt.ptr<f32>>, tensor<128x32xi32> loc(#loc16)
    %20 = tt.broadcast %6 : tensor<128x1xi1> -> tensor<128x32xi1> loc(#loc17)
    %21 = tt.load %19, %20, %cst_2 : tensor<128x32x!tt.ptr<f32>> loc(#loc17)
    %22 = arith.divf %21, %cst_1 : tensor<128x32xf32> loc(#loc18)
    %23 = arith.select %20, %22, %cst_2 : tensor<128x32xi1>, tensor<128x32xf32> loc(#loc19)
    %24 = "tt.reduce"(%23) <{axis = 1 : i32}> ({
    ^bb0(%arg4: f32 loc(unknown), %arg5: f32 loc(unknown)):
      %31 = arith.addf %arg4, %arg5 : f32 loc(#loc32)
      tt.reduce.return %31 : f32 loc(#loc30)
    }) : (tensor<128x32xf32>) -> tensor<128xf32> loc(#loc30)
    %25 = tt.expand_dims %24 {axis = 1 : i32} : tensor<128xf32> -> tensor<128x1xf32> loc(#loc23)
    %26 = arith.divf %25, %cst_0 : tensor<128x1xf32> loc(#loc24)
    %27 = arith.muli %10, %cst : tensor<128x1xi32> loc(#loc25)
    %28 = arith.addi %9, %27 : tensor<128x1xi32> loc(#loc26)
    %29 = tt.splat %arg1 : !tt.ptr<f32> -> tensor<128x1x!tt.ptr<f32>> loc(#loc27)
    %30 = tt.addptr %29, %28 : tensor<128x1x!tt.ptr<f32>>, tensor<128x1xi32> loc(#loc27)
    tt.store %30, %26, %6 : tensor<128x1x!tt.ptr<f32>> loc(#loc28)
    tt.return loc(#loc29)
  } loc(#loc)
} loc(#loc)
#loc2 = loc("/orcd/home/002/osbo/ondemand/fluid-sim/Assets/Scripts/.torch_inductor_cache/sp/cspwhvqs7pv3pgt55zc3wbmcj6h2zihpacmalhsxm7rqmi7cq6dt.py":22:28)
#loc3 = loc("/orcd/home/002/osbo/ondemand/fluid-sim/Assets/Scripts/.torch_inductor_cache/sp/cspwhvqs7pv3pgt55zc3wbmcj6h2zihpacmalhsxm7rqmi7cq6dt.py":22:33)
#loc4 = loc("/orcd/home/002/osbo/ondemand/fluid-sim/Assets/Scripts/.torch_inductor_cache/sp/cspwhvqs7pv3pgt55zc3wbmcj6h2zihpacmalhsxm7rqmi7cq6dt.py":23:36)
#loc5 = loc("/orcd/home/002/osbo/ondemand/fluid-sim/Assets/Scripts/.torch_inductor_cache/sp/cspwhvqs7pv3pgt55zc3wbmcj6h2zihpacmalhsxm7rqmi7cq6dt.py":23:44)
#loc6 = loc("/orcd/home/002/osbo/ondemand/fluid-sim/Assets/Scripts/.torch_inductor_cache/sp/cspwhvqs7pv3pgt55zc3wbmcj6h2zihpacmalhsxm7rqmi7cq6dt.py":23:23)
#loc7 = loc("/orcd/home/002/osbo/ondemand/fluid-sim/Assets/Scripts/.torch_inductor_cache/sp/cspwhvqs7pv3pgt55zc3wbmcj6h2zihpacmalhsxm7rqmi7cq6dt.py":24:21)
#loc8 = loc("/orcd/home/002/osbo/ondemand/fluid-sim/Assets/Scripts/.torch_inductor_cache/sp/cspwhvqs7pv3pgt55zc3wbmcj6h2zihpacmalhsxm7rqmi7cq6dt.py":25:26)
#loc9 = loc("/orcd/home/002/osbo/ondemand/fluid-sim/Assets/Scripts/.torch_inductor_cache/sp/cspwhvqs7pv3pgt55zc3wbmcj6h2zihpacmalhsxm7rqmi7cq6dt.py":25:34)
#loc10 = loc("/orcd/home/002/osbo/ondemand/fluid-sim/Assets/Scripts/.torch_inductor_cache/sp/cspwhvqs7pv3pgt55zc3wbmcj6h2zihpacmalhsxm7rqmi7cq6dt.py":29:18)
#loc11 = loc("/orcd/home/002/osbo/ondemand/fluid-sim/Assets/Scripts/.torch_inductor_cache/sp/cspwhvqs7pv3pgt55zc3wbmcj6h2zihpacmalhsxm7rqmi7cq6dt.py":30:20)
#loc12 = loc("/orcd/home/002/osbo/ondemand/fluid-sim/Assets/Scripts/.torch_inductor_cache/sp/cspwhvqs7pv3pgt55zc3wbmcj6h2zihpacmalhsxm7rqmi7cq6dt.py":32:40)
#loc13 = loc("/orcd/home/002/osbo/ondemand/fluid-sim/Assets/Scripts/.torch_inductor_cache/sp/cspwhvqs7pv3pgt55zc3wbmcj6h2zihpacmalhsxm7rqmi7cq6dt.py":32:36)
#loc14 = loc("/orcd/home/002/osbo/ondemand/fluid-sim/Assets/Scripts/.torch_inductor_cache/sp/cspwhvqs7pv3pgt55zc3wbmcj6h2zihpacmalhsxm7rqmi7cq6dt.py":32:53)
#loc15 = loc("/orcd/home/002/osbo/ondemand/fluid-sim/Assets/Scripts/.torch_inductor_cache/sp/cspwhvqs7pv3pgt55zc3wbmcj6h2zihpacmalhsxm7rqmi7cq6dt.py":32:47)
#loc16 = loc("/orcd/home/002/osbo/ondemand/fluid-sim/Assets/Scripts/.torch_inductor_cache/sp/cspwhvqs7pv3pgt55zc3wbmcj6h2zihpacmalhsxm7rqmi7cq6dt.py":32:30)
#loc17 = loc("/orcd/home/002/osbo/ondemand/fluid-sim/Assets/Scripts/.torch_inductor_cache/sp/cspwhvqs7pv3pgt55zc3wbmcj6h2zihpacmalhsxm7rqmi7cq6dt.py":32:59)
#loc18 = loc("/orcd/home/002/osbo/ondemand/fluid-sim/Assets/Scripts/.torch_inductor_cache/sp/cspwhvqs7pv3pgt55zc3wbmcj6h2zihpacmalhsxm7rqmi7cq6dt.py":34:18)
#loc19 = loc("/orcd/home/002/osbo/ondemand/fluid-sim/Assets/Scripts/.torch_inductor_cache/sp/cspwhvqs7pv3pgt55zc3wbmcj6h2zihpacmalhsxm7rqmi7cq6dt.py":36:33)
#loc20 = loc("/home/osbo/.conda/envs/fluid/lib/python3.12/site-packages/triton/language/standard.py":267:36)
#loc21 = loc("/orcd/home/002/osbo/ondemand/fluid-sim/Assets/Scripts/.torch_inductor_cache/sp/cspwhvqs7pv3pgt55zc3wbmcj6h2zihpacmalhsxm7rqmi7cq6dt.py":37:24)
#loc22 = loc("/home/osbo/.conda/envs/fluid/lib/python3.12/site-packages/triton/language/standard.py":256:15)
#loc23 = loc("/orcd/home/002/osbo/ondemand/fluid-sim/Assets/Scripts/.torch_inductor_cache/sp/cspwhvqs7pv3pgt55zc3wbmcj6h2zihpacmalhsxm7rqmi7cq6dt.py":37:27)
#loc24 = loc("/orcd/home/002/osbo/ondemand/fluid-sim/Assets/Scripts/.torch_inductor_cache/sp/cspwhvqs7pv3pgt55zc3wbmcj6h2zihpacmalhsxm7rqmi7cq6dt.py":39:18)
#loc25 = loc("/orcd/home/002/osbo/ondemand/fluid-sim/Assets/Scripts/.torch_inductor_cache/sp/cspwhvqs7pv3pgt55zc3wbmcj6h2zihpacmalhsxm7rqmi7cq6dt.py":40:37)
#loc26 = loc("/orcd/home/002/osbo/ondemand/fluid-sim/Assets/Scripts/.torch_inductor_cache/sp/cspwhvqs7pv3pgt55zc3wbmcj6h2zihpacmalhsxm7rqmi7cq6dt.py":40:31)
#loc27 = loc("/orcd/home/002/osbo/ondemand/fluid-sim/Assets/Scripts/.torch_inductor_cache/sp/cspwhvqs7pv3pgt55zc3wbmcj6h2zihpacmalhsxm7rqmi7cq6dt.py":40:25)
#loc28 = loc("/orcd/home/002/osbo/ondemand/fluid-sim/Assets/Scripts/.torch_inductor_cache/sp/cspwhvqs7pv3pgt55zc3wbmcj6h2zihpacmalhsxm7rqmi7cq6dt.py":40:49)
#loc29 = loc("/orcd/home/002/osbo/ondemand/fluid-sim/Assets/Scripts/.torch_inductor_cache/sp/cspwhvqs7pv3pgt55zc3wbmcj6h2zihpacmalhsxm7rqmi7cq6dt.py":40:4)
#loc30 = loc(callsite(#loc20 at #loc21))
#loc31 = loc(callsite(#loc22 at #loc20))
#loc32 = loc(callsite(#loc31 at #loc21))
