#loc = loc("/orcd/home/002/osbo/ondemand/fluid-sim/Assets/Scripts/.torch_inductor_cache/ah/cahosifbhyw66xzp2ysmcrm2vo662otgxazlj4ofuyta5auodcnl.py":18:0)
#loc1 = loc(unknown)
module {
  tt.func public @triton_(%arg0: !tt.ptr<f32> {tt.divisibility = 16 : i32} loc("/orcd/home/002/osbo/ondemand/fluid-sim/Assets/Scripts/.torch_inductor_cache/ah/cahosifbhyw66xzp2ysmcrm2vo662otgxazlj4ofuyta5auodcnl.py":18:0), %arg1: !tt.ptr<f32> {tt.divisibility = 16 : i32} loc("/orcd/home/002/osbo/ondemand/fluid-sim/Assets/Scripts/.torch_inductor_cache/ah/cahosifbhyw66xzp2ysmcrm2vo662otgxazlj4ofuyta5auodcnl.py":18:0), %arg2: i32 {tt.divisibility = 16 : i32} loc("/orcd/home/002/osbo/ondemand/fluid-sim/Assets/Scripts/.torch_inductor_cache/ah/cahosifbhyw66xzp2ysmcrm2vo662otgxazlj4ofuyta5auodcnl.py":18:0), %arg3: i32 {tt.divisibility = 16 : i32} loc("/orcd/home/002/osbo/ondemand/fluid-sim/Assets/Scripts/.torch_inductor_cache/ah/cahosifbhyw66xzp2ysmcrm2vo662otgxazlj4ofuyta5auodcnl.py":18:0)) attributes {noinline = false} {
    %cst = arith.constant dense<4.096000e+03> : tensor<16x1xf32> loc(#loc1)
    %cst_0 = arith.constant dense<0.000000e+00> : tensor<16x32xf32> loc(#loc1)
    %cst_1 = arith.constant dense<128> : tensor<1x32xi32> loc(#loc1)
    %cst_2 = arith.constant dense<128> : tensor<16x1xi32> loc(#loc1)
    %c16_i32 = arith.constant 16 : i32 loc(#loc1)
    %0 = tt.get_program_id x : i32 loc(#loc2)
    %1 = arith.muli %0, %c16_i32 : i32 loc(#loc3)
    %2 = tt.make_range {end = 16 : i32, start = 0 : i32} : tensor<16xi32> loc(#loc4)
    %3 = tt.expand_dims %2 {axis = 1 : i32} : tensor<16xi32> -> tensor<16x1xi32> loc(#loc5)
    %4 = tt.splat %1 : i32 -> tensor<16x1xi32> loc(#loc6)
    %5 = arith.addi %4, %3 : tensor<16x1xi32> loc(#loc6)
    %6 = arith.cmpi slt, %5, %cst_2 : tensor<16x1xi32> loc(#loc7)
    %7 = tt.make_range {end = 32 : i32, start = 0 : i32} : tensor<32xi32> loc(#loc8)
    %8 = tt.expand_dims %7 {axis = 0 : i32} : tensor<32xi32> -> tensor<1x32xi32> loc(#loc9)
    %9 = arith.muli %8, %cst_1 : tensor<1x32xi32> loc(#loc10)
    %10 = tt.broadcast %5 : tensor<16x1xi32> -> tensor<16x32xi32> loc(#loc11)
    %11 = tt.broadcast %9 : tensor<1x32xi32> -> tensor<16x32xi32> loc(#loc11)
    %12 = arith.addi %10, %11 : tensor<16x32xi32> loc(#loc11)
    %13 = tt.splat %arg1 : !tt.ptr<f32> -> tensor<16x32x!tt.ptr<f32>> loc(#loc12)
    %14 = tt.addptr %13, %12 : tensor<16x32x!tt.ptr<f32>>, tensor<16x32xi32> loc(#loc12)
    %15 = tt.broadcast %6 : tensor<16x1xi1> -> tensor<16x32xi1> loc(#loc13)
    %16 = tt.load %14, %15, %cst_0 : tensor<16x32x!tt.ptr<f32>> loc(#loc13)
    %17 = arith.select %15, %16, %cst_0 : tensor<16x32xi1>, tensor<16x32xf32> loc(#loc14)
    %18 = "tt.reduce"(%17) <{axis = 1 : i32}> ({
    ^bb0(%arg4: f32 loc(unknown), %arg5: f32 loc(unknown)):
      %23 = arith.addf %arg4, %arg5 : f32 loc(#loc26)
      tt.reduce.return %23 : f32 loc(#loc24)
    }) : (tensor<16x32xf32>) -> tensor<16xf32> loc(#loc24)
    %19 = tt.expand_dims %18 {axis = 1 : i32} : tensor<16xf32> -> tensor<16x1xf32> loc(#loc18)
    %20 = arith.divf %19, %cst : tensor<16x1xf32> loc(#loc19)
    gpu.barrier loc(#loc20)
    %21 = tt.splat %arg0 : !tt.ptr<f32> -> tensor<16x1x!tt.ptr<f32>> loc(#loc21)
    %22 = tt.addptr %21, %5 : tensor<16x1x!tt.ptr<f32>>, tensor<16x1xi32> loc(#loc21)
    tt.store %22, %20, %6 : tensor<16x1x!tt.ptr<f32>> loc(#loc22)
    tt.return loc(#loc23)
  } loc(#loc)
} loc(#loc)
#loc2 = loc("/orcd/home/002/osbo/ondemand/fluid-sim/Assets/Scripts/.torch_inductor_cache/ah/cahosifbhyw66xzp2ysmcrm2vo662otgxazlj4ofuyta5auodcnl.py":22:28)
#loc3 = loc("/orcd/home/002/osbo/ondemand/fluid-sim/Assets/Scripts/.torch_inductor_cache/ah/cahosifbhyw66xzp2ysmcrm2vo662otgxazlj4ofuyta5auodcnl.py":22:33)
#loc4 = loc("/orcd/home/002/osbo/ondemand/fluid-sim/Assets/Scripts/.torch_inductor_cache/ah/cahosifbhyw66xzp2ysmcrm2vo662otgxazlj4ofuyta5auodcnl.py":23:36)
#loc5 = loc("/orcd/home/002/osbo/ondemand/fluid-sim/Assets/Scripts/.torch_inductor_cache/ah/cahosifbhyw66xzp2ysmcrm2vo662otgxazlj4ofuyta5auodcnl.py":23:44)
#loc6 = loc("/orcd/home/002/osbo/ondemand/fluid-sim/Assets/Scripts/.torch_inductor_cache/ah/cahosifbhyw66xzp2ysmcrm2vo662otgxazlj4ofuyta5auodcnl.py":23:23)
#loc7 = loc("/orcd/home/002/osbo/ondemand/fluid-sim/Assets/Scripts/.torch_inductor_cache/ah/cahosifbhyw66xzp2ysmcrm2vo662otgxazlj4ofuyta5auodcnl.py":24:21)
#loc8 = loc("/orcd/home/002/osbo/ondemand/fluid-sim/Assets/Scripts/.torch_inductor_cache/ah/cahosifbhyw66xzp2ysmcrm2vo662otgxazlj4ofuyta5auodcnl.py":25:26)
#loc9 = loc("/orcd/home/002/osbo/ondemand/fluid-sim/Assets/Scripts/.torch_inductor_cache/ah/cahosifbhyw66xzp2ysmcrm2vo662otgxazlj4ofuyta5auodcnl.py":25:34)
#loc10 = loc("/orcd/home/002/osbo/ondemand/fluid-sim/Assets/Scripts/.torch_inductor_cache/ah/cahosifbhyw66xzp2ysmcrm2vo662otgxazlj4ofuyta5auodcnl.py":30:40)
#loc11 = loc("/orcd/home/002/osbo/ondemand/fluid-sim/Assets/Scripts/.torch_inductor_cache/ah/cahosifbhyw66xzp2ysmcrm2vo662otgxazlj4ofuyta5auodcnl.py":30:36)
#loc12 = loc("/orcd/home/002/osbo/ondemand/fluid-sim/Assets/Scripts/.torch_inductor_cache/ah/cahosifbhyw66xzp2ysmcrm2vo662otgxazlj4ofuyta5auodcnl.py":30:30)
#loc13 = loc("/orcd/home/002/osbo/ondemand/fluid-sim/Assets/Scripts/.torch_inductor_cache/ah/cahosifbhyw66xzp2ysmcrm2vo662otgxazlj4ofuyta5auodcnl.py":30:46)
#loc14 = loc("/orcd/home/002/osbo/ondemand/fluid-sim/Assets/Scripts/.torch_inductor_cache/ah/cahosifbhyw66xzp2ysmcrm2vo662otgxazlj4ofuyta5auodcnl.py":32:33)
#loc15 = loc("/home/osbo/.conda/envs/fluid/lib/python3.12/site-packages/triton/language/standard.py":267:36)
#loc16 = loc("/orcd/home/002/osbo/ondemand/fluid-sim/Assets/Scripts/.torch_inductor_cache/ah/cahosifbhyw66xzp2ysmcrm2vo662otgxazlj4ofuyta5auodcnl.py":33:24)
#loc17 = loc("/home/osbo/.conda/envs/fluid/lib/python3.12/site-packages/triton/language/standard.py":256:15)
#loc18 = loc("/orcd/home/002/osbo/ondemand/fluid-sim/Assets/Scripts/.torch_inductor_cache/ah/cahosifbhyw66xzp2ysmcrm2vo662otgxazlj4ofuyta5auodcnl.py":33:27)
#loc19 = loc("/orcd/home/002/osbo/ondemand/fluid-sim/Assets/Scripts/.torch_inductor_cache/ah/cahosifbhyw66xzp2ysmcrm2vo662otgxazlj4ofuyta5auodcnl.py":35:18)
#loc20 = loc("/orcd/home/002/osbo/ondemand/fluid-sim/Assets/Scripts/.torch_inductor_cache/ah/cahosifbhyw66xzp2ysmcrm2vo662otgxazlj4ofuyta5auodcnl.py":36:4)
#loc21 = loc("/orcd/home/002/osbo/ondemand/fluid-sim/Assets/Scripts/.torch_inductor_cache/ah/cahosifbhyw66xzp2ysmcrm2vo662otgxazlj4ofuyta5auodcnl.py":37:28)
#loc22 = loc("/orcd/home/002/osbo/ondemand/fluid-sim/Assets/Scripts/.torch_inductor_cache/ah/cahosifbhyw66xzp2ysmcrm2vo662otgxazlj4ofuyta5auodcnl.py":37:39)
#loc23 = loc("/orcd/home/002/osbo/ondemand/fluid-sim/Assets/Scripts/.torch_inductor_cache/ah/cahosifbhyw66xzp2ysmcrm2vo662otgxazlj4ofuyta5auodcnl.py":37:4)
#loc24 = loc(callsite(#loc15 at #loc16))
#loc25 = loc(callsite(#loc17 at #loc15))
#loc26 = loc(callsite(#loc25 at #loc16))
