#loc = loc("/orcd/home/002/osbo/ondemand/fluid-sim/Assets/Scripts/.torch_inductor_cache/ld/clde3okjxfb56g35m4suf3k3sl2revrue4ijpfkmx6ej5eirtg7d.py":18:0)
#loc1 = loc(unknown)
module {
  tt.func public @triton_(%arg0: !tt.ptr<f32> {tt.divisibility = 16 : i32} loc("/orcd/home/002/osbo/ondemand/fluid-sim/Assets/Scripts/.torch_inductor_cache/ld/clde3okjxfb56g35m4suf3k3sl2revrue4ijpfkmx6ej5eirtg7d.py":18:0), %arg1: !tt.ptr<f32> {tt.divisibility = 16 : i32} loc("/orcd/home/002/osbo/ondemand/fluid-sim/Assets/Scripts/.torch_inductor_cache/ld/clde3okjxfb56g35m4suf3k3sl2revrue4ijpfkmx6ej5eirtg7d.py":18:0), %arg2: i32 {tt.divisibility = 16 : i32} loc("/orcd/home/002/osbo/ondemand/fluid-sim/Assets/Scripts/.torch_inductor_cache/ld/clde3okjxfb56g35m4suf3k3sl2revrue4ijpfkmx6ej5eirtg7d.py":18:0), %arg3: i32 loc("/orcd/home/002/osbo/ondemand/fluid-sim/Assets/Scripts/.torch_inductor_cache/ld/clde3okjxfb56g35m4suf3k3sl2revrue4ijpfkmx6ej5eirtg7d.py":18:0)) attributes {noinline = false} {
    %c8448_i32 = arith.constant 8448 : i32 loc(#loc1)
    %c1056_i32 = arith.constant 1056 : i32 loc(#loc1)
    %c33_i32 = arith.constant 33 : i32 loc(#loc1)
    %c256_i32 = arith.constant 256 : i32 loc(#loc1)
    %c32_i32 = arith.constant 32 : i32 loc(#loc1)
    %c8_i32 = arith.constant 8 : i32 loc(#loc1)
    %cst = arith.constant dense<0.000000e+00> : tensor<1x64xf32> loc(#loc1)
    %cst_0 = arith.constant dense<33> : tensor<1x64xi32> loc(#loc1)
    %0 = tt.get_program_id x : i32 loc(#loc2)
    %1 = tt.make_range {end = 64 : i32, start = 0 : i32} : tensor<64xi32> loc(#loc3)
    %2 = tt.expand_dims %1 {axis = 0 : i32} : tensor<64xi32> -> tensor<1x64xi32> loc(#loc4)
    %3 = arith.cmpi slt, %2, %cst_0 : tensor<1x64xi32> loc(#loc5)
    %4 = arith.remsi %0, %c8_i32 : i32 loc(#loc6)
    %5 = arith.divsi %0, %c8_i32 : i32 loc(#loc7)
    %6 = arith.remsi %5, %c32_i32 : i32 loc(#loc8)
    %7 = arith.divsi %0, %c256_i32 : i32 loc(#loc9)
    %8 = arith.muli %6, %c33_i32 : i32 loc(#loc10)
    %9 = tt.splat %8 : i32 -> tensor<1x64xi32> loc(#loc11)
    %10 = arith.addi %2, %9 : tensor<1x64xi32> loc(#loc11)
    %11 = arith.muli %4, %c1056_i32 : i32 loc(#loc12)
    %12 = tt.splat %11 : i32 -> tensor<1x64xi32> loc(#loc13)
    %13 = arith.addi %10, %12 : tensor<1x64xi32> loc(#loc13)
    %14 = arith.muli %7, %c8448_i32 : i32 loc(#loc14)
    %15 = tt.splat %14 : i32 -> tensor<1x64xi32> loc(#loc15)
    %16 = arith.addi %13, %15 : tensor<1x64xi32> loc(#loc15)
    %17 = tt.splat %arg0 : !tt.ptr<f32> -> tensor<1x64x!tt.ptr<f32>> loc(#loc16)
    %18 = tt.addptr %17, %16 : tensor<1x64x!tt.ptr<f32>>, tensor<1x64xi32> loc(#loc16)
    %19 = tt.load %18, %3, %cst : tensor<1x64x!tt.ptr<f32>> loc(#loc17)
    %20 = arith.select %3, %19, %cst : tensor<1x64xi1>, tensor<1x64xf32> loc(#loc18)
    %21 = "tt.reduce"(%20) <{axis = 1 : i32}> ({
    ^bb0(%arg4: f32 loc(unknown), %arg5: f32 loc(unknown)):
      %25 = arith.addf %arg4, %arg5 : f32 loc(#loc28)
      tt.reduce.return %25 : f32 loc(#loc26)
    }) : (tensor<1x64xf32>) -> tensor<1xf32> loc(#loc26)
    %22 = tt.expand_dims %21 {axis = 1 : i32} : tensor<1xf32> -> tensor<1x1xf32> loc(#loc22)
    %23 = tt.addptr %arg1, %0 : !tt.ptr<f32>, i32 loc(#loc23)
    %24 = tt.splat %23 : !tt.ptr<f32> -> tensor<1x1x!tt.ptr<f32>> loc(#loc23)
    tt.store %24, %22 : tensor<1x1x!tt.ptr<f32>> loc(#loc24)
    tt.return loc(#loc25)
  } loc(#loc)
} loc(#loc)
#loc2 = loc("/orcd/home/002/osbo/ondemand/fluid-sim/Assets/Scripts/.torch_inductor_cache/ld/clde3okjxfb56g35m4suf3k3sl2revrue4ijpfkmx6ej5eirtg7d.py":22:28)
#loc3 = loc("/orcd/home/002/osbo/ondemand/fluid-sim/Assets/Scripts/.torch_inductor_cache/ld/clde3okjxfb56g35m4suf3k3sl2revrue4ijpfkmx6ej5eirtg7d.py":25:26)
#loc4 = loc("/orcd/home/002/osbo/ondemand/fluid-sim/Assets/Scripts/.torch_inductor_cache/ld/clde3okjxfb56g35m4suf3k3sl2revrue4ijpfkmx6ej5eirtg7d.py":25:34)
#loc5 = loc("/orcd/home/002/osbo/ondemand/fluid-sim/Assets/Scripts/.torch_inductor_cache/ld/clde3okjxfb56g35m4suf3k3sl2revrue4ijpfkmx6ej5eirtg7d.py":27:21)
#loc6 = loc("/orcd/home/002/osbo/ondemand/fluid-sim/Assets/Scripts/.torch_inductor_cache/ld/clde3okjxfb56g35m4suf3k3sl2revrue4ijpfkmx6ej5eirtg7d.py":29:18)
#loc7 = loc("/orcd/home/002/osbo/ondemand/fluid-sim/Assets/Scripts/.torch_inductor_cache/ld/clde3okjxfb56g35m4suf3k3sl2revrue4ijpfkmx6ej5eirtg7d.py":30:20)
#loc8 = loc("/orcd/home/002/osbo/ondemand/fluid-sim/Assets/Scripts/.torch_inductor_cache/ld/clde3okjxfb56g35m4suf3k3sl2revrue4ijpfkmx6ej5eirtg7d.py":30:25)
#loc9 = loc("/orcd/home/002/osbo/ondemand/fluid-sim/Assets/Scripts/.torch_inductor_cache/ld/clde3okjxfb56g35m4suf3k3sl2revrue4ijpfkmx6ej5eirtg7d.py":31:20)
#loc10 = loc("/orcd/home/002/osbo/ondemand/fluid-sim/Assets/Scripts/.torch_inductor_cache/ld/clde3okjxfb56g35m4suf3k3sl2revrue4ijpfkmx6ej5eirtg7d.py":33:39)
#loc11 = loc("/orcd/home/002/osbo/ondemand/fluid-sim/Assets/Scripts/.torch_inductor_cache/ld/clde3okjxfb56g35m4suf3k3sl2revrue4ijpfkmx6ej5eirtg7d.py":33:36)
#loc12 = loc("/orcd/home/002/osbo/ondemand/fluid-sim/Assets/Scripts/.torch_inductor_cache/ld/clde3okjxfb56g35m4suf3k3sl2revrue4ijpfkmx6ej5eirtg7d.py":33:51)
#loc13 = loc("/orcd/home/002/osbo/ondemand/fluid-sim/Assets/Scripts/.torch_inductor_cache/ld/clde3okjxfb56g35m4suf3k3sl2revrue4ijpfkmx6ej5eirtg7d.py":33:46)
#loc14 = loc("/orcd/home/002/osbo/ondemand/fluid-sim/Assets/Scripts/.torch_inductor_cache/ld/clde3okjxfb56g35m4suf3k3sl2revrue4ijpfkmx6ej5eirtg7d.py":33:63)
#loc15 = loc("/orcd/home/002/osbo/ondemand/fluid-sim/Assets/Scripts/.torch_inductor_cache/ld/clde3okjxfb56g35m4suf3k3sl2revrue4ijpfkmx6ej5eirtg7d.py":33:58)
#loc16 = loc("/orcd/home/002/osbo/ondemand/fluid-sim/Assets/Scripts/.torch_inductor_cache/ld/clde3okjxfb56g35m4suf3k3sl2revrue4ijpfkmx6ej5eirtg7d.py":33:30)
#loc17 = loc("/orcd/home/002/osbo/ondemand/fluid-sim/Assets/Scripts/.torch_inductor_cache/ld/clde3okjxfb56g35m4suf3k3sl2revrue4ijpfkmx6ej5eirtg7d.py":33:69)
#loc18 = loc("/orcd/home/002/osbo/ondemand/fluid-sim/Assets/Scripts/.torch_inductor_cache/ld/clde3okjxfb56g35m4suf3k3sl2revrue4ijpfkmx6ej5eirtg7d.py":35:33)
#loc19 = loc("/home/osbo/.conda/envs/fluid/lib/python3.12/site-packages/triton/language/standard.py":267:36)
#loc20 = loc("/orcd/home/002/osbo/ondemand/fluid-sim/Assets/Scripts/.torch_inductor_cache/ld/clde3okjxfb56g35m4suf3k3sl2revrue4ijpfkmx6ej5eirtg7d.py":36:24)
#loc21 = loc("/home/osbo/.conda/envs/fluid/lib/python3.12/site-packages/triton/language/standard.py":256:15)
#loc22 = loc("/orcd/home/002/osbo/ondemand/fluid-sim/Assets/Scripts/.torch_inductor_cache/ld/clde3okjxfb56g35m4suf3k3sl2revrue4ijpfkmx6ej5eirtg7d.py":36:27)
#loc23 = loc("/orcd/home/002/osbo/ondemand/fluid-sim/Assets/Scripts/.torch_inductor_cache/ld/clde3okjxfb56g35m4suf3k3sl2revrue4ijpfkmx6ej5eirtg7d.py":37:25)
#loc24 = loc("/orcd/home/002/osbo/ondemand/fluid-sim/Assets/Scripts/.torch_inductor_cache/ld/clde3okjxfb56g35m4suf3k3sl2revrue4ijpfkmx6ej5eirtg7d.py":37:36)
#loc25 = loc("/orcd/home/002/osbo/ondemand/fluid-sim/Assets/Scripts/.torch_inductor_cache/ld/clde3okjxfb56g35m4suf3k3sl2revrue4ijpfkmx6ej5eirtg7d.py":37:4)
#loc26 = loc(callsite(#loc19 at #loc20))
#loc27 = loc(callsite(#loc21 at #loc19))
#loc28 = loc(callsite(#loc27 at #loc20))
