#loc = loc("/orcd/home/002/osbo/ondemand/fluid-sim/Assets/Scripts/.torch_inductor_cache/nr/cnrfnunt4npftjazvevrteuoqbm5hw754rqer6wtujjte3vrjgry.py":18:0)
module {
  tt.func public @triton_(%arg0: !tt.ptr<f32> {tt.divisibility = 16 : i32} loc("/orcd/home/002/osbo/ondemand/fluid-sim/Assets/Scripts/.torch_inductor_cache/nr/cnrfnunt4npftjazvevrteuoqbm5hw754rqer6wtujjte3vrjgry.py":18:0), %arg1: !tt.ptr<f32> {tt.divisibility = 16 : i32} loc("/orcd/home/002/osbo/ondemand/fluid-sim/Assets/Scripts/.torch_inductor_cache/nr/cnrfnunt4npftjazvevrteuoqbm5hw754rqer6wtujjte3vrjgry.py":18:0), %arg2: !tt.ptr<f32> {tt.divisibility = 16 : i32} loc("/orcd/home/002/osbo/ondemand/fluid-sim/Assets/Scripts/.torch_inductor_cache/nr/cnrfnunt4npftjazvevrteuoqbm5hw754rqer6wtujjte3vrjgry.py":18:0), %arg3: !tt.ptr<f32> {tt.divisibility = 16 : i32} loc("/orcd/home/002/osbo/ondemand/fluid-sim/Assets/Scripts/.torch_inductor_cache/nr/cnrfnunt4npftjazvevrteuoqbm5hw754rqer6wtujjte3vrjgry.py":18:0), %arg4: i32 {tt.divisibility = 16 : i32} loc("/orcd/home/002/osbo/ondemand/fluid-sim/Assets/Scripts/.torch_inductor_cache/nr/cnrfnunt4npftjazvevrteuoqbm5hw754rqer6wtujjte3vrjgry.py":18:0)) attributes {noinline = false} {
    %cst = arith.constant dense<2.000000e+00> : tensor<256xf32> loc(#loc1)
    %cst_0 = arith.constant dense<512> : tensor<256xi32> loc(#loc1)
    %cst_1 = arith.constant dense<1024> : tensor<256xi32> loc(#loc1)
    %c256_i32 = arith.constant 256 : i32 loc(#loc1)
    %0 = tt.get_program_id x : i32 loc(#loc2)
    %1 = arith.muli %0, %c256_i32 : i32 loc(#loc3)
    %2 = tt.make_range {end = 256 : i32, start = 0 : i32} : tensor<256xi32> loc(#loc4)
    %3 = tt.splat %1 : i32 -> tensor<256xi32> loc(#loc5)
    %4 = arith.addi %3, %2 : tensor<256xi32> loc(#loc5)
    %5 = arith.cmpi slt, %4, %cst_1 : tensor<256xi32> loc(#loc6)
    %6 = arith.remsi %4, %cst_0 : tensor<256xi32> loc(#loc7)
    %7 = arith.divsi %4, %cst_0 : tensor<256xi32> loc(#loc8)
    %8 = arith.muli %7, %cst_1 : tensor<256xi32> loc(#loc9)
    %9 = arith.addi %6, %8 : tensor<256xi32> loc(#loc10)
    %10 = tt.splat %arg0 : !tt.ptr<f32> -> tensor<256x!tt.ptr<f32>> loc(#loc11)
    %11 = tt.addptr %10, %9 : tensor<256x!tt.ptr<f32>>, tensor<256xi32> loc(#loc11)
    %12 = tt.load %11, %5 : tensor<256x!tt.ptr<f32>> loc(#loc12)
    %13 = tt.splat %arg1 : !tt.ptr<f32> -> tensor<256x!tt.ptr<f32>> loc(#loc13)
    %14 = tt.addptr %13, %9 : tensor<256x!tt.ptr<f32>>, tensor<256xi32> loc(#loc13)
    %15 = tt.load %14, %5 : tensor<256x!tt.ptr<f32>> loc(#loc14)
    %16 = tt.splat %arg2 : !tt.ptr<f32> -> tensor<256x!tt.ptr<f32>> loc(#loc15)
    %17 = tt.addptr %16, %6 : tensor<256x!tt.ptr<f32>>, tensor<256xi32> loc(#loc15)
    %18 = tt.load %17, %5 evictionPolicy = evict_last : tensor<256x!tt.ptr<f32>> loc(#loc16)
    %19 = arith.addi %6, %cst_0 : tensor<256xi32> loc(#loc17)
    %20 = arith.addi %19, %8 : tensor<256xi32> loc(#loc18)
    %21 = tt.addptr %10, %20 : tensor<256x!tt.ptr<f32>>, tensor<256xi32> loc(#loc19)
    %22 = tt.load %21, %5 : tensor<256x!tt.ptr<f32>> loc(#loc20)
    %23 = tt.addptr %13, %20 : tensor<256x!tt.ptr<f32>>, tensor<256xi32> loc(#loc21)
    %24 = tt.load %23, %5 : tensor<256x!tt.ptr<f32>> loc(#loc22)
    %25 = arith.addf %15, %18 : tensor<256xf32> loc(#loc23)
    %26 = arith.addf %12, %25 : tensor<256xf32> loc(#loc24)
    %27 = arith.addf %24, %18 : tensor<256xf32> loc(#loc25)
    %28 = arith.addf %22, %27 : tensor<256xf32> loc(#loc26)
    %29 = arith.addf %26, %28 : tensor<256xf32> loc(#loc27)
    %30 = arith.divf %29, %cst : tensor<256xf32> loc(#loc28)
    %31 = tt.splat %arg3 : !tt.ptr<f32> -> tensor<256x!tt.ptr<f32>> loc(#loc29)
    %32 = tt.addptr %31, %4 : tensor<256x!tt.ptr<f32>>, tensor<256xi32> loc(#loc29)
    tt.store %32, %30, %5 : tensor<256x!tt.ptr<f32>> loc(#loc30)
    tt.return loc(#loc31)
  } loc(#loc)
} loc(#loc)
#loc1 = loc(unknown)
#loc2 = loc("/orcd/home/002/osbo/ondemand/fluid-sim/Assets/Scripts/.torch_inductor_cache/nr/cnrfnunt4npftjazvevrteuoqbm5hw754rqer6wtujjte3vrjgry.py":20:28)
#loc3 = loc("/orcd/home/002/osbo/ondemand/fluid-sim/Assets/Scripts/.torch_inductor_cache/nr/cnrfnunt4npftjazvevrteuoqbm5hw754rqer6wtujjte3vrjgry.py":20:33)
#loc4 = loc("/orcd/home/002/osbo/ondemand/fluid-sim/Assets/Scripts/.torch_inductor_cache/nr/cnrfnunt4npftjazvevrteuoqbm5hw754rqer6wtujjte3vrjgry.py":21:36)
#loc5 = loc("/orcd/home/002/osbo/ondemand/fluid-sim/Assets/Scripts/.torch_inductor_cache/nr/cnrfnunt4npftjazvevrteuoqbm5hw754rqer6wtujjte3vrjgry.py":21:23)
#loc6 = loc("/orcd/home/002/osbo/ondemand/fluid-sim/Assets/Scripts/.torch_inductor_cache/nr/cnrfnunt4npftjazvevrteuoqbm5hw754rqer6wtujjte3vrjgry.py":22:21)
#loc7 = loc("/orcd/home/002/osbo/ondemand/fluid-sim/Assets/Scripts/.torch_inductor_cache/nr/cnrfnunt4npftjazvevrteuoqbm5hw754rqer6wtujjte3vrjgry.py":23:18)
#loc8 = loc("/orcd/home/002/osbo/ondemand/fluid-sim/Assets/Scripts/.torch_inductor_cache/nr/cnrfnunt4npftjazvevrteuoqbm5hw754rqer6wtujjte3vrjgry.py":24:20)
#loc9 = loc("/orcd/home/002/osbo/ondemand/fluid-sim/Assets/Scripts/.torch_inductor_cache/nr/cnrfnunt4npftjazvevrteuoqbm5hw754rqer6wtujjte3vrjgry.py":26:41)
#loc10 = loc("/orcd/home/002/osbo/ondemand/fluid-sim/Assets/Scripts/.torch_inductor_cache/nr/cnrfnunt4npftjazvevrteuoqbm5hw754rqer6wtujjte3vrjgry.py":26:36)
#loc11 = loc("/orcd/home/002/osbo/ondemand/fluid-sim/Assets/Scripts/.torch_inductor_cache/nr/cnrfnunt4npftjazvevrteuoqbm5hw754rqer6wtujjte3vrjgry.py":26:30)
#loc12 = loc("/orcd/home/002/osbo/ondemand/fluid-sim/Assets/Scripts/.torch_inductor_cache/nr/cnrfnunt4npftjazvevrteuoqbm5hw754rqer6wtujjte3vrjgry.py":26:47)
#loc13 = loc("/orcd/home/002/osbo/ondemand/fluid-sim/Assets/Scripts/.torch_inductor_cache/nr/cnrfnunt4npftjazvevrteuoqbm5hw754rqer6wtujjte3vrjgry.py":27:30)
#loc14 = loc("/orcd/home/002/osbo/ondemand/fluid-sim/Assets/Scripts/.torch_inductor_cache/nr/cnrfnunt4npftjazvevrteuoqbm5hw754rqer6wtujjte3vrjgry.py":27:47)
#loc15 = loc("/orcd/home/002/osbo/ondemand/fluid-sim/Assets/Scripts/.torch_inductor_cache/nr/cnrfnunt4npftjazvevrteuoqbm5hw754rqer6wtujjte3vrjgry.py":28:30)
#loc16 = loc("/orcd/home/002/osbo/ondemand/fluid-sim/Assets/Scripts/.torch_inductor_cache/nr/cnrfnunt4npftjazvevrteuoqbm5hw754rqer6wtujjte3vrjgry.py":28:35)
#loc17 = loc("/orcd/home/002/osbo/ondemand/fluid-sim/Assets/Scripts/.torch_inductor_cache/nr/cnrfnunt4npftjazvevrteuoqbm5hw754rqer6wtujjte3vrjgry.py":29:36)
#loc18 = loc("/orcd/home/002/osbo/ondemand/fluid-sim/Assets/Scripts/.torch_inductor_cache/nr/cnrfnunt4npftjazvevrteuoqbm5hw754rqer6wtujjte3vrjgry.py":29:42)
#loc19 = loc("/orcd/home/002/osbo/ondemand/fluid-sim/Assets/Scripts/.torch_inductor_cache/nr/cnrfnunt4npftjazvevrteuoqbm5hw754rqer6wtujjte3vrjgry.py":29:30)
#loc20 = loc("/orcd/home/002/osbo/ondemand/fluid-sim/Assets/Scripts/.torch_inductor_cache/nr/cnrfnunt4npftjazvevrteuoqbm5hw754rqer6wtujjte3vrjgry.py":29:53)
#loc21 = loc("/orcd/home/002/osbo/ondemand/fluid-sim/Assets/Scripts/.torch_inductor_cache/nr/cnrfnunt4npftjazvevrteuoqbm5hw754rqer6wtujjte3vrjgry.py":30:30)
#loc22 = loc("/orcd/home/002/osbo/ondemand/fluid-sim/Assets/Scripts/.torch_inductor_cache/nr/cnrfnunt4npftjazvevrteuoqbm5hw754rqer6wtujjte3vrjgry.py":30:53)
#loc23 = loc("/orcd/home/002/osbo/ondemand/fluid-sim/Assets/Scripts/.torch_inductor_cache/nr/cnrfnunt4npftjazvevrteuoqbm5hw754rqer6wtujjte3vrjgry.py":31:18)
#loc24 = loc("/orcd/home/002/osbo/ondemand/fluid-sim/Assets/Scripts/.torch_inductor_cache/nr/cnrfnunt4npftjazvevrteuoqbm5hw754rqer6wtujjte3vrjgry.py":32:18)
#loc25 = loc("/orcd/home/002/osbo/ondemand/fluid-sim/Assets/Scripts/.torch_inductor_cache/nr/cnrfnunt4npftjazvevrteuoqbm5hw754rqer6wtujjte3vrjgry.py":33:18)
#loc26 = loc("/orcd/home/002/osbo/ondemand/fluid-sim/Assets/Scripts/.torch_inductor_cache/nr/cnrfnunt4npftjazvevrteuoqbm5hw754rqer6wtujjte3vrjgry.py":34:18)
#loc27 = loc("/orcd/home/002/osbo/ondemand/fluid-sim/Assets/Scripts/.torch_inductor_cache/nr/cnrfnunt4npftjazvevrteuoqbm5hw754rqer6wtujjte3vrjgry.py":35:18)
#loc28 = loc("/orcd/home/002/osbo/ondemand/fluid-sim/Assets/Scripts/.torch_inductor_cache/nr/cnrfnunt4npftjazvevrteuoqbm5hw754rqer6wtujjte3vrjgry.py":37:19)
#loc29 = loc("/orcd/home/002/osbo/ondemand/fluid-sim/Assets/Scripts/.torch_inductor_cache/nr/cnrfnunt4npftjazvevrteuoqbm5hw754rqer6wtujjte3vrjgry.py":38:25)
#loc30 = loc("/orcd/home/002/osbo/ondemand/fluid-sim/Assets/Scripts/.torch_inductor_cache/nr/cnrfnunt4npftjazvevrteuoqbm5hw754rqer6wtujjte3vrjgry.py":38:37)
#loc31 = loc("/orcd/home/002/osbo/ondemand/fluid-sim/Assets/Scripts/.torch_inductor_cache/nr/cnrfnunt4npftjazvevrteuoqbm5hw754rqer6wtujjte3vrjgry.py":38:4)
