#loc = loc("/orcd/home/002/osbo/ondemand/fluid-sim/Assets/Scripts/.torch_inductor_cache/zn/cznqjkvhs4qwd5ri4casj4v76edfymuhvdrfclzi7i34zdbc4v7q.py":18:0)
module {
  tt.func public @triton_(%arg0: !tt.ptr<f32> {tt.divisibility = 16 : i32} loc("/orcd/home/002/osbo/ondemand/fluid-sim/Assets/Scripts/.torch_inductor_cache/zn/cznqjkvhs4qwd5ri4casj4v76edfymuhvdrfclzi7i34zdbc4v7q.py":18:0), %arg1: !tt.ptr<f32> {tt.divisibility = 16 : i32} loc("/orcd/home/002/osbo/ondemand/fluid-sim/Assets/Scripts/.torch_inductor_cache/zn/cznqjkvhs4qwd5ri4casj4v76edfymuhvdrfclzi7i34zdbc4v7q.py":18:0), %arg2: !tt.ptr<f32> {tt.divisibility = 16 : i32} loc("/orcd/home/002/osbo/ondemand/fluid-sim/Assets/Scripts/.torch_inductor_cache/zn/cznqjkvhs4qwd5ri4casj4v76edfymuhvdrfclzi7i34zdbc4v7q.py":18:0), %arg3: !tt.ptr<f32> {tt.divisibility = 16 : i32} loc("/orcd/home/002/osbo/ondemand/fluid-sim/Assets/Scripts/.torch_inductor_cache/zn/cznqjkvhs4qwd5ri4casj4v76edfymuhvdrfclzi7i34zdbc4v7q.py":18:0), %arg4: !tt.ptr<f32> {tt.divisibility = 16 : i32} loc("/orcd/home/002/osbo/ondemand/fluid-sim/Assets/Scripts/.torch_inductor_cache/zn/cznqjkvhs4qwd5ri4casj4v76edfymuhvdrfclzi7i34zdbc4v7q.py":18:0), %arg5: i32 {tt.divisibility = 16 : i32} loc("/orcd/home/002/osbo/ondemand/fluid-sim/Assets/Scripts/.torch_inductor_cache/zn/cznqjkvhs4qwd5ri4casj4v76edfymuhvdrfclzi7i34zdbc4v7q.py":18:0)) attributes {noinline = false} {
    %cst = arith.constant dense<1282048> : tensor<256xi32> loc(#loc1)
    %cst_0 = arith.constant dense<7520> : tensor<256xi32> loc(#loc1)
    %c256_i32 = arith.constant 256 : i32 loc(#loc1)
    %0 = tt.get_program_id x : i32 loc(#loc2)
    %1 = arith.muli %0, %c256_i32 : i32 loc(#loc3)
    %2 = tt.make_range {end = 256 : i32, start = 0 : i32} : tensor<256xi32> loc(#loc4)
    %3 = tt.splat %1 : i32 -> tensor<256xi32> loc(#loc5)
    %4 = arith.addi %3, %2 : tensor<256xi32> loc(#loc5)
    %5 = arith.cmpi slt, %4, %cst_0 : tensor<256xi32> loc(#loc6)
    %6 = tt.splat %arg0 : !tt.ptr<f32> -> tensor<256x!tt.ptr<f32>> loc(#loc7)
    %7 = tt.addptr %6, %4 : tensor<256x!tt.ptr<f32>>, tensor<256xi32> loc(#loc7)
    %8 = tt.load %7, %5 : tensor<256x!tt.ptr<f32>> loc(#loc8)
    %9 = arith.addi %4, %cst : tensor<256xi32> loc(#loc9)
    %10 = tt.splat %arg1 : !tt.ptr<f32> -> tensor<256x!tt.ptr<f32>> loc(#loc10)
    %11 = tt.addptr %10, %9 : tensor<256x!tt.ptr<f32>>, tensor<256xi32> loc(#loc10)
    %12 = tt.load %11, %5 : tensor<256x!tt.ptr<f32>> loc(#loc11)
    %13 = tt.splat %arg2 : !tt.ptr<f32> -> tensor<256x!tt.ptr<f32>> loc(#loc12)
    %14 = tt.addptr %13, %4 : tensor<256x!tt.ptr<f32>>, tensor<256xi32> loc(#loc12)
    %15 = tt.load %14, %5 : tensor<256x!tt.ptr<f32>> loc(#loc13)
    %16 = tt.splat %arg3 : !tt.ptr<f32> -> tensor<256x!tt.ptr<f32>> loc(#loc14)
    %17 = tt.addptr %16, %4 : tensor<256x!tt.ptr<f32>>, tensor<256xi32> loc(#loc14)
    %18 = tt.load %17, %5 : tensor<256x!tt.ptr<f32>> loc(#loc15)
    %19 = arith.mulf %12, %15 : tensor<256xf32> loc(#loc16)
    %20 = arith.mulf %19, %18 : tensor<256xf32> loc(#loc17)
    %21 = arith.addf %8, %20 : tensor<256xf32> loc(#loc18)
    %22 = tt.splat %arg4 : !tt.ptr<f32> -> tensor<256x!tt.ptr<f32>> loc(#loc19)
    %23 = tt.addptr %22, %4 : tensor<256x!tt.ptr<f32>>, tensor<256xi32> loc(#loc19)
    tt.store %23, %21, %5 : tensor<256x!tt.ptr<f32>> loc(#loc20)
    tt.return loc(#loc21)
  } loc(#loc)
} loc(#loc)
#loc1 = loc(unknown)
#loc2 = loc("/orcd/home/002/osbo/ondemand/fluid-sim/Assets/Scripts/.torch_inductor_cache/zn/cznqjkvhs4qwd5ri4casj4v76edfymuhvdrfclzi7i34zdbc4v7q.py":20:28)
#loc3 = loc("/orcd/home/002/osbo/ondemand/fluid-sim/Assets/Scripts/.torch_inductor_cache/zn/cznqjkvhs4qwd5ri4casj4v76edfymuhvdrfclzi7i34zdbc4v7q.py":20:33)
#loc4 = loc("/orcd/home/002/osbo/ondemand/fluid-sim/Assets/Scripts/.torch_inductor_cache/zn/cznqjkvhs4qwd5ri4casj4v76edfymuhvdrfclzi7i34zdbc4v7q.py":21:36)
#loc5 = loc("/orcd/home/002/osbo/ondemand/fluid-sim/Assets/Scripts/.torch_inductor_cache/zn/cznqjkvhs4qwd5ri4casj4v76edfymuhvdrfclzi7i34zdbc4v7q.py":21:23)
#loc6 = loc("/orcd/home/002/osbo/ondemand/fluid-sim/Assets/Scripts/.torch_inductor_cache/zn/cznqjkvhs4qwd5ri4casj4v76edfymuhvdrfclzi7i34zdbc4v7q.py":22:21)
#loc7 = loc("/orcd/home/002/osbo/ondemand/fluid-sim/Assets/Scripts/.torch_inductor_cache/zn/cznqjkvhs4qwd5ri4casj4v76edfymuhvdrfclzi7i34zdbc4v7q.py":24:30)
#loc8 = loc("/orcd/home/002/osbo/ondemand/fluid-sim/Assets/Scripts/.torch_inductor_cache/zn/cznqjkvhs4qwd5ri4casj4v76edfymuhvdrfclzi7i34zdbc4v7q.py":24:35)
#loc9 = loc("/orcd/home/002/osbo/ondemand/fluid-sim/Assets/Scripts/.torch_inductor_cache/zn/cznqjkvhs4qwd5ri4casj4v76edfymuhvdrfclzi7i34zdbc4v7q.py":25:40)
#loc10 = loc("/orcd/home/002/osbo/ondemand/fluid-sim/Assets/Scripts/.torch_inductor_cache/zn/cznqjkvhs4qwd5ri4casj4v76edfymuhvdrfclzi7i34zdbc4v7q.py":25:30)
#loc11 = loc("/orcd/home/002/osbo/ondemand/fluid-sim/Assets/Scripts/.torch_inductor_cache/zn/cznqjkvhs4qwd5ri4casj4v76edfymuhvdrfclzi7i34zdbc4v7q.py":25:45)
#loc12 = loc("/orcd/home/002/osbo/ondemand/fluid-sim/Assets/Scripts/.torch_inductor_cache/zn/cznqjkvhs4qwd5ri4casj4v76edfymuhvdrfclzi7i34zdbc4v7q.py":26:30)
#loc13 = loc("/orcd/home/002/osbo/ondemand/fluid-sim/Assets/Scripts/.torch_inductor_cache/zn/cznqjkvhs4qwd5ri4casj4v76edfymuhvdrfclzi7i34zdbc4v7q.py":26:35)
#loc14 = loc("/orcd/home/002/osbo/ondemand/fluid-sim/Assets/Scripts/.torch_inductor_cache/zn/cznqjkvhs4qwd5ri4casj4v76edfymuhvdrfclzi7i34zdbc4v7q.py":27:30)
#loc15 = loc("/orcd/home/002/osbo/ondemand/fluid-sim/Assets/Scripts/.torch_inductor_cache/zn/cznqjkvhs4qwd5ri4casj4v76edfymuhvdrfclzi7i34zdbc4v7q.py":27:35)
#loc16 = loc("/orcd/home/002/osbo/ondemand/fluid-sim/Assets/Scripts/.torch_inductor_cache/zn/cznqjkvhs4qwd5ri4casj4v76edfymuhvdrfclzi7i34zdbc4v7q.py":28:18)
#loc17 = loc("/orcd/home/002/osbo/ondemand/fluid-sim/Assets/Scripts/.torch_inductor_cache/zn/cznqjkvhs4qwd5ri4casj4v76edfymuhvdrfclzi7i34zdbc4v7q.py":29:18)
#loc18 = loc("/orcd/home/002/osbo/ondemand/fluid-sim/Assets/Scripts/.torch_inductor_cache/zn/cznqjkvhs4qwd5ri4casj4v76edfymuhvdrfclzi7i34zdbc4v7q.py":30:18)
#loc19 = loc("/orcd/home/002/osbo/ondemand/fluid-sim/Assets/Scripts/.torch_inductor_cache/zn/cznqjkvhs4qwd5ri4casj4v76edfymuhvdrfclzi7i34zdbc4v7q.py":31:25)
#loc20 = loc("/orcd/home/002/osbo/ondemand/fluid-sim/Assets/Scripts/.torch_inductor_cache/zn/cznqjkvhs4qwd5ri4casj4v76edfymuhvdrfclzi7i34zdbc4v7q.py":31:36)
#loc21 = loc("/orcd/home/002/osbo/ondemand/fluid-sim/Assets/Scripts/.torch_inductor_cache/zn/cznqjkvhs4qwd5ri4casj4v76edfymuhvdrfclzi7i34zdbc4v7q.py":31:4)
