#loc = loc("/orcd/home/002/osbo/ondemand/fluid-sim/Assets/Scripts/.torch_inductor_cache/i2/ci2uzvejdlnzy4wxvhlatkwy2tq6uyxn4wdx3atmmi6skfggawv4.py":18:0)
#loc1 = loc(unknown)
module {
  tt.func public @triton_(%arg0: !tt.ptr<f32> {tt.divisibility = 16 : i32} loc("/orcd/home/002/osbo/ondemand/fluid-sim/Assets/Scripts/.torch_inductor_cache/i2/ci2uzvejdlnzy4wxvhlatkwy2tq6uyxn4wdx3atmmi6skfggawv4.py":18:0), %arg1: !tt.ptr<f32> {tt.divisibility = 16 : i32} loc("/orcd/home/002/osbo/ondemand/fluid-sim/Assets/Scripts/.torch_inductor_cache/i2/ci2uzvejdlnzy4wxvhlatkwy2tq6uyxn4wdx3atmmi6skfggawv4.py":18:0), %arg2: !tt.ptr<f32> {tt.divisibility = 16 : i32} loc("/orcd/home/002/osbo/ondemand/fluid-sim/Assets/Scripts/.torch_inductor_cache/i2/ci2uzvejdlnzy4wxvhlatkwy2tq6uyxn4wdx3atmmi6skfggawv4.py":18:0), %arg3: !tt.ptr<f32> {tt.divisibility = 16 : i32} loc("/orcd/home/002/osbo/ondemand/fluid-sim/Assets/Scripts/.torch_inductor_cache/i2/ci2uzvejdlnzy4wxvhlatkwy2tq6uyxn4wdx3atmmi6skfggawv4.py":18:0), %arg4: i32 {tt.divisibility = 16 : i32} loc("/orcd/home/002/osbo/ondemand/fluid-sim/Assets/Scripts/.torch_inductor_cache/i2/ci2uzvejdlnzy4wxvhlatkwy2tq6uyxn4wdx3atmmi6skfggawv4.py":18:0), %arg5: i32 {tt.divisibility = 16 : i32} loc("/orcd/home/002/osbo/ondemand/fluid-sim/Assets/Scripts/.torch_inductor_cache/i2/ci2uzvejdlnzy4wxvhlatkwy2tq6uyxn4wdx3atmmi6skfggawv4.py":18:0)) attributes {noinline = false} {
    %cst = arith.constant 5.120000e+02 : f32 loc(#loc1)
    %cst_0 = arith.constant 0.000000e+00 : f32 loc(#loc1)
    %c512_i32 = arith.constant 512 : i32 loc(#loc1)
    %0 = tt.get_program_id x : i32 loc(#loc2)
    %1 = tt.make_range {end = 512 : i32, start = 0 : i32} : tensor<512xi32> loc(#loc3)
    %2 = arith.muli %0, %c512_i32 : i32 loc(#loc4)
    %3 = tt.splat %2 : i32 -> tensor<512xi32> loc(#loc5)
    %4 = arith.addi %1, %3 : tensor<512xi32> loc(#loc5)
    %5 = tt.splat %arg0 : !tt.ptr<f32> -> tensor<512x!tt.ptr<f32>> loc(#loc6)
    %6 = tt.addptr %5, %4 : tensor<512x!tt.ptr<f32>>, tensor<512xi32> loc(#loc6)
    %7 = tt.load %6 : tensor<512x!tt.ptr<f32>> loc(#loc7)
    %8 = tt.splat %arg1 : !tt.ptr<f32> -> tensor<512x!tt.ptr<f32>> loc(#loc8)
    %9 = tt.addptr %8, %4 : tensor<512x!tt.ptr<f32>>, tensor<512xi32> loc(#loc8)
    %10 = tt.load %9 : tensor<512x!tt.ptr<f32>> loc(#loc9)
    %11 = arith.addf %7, %10 : tensor<512xf32> loc(#loc10)
    %12 = "tt.reduce"(%11) <{axis = 0 : i32}> ({
    ^bb0(%arg6: f32 loc(unknown), %arg7: f32 loc(unknown)):
      %26 = arith.addf %arg6, %arg7 : f32 loc(#loc31)
      tt.reduce.return %26 : f32 loc(#loc26)
    }) : (tensor<512xf32>) -> f32 loc(#loc26)
    %13 = arith.addf %12, %cst_0 : f32 loc(#loc28)
    %14 = arith.divf %13, %cst : f32 loc(#loc16)
    %15 = tt.splat %14 : f32 -> tensor<1xf32> loc(#loc16)
    %16 = tt.splat %14 : f32 -> tensor<512xf32> loc(#loc17)
    %17 = arith.subf %11, %16 : tensor<512xf32> loc(#loc17)
    %18 = arith.mulf %17, %17 : tensor<512xf32> loc(#loc18)
    %19 = "tt.reduce"(%18) <{axis = 0 : i32}> ({
    ^bb0(%arg6: f32 loc(unknown), %arg7: f32 loc(unknown)):
      %26 = arith.addf %arg6, %arg7 : f32 loc(#loc32)
      tt.reduce.return %26 : f32 loc(#loc29)
    }) : (tensor<512xf32>) -> f32 loc(#loc29)
    %20 = arith.addf %19, %cst_0 : f32 loc(#loc30)
    %21 = tt.splat %20 : f32 -> tensor<1xf32> loc(#loc30)
    %22 = tt.addptr %arg2, %0 : !tt.ptr<f32>, i32 loc(#loc21)
    %23 = tt.splat %22 : !tt.ptr<f32> -> tensor<1x!tt.ptr<f32>> loc(#loc21)
    tt.store %23, %15 : tensor<1x!tt.ptr<f32>> loc(#loc22)
    %24 = tt.addptr %arg3, %0 : !tt.ptr<f32>, i32 loc(#loc23)
    %25 = tt.splat %24 : !tt.ptr<f32> -> tensor<1x!tt.ptr<f32>> loc(#loc23)
    tt.store %25, %21 : tensor<1x!tt.ptr<f32>> loc(#loc24)
    tt.return loc(#loc25)
  } loc(#loc)
} loc(#loc)
#loc2 = loc("/orcd/home/002/osbo/ondemand/fluid-sim/Assets/Scripts/.torch_inductor_cache/i2/ci2uzvejdlnzy4wxvhlatkwy2tq6uyxn4wdx3atmmi6skfggawv4.py":23:28)
#loc3 = loc("/orcd/home/002/osbo/ondemand/fluid-sim/Assets/Scripts/.torch_inductor_cache/i2/ci2uzvejdlnzy4wxvhlatkwy2tq6uyxn4wdx3atmmi6skfggawv4.py":26:26)
#loc4 = loc("/orcd/home/002/osbo/ondemand/fluid-sim/Assets/Scripts/.torch_inductor_cache/i2/ci2uzvejdlnzy4wxvhlatkwy2tq6uyxn4wdx3atmmi6skfggawv4.py":31:40)
#loc5 = loc("/orcd/home/002/osbo/ondemand/fluid-sim/Assets/Scripts/.torch_inductor_cache/i2/ci2uzvejdlnzy4wxvhlatkwy2tq6uyxn4wdx3atmmi6skfggawv4.py":31:36)
#loc6 = loc("/orcd/home/002/osbo/ondemand/fluid-sim/Assets/Scripts/.torch_inductor_cache/i2/ci2uzvejdlnzy4wxvhlatkwy2tq6uyxn4wdx3atmmi6skfggawv4.py":31:30)
#loc7 = loc("/orcd/home/002/osbo/ondemand/fluid-sim/Assets/Scripts/.torch_inductor_cache/i2/ci2uzvejdlnzy4wxvhlatkwy2tq6uyxn4wdx3atmmi6skfggawv4.py":31:46)
#loc8 = loc("/orcd/home/002/osbo/ondemand/fluid-sim/Assets/Scripts/.torch_inductor_cache/i2/ci2uzvejdlnzy4wxvhlatkwy2tq6uyxn4wdx3atmmi6skfggawv4.py":32:30)
#loc9 = loc("/orcd/home/002/osbo/ondemand/fluid-sim/Assets/Scripts/.torch_inductor_cache/i2/ci2uzvejdlnzy4wxvhlatkwy2tq6uyxn4wdx3atmmi6skfggawv4.py":32:46)
#loc10 = loc("/orcd/home/002/osbo/ondemand/fluid-sim/Assets/Scripts/.torch_inductor_cache/i2/ci2uzvejdlnzy4wxvhlatkwy2tq6uyxn4wdx3atmmi6skfggawv4.py":33:18)
#loc11 = loc("/home/osbo/.conda/envs/fluid/lib/python3.12/site-packages/triton/language/standard.py":267:36)
#loc12 = loc("/orcd/home/002/osbo/ondemand/fluid-sim/Assets/Scripts/.torch_inductor_cache/i2/ci2uzvejdlnzy4wxvhlatkwy2tq6uyxn4wdx3atmmi6skfggawv4.py":36:57)
#loc13 = loc("/home/osbo/.conda/envs/fluid/lib/python3.12/site-packages/triton/language/standard.py":256:15)
#loc14 = loc("/home/osbo/.conda/envs/fluid/lib/python3.12/site-packages/torch/_inductor/runtime/triton_helpers.py":37:15)
#loc15 = loc("/orcd/home/002/osbo/ondemand/fluid-sim/Assets/Scripts/.torch_inductor_cache/i2/ci2uzvejdlnzy4wxvhlatkwy2tq6uyxn4wdx3atmmi6skfggawv4.py":36:44)
#loc16 = loc("/orcd/home/002/osbo/ondemand/fluid-sim/Assets/Scripts/.torch_inductor_cache/i2/ci2uzvejdlnzy4wxvhlatkwy2tq6uyxn4wdx3atmmi6skfggawv4.py":39:19)
#loc17 = loc("/orcd/home/002/osbo/ondemand/fluid-sim/Assets/Scripts/.torch_inductor_cache/i2/ci2uzvejdlnzy4wxvhlatkwy2tq6uyxn4wdx3atmmi6skfggawv4.py":40:19)
#loc18 = loc("/orcd/home/002/osbo/ondemand/fluid-sim/Assets/Scripts/.torch_inductor_cache/i2/ci2uzvejdlnzy4wxvhlatkwy2tq6uyxn4wdx3atmmi6skfggawv4.py":41:20)
#loc19 = loc("/orcd/home/002/osbo/ondemand/fluid-sim/Assets/Scripts/.torch_inductor_cache/i2/ci2uzvejdlnzy4wxvhlatkwy2tq6uyxn4wdx3atmmi6skfggawv4.py":43:59)
#loc20 = loc("/orcd/home/002/osbo/ondemand/fluid-sim/Assets/Scripts/.torch_inductor_cache/i2/ci2uzvejdlnzy4wxvhlatkwy2tq6uyxn4wdx3atmmi6skfggawv4.py":43:45)
#loc21 = loc("/orcd/home/002/osbo/ondemand/fluid-sim/Assets/Scripts/.torch_inductor_cache/i2/ci2uzvejdlnzy4wxvhlatkwy2tq6uyxn4wdx3atmmi6skfggawv4.py":44:25)
#loc22 = loc("/orcd/home/002/osbo/ondemand/fluid-sim/Assets/Scripts/.torch_inductor_cache/i2/ci2uzvejdlnzy4wxvhlatkwy2tq6uyxn4wdx3atmmi6skfggawv4.py":44:37)
#loc23 = loc("/orcd/home/002/osbo/ondemand/fluid-sim/Assets/Scripts/.torch_inductor_cache/i2/ci2uzvejdlnzy4wxvhlatkwy2tq6uyxn4wdx3atmmi6skfggawv4.py":45:25)
#loc24 = loc("/orcd/home/002/osbo/ondemand/fluid-sim/Assets/Scripts/.torch_inductor_cache/i2/ci2uzvejdlnzy4wxvhlatkwy2tq6uyxn4wdx3atmmi6skfggawv4.py":45:37)
#loc25 = loc("/orcd/home/002/osbo/ondemand/fluid-sim/Assets/Scripts/.torch_inductor_cache/i2/ci2uzvejdlnzy4wxvhlatkwy2tq6uyxn4wdx3atmmi6skfggawv4.py":45:4)
#loc26 = loc(callsite(#loc11 at #loc12))
#loc27 = loc(callsite(#loc13 at #loc11))
#loc28 = loc(callsite(#loc14 at #loc15))
#loc29 = loc(callsite(#loc11 at #loc19))
#loc30 = loc(callsite(#loc14 at #loc20))
#loc31 = loc(callsite(#loc27 at #loc12))
#loc32 = loc(callsite(#loc27 at #loc19))
