#loc = loc("/orcd/home/002/osbo/ondemand/fluid-sim/Assets/Scripts/.torch_inductor_cache/45/c45ijvqwm5gpzxcfewd6n43ktqbw6gefrl725oigiga4clyw3quv.py":18:0)
module {
  tt.func public @triton_(%arg0: !tt.ptr<f32> {tt.divisibility = 16 : i32} loc("/orcd/home/002/osbo/ondemand/fluid-sim/Assets/Scripts/.torch_inductor_cache/45/c45ijvqwm5gpzxcfewd6n43ktqbw6gefrl725oigiga4clyw3quv.py":18:0), %arg1: !tt.ptr<f32> {tt.divisibility = 16 : i32} loc("/orcd/home/002/osbo/ondemand/fluid-sim/Assets/Scripts/.torch_inductor_cache/45/c45ijvqwm5gpzxcfewd6n43ktqbw6gefrl725oigiga4clyw3quv.py":18:0), %arg2: !tt.ptr<f32> {tt.divisibility = 16 : i32} loc("/orcd/home/002/osbo/ondemand/fluid-sim/Assets/Scripts/.torch_inductor_cache/45/c45ijvqwm5gpzxcfewd6n43ktqbw6gefrl725oigiga4clyw3quv.py":18:0), %arg3: i32 {tt.divisibility = 16 : i32} loc("/orcd/home/002/osbo/ondemand/fluid-sim/Assets/Scripts/.torch_inductor_cache/45/c45ijvqwm5gpzxcfewd6n43ktqbw6gefrl725oigiga4clyw3quv.py":18:0)) attributes {noinline = false} {
    %cst = arith.constant dense<128> : tensor<128xi32> loc(#loc1)
    %c128_i32 = arith.constant 128 : i32 loc(#loc1)
    %0 = tt.get_program_id x : i32 loc(#loc2)
    %1 = arith.muli %0, %c128_i32 : i32 loc(#loc3)
    %2 = tt.make_range {end = 128 : i32, start = 0 : i32} : tensor<128xi32> loc(#loc4)
    %3 = tt.splat %1 : i32 -> tensor<128xi32> loc(#loc5)
    %4 = arith.addi %3, %2 : tensor<128xi32> loc(#loc5)
    %5 = arith.remsi %4, %cst : tensor<128xi32> loc(#loc6)
    %6 = tt.splat %arg1 : !tt.ptr<f32> -> tensor<128x!tt.ptr<f32>> loc(#loc7)
    %7 = tt.addptr %6, %4 : tensor<128x!tt.ptr<f32>>, tensor<128xi32> loc(#loc7)
    %8 = tt.load %7 : tensor<128x!tt.ptr<f32>> loc(#loc8)
    %9 = tt.splat %arg0 : !tt.ptr<f32> -> tensor<128x!tt.ptr<f32>> loc(#loc9)
    %10 = tt.addptr %9, %4 : tensor<128x!tt.ptr<f32>>, tensor<128xi32> loc(#loc9)
    %11 = tt.load %10 : tensor<128x!tt.ptr<f32>> loc(#loc10)
    %12 = tt.splat %arg2 : !tt.ptr<f32> -> tensor<128x!tt.ptr<f32>> loc(#loc11)
    %13 = tt.addptr %12, %5 : tensor<128x!tt.ptr<f32>>, tensor<128xi32> loc(#loc11)
    %14 = tt.load %13 evictionPolicy = evict_last : tensor<128x!tt.ptr<f32>> loc(#loc12)
    %15 = arith.addf %11, %14 : tensor<128xf32> loc(#loc13)
    %16 = arith.addf %8, %15 : tensor<128xf32> loc(#loc14)
    tt.store %10, %16 : tensor<128x!tt.ptr<f32>> loc(#loc15)
    tt.return loc(#loc16)
  } loc(#loc)
} loc(#loc)
#loc1 = loc(unknown)
#loc2 = loc("/orcd/home/002/osbo/ondemand/fluid-sim/Assets/Scripts/.torch_inductor_cache/45/c45ijvqwm5gpzxcfewd6n43ktqbw6gefrl725oigiga4clyw3quv.py":20:28)
#loc3 = loc("/orcd/home/002/osbo/ondemand/fluid-sim/Assets/Scripts/.torch_inductor_cache/45/c45ijvqwm5gpzxcfewd6n43ktqbw6gefrl725oigiga4clyw3quv.py":20:33)
#loc4 = loc("/orcd/home/002/osbo/ondemand/fluid-sim/Assets/Scripts/.torch_inductor_cache/45/c45ijvqwm5gpzxcfewd6n43ktqbw6gefrl725oigiga4clyw3quv.py":21:36)
#loc5 = loc("/orcd/home/002/osbo/ondemand/fluid-sim/Assets/Scripts/.torch_inductor_cache/45/c45ijvqwm5gpzxcfewd6n43ktqbw6gefrl725oigiga4clyw3quv.py":21:23)
#loc6 = loc("/orcd/home/002/osbo/ondemand/fluid-sim/Assets/Scripts/.torch_inductor_cache/45/c45ijvqwm5gpzxcfewd6n43ktqbw6gefrl725oigiga4clyw3quv.py":24:18)
#loc7 = loc("/orcd/home/002/osbo/ondemand/fluid-sim/Assets/Scripts/.torch_inductor_cache/45/c45ijvqwm5gpzxcfewd6n43ktqbw6gefrl725oigiga4clyw3quv.py":25:30)
#loc8 = loc("/orcd/home/002/osbo/ondemand/fluid-sim/Assets/Scripts/.torch_inductor_cache/45/c45ijvqwm5gpzxcfewd6n43ktqbw6gefrl725oigiga4clyw3quv.py":25:35)
#loc9 = loc("/orcd/home/002/osbo/ondemand/fluid-sim/Assets/Scripts/.torch_inductor_cache/45/c45ijvqwm5gpzxcfewd6n43ktqbw6gefrl725oigiga4clyw3quv.py":26:34)
#loc10 = loc("/orcd/home/002/osbo/ondemand/fluid-sim/Assets/Scripts/.torch_inductor_cache/45/c45ijvqwm5gpzxcfewd6n43ktqbw6gefrl725oigiga4clyw3quv.py":26:39)
#loc11 = loc("/orcd/home/002/osbo/ondemand/fluid-sim/Assets/Scripts/.torch_inductor_cache/45/c45ijvqwm5gpzxcfewd6n43ktqbw6gefrl725oigiga4clyw3quv.py":27:30)
#loc12 = loc("/orcd/home/002/osbo/ondemand/fluid-sim/Assets/Scripts/.torch_inductor_cache/45/c45ijvqwm5gpzxcfewd6n43ktqbw6gefrl725oigiga4clyw3quv.py":27:35)
#loc13 = loc("/orcd/home/002/osbo/ondemand/fluid-sim/Assets/Scripts/.torch_inductor_cache/45/c45ijvqwm5gpzxcfewd6n43ktqbw6gefrl725oigiga4clyw3quv.py":28:18)
#loc14 = loc("/orcd/home/002/osbo/ondemand/fluid-sim/Assets/Scripts/.torch_inductor_cache/45/c45ijvqwm5gpzxcfewd6n43ktqbw6gefrl725oigiga4clyw3quv.py":29:18)
#loc15 = loc("/orcd/home/002/osbo/ondemand/fluid-sim/Assets/Scripts/.torch_inductor_cache/45/c45ijvqwm5gpzxcfewd6n43ktqbw6gefrl725oigiga4clyw3quv.py":30:39)
#loc16 = loc("/orcd/home/002/osbo/ondemand/fluid-sim/Assets/Scripts/.torch_inductor_cache/45/c45ijvqwm5gpzxcfewd6n43ktqbw6gefrl725oigiga4clyw3quv.py":30:4)
