#loc = loc("/orcd/home/002/osbo/ondemand/fluid-sim/Assets/Scripts/.torch_inductor_cache/2n/c2n4da3p3w3rm4pwxuf77foyisujxgdqg4xorxqjqhqioj6mp7vv.py":18:0)
#loc1 = loc(unknown)
module {
  tt.func public @triton_(%arg0: !tt.ptr<f32> {tt.divisibility = 16 : i32} loc("/orcd/home/002/osbo/ondemand/fluid-sim/Assets/Scripts/.torch_inductor_cache/2n/c2n4da3p3w3rm4pwxuf77foyisujxgdqg4xorxqjqhqioj6mp7vv.py":18:0), %arg1: !tt.ptr<f32> {tt.divisibility = 16 : i32} loc("/orcd/home/002/osbo/ondemand/fluid-sim/Assets/Scripts/.torch_inductor_cache/2n/c2n4da3p3w3rm4pwxuf77foyisujxgdqg4xorxqjqhqioj6mp7vv.py":18:0), %arg2: !tt.ptr<f32> {tt.divisibility = 16 : i32} loc("/orcd/home/002/osbo/ondemand/fluid-sim/Assets/Scripts/.torch_inductor_cache/2n/c2n4da3p3w3rm4pwxuf77foyisujxgdqg4xorxqjqhqioj6mp7vv.py":18:0), %arg3: i32 {tt.divisibility = 16 : i32} loc("/orcd/home/002/osbo/ondemand/fluid-sim/Assets/Scripts/.torch_inductor_cache/2n/c2n4da3p3w3rm4pwxuf77foyisujxgdqg4xorxqjqhqioj6mp7vv.py":18:0), %arg4: i32 {tt.divisibility = 16 : i32} loc("/orcd/home/002/osbo/ondemand/fluid-sim/Assets/Scripts/.torch_inductor_cache/2n/c2n4da3p3w3rm4pwxuf77foyisujxgdqg4xorxqjqhqioj6mp7vv.py":18:0)) attributes {noinline = false} {
    %cst = arith.constant dense<32> : tensor<32x1xi32> loc(#loc1)
    %cst_0 = arith.constant dense<0.000000e+00> : tensor<32x32xf32> loc(#loc1)
    %cst_1 = arith.constant dense<33> : tensor<32x1xi32> loc(#loc1)
    %cst_2 = arith.constant dense<512> : tensor<32x1xi32> loc(#loc1)
    %c32_i32 = arith.constant 32 : i32 loc(#loc1)
    %0 = tt.get_program_id x : i32 loc(#loc2)
    %1 = arith.muli %0, %c32_i32 : i32 loc(#loc3)
    %2 = tt.make_range {end = 32 : i32, start = 0 : i32} : tensor<32xi32> loc(#loc4)
    %3 = tt.expand_dims %2 {axis = 1 : i32} : tensor<32xi32> -> tensor<32x1xi32> loc(#loc5)
    %4 = tt.splat %1 : i32 -> tensor<32x1xi32> loc(#loc6)
    %5 = arith.addi %4, %3 : tensor<32x1xi32> loc(#loc6)
    %6 = arith.cmpi slt, %5, %cst_2 : tensor<32x1xi32> loc(#loc7)
    %7 = tt.expand_dims %2 {axis = 0 : i32} : tensor<32xi32> -> tensor<1x32xi32> loc(#loc8)
    %8 = arith.muli %5, %cst_1 : tensor<32x1xi32> loc(#loc9)
    %9 = tt.broadcast %7 : tensor<1x32xi32> -> tensor<32x32xi32> loc(#loc10)
    %10 = tt.broadcast %8 : tensor<32x1xi32> -> tensor<32x32xi32> loc(#loc10)
    %11 = arith.addi %9, %10 : tensor<32x32xi32> loc(#loc10)
    %12 = tt.splat %arg0 : !tt.ptr<f32> -> tensor<32x32x!tt.ptr<f32>> loc(#loc11)
    %13 = tt.addptr %12, %11 : tensor<32x32x!tt.ptr<f32>>, tensor<32x32xi32> loc(#loc11)
    %14 = tt.broadcast %6 : tensor<32x1xi1> -> tensor<32x32xi1> loc(#loc12)
    %15 = tt.load %13, %14, %cst_0 : tensor<32x32x!tt.ptr<f32>> loc(#loc12)
    %16 = arith.select %14, %15, %cst_0 : tensor<32x32xi1>, tensor<32x32xf32> loc(#loc13)
    %17 = "tt.reduce"(%16) <{axis = 1 : i32}> ({
    ^bb0(%arg5: f32 loc(unknown), %arg6: f32 loc(unknown)):
      %26 = arith.addf %arg5, %arg6 : f32 loc(#loc27)
      tt.reduce.return %26 : f32 loc(#loc25)
    }) : (tensor<32x32xf32>) -> tensor<32xf32> loc(#loc25)
    %18 = tt.expand_dims %17 {axis = 1 : i32} : tensor<32xf32> -> tensor<32x1xf32> loc(#loc17)
    %19 = arith.muli %5, %cst : tensor<32x1xi32> loc(#loc18)
    %20 = tt.broadcast %19 : tensor<32x1xi32> -> tensor<32x32xi32> loc(#loc19)
    %21 = arith.addi %9, %20 : tensor<32x32xi32> loc(#loc19)
    %22 = tt.splat %arg2 : !tt.ptr<f32> -> tensor<32x32x!tt.ptr<f32>> loc(#loc20)
    %23 = tt.addptr %22, %21 : tensor<32x32x!tt.ptr<f32>>, tensor<32x32xi32> loc(#loc20)
    tt.store %23, %15, %14 : tensor<32x32x!tt.ptr<f32>> loc(#loc21)
    %24 = tt.splat %arg1 : !tt.ptr<f32> -> tensor<32x1x!tt.ptr<f32>> loc(#loc22)
    %25 = tt.addptr %24, %5 : tensor<32x1x!tt.ptr<f32>>, tensor<32x1xi32> loc(#loc22)
    tt.store %25, %18, %6 : tensor<32x1x!tt.ptr<f32>> loc(#loc23)
    tt.return loc(#loc24)
  } loc(#loc)
} loc(#loc)
#loc2 = loc("/orcd/home/002/osbo/ondemand/fluid-sim/Assets/Scripts/.torch_inductor_cache/2n/c2n4da3p3w3rm4pwxuf77foyisujxgdqg4xorxqjqhqioj6mp7vv.py":22:28)
#loc3 = loc("/orcd/home/002/osbo/ondemand/fluid-sim/Assets/Scripts/.torch_inductor_cache/2n/c2n4da3p3w3rm4pwxuf77foyisujxgdqg4xorxqjqhqioj6mp7vv.py":22:33)
#loc4 = loc("/orcd/home/002/osbo/ondemand/fluid-sim/Assets/Scripts/.torch_inductor_cache/2n/c2n4da3p3w3rm4pwxuf77foyisujxgdqg4xorxqjqhqioj6mp7vv.py":23:36)
#loc5 = loc("/orcd/home/002/osbo/ondemand/fluid-sim/Assets/Scripts/.torch_inductor_cache/2n/c2n4da3p3w3rm4pwxuf77foyisujxgdqg4xorxqjqhqioj6mp7vv.py":23:44)
#loc6 = loc("/orcd/home/002/osbo/ondemand/fluid-sim/Assets/Scripts/.torch_inductor_cache/2n/c2n4da3p3w3rm4pwxuf77foyisujxgdqg4xorxqjqhqioj6mp7vv.py":23:23)
#loc7 = loc("/orcd/home/002/osbo/ondemand/fluid-sim/Assets/Scripts/.torch_inductor_cache/2n/c2n4da3p3w3rm4pwxuf77foyisujxgdqg4xorxqjqhqioj6mp7vv.py":24:21)
#loc8 = loc("/orcd/home/002/osbo/ondemand/fluid-sim/Assets/Scripts/.torch_inductor_cache/2n/c2n4da3p3w3rm4pwxuf77foyisujxgdqg4xorxqjqhqioj6mp7vv.py":25:34)
#loc9 = loc("/orcd/home/002/osbo/ondemand/fluid-sim/Assets/Scripts/.torch_inductor_cache/2n/c2n4da3p3w3rm4pwxuf77foyisujxgdqg4xorxqjqhqioj6mp7vv.py":30:39)
#loc10 = loc("/orcd/home/002/osbo/ondemand/fluid-sim/Assets/Scripts/.torch_inductor_cache/2n/c2n4da3p3w3rm4pwxuf77foyisujxgdqg4xorxqjqhqioj6mp7vv.py":30:36)
#loc11 = loc("/orcd/home/002/osbo/ondemand/fluid-sim/Assets/Scripts/.torch_inductor_cache/2n/c2n4da3p3w3rm4pwxuf77foyisujxgdqg4xorxqjqhqioj6mp7vv.py":30:30)
#loc12 = loc("/orcd/home/002/osbo/ondemand/fluid-sim/Assets/Scripts/.torch_inductor_cache/2n/c2n4da3p3w3rm4pwxuf77foyisujxgdqg4xorxqjqhqioj6mp7vv.py":30:45)
#loc13 = loc("/orcd/home/002/osbo/ondemand/fluid-sim/Assets/Scripts/.torch_inductor_cache/2n/c2n4da3p3w3rm4pwxuf77foyisujxgdqg4xorxqjqhqioj6mp7vv.py":32:33)
#loc14 = loc("/home/osbo/.conda/envs/fluid/lib/python3.12/site-packages/triton/language/standard.py":267:36)
#loc15 = loc("/orcd/home/002/osbo/ondemand/fluid-sim/Assets/Scripts/.torch_inductor_cache/2n/c2n4da3p3w3rm4pwxuf77foyisujxgdqg4xorxqjqhqioj6mp7vv.py":33:24)
#loc16 = loc("/home/osbo/.conda/envs/fluid/lib/python3.12/site-packages/triton/language/standard.py":256:15)
#loc17 = loc("/orcd/home/002/osbo/ondemand/fluid-sim/Assets/Scripts/.torch_inductor_cache/2n/c2n4da3p3w3rm4pwxuf77foyisujxgdqg4xorxqjqhqioj6mp7vv.py":33:27)
#loc18 = loc("/orcd/home/002/osbo/ondemand/fluid-sim/Assets/Scripts/.torch_inductor_cache/2n/c2n4da3p3w3rm4pwxuf77foyisujxgdqg4xorxqjqhqioj6mp7vv.py":34:34)
#loc19 = loc("/orcd/home/002/osbo/ondemand/fluid-sim/Assets/Scripts/.torch_inductor_cache/2n/c2n4da3p3w3rm4pwxuf77foyisujxgdqg4xorxqjqhqioj6mp7vv.py":34:31)
#loc20 = loc("/orcd/home/002/osbo/ondemand/fluid-sim/Assets/Scripts/.torch_inductor_cache/2n/c2n4da3p3w3rm4pwxuf77foyisujxgdqg4xorxqjqhqioj6mp7vv.py":34:25)
#loc21 = loc("/orcd/home/002/osbo/ondemand/fluid-sim/Assets/Scripts/.torch_inductor_cache/2n/c2n4da3p3w3rm4pwxuf77foyisujxgdqg4xorxqjqhqioj6mp7vv.py":34:46)
#loc22 = loc("/orcd/home/002/osbo/ondemand/fluid-sim/Assets/Scripts/.torch_inductor_cache/2n/c2n4da3p3w3rm4pwxuf77foyisujxgdqg4xorxqjqhqioj6mp7vv.py":35:25)
#loc23 = loc("/orcd/home/002/osbo/ondemand/fluid-sim/Assets/Scripts/.torch_inductor_cache/2n/c2n4da3p3w3rm4pwxuf77foyisujxgdqg4xorxqjqhqioj6mp7vv.py":35:36)
#loc24 = loc("/orcd/home/002/osbo/ondemand/fluid-sim/Assets/Scripts/.torch_inductor_cache/2n/c2n4da3p3w3rm4pwxuf77foyisujxgdqg4xorxqjqhqioj6mp7vv.py":35:4)
#loc25 = loc(callsite(#loc14 at #loc15))
#loc26 = loc(callsite(#loc16 at #loc14))
#loc27 = loc(callsite(#loc26 at #loc15))
