#loc = loc("/orcd/home/002/osbo/ondemand/fluid-sim/Assets/Scripts/.torch_inductor_cache/de/cdev32jym5hhmc7lm2dvq6ann3oewqvkwqjok7u5tkbxhcpumvui.py":18:0)
#loc1 = loc(unknown)
module {
  tt.func public @triton_(%arg0: !tt.ptr<f32> {tt.divisibility = 16 : i32} loc("/orcd/home/002/osbo/ondemand/fluid-sim/Assets/Scripts/.torch_inductor_cache/de/cdev32jym5hhmc7lm2dvq6ann3oewqvkwqjok7u5tkbxhcpumvui.py":18:0), %arg1: !tt.ptr<f32> {tt.divisibility = 16 : i32} loc("/orcd/home/002/osbo/ondemand/fluid-sim/Assets/Scripts/.torch_inductor_cache/de/cdev32jym5hhmc7lm2dvq6ann3oewqvkwqjok7u5tkbxhcpumvui.py":18:0), %arg2: !tt.ptr<i64> {tt.divisibility = 16 : i32} loc("/orcd/home/002/osbo/ondemand/fluid-sim/Assets/Scripts/.torch_inductor_cache/de/cdev32jym5hhmc7lm2dvq6ann3oewqvkwqjok7u5tkbxhcpumvui.py":18:0), %arg3: !tt.ptr<f32> {tt.divisibility = 16 : i32} loc("/orcd/home/002/osbo/ondemand/fluid-sim/Assets/Scripts/.torch_inductor_cache/de/cdev32jym5hhmc7lm2dvq6ann3oewqvkwqjok7u5tkbxhcpumvui.py":18:0), %arg4: !tt.ptr<f32> {tt.divisibility = 16 : i32} loc("/orcd/home/002/osbo/ondemand/fluid-sim/Assets/Scripts/.torch_inductor_cache/de/cdev32jym5hhmc7lm2dvq6ann3oewqvkwqjok7u5tkbxhcpumvui.py":18:0), %arg5: !tt.ptr<f32> {tt.divisibility = 16 : i32} loc("/orcd/home/002/osbo/ondemand/fluid-sim/Assets/Scripts/.torch_inductor_cache/de/cdev32jym5hhmc7lm2dvq6ann3oewqvkwqjok7u5tkbxhcpumvui.py":18:0), %arg6: !tt.ptr<f32> {tt.divisibility = 16 : i32} loc("/orcd/home/002/osbo/ondemand/fluid-sim/Assets/Scripts/.torch_inductor_cache/de/cdev32jym5hhmc7lm2dvq6ann3oewqvkwqjok7u5tkbxhcpumvui.py":18:0), %arg7: !tt.ptr<f32> {tt.divisibility = 16 : i32} loc("/orcd/home/002/osbo/ondemand/fluid-sim/Assets/Scripts/.torch_inductor_cache/de/cdev32jym5hhmc7lm2dvq6ann3oewqvkwqjok7u5tkbxhcpumvui.py":18:0), %arg8: !tt.ptr<f32> {tt.divisibility = 16 : i32} loc("/orcd/home/002/osbo/ondemand/fluid-sim/Assets/Scripts/.torch_inductor_cache/de/cdev32jym5hhmc7lm2dvq6ann3oewqvkwqjok7u5tkbxhcpumvui.py":18:0), %arg9: !tt.ptr<f32> {tt.divisibility = 16 : i32} loc("/orcd/home/002/osbo/ondemand/fluid-sim/Assets/Scripts/.torch_inductor_cache/de/cdev32jym5hhmc7lm2dvq6ann3oewqvkwqjok7u5tkbxhcpumvui.py":18:0), %arg10: !tt.ptr<f32> {tt.divisibility = 16 : i32} loc("/orcd/home/002/osbo/ondemand/fluid-sim/Assets/Scripts/.torch_inductor_cache/de/cdev32jym5hhmc7lm2dvq6ann3oewqvkwqjok7u5tkbxhcpumvui.py":18:0), %arg11: !tt.ptr<f32> {tt.divisibility = 16 : i32} loc("/orcd/home/002/osbo/ondemand/fluid-sim/Assets/Scripts/.torch_inductor_cache/de/cdev32jym5hhmc7lm2dvq6ann3oewqvkwqjok7u5tkbxhcpumvui.py":18:0), %arg12: i32 {tt.divisibility = 16 : i32} loc("/orcd/home/002/osbo/ondemand/fluid-sim/Assets/Scripts/.torch_inductor_cache/de/cdev32jym5hhmc7lm2dvq6ann3oewqvkwqjok7u5tkbxhcpumvui.py":18:0), %arg13: i32 {tt.divisibility = 16 : i32} loc("/orcd/home/002/osbo/ondemand/fluid-sim/Assets/Scripts/.torch_inductor_cache/de/cdev32jym5hhmc7lm2dvq6ann3oewqvkwqjok7u5tkbxhcpumvui.py":18:0)) attributes {noinline = false} {
    %c4096_i32 = arith.constant 4096 : i32 loc(#loc1)
    %c32_i64 = arith.constant 32 : i64 loc(#loc1)
    %c128_i32 = arith.constant 128 : i32 loc(#loc1)
    %c33_i32 = arith.constant 33 : i32 loc(#loc1)
    %c1584_i32 = arith.constant 1584 : i32 loc(#loc1)
    %cst = arith.constant dense<0> : tensor<1x128xi64> loc(#loc1)
    %cst_0 = arith.constant dense<9.99999974E-6> : tensor<1x1xf32> loc(#loc1)
    %cst_1 = arith.constant dense<1.280000e+02> : tensor<1x1xf32> loc(#loc1)
    %cst_2 = arith.constant dense<3.200000e+01> : tensor<1x128xf32> loc(#loc1)
    %cst_3 = arith.constant dense<0.000000e+00> : tensor<1x128xf32> loc(#loc1)
    %0 = tt.get_program_id x : i32 loc(#loc2)
    %1 = arith.cmpi slt, %0, %c1584_i32 : i32 loc(#loc3)
    %2 = tt.make_range {end = 128 : i32, start = 0 : i32} : tensor<128xi32> loc(#loc4)
    %3 = tt.expand_dims %2 {axis = 0 : i32} : tensor<128xi32> -> tensor<1x128xi32> loc(#loc5)
    %4 = arith.remsi %0, %c33_i32 : i32 loc(#loc6)
    %5 = arith.divsi %0, %c33_i32 : i32 loc(#loc7)
    %6 = arith.muli %0, %c128_i32 : i32 loc(#loc8)
    %7 = tt.splat %6 : i32 -> tensor<1x128xi32> loc(#loc9)
    %8 = arith.addi %3, %7 : tensor<1x128xi32> loc(#loc9)
    %9 = tt.splat %arg5 : !tt.ptr<f32> -> tensor<1x128x!tt.ptr<f32>> loc(#loc10)
    %10 = tt.addptr %9, %8 : tensor<1x128x!tt.ptr<f32>>, tensor<1x128xi32> loc(#loc10)
    %11 = tt.splat %1 : i1 -> tensor<1x128xi1> loc(#loc11)
    %12 = tt.load %10, %11, %cst_3 : tensor<1x128x!tt.ptr<f32>> loc(#loc11)
    %13 = tt.splat %arg6 : !tt.ptr<f32> -> tensor<1x128x!tt.ptr<f32>> loc(#loc12)
    %14 = tt.addptr %13, %8 : tensor<1x128x!tt.ptr<f32>>, tensor<1x128xi32> loc(#loc12)
    %15 = tt.load %14, %11, %cst_3 : tensor<1x128x!tt.ptr<f32>> loc(#loc13)
    %16 = tt.splat %arg7 : !tt.ptr<f32> -> tensor<1x128x!tt.ptr<f32>> loc(#loc14)
    %17 = tt.addptr %16, %3 : tensor<1x128x!tt.ptr<f32>>, tensor<1x128xi32> loc(#loc14)
    %18 = tt.load %17 evictionPolicy = evict_last : tensor<1x128x!tt.ptr<f32>> loc(#loc15)
    %19 = tt.splat %arg0 : !tt.ptr<f32> -> tensor<1x128x!tt.ptr<f32>> loc(#loc16)
    %20 = tt.addptr %19, %8 : tensor<1x128x!tt.ptr<f32>>, tensor<1x128xi32> loc(#loc16)
    %21 = tt.load %20, %11, %cst_3 : tensor<1x128x!tt.ptr<f32>> loc(#loc17)
    %22 = tt.splat %arg8 : !tt.ptr<f32> -> tensor<1x128x!tt.ptr<f32>> loc(#loc18)
    %23 = tt.addptr %22, %3 : tensor<1x128x!tt.ptr<f32>>, tensor<1x128xi32> loc(#loc18)
    %24 = tt.load %23 evictionPolicy = evict_last : tensor<1x128x!tt.ptr<f32>> loc(#loc19)
    %25 = tt.splat %arg9 : !tt.ptr<f32> -> tensor<1x128x!tt.ptr<f32>> loc(#loc20)
    %26 = tt.addptr %25, %3 : tensor<1x128x!tt.ptr<f32>>, tensor<1x128xi32> loc(#loc20)
    %27 = tt.load %26 evictionPolicy = evict_last : tensor<1x128x!tt.ptr<f32>> loc(#loc21)
    %28 = tt.splat %arg10 : !tt.ptr<f32> -> tensor<1x128x!tt.ptr<f32>> loc(#loc22)
    %29 = tt.addptr %28, %3 : tensor<1x128x!tt.ptr<f32>>, tensor<1x128xi32> loc(#loc22)
    %30 = tt.load %29 evictionPolicy = evict_last : tensor<1x128x!tt.ptr<f32>> loc(#loc23)
    %31 = arith.extsi %4 : i32 to i64 loc(#loc24)
    %32 = arith.cmpi slt, %31, %c32_i64 : i64 loc(#loc24)
    %33 = arith.muli %4, %c128_i32 : i32 loc(#loc25)
    %34 = tt.splat %33 : i32 -> tensor<1x128xi32> loc(#loc26)
    %35 = arith.addi %3, %34 : tensor<1x128xi32> loc(#loc26)
    %36 = arith.muli %5, %c4096_i32 : i32 loc(#loc27)
    %37 = tt.splat %36 : i32 -> tensor<1x128xi32> loc(#loc28)
    %38 = arith.addi %35, %37 : tensor<1x128xi32> loc(#loc28)
    %39 = tt.splat %arg1 : !tt.ptr<f32> -> tensor<1x128x!tt.ptr<f32>> loc(#loc29)
    %40 = tt.addptr %39, %38 : tensor<1x128x!tt.ptr<f32>>, tensor<1x128xi32> loc(#loc29)
    %41 = arith.andi %32, %1 : i1 loc(#loc30)
    %42 = tt.splat %41 : i1 -> tensor<1x128xi1> loc(#loc31)
    %43 = tt.load %40, %42, %cst_3 : tensor<1x128x!tt.ptr<f32>> loc(#loc31)
    %44 = tt.addptr %arg2, %5 : !tt.ptr<i64>, i32 loc(#loc32)
    %45 = tt.splat %44 : !tt.ptr<i64> -> tensor<1x128x!tt.ptr<i64>> loc(#loc32)
    %46 = tt.load %45, %42, %cst evictionPolicy = evict_last : tensor<1x128x!tt.ptr<i64>> loc(#loc33)
    %47 = arith.sitofp %46 : tensor<1x128xi64> to tensor<1x128xf32> loc(#loc34)
    %48 = arith.divf %43, %47 : tensor<1x128xf32> loc(#loc35)
    %49 = tt.splat %arg3 : !tt.ptr<f32> -> tensor<1x128x!tt.ptr<f32>> loc(#loc36)
    %50 = tt.addptr %49, %38 : tensor<1x128x!tt.ptr<f32>>, tensor<1x128xi32> loc(#loc36)
    %51 = tt.load %50, %42, %cst_3 : tensor<1x128x!tt.ptr<f32>> loc(#loc37)
    %52 = arith.divf %51, %47 : tensor<1x128xf32> loc(#loc38)
    %53 = arith.addf %48, %52 : tensor<1x128xf32> loc(#loc39)
    %54 = tt.splat %32 : i1 -> tensor<1x128xi1> loc(#loc40)
    %55 = arith.select %54, %53, %cst_3 : tensor<1x128xi1>, tensor<1x128xf32> loc(#loc40)
    %56 = arith.cmpi sge, %31, %c32_i64 : i64 loc(#loc41)
    %57 = arith.muli %5, %c128_i32 : i32 loc(#loc42)
    %58 = tt.splat %57 : i32 -> tensor<1x128xi32> loc(#loc43)
    %59 = arith.addi %3, %58 : tensor<1x128xi32> loc(#loc43)
    %60 = tt.splat %arg4 : !tt.ptr<f32> -> tensor<1x128x!tt.ptr<f32>> loc(#loc44)
    %61 = tt.addptr %60, %59 : tensor<1x128x!tt.ptr<f32>>, tensor<1x128xi32> loc(#loc44)
    %62 = arith.andi %56, %1 : i1 loc(#loc45)
    %63 = tt.splat %62 : i1 -> tensor<1x128xi1> loc(#loc46)
    %64 = tt.load %61, %63, %cst_3 evictionPolicy = evict_last : tensor<1x128x!tt.ptr<f32>> loc(#loc46)
    %65 = arith.divf %64, %cst_2 : tensor<1x128xf32> loc(#loc47)
    %66 = tt.splat %56 : i1 -> tensor<1x128xi1> loc(#loc48)
    %67 = arith.select %66, %65, %cst_3 : tensor<1x128xi1>, tensor<1x128xf32> loc(#loc48)
    %68 = arith.select %54, %55, %67 : tensor<1x128xi1>, tensor<1x128xf32> loc(#loc49)
    %69 = arith.addf %15, %18 : tensor<1x128xf32> loc(#loc50)
    %70 = arith.addf %12, %69 : tensor<1x128xf32> loc(#loc51)
    %71 = arith.addf %21, %24 : tensor<1x128xf32> loc(#loc52)
    %72 = arith.addf %70, %71 : tensor<1x128xf32> loc(#loc53)
    %73 = arith.addf %68, %72 : tensor<1x128xf32> loc(#loc54)
    %74 = arith.select %11, %73, %cst_3 : tensor<1x128xi1>, tensor<1x128xf32> loc(#loc55)
    %75 = "tt.reduce"(%74) <{axis = 1 : i32}> ({
    ^bb0(%arg14: f32 loc(unknown), %arg15: f32 loc(unknown)):
      %93 = arith.addf %arg14, %arg15 : f32 loc(#loc79)
      tt.reduce.return %93 : f32 loc(#loc76)
    }) : (tensor<1x128xf32>) -> tensor<1xf32> loc(#loc76)
    %76 = tt.expand_dims %75 {axis = 1 : i32} : tensor<1xf32> -> tensor<1x1xf32> loc(#loc59)
    %77 = arith.divf %76, %cst_1 : tensor<1x1xf32> loc(#loc60)
    %78 = tt.broadcast %77 : tensor<1x1xf32> -> tensor<1x128xf32> loc(#loc61)
    %79 = arith.subf %73, %78 : tensor<1x128xf32> loc(#loc61)
    %80 = arith.mulf %79, %79 : tensor<1x128xf32> loc(#loc62)
    %81 = arith.select %11, %80, %cst_3 : tensor<1x128xi1>, tensor<1x128xf32> loc(#loc63)
    %82 = "tt.reduce"(%81) <{axis = 1 : i32}> ({
    ^bb0(%arg14: f32 loc(unknown), %arg15: f32 loc(unknown)):
      %93 = arith.addf %arg14, %arg15 : f32 loc(#loc80)
      tt.reduce.return %93 : f32 loc(#loc78)
    }) : (tensor<1x128xf32>) -> tensor<1xf32> loc(#loc78)
    %83 = tt.expand_dims %82 {axis = 1 : i32} : tensor<1xf32> -> tensor<1x1xf32> loc(#loc65)
    %84 = arith.divf %83, %cst_1 : tensor<1x1xf32> loc(#loc66)
    %85 = arith.addf %84, %cst_0 : tensor<1x1xf32> loc(#loc67)
    %86 = tt.extern_elementwise %85 {libname = "", libpath = "", pure = true, symbol = "__nv_rsqrtf"} : (tensor<1x1xf32>) -> tensor<1x1xf32> loc(#loc68)
    %87 = tt.broadcast %86 : tensor<1x1xf32> -> tensor<1x128xf32> loc(#loc69)
    %88 = arith.mulf %79, %87 : tensor<1x128xf32> loc(#loc69)
    %89 = arith.mulf %88, %27 : tensor<1x128xf32> loc(#loc70)
    %90 = arith.addf %89, %30 : tensor<1x128xf32> loc(#loc71)
    tt.store %20, %73, %11 : tensor<1x128x!tt.ptr<f32>> loc(#loc72)
    %91 = tt.splat %arg11 : !tt.ptr<f32> -> tensor<1x128x!tt.ptr<f32>> loc(#loc73)
    %92 = tt.addptr %91, %8 : tensor<1x128x!tt.ptr<f32>>, tensor<1x128xi32> loc(#loc73)
    tt.store %92, %90, %11 : tensor<1x128x!tt.ptr<f32>> loc(#loc74)
    tt.return loc(#loc75)
  } loc(#loc)
} loc(#loc)
#loc2 = loc("/orcd/home/002/osbo/ondemand/fluid-sim/Assets/Scripts/.torch_inductor_cache/de/cdev32jym5hhmc7lm2dvq6ann3oewqvkwqjok7u5tkbxhcpumvui.py":22:28)
#loc3 = loc("/orcd/home/002/osbo/ondemand/fluid-sim/Assets/Scripts/.torch_inductor_cache/de/cdev32jym5hhmc7lm2dvq6ann3oewqvkwqjok7u5tkbxhcpumvui.py":24:21)
#loc4 = loc("/orcd/home/002/osbo/ondemand/fluid-sim/Assets/Scripts/.torch_inductor_cache/de/cdev32jym5hhmc7lm2dvq6ann3oewqvkwqjok7u5tkbxhcpumvui.py":25:26)
#loc5 = loc("/orcd/home/002/osbo/ondemand/fluid-sim/Assets/Scripts/.torch_inductor_cache/de/cdev32jym5hhmc7lm2dvq6ann3oewqvkwqjok7u5tkbxhcpumvui.py":25:34)
#loc6 = loc("/orcd/home/002/osbo/ondemand/fluid-sim/Assets/Scripts/.torch_inductor_cache/de/cdev32jym5hhmc7lm2dvq6ann3oewqvkwqjok7u5tkbxhcpumvui.py":28:18)
#loc7 = loc("/orcd/home/002/osbo/ondemand/fluid-sim/Assets/Scripts/.torch_inductor_cache/de/cdev32jym5hhmc7lm2dvq6ann3oewqvkwqjok7u5tkbxhcpumvui.py":30:20)
#loc8 = loc("/orcd/home/002/osbo/ondemand/fluid-sim/Assets/Scripts/.torch_inductor_cache/de/cdev32jym5hhmc7lm2dvq6ann3oewqvkwqjok7u5tkbxhcpumvui.py":32:41)
#loc9 = loc("/orcd/home/002/osbo/ondemand/fluid-sim/Assets/Scripts/.torch_inductor_cache/de/cdev32jym5hhmc7lm2dvq6ann3oewqvkwqjok7u5tkbxhcpumvui.py":32:37)
#loc10 = loc("/orcd/home/002/osbo/ondemand/fluid-sim/Assets/Scripts/.torch_inductor_cache/de/cdev32jym5hhmc7lm2dvq6ann3oewqvkwqjok7u5tkbxhcpumvui.py":32:31)
#loc11 = loc("/orcd/home/002/osbo/ondemand/fluid-sim/Assets/Scripts/.torch_inductor_cache/de/cdev32jym5hhmc7lm2dvq6ann3oewqvkwqjok7u5tkbxhcpumvui.py":32:47)
#loc12 = loc("/orcd/home/002/osbo/ondemand/fluid-sim/Assets/Scripts/.torch_inductor_cache/de/cdev32jym5hhmc7lm2dvq6ann3oewqvkwqjok7u5tkbxhcpumvui.py":33:31)
#loc13 = loc("/orcd/home/002/osbo/ondemand/fluid-sim/Assets/Scripts/.torch_inductor_cache/de/cdev32jym5hhmc7lm2dvq6ann3oewqvkwqjok7u5tkbxhcpumvui.py":33:47)
#loc14 = loc("/orcd/home/002/osbo/ondemand/fluid-sim/Assets/Scripts/.torch_inductor_cache/de/cdev32jym5hhmc7lm2dvq6ann3oewqvkwqjok7u5tkbxhcpumvui.py":34:31)
#loc15 = loc("/orcd/home/002/osbo/ondemand/fluid-sim/Assets/Scripts/.torch_inductor_cache/de/cdev32jym5hhmc7lm2dvq6ann3oewqvkwqjok7u5tkbxhcpumvui.py":34:36)
#loc16 = loc("/orcd/home/002/osbo/ondemand/fluid-sim/Assets/Scripts/.torch_inductor_cache/de/cdev32jym5hhmc7lm2dvq6ann3oewqvkwqjok7u5tkbxhcpumvui.py":35:35)
#loc17 = loc("/orcd/home/002/osbo/ondemand/fluid-sim/Assets/Scripts/.torch_inductor_cache/de/cdev32jym5hhmc7lm2dvq6ann3oewqvkwqjok7u5tkbxhcpumvui.py":35:51)
#loc18 = loc("/orcd/home/002/osbo/ondemand/fluid-sim/Assets/Scripts/.torch_inductor_cache/de/cdev32jym5hhmc7lm2dvq6ann3oewqvkwqjok7u5tkbxhcpumvui.py":36:31)
#loc19 = loc("/orcd/home/002/osbo/ondemand/fluid-sim/Assets/Scripts/.torch_inductor_cache/de/cdev32jym5hhmc7lm2dvq6ann3oewqvkwqjok7u5tkbxhcpumvui.py":36:36)
#loc20 = loc("/orcd/home/002/osbo/ondemand/fluid-sim/Assets/Scripts/.torch_inductor_cache/de/cdev32jym5hhmc7lm2dvq6ann3oewqvkwqjok7u5tkbxhcpumvui.py":37:31)
#loc21 = loc("/orcd/home/002/osbo/ondemand/fluid-sim/Assets/Scripts/.torch_inductor_cache/de/cdev32jym5hhmc7lm2dvq6ann3oewqvkwqjok7u5tkbxhcpumvui.py":37:36)
#loc22 = loc("/orcd/home/002/osbo/ondemand/fluid-sim/Assets/Scripts/.torch_inductor_cache/de/cdev32jym5hhmc7lm2dvq6ann3oewqvkwqjok7u5tkbxhcpumvui.py":38:31)
#loc23 = loc("/orcd/home/002/osbo/ondemand/fluid-sim/Assets/Scripts/.torch_inductor_cache/de/cdev32jym5hhmc7lm2dvq6ann3oewqvkwqjok7u5tkbxhcpumvui.py":38:36)
#loc24 = loc("/orcd/home/002/osbo/ondemand/fluid-sim/Assets/Scripts/.torch_inductor_cache/de/cdev32jym5hhmc7lm2dvq6ann3oewqvkwqjok7u5tkbxhcpumvui.py":43:18)
#loc25 = loc("/orcd/home/002/osbo/ondemand/fluid-sim/Assets/Scripts/.torch_inductor_cache/de/cdev32jym5hhmc7lm2dvq6ann3oewqvkwqjok7u5tkbxhcpumvui.py":44:40)
#loc26 = loc("/orcd/home/002/osbo/ondemand/fluid-sim/Assets/Scripts/.torch_inductor_cache/de/cdev32jym5hhmc7lm2dvq6ann3oewqvkwqjok7u5tkbxhcpumvui.py":44:36)
#loc27 = loc("/orcd/home/002/osbo/ondemand/fluid-sim/Assets/Scripts/.torch_inductor_cache/de/cdev32jym5hhmc7lm2dvq6ann3oewqvkwqjok7u5tkbxhcpumvui.py":44:52)
#loc28 = loc("/orcd/home/002/osbo/ondemand/fluid-sim/Assets/Scripts/.torch_inductor_cache/de/cdev32jym5hhmc7lm2dvq6ann3oewqvkwqjok7u5tkbxhcpumvui.py":44:47)
#loc29 = loc("/orcd/home/002/osbo/ondemand/fluid-sim/Assets/Scripts/.torch_inductor_cache/de/cdev32jym5hhmc7lm2dvq6ann3oewqvkwqjok7u5tkbxhcpumvui.py":44:30)
#loc30 = loc("/orcd/home/002/osbo/ondemand/fluid-sim/Assets/Scripts/.torch_inductor_cache/de/cdev32jym5hhmc7lm2dvq6ann3oewqvkwqjok7u5tkbxhcpumvui.py":44:65)
#loc31 = loc("/orcd/home/002/osbo/ondemand/fluid-sim/Assets/Scripts/.torch_inductor_cache/de/cdev32jym5hhmc7lm2dvq6ann3oewqvkwqjok7u5tkbxhcpumvui.py":44:58)
#loc32 = loc("/orcd/home/002/osbo/ondemand/fluid-sim/Assets/Scripts/.torch_inductor_cache/de/cdev32jym5hhmc7lm2dvq6ann3oewqvkwqjok7u5tkbxhcpumvui.py":45:30)
#loc33 = loc("/orcd/home/002/osbo/ondemand/fluid-sim/Assets/Scripts/.torch_inductor_cache/de/cdev32jym5hhmc7lm2dvq6ann3oewqvkwqjok7u5tkbxhcpumvui.py":45:70)
#loc34 = loc("/orcd/home/002/osbo/ondemand/fluid-sim/Assets/Scripts/.torch_inductor_cache/de/cdev32jym5hhmc7lm2dvq6ann3oewqvkwqjok7u5tkbxhcpumvui.py":46:19)
#loc35 = loc("/orcd/home/002/osbo/ondemand/fluid-sim/Assets/Scripts/.torch_inductor_cache/de/cdev32jym5hhmc7lm2dvq6ann3oewqvkwqjok7u5tkbxhcpumvui.py":47:18)
#loc36 = loc("/orcd/home/002/osbo/ondemand/fluid-sim/Assets/Scripts/.torch_inductor_cache/de/cdev32jym5hhmc7lm2dvq6ann3oewqvkwqjok7u5tkbxhcpumvui.py":48:30)
#loc37 = loc("/orcd/home/002/osbo/ondemand/fluid-sim/Assets/Scripts/.torch_inductor_cache/de/cdev32jym5hhmc7lm2dvq6ann3oewqvkwqjok7u5tkbxhcpumvui.py":48:58)
#loc38 = loc("/orcd/home/002/osbo/ondemand/fluid-sim/Assets/Scripts/.torch_inductor_cache/de/cdev32jym5hhmc7lm2dvq6ann3oewqvkwqjok7u5tkbxhcpumvui.py":49:19)
#loc39 = loc("/orcd/home/002/osbo/ondemand/fluid-sim/Assets/Scripts/.torch_inductor_cache/de/cdev32jym5hhmc7lm2dvq6ann3oewqvkwqjok7u5tkbxhcpumvui.py":50:19)
#loc40 = loc("/orcd/home/002/osbo/ondemand/fluid-sim/Assets/Scripts/.torch_inductor_cache/de/cdev32jym5hhmc7lm2dvq6ann3oewqvkwqjok7u5tkbxhcpumvui.py":52:34)
#loc41 = loc("/orcd/home/002/osbo/ondemand/fluid-sim/Assets/Scripts/.torch_inductor_cache/de/cdev32jym5hhmc7lm2dvq6ann3oewqvkwqjok7u5tkbxhcpumvui.py":53:20)
#loc42 = loc("/orcd/home/002/osbo/ondemand/fluid-sim/Assets/Scripts/.torch_inductor_cache/de/cdev32jym5hhmc7lm2dvq6ann3oewqvkwqjok7u5tkbxhcpumvui.py":56:41)
#loc43 = loc("/orcd/home/002/osbo/ondemand/fluid-sim/Assets/Scripts/.torch_inductor_cache/de/cdev32jym5hhmc7lm2dvq6ann3oewqvkwqjok7u5tkbxhcpumvui.py":56:37)
#loc44 = loc("/orcd/home/002/osbo/ondemand/fluid-sim/Assets/Scripts/.torch_inductor_cache/de/cdev32jym5hhmc7lm2dvq6ann3oewqvkwqjok7u5tkbxhcpumvui.py":56:31)
#loc45 = loc("/orcd/home/002/osbo/ondemand/fluid-sim/Assets/Scripts/.torch_inductor_cache/de/cdev32jym5hhmc7lm2dvq6ann3oewqvkwqjok7u5tkbxhcpumvui.py":56:55)
#loc46 = loc("/orcd/home/002/osbo/ondemand/fluid-sim/Assets/Scripts/.torch_inductor_cache/de/cdev32jym5hhmc7lm2dvq6ann3oewqvkwqjok7u5tkbxhcpumvui.py":56:47)
#loc47 = loc("/orcd/home/002/osbo/ondemand/fluid-sim/Assets/Scripts/.torch_inductor_cache/de/cdev32jym5hhmc7lm2dvq6ann3oewqvkwqjok7u5tkbxhcpumvui.py":58:20)
#loc48 = loc("/orcd/home/002/osbo/ondemand/fluid-sim/Assets/Scripts/.torch_inductor_cache/de/cdev32jym5hhmc7lm2dvq6ann3oewqvkwqjok7u5tkbxhcpumvui.py":60:35)
#loc49 = loc("/orcd/home/002/osbo/ondemand/fluid-sim/Assets/Scripts/.torch_inductor_cache/de/cdev32jym5hhmc7lm2dvq6ann3oewqvkwqjok7u5tkbxhcpumvui.py":61:34)
#loc50 = loc("/orcd/home/002/osbo/ondemand/fluid-sim/Assets/Scripts/.torch_inductor_cache/de/cdev32jym5hhmc7lm2dvq6ann3oewqvkwqjok7u5tkbxhcpumvui.py":62:20)
#loc51 = loc("/orcd/home/002/osbo/ondemand/fluid-sim/Assets/Scripts/.torch_inductor_cache/de/cdev32jym5hhmc7lm2dvq6ann3oewqvkwqjok7u5tkbxhcpumvui.py":63:20)
#loc52 = loc("/orcd/home/002/osbo/ondemand/fluid-sim/Assets/Scripts/.torch_inductor_cache/de/cdev32jym5hhmc7lm2dvq6ann3oewqvkwqjok7u5tkbxhcpumvui.py":64:20)
#loc53 = loc("/orcd/home/002/osbo/ondemand/fluid-sim/Assets/Scripts/.torch_inductor_cache/de/cdev32jym5hhmc7lm2dvq6ann3oewqvkwqjok7u5tkbxhcpumvui.py":65:20)
#loc54 = loc("/orcd/home/002/osbo/ondemand/fluid-sim/Assets/Scripts/.torch_inductor_cache/de/cdev32jym5hhmc7lm2dvq6ann3oewqvkwqjok7u5tkbxhcpumvui.py":66:20)
#loc55 = loc("/orcd/home/002/osbo/ondemand/fluid-sim/Assets/Scripts/.torch_inductor_cache/de/cdev32jym5hhmc7lm2dvq6ann3oewqvkwqjok7u5tkbxhcpumvui.py":70:35)
#loc56 = loc("/home/osbo/.conda/envs/fluid/lib/python3.12/site-packages/triton/language/standard.py":267:36)
#loc57 = loc("/orcd/home/002/osbo/ondemand/fluid-sim/Assets/Scripts/.torch_inductor_cache/de/cdev32jym5hhmc7lm2dvq6ann3oewqvkwqjok7u5tkbxhcpumvui.py":71:26)
#loc58 = loc("/home/osbo/.conda/envs/fluid/lib/python3.12/site-packages/triton/language/standard.py":256:15)
#loc59 = loc("/orcd/home/002/osbo/ondemand/fluid-sim/Assets/Scripts/.torch_inductor_cache/de/cdev32jym5hhmc7lm2dvq6ann3oewqvkwqjok7u5tkbxhcpumvui.py":71:29)
#loc60 = loc("/orcd/home/002/osbo/ondemand/fluid-sim/Assets/Scripts/.torch_inductor_cache/de/cdev32jym5hhmc7lm2dvq6ann3oewqvkwqjok7u5tkbxhcpumvui.py":74:20)
#loc61 = loc("/orcd/home/002/osbo/ondemand/fluid-sim/Assets/Scripts/.torch_inductor_cache/de/cdev32jym5hhmc7lm2dvq6ann3oewqvkwqjok7u5tkbxhcpumvui.py":75:20)
#loc62 = loc("/orcd/home/002/osbo/ondemand/fluid-sim/Assets/Scripts/.torch_inductor_cache/de/cdev32jym5hhmc7lm2dvq6ann3oewqvkwqjok7u5tkbxhcpumvui.py":76:20)
#loc63 = loc("/orcd/home/002/osbo/ondemand/fluid-sim/Assets/Scripts/.torch_inductor_cache/de/cdev32jym5hhmc7lm2dvq6ann3oewqvkwqjok7u5tkbxhcpumvui.py":78:35)
#loc64 = loc("/orcd/home/002/osbo/ondemand/fluid-sim/Assets/Scripts/.torch_inductor_cache/de/cdev32jym5hhmc7lm2dvq6ann3oewqvkwqjok7u5tkbxhcpumvui.py":79:26)
#loc65 = loc("/orcd/home/002/osbo/ondemand/fluid-sim/Assets/Scripts/.torch_inductor_cache/de/cdev32jym5hhmc7lm2dvq6ann3oewqvkwqjok7u5tkbxhcpumvui.py":79:29)
#loc66 = loc("/orcd/home/002/osbo/ondemand/fluid-sim/Assets/Scripts/.torch_inductor_cache/de/cdev32jym5hhmc7lm2dvq6ann3oewqvkwqjok7u5tkbxhcpumvui.py":82:20)
#loc67 = loc("/orcd/home/002/osbo/ondemand/fluid-sim/Assets/Scripts/.torch_inductor_cache/de/cdev32jym5hhmc7lm2dvq6ann3oewqvkwqjok7u5tkbxhcpumvui.py":84:20)
#loc68 = loc("/orcd/home/002/osbo/ondemand/fluid-sim/Assets/Scripts/.torch_inductor_cache/de/cdev32jym5hhmc7lm2dvq6ann3oewqvkwqjok7u5tkbxhcpumvui.py":85:28)
#loc69 = loc("/orcd/home/002/osbo/ondemand/fluid-sim/Assets/Scripts/.torch_inductor_cache/de/cdev32jym5hhmc7lm2dvq6ann3oewqvkwqjok7u5tkbxhcpumvui.py":86:20)
#loc70 = loc("/orcd/home/002/osbo/ondemand/fluid-sim/Assets/Scripts/.torch_inductor_cache/de/cdev32jym5hhmc7lm2dvq6ann3oewqvkwqjok7u5tkbxhcpumvui.py":87:20)
#loc71 = loc("/orcd/home/002/osbo/ondemand/fluid-sim/Assets/Scripts/.torch_inductor_cache/de/cdev32jym5hhmc7lm2dvq6ann3oewqvkwqjok7u5tkbxhcpumvui.py":88:20)
#loc72 = loc("/orcd/home/002/osbo/ondemand/fluid-sim/Assets/Scripts/.torch_inductor_cache/de/cdev32jym5hhmc7lm2dvq6ann3oewqvkwqjok7u5tkbxhcpumvui.py":89:51)
#loc73 = loc("/orcd/home/002/osbo/ondemand/fluid-sim/Assets/Scripts/.torch_inductor_cache/de/cdev32jym5hhmc7lm2dvq6ann3oewqvkwqjok7u5tkbxhcpumvui.py":90:25)
#loc74 = loc("/orcd/home/002/osbo/ondemand/fluid-sim/Assets/Scripts/.torch_inductor_cache/de/cdev32jym5hhmc7lm2dvq6ann3oewqvkwqjok7u5tkbxhcpumvui.py":90:48)
#loc75 = loc("/orcd/home/002/osbo/ondemand/fluid-sim/Assets/Scripts/.torch_inductor_cache/de/cdev32jym5hhmc7lm2dvq6ann3oewqvkwqjok7u5tkbxhcpumvui.py":90:4)
#loc76 = loc(callsite(#loc56 at #loc57))
#loc77 = loc(callsite(#loc58 at #loc56))
#loc78 = loc(callsite(#loc56 at #loc64))
#loc79 = loc(callsite(#loc77 at #loc57))
#loc80 = loc(callsite(#loc77 at #loc64))
