#loc = loc("/orcd/home/002/osbo/ondemand/fluid-sim/Assets/Scripts/.torch_inductor_cache/do/cdo6m3uwhgaz4jm5ccovw53gf7nuzqp6xznnbes3ivflh72h6xzp.py":18:0)
module {
  tt.func public @triton_(%arg0: !tt.ptr<f32> {tt.divisibility = 16 : i32} loc("/orcd/home/002/osbo/ondemand/fluid-sim/Assets/Scripts/.torch_inductor_cache/do/cdo6m3uwhgaz4jm5ccovw53gf7nuzqp6xznnbes3ivflh72h6xzp.py":18:0), %arg1: !tt.ptr<f32> {tt.divisibility = 16 : i32} loc("/orcd/home/002/osbo/ondemand/fluid-sim/Assets/Scripts/.torch_inductor_cache/do/cdo6m3uwhgaz4jm5ccovw53gf7nuzqp6xznnbes3ivflh72h6xzp.py":18:0), %arg2: !tt.ptr<f32> {tt.divisibility = 16 : i32} loc("/orcd/home/002/osbo/ondemand/fluid-sim/Assets/Scripts/.torch_inductor_cache/do/cdo6m3uwhgaz4jm5ccovw53gf7nuzqp6xznnbes3ivflh72h6xzp.py":18:0), %arg3: i32 {tt.divisibility = 16 : i32} loc("/orcd/home/002/osbo/ondemand/fluid-sim/Assets/Scripts/.torch_inductor_cache/do/cdo6m3uwhgaz4jm5ccovw53gf7nuzqp6xznnbes3ivflh72h6xzp.py":18:0)) attributes {noinline = false} {
    %cst = arith.constant dense<0.000000e+00> : tensor<1024xf32> loc(#loc1)
    %cst_0 = arith.constant dense<12672> : tensor<1024xi32> loc(#loc1)
    %cst_1 = arith.constant dense<384> : tensor<1024xi32> loc(#loc1)
    %cst_2 = arith.constant dense<8> : tensor<1024xi32> loc(#loc1)
    %cst_3 = arith.constant dense<33> : tensor<1024xi64> loc(#loc1)
    %cst_4 = arith.constant dense<576> : tensor<1024xi32> loc(#loc1)
    %cst_5 = arith.constant dense<36> : tensor<1024xi32> loc(#loc1)
    %cst_6 = arith.constant dense<16> : tensor<1024xi32> loc(#loc1)
    %c1024_i32 = arith.constant 1024 : i32 loc(#loc1)
    %0 = tt.get_program_id x : i32 loc(#loc2)
    %1 = arith.muli %0, %c1024_i32 : i32 loc(#loc3)
    %2 = tt.make_range {end = 1024 : i32, start = 0 : i32} : tensor<1024xi32> loc(#loc4)
    %3 = tt.splat %1 : i32 -> tensor<1024xi32> loc(#loc5)
    %4 = arith.addi %3, %2 : tensor<1024xi32> loc(#loc5)
    %5 = arith.divsi %4, %cst_6 : tensor<1024xi32> loc(#loc6)
    %6 = arith.remsi %5, %cst_5 : tensor<1024xi32> loc(#loc7)
    %7 = arith.remsi %4, %cst_6 : tensor<1024xi32> loc(#loc8)
    %8 = arith.divsi %4, %cst_4 : tensor<1024xi32> loc(#loc9)
    %9 = arith.extsi %6 : tensor<1024xi32> to tensor<1024xi64> loc(#loc10)
    %10 = arith.cmpi slt, %9, %cst_3 : tensor<1024xi64> loc(#loc10)
    %11 = arith.remsi %8, %cst_2 : tensor<1024xi32> loc(#loc11)
    %12 = arith.muli %11, %cst_6 : tensor<1024xi32> loc(#loc12)
    %13 = arith.addi %7, %12 : tensor<1024xi32> loc(#loc13)
    %14 = arith.muli %6, %cst_1 : tensor<1024xi32> loc(#loc14)
    %15 = arith.addi %13, %14 : tensor<1024xi32> loc(#loc15)
    %16 = arith.divsi %8, %cst_2 : tensor<1024xi32> loc(#loc16)
    %17 = arith.muli %16, %cst_0 : tensor<1024xi32> loc(#loc17)
    %18 = arith.addi %15, %17 : tensor<1024xi32> loc(#loc18)
    %19 = tt.splat %arg0 : !tt.ptr<f32> -> tensor<1024x!tt.ptr<f32>> loc(#loc19)
    %20 = tt.addptr %19, %18 : tensor<1024x!tt.ptr<f32>>, tensor<1024xi32> loc(#loc19)
    %21 = tt.load %20, %10, %cst : tensor<1024x!tt.ptr<f32>> loc(#loc20)
    %22 = tt.splat %arg1 : !tt.ptr<f32> -> tensor<1024x!tt.ptr<f32>> loc(#loc21)
    %23 = tt.addptr %22, %13 : tensor<1024x!tt.ptr<f32>>, tensor<1024xi32> loc(#loc21)
    %24 = tt.load %23, %10, %cst evictionPolicy = evict_last : tensor<1024x!tt.ptr<f32>> loc(#loc22)
    %25 = arith.addf %21, %24 : tensor<1024xf32> loc(#loc23)
    %26 = arith.select %10, %25, %cst : tensor<1024xi1>, tensor<1024xf32> loc(#loc29)
    %27 = tt.splat %arg2 : !tt.ptr<f32> -> tensor<1024x!tt.ptr<f32>> loc(#loc26)
    %28 = tt.addptr %27, %4 : tensor<1024x!tt.ptr<f32>>, tensor<1024xi32> loc(#loc26)
    tt.store %28, %26 : tensor<1024x!tt.ptr<f32>> loc(#loc27)
    tt.return loc(#loc28)
  } loc(#loc)
} loc(#loc)
#loc1 = loc(unknown)
#loc2 = loc("/orcd/home/002/osbo/ondemand/fluid-sim/Assets/Scripts/.torch_inductor_cache/do/cdo6m3uwhgaz4jm5ccovw53gf7nuzqp6xznnbes3ivflh72h6xzp.py":20:28)
#loc3 = loc("/orcd/home/002/osbo/ondemand/fluid-sim/Assets/Scripts/.torch_inductor_cache/do/cdo6m3uwhgaz4jm5ccovw53gf7nuzqp6xznnbes3ivflh72h6xzp.py":20:33)
#loc4 = loc("/orcd/home/002/osbo/ondemand/fluid-sim/Assets/Scripts/.torch_inductor_cache/do/cdo6m3uwhgaz4jm5ccovw53gf7nuzqp6xznnbes3ivflh72h6xzp.py":21:36)
#loc5 = loc("/orcd/home/002/osbo/ondemand/fluid-sim/Assets/Scripts/.torch_inductor_cache/do/cdo6m3uwhgaz4jm5ccovw53gf7nuzqp6xznnbes3ivflh72h6xzp.py":21:23)
#loc6 = loc("/orcd/home/002/osbo/ondemand/fluid-sim/Assets/Scripts/.torch_inductor_cache/do/cdo6m3uwhgaz4jm5ccovw53gf7nuzqp6xznnbes3ivflh72h6xzp.py":23:20)
#loc7 = loc("/orcd/home/002/osbo/ondemand/fluid-sim/Assets/Scripts/.torch_inductor_cache/do/cdo6m3uwhgaz4jm5ccovw53gf7nuzqp6xznnbes3ivflh72h6xzp.py":23:26)
#loc8 = loc("/orcd/home/002/osbo/ondemand/fluid-sim/Assets/Scripts/.torch_inductor_cache/do/cdo6m3uwhgaz4jm5ccovw53gf7nuzqp6xznnbes3ivflh72h6xzp.py":24:18)
#loc9 = loc("/orcd/home/002/osbo/ondemand/fluid-sim/Assets/Scripts/.torch_inductor_cache/do/cdo6m3uwhgaz4jm5ccovw53gf7nuzqp6xznnbes3ivflh72h6xzp.py":25:20)
#loc10 = loc("/orcd/home/002/osbo/ondemand/fluid-sim/Assets/Scripts/.torch_inductor_cache/do/cdo6m3uwhgaz4jm5ccovw53gf7nuzqp6xznnbes3ivflh72h6xzp.py":31:18)
#loc11 = loc("/orcd/home/002/osbo/ondemand/fluid-sim/Assets/Scripts/.torch_inductor_cache/do/cdo6m3uwhgaz4jm5ccovw53gf7nuzqp6xznnbes3ivflh72h6xzp.py":32:45)
#loc12 = loc("/orcd/home/002/osbo/ondemand/fluid-sim/Assets/Scripts/.torch_inductor_cache/do/cdo6m3uwhgaz4jm5ccovw53gf7nuzqp6xznnbes3ivflh72h6xzp.py":32:40)
#loc13 = loc("/orcd/home/002/osbo/ondemand/fluid-sim/Assets/Scripts/.torch_inductor_cache/do/cdo6m3uwhgaz4jm5ccovw53gf7nuzqp6xznnbes3ivflh72h6xzp.py":32:36)
#loc14 = loc("/orcd/home/002/osbo/ondemand/fluid-sim/Assets/Scripts/.torch_inductor_cache/do/cdo6m3uwhgaz4jm5ccovw53gf7nuzqp6xznnbes3ivflh72h6xzp.py":32:56)
#loc15 = loc("/orcd/home/002/osbo/ondemand/fluid-sim/Assets/Scripts/.torch_inductor_cache/do/cdo6m3uwhgaz4jm5ccovw53gf7nuzqp6xznnbes3ivflh72h6xzp.py":32:52)
#loc16 = loc("/orcd/home/002/osbo/ondemand/fluid-sim/Assets/Scripts/.torch_inductor_cache/do/cdo6m3uwhgaz4jm5ccovw53gf7nuzqp6xznnbes3ivflh72h6xzp.py":32:76)
#loc17 = loc("/orcd/home/002/osbo/ondemand/fluid-sim/Assets/Scripts/.torch_inductor_cache/do/cdo6m3uwhgaz4jm5ccovw53gf7nuzqp6xznnbes3ivflh72h6xzp.py":32:70)
#loc18 = loc("/orcd/home/002/osbo/ondemand/fluid-sim/Assets/Scripts/.torch_inductor_cache/do/cdo6m3uwhgaz4jm5ccovw53gf7nuzqp6xznnbes3ivflh72h6xzp.py":32:63)
#loc19 = loc("/orcd/home/002/osbo/ondemand/fluid-sim/Assets/Scripts/.torch_inductor_cache/do/cdo6m3uwhgaz4jm5ccovw53gf7nuzqp6xznnbes3ivflh72h6xzp.py":32:30)
#loc20 = loc("/orcd/home/002/osbo/ondemand/fluid-sim/Assets/Scripts/.torch_inductor_cache/do/cdo6m3uwhgaz4jm5ccovw53gf7nuzqp6xznnbes3ivflh72h6xzp.py":32:82)
#loc21 = loc("/orcd/home/002/osbo/ondemand/fluid-sim/Assets/Scripts/.torch_inductor_cache/do/cdo6m3uwhgaz4jm5ccovw53gf7nuzqp6xznnbes3ivflh72h6xzp.py":33:30)
#loc22 = loc("/orcd/home/002/osbo/ondemand/fluid-sim/Assets/Scripts/.torch_inductor_cache/do/cdo6m3uwhgaz4jm5ccovw53gf7nuzqp6xznnbes3ivflh72h6xzp.py":33:51)
#loc23 = loc("/orcd/home/002/osbo/ondemand/fluid-sim/Assets/Scripts/.torch_inductor_cache/do/cdo6m3uwhgaz4jm5ccovw53gf7nuzqp6xznnbes3ivflh72h6xzp.py":34:18)
#loc24 = loc("/orcd/home/002/osbo/ondemand/fluid-sim/Assets/Scripts/.torch_inductor_cache/do/cdo6m3uwhgaz4jm5ccovw53gf7nuzqp6xznnbes3ivflh72h6xzp.py":43:33)
#loc25 = loc("/orcd/home/002/osbo/ondemand/fluid-sim/Assets/Scripts/.torch_inductor_cache/do/cdo6m3uwhgaz4jm5ccovw53gf7nuzqp6xznnbes3ivflh72h6xzp.py":36:32)
#loc26 = loc("/orcd/home/002/osbo/ondemand/fluid-sim/Assets/Scripts/.torch_inductor_cache/do/cdo6m3uwhgaz4jm5ccovw53gf7nuzqp6xznnbes3ivflh72h6xzp.py":44:25)
#loc27 = loc("/orcd/home/002/osbo/ondemand/fluid-sim/Assets/Scripts/.torch_inductor_cache/do/cdo6m3uwhgaz4jm5ccovw53gf7nuzqp6xznnbes3ivflh72h6xzp.py":44:37)
#loc28 = loc("/orcd/home/002/osbo/ondemand/fluid-sim/Assets/Scripts/.torch_inductor_cache/do/cdo6m3uwhgaz4jm5ccovw53gf7nuzqp6xznnbes3ivflh72h6xzp.py":44:4)
#loc29 = loc(fused[#loc24, #loc25])
