#loc = loc("/orcd/home/002/osbo/ondemand/fluid-sim/Assets/Scripts/.torch_inductor_cache/zs/czshcix65iifgn5xfcmu664jaqv42x7sioihmmksmro5i7wifum4.py":18:0)
module {
  tt.func public @triton_(%arg0: !tt.ptr<f32> {tt.divisibility = 16 : i32} loc("/orcd/home/002/osbo/ondemand/fluid-sim/Assets/Scripts/.torch_inductor_cache/zs/czshcix65iifgn5xfcmu664jaqv42x7sioihmmksmro5i7wifum4.py":18:0), %arg1: !tt.ptr<f32> {tt.divisibility = 16 : i32} loc("/orcd/home/002/osbo/ondemand/fluid-sim/Assets/Scripts/.torch_inductor_cache/zs/czshcix65iifgn5xfcmu664jaqv42x7sioihmmksmro5i7wifum4.py":18:0), %arg2: !tt.ptr<f32> {tt.divisibility = 16 : i32} loc("/orcd/home/002/osbo/ondemand/fluid-sim/Assets/Scripts/.torch_inductor_cache/zs/czshcix65iifgn5xfcmu664jaqv42x7sioihmmksmro5i7wifum4.py":18:0), %arg3: !tt.ptr<f32> {tt.divisibility = 16 : i32} loc("/orcd/home/002/osbo/ondemand/fluid-sim/Assets/Scripts/.torch_inductor_cache/zs/czshcix65iifgn5xfcmu664jaqv42x7sioihmmksmro5i7wifum4.py":18:0), %arg4: !tt.ptr<f32> {tt.divisibility = 16 : i32} loc("/orcd/home/002/osbo/ondemand/fluid-sim/Assets/Scripts/.torch_inductor_cache/zs/czshcix65iifgn5xfcmu664jaqv42x7sioihmmksmro5i7wifum4.py":18:0), %arg5: !tt.ptr<f32> {tt.divisibility = 16 : i32} loc("/orcd/home/002/osbo/ondemand/fluid-sim/Assets/Scripts/.torch_inductor_cache/zs/czshcix65iifgn5xfcmu664jaqv42x7sioihmmksmro5i7wifum4.py":18:0), %arg6: !tt.ptr<f32> {tt.divisibility = 16 : i32} loc("/orcd/home/002/osbo/ondemand/fluid-sim/Assets/Scripts/.torch_inductor_cache/zs/czshcix65iifgn5xfcmu664jaqv42x7sioihmmksmro5i7wifum4.py":18:0), %arg7: !tt.ptr<f32> {tt.divisibility = 16 : i32} loc("/orcd/home/002/osbo/ondemand/fluid-sim/Assets/Scripts/.torch_inductor_cache/zs/czshcix65iifgn5xfcmu664jaqv42x7sioihmmksmro5i7wifum4.py":18:0), %arg8: i32 {tt.divisibility = 16 : i32} loc("/orcd/home/002/osbo/ondemand/fluid-sim/Assets/Scripts/.torch_inductor_cache/zs/czshcix65iifgn5xfcmu664jaqv42x7sioihmmksmro5i7wifum4.py":18:0)) attributes {noinline = false} {
    %c0_i32 = arith.constant 0 : i32 loc(#loc1)
    %cst = arith.constant dense<64> : tensor<128xi32> loc(#loc1)
    %c128_i32 = arith.constant 128 : i32 loc(#loc1)
    %0 = tt.get_program_id x : i32 loc(#loc2)
    %1 = arith.muli %0, %c128_i32 : i32 loc(#loc3)
    %2 = tt.make_range {end = 128 : i32, start = 0 : i32} : tensor<128xi32> loc(#loc4)
    %3 = tt.splat %1 : i32 -> tensor<128xi32> loc(#loc5)
    %4 = arith.addi %3, %2 : tensor<128xi32> loc(#loc5)
    %5 = arith.divsi %4, %cst : tensor<128xi32> loc(#loc6)
    %6 = tt.addptr %arg0, %c0_i32 : !tt.ptr<f32>, i32 loc(#loc7)
    %7 = tt.load %6 : !tt.ptr<f32> loc(#loc8)
    %8 = tt.splat %7 : f32 -> tensor<128xf32> loc(#loc9)
    %9 = tt.splat %arg1 : !tt.ptr<f32> -> tensor<128x!tt.ptr<f32>> loc(#loc10)
    %10 = tt.addptr %9, %4 : tensor<128x!tt.ptr<f32>>, tensor<128xi32> loc(#loc10)
    %11 = tt.load %10 : tensor<128x!tt.ptr<f32>> loc(#loc11)
    %12 = tt.splat %arg2 : !tt.ptr<f32> -> tensor<128x!tt.ptr<f32>> loc(#loc12)
    %13 = tt.addptr %12, %5 : tensor<128x!tt.ptr<f32>>, tensor<128xi32> loc(#loc12)
    %14 = tt.load %13 evictionPolicy = evict_last : tensor<128x!tt.ptr<f32>> loc(#loc13)
    %15 = tt.splat %arg3 : !tt.ptr<f32> -> tensor<128x!tt.ptr<f32>> loc(#loc14)
    %16 = tt.addptr %15, %4 : tensor<128x!tt.ptr<f32>>, tensor<128xi32> loc(#loc14)
    %17 = tt.load %16 : tensor<128x!tt.ptr<f32>> loc(#loc15)
    %18 = tt.splat %arg4 : !tt.ptr<f32> -> tensor<128x!tt.ptr<f32>> loc(#loc16)
    %19 = tt.addptr %18, %5 : tensor<128x!tt.ptr<f32>>, tensor<128xi32> loc(#loc16)
    %20 = tt.load %19 evictionPolicy = evict_last : tensor<128x!tt.ptr<f32>> loc(#loc17)
    %21 = arith.mulf %11, %14 : tensor<128xf32> loc(#loc18)
    %22 = arith.mulf %17, %20 : tensor<128xf32> loc(#loc19)
    %23 = arith.addf %21, %22 : tensor<128xf32> loc(#loc20)
    %24 = arith.mulf %8, %23 : tensor<128xf32> loc(#loc21)
    %25 = tt.splat %arg5 : !tt.ptr<f32> -> tensor<128x!tt.ptr<f32>> loc(#loc22)
    %26 = tt.addptr %25, %4 : tensor<128x!tt.ptr<f32>>, tensor<128xi32> loc(#loc22)
    tt.store %26, %24 : tensor<128x!tt.ptr<f32>> loc(#loc23)
    %27 = tt.splat %arg6 : !tt.ptr<f32> -> tensor<128x!tt.ptr<f32>> loc(#loc24)
    %28 = tt.addptr %27, %4 : tensor<128x!tt.ptr<f32>>, tensor<128xi32> loc(#loc24)
    tt.store %28, %21 : tensor<128x!tt.ptr<f32>> loc(#loc25)
    %29 = tt.splat %arg7 : !tt.ptr<f32> -> tensor<128x!tt.ptr<f32>> loc(#loc26)
    %30 = tt.addptr %29, %4 : tensor<128x!tt.ptr<f32>>, tensor<128xi32> loc(#loc26)
    tt.store %30, %22 : tensor<128x!tt.ptr<f32>> loc(#loc27)
    tt.return loc(#loc28)
  } loc(#loc)
} loc(#loc)
#loc1 = loc(unknown)
#loc2 = loc("/orcd/home/002/osbo/ondemand/fluid-sim/Assets/Scripts/.torch_inductor_cache/zs/czshcix65iifgn5xfcmu664jaqv42x7sioihmmksmro5i7wifum4.py":20:28)
#loc3 = loc("/orcd/home/002/osbo/ondemand/fluid-sim/Assets/Scripts/.torch_inductor_cache/zs/czshcix65iifgn5xfcmu664jaqv42x7sioihmmksmro5i7wifum4.py":20:33)
#loc4 = loc("/orcd/home/002/osbo/ondemand/fluid-sim/Assets/Scripts/.torch_inductor_cache/zs/czshcix65iifgn5xfcmu664jaqv42x7sioihmmksmro5i7wifum4.py":21:36)
#loc5 = loc("/orcd/home/002/osbo/ondemand/fluid-sim/Assets/Scripts/.torch_inductor_cache/zs/czshcix65iifgn5xfcmu664jaqv42x7sioihmmksmro5i7wifum4.py":21:23)
#loc6 = loc("/orcd/home/002/osbo/ondemand/fluid-sim/Assets/Scripts/.torch_inductor_cache/zs/czshcix65iifgn5xfcmu664jaqv42x7sioihmmksmro5i7wifum4.py":24:20)
#loc7 = loc("/orcd/home/002/osbo/ondemand/fluid-sim/Assets/Scripts/.torch_inductor_cache/zs/czshcix65iifgn5xfcmu664jaqv42x7sioihmmksmro5i7wifum4.py":25:30)
#loc8 = loc("/orcd/home/002/osbo/ondemand/fluid-sim/Assets/Scripts/.torch_inductor_cache/zs/czshcix65iifgn5xfcmu664jaqv42x7sioihmmksmro5i7wifum4.py":25:19)
#loc9 = loc("/orcd/home/002/osbo/ondemand/fluid-sim/Assets/Scripts/.torch_inductor_cache/zs/czshcix65iifgn5xfcmu664jaqv42x7sioihmmksmro5i7wifum4.py":26:33)
#loc10 = loc("/orcd/home/002/osbo/ondemand/fluid-sim/Assets/Scripts/.torch_inductor_cache/zs/czshcix65iifgn5xfcmu664jaqv42x7sioihmmksmro5i7wifum4.py":27:30)
#loc11 = loc("/orcd/home/002/osbo/ondemand/fluid-sim/Assets/Scripts/.torch_inductor_cache/zs/czshcix65iifgn5xfcmu664jaqv42x7sioihmmksmro5i7wifum4.py":27:35)
#loc12 = loc("/orcd/home/002/osbo/ondemand/fluid-sim/Assets/Scripts/.torch_inductor_cache/zs/czshcix65iifgn5xfcmu664jaqv42x7sioihmmksmro5i7wifum4.py":28:30)
#loc13 = loc("/orcd/home/002/osbo/ondemand/fluid-sim/Assets/Scripts/.torch_inductor_cache/zs/czshcix65iifgn5xfcmu664jaqv42x7sioihmmksmro5i7wifum4.py":28:35)
#loc14 = loc("/orcd/home/002/osbo/ondemand/fluid-sim/Assets/Scripts/.torch_inductor_cache/zs/czshcix65iifgn5xfcmu664jaqv42x7sioihmmksmro5i7wifum4.py":29:30)
#loc15 = loc("/orcd/home/002/osbo/ondemand/fluid-sim/Assets/Scripts/.torch_inductor_cache/zs/czshcix65iifgn5xfcmu664jaqv42x7sioihmmksmro5i7wifum4.py":29:35)
#loc16 = loc("/orcd/home/002/osbo/ondemand/fluid-sim/Assets/Scripts/.torch_inductor_cache/zs/czshcix65iifgn5xfcmu664jaqv42x7sioihmmksmro5i7wifum4.py":30:30)
#loc17 = loc("/orcd/home/002/osbo/ondemand/fluid-sim/Assets/Scripts/.torch_inductor_cache/zs/czshcix65iifgn5xfcmu664jaqv42x7sioihmmksmro5i7wifum4.py":30:35)
#loc18 = loc("/orcd/home/002/osbo/ondemand/fluid-sim/Assets/Scripts/.torch_inductor_cache/zs/czshcix65iifgn5xfcmu664jaqv42x7sioihmmksmro5i7wifum4.py":31:18)
#loc19 = loc("/orcd/home/002/osbo/ondemand/fluid-sim/Assets/Scripts/.torch_inductor_cache/zs/czshcix65iifgn5xfcmu664jaqv42x7sioihmmksmro5i7wifum4.py":32:18)
#loc20 = loc("/orcd/home/002/osbo/ondemand/fluid-sim/Assets/Scripts/.torch_inductor_cache/zs/czshcix65iifgn5xfcmu664jaqv42x7sioihmmksmro5i7wifum4.py":33:18)
#loc21 = loc("/orcd/home/002/osbo/ondemand/fluid-sim/Assets/Scripts/.torch_inductor_cache/zs/czshcix65iifgn5xfcmu664jaqv42x7sioihmmksmro5i7wifum4.py":34:18)
#loc22 = loc("/orcd/home/002/osbo/ondemand/fluid-sim/Assets/Scripts/.torch_inductor_cache/zs/czshcix65iifgn5xfcmu664jaqv42x7sioihmmksmro5i7wifum4.py":35:25)
#loc23 = loc("/orcd/home/002/osbo/ondemand/fluid-sim/Assets/Scripts/.torch_inductor_cache/zs/czshcix65iifgn5xfcmu664jaqv42x7sioihmmksmro5i7wifum4.py":35:36)
#loc24 = loc("/orcd/home/002/osbo/ondemand/fluid-sim/Assets/Scripts/.torch_inductor_cache/zs/czshcix65iifgn5xfcmu664jaqv42x7sioihmmksmro5i7wifum4.py":36:25)
#loc25 = loc("/orcd/home/002/osbo/ondemand/fluid-sim/Assets/Scripts/.torch_inductor_cache/zs/czshcix65iifgn5xfcmu664jaqv42x7sioihmmksmro5i7wifum4.py":36:36)
#loc26 = loc("/orcd/home/002/osbo/ondemand/fluid-sim/Assets/Scripts/.torch_inductor_cache/zs/czshcix65iifgn5xfcmu664jaqv42x7sioihmmksmro5i7wifum4.py":37:25)
#loc27 = loc("/orcd/home/002/osbo/ondemand/fluid-sim/Assets/Scripts/.torch_inductor_cache/zs/czshcix65iifgn5xfcmu664jaqv42x7sioihmmksmro5i7wifum4.py":37:36)
#loc28 = loc("/orcd/home/002/osbo/ondemand/fluid-sim/Assets/Scripts/.torch_inductor_cache/zs/czshcix65iifgn5xfcmu664jaqv42x7sioihmmksmro5i7wifum4.py":37:4)
