#loc = loc("/orcd/home/002/osbo/ondemand/fluid-sim/Assets/Scripts/.torch_inductor_cache/z6/cz6pooml3p6yvq62x7iopiqyfxyg7nzv5loxhg6idngzqaguqqvq.py":18:0)
#loc1 = loc(unknown)
module {
  tt.func public @triton_(%arg0: !tt.ptr<f32> {tt.divisibility = 16 : i32} loc("/orcd/home/002/osbo/ondemand/fluid-sim/Assets/Scripts/.torch_inductor_cache/z6/cz6pooml3p6yvq62x7iopiqyfxyg7nzv5loxhg6idngzqaguqqvq.py":18:0), %arg1: !tt.ptr<f32> {tt.divisibility = 16 : i32} loc("/orcd/home/002/osbo/ondemand/fluid-sim/Assets/Scripts/.torch_inductor_cache/z6/cz6pooml3p6yvq62x7iopiqyfxyg7nzv5loxhg6idngzqaguqqvq.py":18:0), %arg2: i32 {tt.divisibility = 16 : i32} loc("/orcd/home/002/osbo/ondemand/fluid-sim/Assets/Scripts/.torch_inductor_cache/z6/cz6pooml3p6yvq62x7iopiqyfxyg7nzv5loxhg6idngzqaguqqvq.py":18:0), %arg3: i32 loc("/orcd/home/002/osbo/ondemand/fluid-sim/Assets/Scripts/.torch_inductor_cache/z6/cz6pooml3p6yvq62x7iopiqyfxyg7nzv5loxhg6idngzqaguqqvq.py":18:0)) attributes {noinline = false} {
    %c132096_i32 = arith.constant 132096 : i32 loc(#loc1)
    %c16512_i32 = arith.constant 16512 : i32 loc(#loc1)
    %c129_i32 = arith.constant 129 : i32 loc(#loc1)
    %c1024_i32 = arith.constant 1024 : i32 loc(#loc1)
    %c128_i32 = arith.constant 128 : i32 loc(#loc1)
    %c8_i32 = arith.constant 8 : i32 loc(#loc1)
    %c111616_i32 = arith.constant 111616 : i32 loc(#loc1)
    %cst = arith.constant dense<129> : tensor<1x256xi32> loc(#loc1)
    %cst_0 = arith.constant dense<0.000000e+00> : tensor<1x256xf32> loc(#loc1)
    %0 = tt.get_program_id x : i32 loc(#loc2)
    %1 = arith.cmpi slt, %0, %c111616_i32 : i32 loc(#loc3)
    %2 = tt.splat %1 : i1 -> tensor<1x1xi1> loc(#loc3)
    %3 = tt.make_range {end = 256 : i32, start = 0 : i32} : tensor<256xi32> loc(#loc4)
    %4 = tt.expand_dims %3 {axis = 0 : i32} : tensor<256xi32> -> tensor<1x256xi32> loc(#loc5)
    %5 = arith.remsi %0, %c8_i32 : i32 loc(#loc6)
    %6 = arith.divsi %0, %c8_i32 : i32 loc(#loc7)
    %7 = arith.remsi %6, %c128_i32 : i32 loc(#loc8)
    %8 = arith.divsi %0, %c1024_i32 : i32 loc(#loc9)
    %9 = arith.cmpi slt, %4, %cst : tensor<1x256xi32> loc(#loc10)
    %10 = arith.muli %7, %c129_i32 : i32 loc(#loc11)
    %11 = tt.splat %10 : i32 -> tensor<1x256xi32> loc(#loc12)
    %12 = arith.addi %4, %11 : tensor<1x256xi32> loc(#loc12)
    %13 = arith.muli %5, %c16512_i32 : i32 loc(#loc13)
    %14 = tt.splat %13 : i32 -> tensor<1x256xi32> loc(#loc14)
    %15 = arith.addi %12, %14 : tensor<1x256xi32> loc(#loc14)
    %16 = arith.muli %8, %c132096_i32 : i32 loc(#loc15)
    %17 = tt.splat %16 : i32 -> tensor<1x256xi32> loc(#loc16)
    %18 = arith.addi %15, %17 : tensor<1x256xi32> loc(#loc16)
    %19 = tt.splat %arg0 : !tt.ptr<f32> -> tensor<1x256x!tt.ptr<f32>> loc(#loc17)
    %20 = tt.addptr %19, %18 : tensor<1x256x!tt.ptr<f32>>, tensor<1x256xi32> loc(#loc17)
    %21 = tt.splat %1 : i1 -> tensor<1x256xi1> loc(#loc18)
    %22 = arith.andi %9, %21 : tensor<1x256xi1> loc(#loc18)
    %23 = tt.load %20, %22, %cst_0 evictionPolicy = evict_last : tensor<1x256x!tt.ptr<f32>> loc(#loc19)
    %24 = arith.addf %23, %cst_0 : tensor<1x256xf32> loc(#loc20)
    %25 = arith.select %22, %24, %cst_0 : tensor<1x256xi1>, tensor<1x256xf32> loc(#loc21)
    %26 = "tt.reduce"(%25) <{axis = 1 : i32}> ({
    ^bb0(%arg4: f32 loc(unknown), %arg5: f32 loc(unknown)):
      %30 = arith.addf %arg4, %arg5 : f32 loc(#loc31)
      tt.reduce.return %30 : f32 loc(#loc29)
    }) : (tensor<1x256xf32>) -> tensor<1xf32> loc(#loc29)
    %27 = tt.expand_dims %26 {axis = 1 : i32} : tensor<1xf32> -> tensor<1x1xf32> loc(#loc25)
    %28 = tt.addptr %arg1, %0 : !tt.ptr<f32>, i32 loc(#loc26)
    %29 = tt.splat %28 : !tt.ptr<f32> -> tensor<1x1x!tt.ptr<f32>> loc(#loc26)
    tt.store %29, %27, %2 : tensor<1x1x!tt.ptr<f32>> loc(#loc27)
    tt.return loc(#loc28)
  } loc(#loc)
} loc(#loc)
#loc2 = loc("/orcd/home/002/osbo/ondemand/fluid-sim/Assets/Scripts/.torch_inductor_cache/z6/cz6pooml3p6yvq62x7iopiqyfxyg7nzv5loxhg6idngzqaguqqvq.py":21:28)
#loc3 = loc("/orcd/home/002/osbo/ondemand/fluid-sim/Assets/Scripts/.torch_inductor_cache/z6/cz6pooml3p6yvq62x7iopiqyfxyg7nzv5loxhg6idngzqaguqqvq.py":23:21)
#loc4 = loc("/orcd/home/002/osbo/ondemand/fluid-sim/Assets/Scripts/.torch_inductor_cache/z6/cz6pooml3p6yvq62x7iopiqyfxyg7nzv5loxhg6idngzqaguqqvq.py":24:25)
#loc5 = loc("/orcd/home/002/osbo/ondemand/fluid-sim/Assets/Scripts/.torch_inductor_cache/z6/cz6pooml3p6yvq62x7iopiqyfxyg7nzv5loxhg6idngzqaguqqvq.py":24:33)
#loc6 = loc("/orcd/home/002/osbo/ondemand/fluid-sim/Assets/Scripts/.torch_inductor_cache/z6/cz6pooml3p6yvq62x7iopiqyfxyg7nzv5loxhg6idngzqaguqqvq.py":25:18)
#loc7 = loc("/orcd/home/002/osbo/ondemand/fluid-sim/Assets/Scripts/.torch_inductor_cache/z6/cz6pooml3p6yvq62x7iopiqyfxyg7nzv5loxhg6idngzqaguqqvq.py":26:20)
#loc8 = loc("/orcd/home/002/osbo/ondemand/fluid-sim/Assets/Scripts/.torch_inductor_cache/z6/cz6pooml3p6yvq62x7iopiqyfxyg7nzv5loxhg6idngzqaguqqvq.py":26:25)
#loc9 = loc("/orcd/home/002/osbo/ondemand/fluid-sim/Assets/Scripts/.torch_inductor_cache/z6/cz6pooml3p6yvq62x7iopiqyfxyg7nzv5loxhg6idngzqaguqqvq.py":27:20)
#loc10 = loc("/orcd/home/002/osbo/ondemand/fluid-sim/Assets/Scripts/.torch_inductor_cache/z6/cz6pooml3p6yvq62x7iopiqyfxyg7nzv5loxhg6idngzqaguqqvq.py":32:25)
#loc11 = loc("/orcd/home/002/osbo/ondemand/fluid-sim/Assets/Scripts/.torch_inductor_cache/z6/cz6pooml3p6yvq62x7iopiqyfxyg7nzv5loxhg6idngzqaguqqvq.py":34:44)
#loc12 = loc("/orcd/home/002/osbo/ondemand/fluid-sim/Assets/Scripts/.torch_inductor_cache/z6/cz6pooml3p6yvq62x7iopiqyfxyg7nzv5loxhg6idngzqaguqqvq.py":34:40)
#loc13 = loc("/orcd/home/002/osbo/ondemand/fluid-sim/Assets/Scripts/.torch_inductor_cache/z6/cz6pooml3p6yvq62x7iopiqyfxyg7nzv5loxhg6idngzqaguqqvq.py":34:57)
#loc14 = loc("/orcd/home/002/osbo/ondemand/fluid-sim/Assets/Scripts/.torch_inductor_cache/z6/cz6pooml3p6yvq62x7iopiqyfxyg7nzv5loxhg6idngzqaguqqvq.py":34:51)
#loc15 = loc("/orcd/home/002/osbo/ondemand/fluid-sim/Assets/Scripts/.torch_inductor_cache/z6/cz6pooml3p6yvq62x7iopiqyfxyg7nzv5loxhg6idngzqaguqqvq.py":34:71)
#loc16 = loc("/orcd/home/002/osbo/ondemand/fluid-sim/Assets/Scripts/.torch_inductor_cache/z6/cz6pooml3p6yvq62x7iopiqyfxyg7nzv5loxhg6idngzqaguqqvq.py":34:64)
#loc17 = loc("/orcd/home/002/osbo/ondemand/fluid-sim/Assets/Scripts/.torch_inductor_cache/z6/cz6pooml3p6yvq62x7iopiqyfxyg7nzv5loxhg6idngzqaguqqvq.py":34:34)
#loc18 = loc("/orcd/home/002/osbo/ondemand/fluid-sim/Assets/Scripts/.torch_inductor_cache/z6/cz6pooml3p6yvq62x7iopiqyfxyg7nzv5loxhg6idngzqaguqqvq.py":34:85)
#loc19 = loc("/orcd/home/002/osbo/ondemand/fluid-sim/Assets/Scripts/.torch_inductor_cache/z6/cz6pooml3p6yvq62x7iopiqyfxyg7nzv5loxhg6idngzqaguqqvq.py":34:77)
#loc20 = loc("/orcd/home/002/osbo/ondemand/fluid-sim/Assets/Scripts/.torch_inductor_cache/z6/cz6pooml3p6yvq62x7iopiqyfxyg7nzv5loxhg6idngzqaguqqvq.py":36:23)
#loc21 = loc("/orcd/home/002/osbo/ondemand/fluid-sim/Assets/Scripts/.torch_inductor_cache/z6/cz6pooml3p6yvq62x7iopiqyfxyg7nzv5loxhg6idngzqaguqqvq.py":37:46)
#loc22 = loc("/home/osbo/.conda/envs/fluid/lib/python3.12/site-packages/triton/language/standard.py":267:36)
#loc23 = loc("/orcd/home/002/osbo/ondemand/fluid-sim/Assets/Scripts/.torch_inductor_cache/z6/cz6pooml3p6yvq62x7iopiqyfxyg7nzv5loxhg6idngzqaguqqvq.py":38:25)
#loc24 = loc("/home/osbo/.conda/envs/fluid/lib/python3.12/site-packages/triton/language/standard.py":256:15)
#loc25 = loc("/orcd/home/002/osbo/ondemand/fluid-sim/Assets/Scripts/.torch_inductor_cache/z6/cz6pooml3p6yvq62x7iopiqyfxyg7nzv5loxhg6idngzqaguqqvq.py":38:28)
#loc26 = loc("/orcd/home/002/osbo/ondemand/fluid-sim/Assets/Scripts/.torch_inductor_cache/z6/cz6pooml3p6yvq62x7iopiqyfxyg7nzv5loxhg6idngzqaguqqvq.py":39:25)
#loc27 = loc("/orcd/home/002/osbo/ondemand/fluid-sim/Assets/Scripts/.torch_inductor_cache/z6/cz6pooml3p6yvq62x7iopiqyfxyg7nzv5loxhg6idngzqaguqqvq.py":39:36)
#loc28 = loc("/orcd/home/002/osbo/ondemand/fluid-sim/Assets/Scripts/.torch_inductor_cache/z6/cz6pooml3p6yvq62x7iopiqyfxyg7nzv5loxhg6idngzqaguqqvq.py":39:4)
#loc29 = loc(callsite(#loc22 at #loc23))
#loc30 = loc(callsite(#loc24 at #loc22))
#loc31 = loc(callsite(#loc30 at #loc23))
