#loc = loc("/orcd/home/002/osbo/ondemand/fluid-sim/Assets/Scripts/.torch_inductor_cache/jj/cjjdcdg245764omgqlk5tai34jemwh62ey445dmasyyhjtbdlp6d.py":18:0)
module {
  tt.func public @triton_(%arg0: !tt.ptr<f32> {tt.divisibility = 16 : i32} loc("/orcd/home/002/osbo/ondemand/fluid-sim/Assets/Scripts/.torch_inductor_cache/jj/cjjdcdg245764omgqlk5tai34jemwh62ey445dmasyyhjtbdlp6d.py":18:0), %arg1: !tt.ptr<f32> {tt.divisibility = 16 : i32} loc("/orcd/home/002/osbo/ondemand/fluid-sim/Assets/Scripts/.torch_inductor_cache/jj/cjjdcdg245764omgqlk5tai34jemwh62ey445dmasyyhjtbdlp6d.py":18:0), %arg2: i32 {tt.divisibility = 16 : i32} loc("/orcd/home/002/osbo/ondemand/fluid-sim/Assets/Scripts/.torch_inductor_cache/jj/cjjdcdg245764omgqlk5tai34jemwh62ey445dmasyyhjtbdlp6d.py":18:0)) attributes {noinline = false} {
    %cst = arith.constant dense<128> : tensor<512xi32> loc(#loc1)
    %cst_0 = arith.constant dense<3.200000e+01> : tensor<512xf32> loc(#loc1)
    %cst_1 = arith.constant dense<1024> : tensor<512xi32> loc(#loc1)
    %cst_2 = arith.constant dense<32> : tensor<512xi32> loc(#loc1)
    %cst_3 = arith.constant dense<111616> : tensor<512xi32> loc(#loc1)
    %c512_i32 = arith.constant 512 : i32 loc(#loc1)
    %0 = tt.get_program_id x : i32 loc(#loc2)
    %1 = arith.muli %0, %c512_i32 : i32 loc(#loc3)
    %2 = tt.make_range {end = 512 : i32, start = 0 : i32} : tensor<512xi32> loc(#loc4)
    %3 = tt.splat %1 : i32 -> tensor<512xi32> loc(#loc5)
    %4 = arith.addi %3, %2 : tensor<512xi32> loc(#loc5)
    %5 = arith.cmpi slt, %4, %cst_3 : tensor<512xi32> loc(#loc6)
    %6 = arith.remsi %4, %cst_2 : tensor<512xi32> loc(#loc7)
    %7 = arith.divsi %4, %cst_1 : tensor<512xi32> loc(#loc8)
    %8 = arith.divsi %4, %cst_2 : tensor<512xi32> loc(#loc9)
    %9 = arith.muli %7, %cst_2 : tensor<512xi32> loc(#loc10)
    %10 = arith.addi %6, %9 : tensor<512xi32> loc(#loc11)
    %11 = tt.splat %arg0 : !tt.ptr<f32> -> tensor<512x!tt.ptr<f32>> loc(#loc12)
    %12 = tt.addptr %11, %10 : tensor<512x!tt.ptr<f32>>, tensor<512xi32> loc(#loc12)
    %13 = tt.load %12, %5 evictionPolicy = evict_last : tensor<512x!tt.ptr<f32>> loc(#loc13)
    %14 = arith.divf %13, %cst_0 : tensor<512xf32> loc(#loc14)
    %15 = arith.muli %8, %cst : tensor<512xi32> loc(#loc15)
    %16 = arith.addi %6, %15 : tensor<512xi32> loc(#loc16)
    %17 = tt.splat %arg1 : !tt.ptr<f32> -> tensor<512x!tt.ptr<f32>> loc(#loc17)
    %18 = tt.addptr %17, %16 : tensor<512x!tt.ptr<f32>>, tensor<512xi32> loc(#loc17)
    tt.store %18, %14, %5 : tensor<512x!tt.ptr<f32>> loc(#loc18)
    tt.return loc(#loc19)
  } loc(#loc)
} loc(#loc)
#loc1 = loc(unknown)
#loc2 = loc("/orcd/home/002/osbo/ondemand/fluid-sim/Assets/Scripts/.torch_inductor_cache/jj/cjjdcdg245764omgqlk5tai34jemwh62ey445dmasyyhjtbdlp6d.py":20:28)
#loc3 = loc("/orcd/home/002/osbo/ondemand/fluid-sim/Assets/Scripts/.torch_inductor_cache/jj/cjjdcdg245764omgqlk5tai34jemwh62ey445dmasyyhjtbdlp6d.py":20:33)
#loc4 = loc("/orcd/home/002/osbo/ondemand/fluid-sim/Assets/Scripts/.torch_inductor_cache/jj/cjjdcdg245764omgqlk5tai34jemwh62ey445dmasyyhjtbdlp6d.py":21:36)
#loc5 = loc("/orcd/home/002/osbo/ondemand/fluid-sim/Assets/Scripts/.torch_inductor_cache/jj/cjjdcdg245764omgqlk5tai34jemwh62ey445dmasyyhjtbdlp6d.py":21:23)
#loc6 = loc("/orcd/home/002/osbo/ondemand/fluid-sim/Assets/Scripts/.torch_inductor_cache/jj/cjjdcdg245764omgqlk5tai34jemwh62ey445dmasyyhjtbdlp6d.py":22:21)
#loc7 = loc("/orcd/home/002/osbo/ondemand/fluid-sim/Assets/Scripts/.torch_inductor_cache/jj/cjjdcdg245764omgqlk5tai34jemwh62ey445dmasyyhjtbdlp6d.py":23:18)
#loc8 = loc("/orcd/home/002/osbo/ondemand/fluid-sim/Assets/Scripts/.torch_inductor_cache/jj/cjjdcdg245764omgqlk5tai34jemwh62ey445dmasyyhjtbdlp6d.py":24:20)
#loc9 = loc("/orcd/home/002/osbo/ondemand/fluid-sim/Assets/Scripts/.torch_inductor_cache/jj/cjjdcdg245764omgqlk5tai34jemwh62ey445dmasyyhjtbdlp6d.py":25:20)
#loc10 = loc("/orcd/home/002/osbo/ondemand/fluid-sim/Assets/Scripts/.torch_inductor_cache/jj/cjjdcdg245764omgqlk5tai34jemwh62ey445dmasyyhjtbdlp6d.py":26:39)
#loc11 = loc("/orcd/home/002/osbo/ondemand/fluid-sim/Assets/Scripts/.torch_inductor_cache/jj/cjjdcdg245764omgqlk5tai34jemwh62ey445dmasyyhjtbdlp6d.py":26:36)
#loc12 = loc("/orcd/home/002/osbo/ondemand/fluid-sim/Assets/Scripts/.torch_inductor_cache/jj/cjjdcdg245764omgqlk5tai34jemwh62ey445dmasyyhjtbdlp6d.py":26:30)
#loc13 = loc("/orcd/home/002/osbo/ondemand/fluid-sim/Assets/Scripts/.torch_inductor_cache/jj/cjjdcdg245764omgqlk5tai34jemwh62ey445dmasyyhjtbdlp6d.py":26:45)
#loc14 = loc("/orcd/home/002/osbo/ondemand/fluid-sim/Assets/Scripts/.torch_inductor_cache/jj/cjjdcdg245764omgqlk5tai34jemwh62ey445dmasyyhjtbdlp6d.py":28:18)
#loc15 = loc("/orcd/home/002/osbo/ondemand/fluid-sim/Assets/Scripts/.torch_inductor_cache/jj/cjjdcdg245764omgqlk5tai34jemwh62ey445dmasyyhjtbdlp6d.py":29:35)
#loc16 = loc("/orcd/home/002/osbo/ondemand/fluid-sim/Assets/Scripts/.torch_inductor_cache/jj/cjjdcdg245764omgqlk5tai34jemwh62ey445dmasyyhjtbdlp6d.py":29:31)
#loc17 = loc("/orcd/home/002/osbo/ondemand/fluid-sim/Assets/Scripts/.torch_inductor_cache/jj/cjjdcdg245764omgqlk5tai34jemwh62ey445dmasyyhjtbdlp6d.py":29:25)
#loc18 = loc("/orcd/home/002/osbo/ondemand/fluid-sim/Assets/Scripts/.torch_inductor_cache/jj/cjjdcdg245764omgqlk5tai34jemwh62ey445dmasyyhjtbdlp6d.py":29:47)
#loc19 = loc("/orcd/home/002/osbo/ondemand/fluid-sim/Assets/Scripts/.torch_inductor_cache/jj/cjjdcdg245764omgqlk5tai34jemwh62ey445dmasyyhjtbdlp6d.py":29:4)
