#loc = loc("/orcd/home/002/osbo/ondemand/fluid-sim/Assets/Scripts/.torch_inductor_cache/vv/cvvsgtmkbvej4naf3u4flv5zumszrqbqztccxq23ohbxi22aw2ua.py":18:0)
module {
  tt.func public @triton_(%arg0: !tt.ptr<f32> {tt.divisibility = 16 : i32} loc("/orcd/home/002/osbo/ondemand/fluid-sim/Assets/Scripts/.torch_inductor_cache/vv/cvvsgtmkbvej4naf3u4flv5zumszrqbqztccxq23ohbxi22aw2ua.py":18:0), %arg1: !tt.ptr<f32> {tt.divisibility = 16 : i32} loc("/orcd/home/002/osbo/ondemand/fluid-sim/Assets/Scripts/.torch_inductor_cache/vv/cvvsgtmkbvej4naf3u4flv5zumszrqbqztccxq23ohbxi22aw2ua.py":18:0), %arg2: !tt.ptr<f32> {tt.divisibility = 16 : i32} loc("/orcd/home/002/osbo/ondemand/fluid-sim/Assets/Scripts/.torch_inductor_cache/vv/cvvsgtmkbvej4naf3u4flv5zumszrqbqztccxq23ohbxi22aw2ua.py":18:0), %arg3: !tt.ptr<f32> {tt.divisibility = 16 : i32} loc("/orcd/home/002/osbo/ondemand/fluid-sim/Assets/Scripts/.torch_inductor_cache/vv/cvvsgtmkbvej4naf3u4flv5zumszrqbqztccxq23ohbxi22aw2ua.py":18:0), %arg4: !tt.ptr<f32> {tt.divisibility = 16 : i32} loc("/orcd/home/002/osbo/ondemand/fluid-sim/Assets/Scripts/.torch_inductor_cache/vv/cvvsgtmkbvej4naf3u4flv5zumszrqbqztccxq23ohbxi22aw2ua.py":18:0), %arg5: i32 {tt.divisibility = 16 : i32} loc("/orcd/home/002/osbo/ondemand/fluid-sim/Assets/Scripts/.torch_inductor_cache/vv/cvvsgtmkbvej4naf3u4flv5zumszrqbqztccxq23ohbxi22aw2ua.py":18:0)) attributes {noinline = false} {
    %cst = arith.constant dense<4096> : tensor<512xi32> loc(#loc1)
    %cst_0 = arith.constant dense<128> : tensor<512xi32> loc(#loc1)
    %cst_1 = arith.constant dense<2176> : tensor<512xi32> loc(#loc1)
    %c512_i32 = arith.constant 512 : i32 loc(#loc1)
    %0 = tt.get_program_id x : i32 loc(#loc2)
    %1 = arith.muli %0, %c512_i32 : i32 loc(#loc3)
    %2 = tt.make_range {end = 512 : i32, start = 0 : i32} : tensor<512xi32> loc(#loc4)
    %3 = tt.splat %1 : i32 -> tensor<512xi32> loc(#loc5)
    %4 = arith.addi %3, %2 : tensor<512xi32> loc(#loc5)
    %5 = arith.divsi %4, %cst_1 : tensor<512xi32> loc(#loc6)
    %6 = arith.remsi %4, %cst_1 : tensor<512xi32> loc(#loc7)
    %7 = arith.remsi %4, %cst_0 : tensor<512xi32> loc(#loc8)
    %8 = tt.splat %arg1 : !tt.ptr<f32> -> tensor<512x!tt.ptr<f32>> loc(#loc9)
    %9 = tt.addptr %8, %4 : tensor<512x!tt.ptr<f32>>, tensor<512xi32> loc(#loc9)
    %10 = tt.load %9 : tensor<512x!tt.ptr<f32>> loc(#loc10)
    %11 = arith.muli %5, %cst : tensor<512xi32> loc(#loc11)
    %12 = arith.addi %6, %11 : tensor<512xi32> loc(#loc12)
    %13 = tt.splat %arg2 : !tt.ptr<f32> -> tensor<512x!tt.ptr<f32>> loc(#loc13)
    %14 = tt.addptr %13, %12 : tensor<512x!tt.ptr<f32>>, tensor<512xi32> loc(#loc13)
    %15 = tt.load %14 : tensor<512x!tt.ptr<f32>> loc(#loc14)
    %16 = tt.splat %arg3 : !tt.ptr<f32> -> tensor<512x!tt.ptr<f32>> loc(#loc15)
    %17 = tt.addptr %16, %7 : tensor<512x!tt.ptr<f32>>, tensor<512xi32> loc(#loc15)
    %18 = tt.load %17 evictionPolicy = evict_last : tensor<512x!tt.ptr<f32>> loc(#loc16)
    %19 = tt.splat %arg0 : !tt.ptr<f32> -> tensor<512x!tt.ptr<f32>> loc(#loc17)
    %20 = tt.addptr %19, %4 : tensor<512x!tt.ptr<f32>>, tensor<512xi32> loc(#loc17)
    %21 = tt.load %20 : tensor<512x!tt.ptr<f32>> loc(#loc18)
    %22 = tt.splat %arg4 : !tt.ptr<f32> -> tensor<512x!tt.ptr<f32>> loc(#loc19)
    %23 = tt.addptr %22, %7 : tensor<512x!tt.ptr<f32>>, tensor<512xi32> loc(#loc19)
    %24 = tt.load %23 evictionPolicy = evict_last : tensor<512x!tt.ptr<f32>> loc(#loc20)
    %25 = arith.addf %15, %18 : tensor<512xf32> loc(#loc21)
    %26 = arith.addf %10, %25 : tensor<512xf32> loc(#loc22)
    %27 = arith.addf %21, %24 : tensor<512xf32> loc(#loc23)
    %28 = arith.addf %26, %27 : tensor<512xf32> loc(#loc24)
    tt.store %20, %28 : tensor<512x!tt.ptr<f32>> loc(#loc25)
    tt.return loc(#loc26)
  } loc(#loc)
} loc(#loc)
#loc1 = loc(unknown)
#loc2 = loc("/orcd/home/002/osbo/ondemand/fluid-sim/Assets/Scripts/.torch_inductor_cache/vv/cvvsgtmkbvej4naf3u4flv5zumszrqbqztccxq23ohbxi22aw2ua.py":20:28)
#loc3 = loc("/orcd/home/002/osbo/ondemand/fluid-sim/Assets/Scripts/.torch_inductor_cache/vv/cvvsgtmkbvej4naf3u4flv5zumszrqbqztccxq23ohbxi22aw2ua.py":20:33)
#loc4 = loc("/orcd/home/002/osbo/ondemand/fluid-sim/Assets/Scripts/.torch_inductor_cache/vv/cvvsgtmkbvej4naf3u4flv5zumszrqbqztccxq23ohbxi22aw2ua.py":21:36)
#loc5 = loc("/orcd/home/002/osbo/ondemand/fluid-sim/Assets/Scripts/.torch_inductor_cache/vv/cvvsgtmkbvej4naf3u4flv5zumszrqbqztccxq23ohbxi22aw2ua.py":21:23)
#loc6 = loc("/orcd/home/002/osbo/ondemand/fluid-sim/Assets/Scripts/.torch_inductor_cache/vv/cvvsgtmkbvej4naf3u4flv5zumszrqbqztccxq23ohbxi22aw2ua.py":24:20)
#loc7 = loc("/orcd/home/002/osbo/ondemand/fluid-sim/Assets/Scripts/.torch_inductor_cache/vv/cvvsgtmkbvej4naf3u4flv5zumszrqbqztccxq23ohbxi22aw2ua.py":25:18)
#loc8 = loc("/orcd/home/002/osbo/ondemand/fluid-sim/Assets/Scripts/.torch_inductor_cache/vv/cvvsgtmkbvej4naf3u4flv5zumszrqbqztccxq23ohbxi22aw2ua.py":26:18)
#loc9 = loc("/orcd/home/002/osbo/ondemand/fluid-sim/Assets/Scripts/.torch_inductor_cache/vv/cvvsgtmkbvej4naf3u4flv5zumszrqbqztccxq23ohbxi22aw2ua.py":27:30)
#loc10 = loc("/orcd/home/002/osbo/ondemand/fluid-sim/Assets/Scripts/.torch_inductor_cache/vv/cvvsgtmkbvej4naf3u4flv5zumszrqbqztccxq23ohbxi22aw2ua.py":27:35)
#loc11 = loc("/orcd/home/002/osbo/ondemand/fluid-sim/Assets/Scripts/.torch_inductor_cache/vv/cvvsgtmkbvej4naf3u4flv5zumszrqbqztccxq23ohbxi22aw2ua.py":28:41)
#loc12 = loc("/orcd/home/002/osbo/ondemand/fluid-sim/Assets/Scripts/.torch_inductor_cache/vv/cvvsgtmkbvej4naf3u4flv5zumszrqbqztccxq23ohbxi22aw2ua.py":28:36)
#loc13 = loc("/orcd/home/002/osbo/ondemand/fluid-sim/Assets/Scripts/.torch_inductor_cache/vv/cvvsgtmkbvej4naf3u4flv5zumszrqbqztccxq23ohbxi22aw2ua.py":28:30)
#loc14 = loc("/orcd/home/002/osbo/ondemand/fluid-sim/Assets/Scripts/.torch_inductor_cache/vv/cvvsgtmkbvej4naf3u4flv5zumszrqbqztccxq23ohbxi22aw2ua.py":28:47)
#loc15 = loc("/orcd/home/002/osbo/ondemand/fluid-sim/Assets/Scripts/.torch_inductor_cache/vv/cvvsgtmkbvej4naf3u4flv5zumszrqbqztccxq23ohbxi22aw2ua.py":29:30)
#loc16 = loc("/orcd/home/002/osbo/ondemand/fluid-sim/Assets/Scripts/.torch_inductor_cache/vv/cvvsgtmkbvej4naf3u4flv5zumszrqbqztccxq23ohbxi22aw2ua.py":29:35)
#loc17 = loc("/orcd/home/002/osbo/ondemand/fluid-sim/Assets/Scripts/.torch_inductor_cache/vv/cvvsgtmkbvej4naf3u4flv5zumszrqbqztccxq23ohbxi22aw2ua.py":30:34)
#loc18 = loc("/orcd/home/002/osbo/ondemand/fluid-sim/Assets/Scripts/.torch_inductor_cache/vv/cvvsgtmkbvej4naf3u4flv5zumszrqbqztccxq23ohbxi22aw2ua.py":30:39)
#loc19 = loc("/orcd/home/002/osbo/ondemand/fluid-sim/Assets/Scripts/.torch_inductor_cache/vv/cvvsgtmkbvej4naf3u4flv5zumszrqbqztccxq23ohbxi22aw2ua.py":31:30)
#loc20 = loc("/orcd/home/002/osbo/ondemand/fluid-sim/Assets/Scripts/.torch_inductor_cache/vv/cvvsgtmkbvej4naf3u4flv5zumszrqbqztccxq23ohbxi22aw2ua.py":31:35)
#loc21 = loc("/orcd/home/002/osbo/ondemand/fluid-sim/Assets/Scripts/.torch_inductor_cache/vv/cvvsgtmkbvej4naf3u4flv5zumszrqbqztccxq23ohbxi22aw2ua.py":32:18)
#loc22 = loc("/orcd/home/002/osbo/ondemand/fluid-sim/Assets/Scripts/.torch_inductor_cache/vv/cvvsgtmkbvej4naf3u4flv5zumszrqbqztccxq23ohbxi22aw2ua.py":33:18)
#loc23 = loc("/orcd/home/002/osbo/ondemand/fluid-sim/Assets/Scripts/.torch_inductor_cache/vv/cvvsgtmkbvej4naf3u4flv5zumszrqbqztccxq23ohbxi22aw2ua.py":34:18)
#loc24 = loc("/orcd/home/002/osbo/ondemand/fluid-sim/Assets/Scripts/.torch_inductor_cache/vv/cvvsgtmkbvej4naf3u4flv5zumszrqbqztccxq23ohbxi22aw2ua.py":35:18)
#loc25 = loc("/orcd/home/002/osbo/ondemand/fluid-sim/Assets/Scripts/.torch_inductor_cache/vv/cvvsgtmkbvej4naf3u4flv5zumszrqbqztccxq23ohbxi22aw2ua.py":36:39)
#loc26 = loc("/orcd/home/002/osbo/ondemand/fluid-sim/Assets/Scripts/.torch_inductor_cache/vv/cvvsgtmkbvej4naf3u4flv5zumszrqbqztccxq23ohbxi22aw2ua.py":36:4)
