#loc = loc("/orcd/home/002/osbo/ondemand/fluid-sim/Assets/Scripts/.torch_inductor_cache/7u/c7ud3t54jxmsegr4lv234zwia2aazjofrsbnpuwvlzmkvzwv2bsi.py":18:0)
#loc1 = loc(unknown)
module {
  tt.func public @triton_(%arg0: !tt.ptr<f32> {tt.divisibility = 16 : i32} loc("/orcd/home/002/osbo/ondemand/fluid-sim/Assets/Scripts/.torch_inductor_cache/7u/c7ud3t54jxmsegr4lv234zwia2aazjofrsbnpuwvlzmkvzwv2bsi.py":18:0), %arg1: !tt.ptr<f32> {tt.divisibility = 16 : i32} loc("/orcd/home/002/osbo/ondemand/fluid-sim/Assets/Scripts/.torch_inductor_cache/7u/c7ud3t54jxmsegr4lv234zwia2aazjofrsbnpuwvlzmkvzwv2bsi.py":18:0), %arg2: !tt.ptr<f32> {tt.divisibility = 16 : i32} loc("/orcd/home/002/osbo/ondemand/fluid-sim/Assets/Scripts/.torch_inductor_cache/7u/c7ud3t54jxmsegr4lv234zwia2aazjofrsbnpuwvlzmkvzwv2bsi.py":18:0), %arg3: i32 {tt.divisibility = 16 : i32} loc("/orcd/home/002/osbo/ondemand/fluid-sim/Assets/Scripts/.torch_inductor_cache/7u/c7ud3t54jxmsegr4lv234zwia2aazjofrsbnpuwvlzmkvzwv2bsi.py":18:0), %arg4: i32 {tt.divisibility = 16 : i32} loc("/orcd/home/002/osbo/ondemand/fluid-sim/Assets/Scripts/.torch_inductor_cache/7u/c7ud3t54jxmsegr4lv234zwia2aazjofrsbnpuwvlzmkvzwv2bsi.py":18:0)) attributes {noinline = false} {
    %c128_i32 = arith.constant 128 : i32 loc(#loc1)
    %c129_i32 = arith.constant 129 : i32 loc(#loc1)
    %0 = tt.get_program_id x : i32 loc(#loc2)
    %1 = tt.make_range {end = 128 : i32, start = 0 : i32} : tensor<128xi32> loc(#loc3)
    %2 = tt.expand_dims %1 {axis = 0 : i32} : tensor<128xi32> -> tensor<1x128xi32> loc(#loc4)
    %3 = arith.muli %0, %c129_i32 : i32 loc(#loc5)
    %4 = tt.splat %3 : i32 -> tensor<1x128xi32> loc(#loc6)
    %5 = arith.addi %2, %4 : tensor<1x128xi32> loc(#loc6)
    %6 = tt.splat %arg0 : !tt.ptr<f32> -> tensor<1x128x!tt.ptr<f32>> loc(#loc7)
    %7 = tt.addptr %6, %5 : tensor<1x128x!tt.ptr<f32>>, tensor<1x128xi32> loc(#loc7)
    %8 = tt.load %7 : tensor<1x128x!tt.ptr<f32>> loc(#loc8)
    %9 = "tt.reduce"(%8) <{axis = 1 : i32}> ({
    ^bb0(%arg5: f32 loc(unknown), %arg6: f32 loc(unknown)):
      %18 = arith.addf %arg5, %arg6 : f32 loc(#loc22)
      tt.reduce.return %18 : f32 loc(#loc20)
    }) : (tensor<1x128xf32>) -> tensor<1xf32> loc(#loc20)
    %10 = tt.expand_dims %9 {axis = 1 : i32} : tensor<1xf32> -> tensor<1x1xf32> loc(#loc12)
    %11 = arith.muli %0, %c128_i32 : i32 loc(#loc13)
    %12 = tt.splat %11 : i32 -> tensor<1x128xi32> loc(#loc14)
    %13 = arith.addi %2, %12 : tensor<1x128xi32> loc(#loc14)
    %14 = tt.splat %arg2 : !tt.ptr<f32> -> tensor<1x128x!tt.ptr<f32>> loc(#loc15)
    %15 = tt.addptr %14, %13 : tensor<1x128x!tt.ptr<f32>>, tensor<1x128xi32> loc(#loc15)
    tt.store %15, %8 : tensor<1x128x!tt.ptr<f32>> loc(#loc16)
    %16 = tt.addptr %arg1, %0 : !tt.ptr<f32>, i32 loc(#loc17)
    %17 = tt.splat %16 : !tt.ptr<f32> -> tensor<1x1x!tt.ptr<f32>> loc(#loc17)
    tt.store %17, %10 : tensor<1x1x!tt.ptr<f32>> loc(#loc18)
    tt.return loc(#loc19)
  } loc(#loc)
} loc(#loc)
#loc2 = loc("/orcd/home/002/osbo/ondemand/fluid-sim/Assets/Scripts/.torch_inductor_cache/7u/c7ud3t54jxmsegr4lv234zwia2aazjofrsbnpuwvlzmkvzwv2bsi.py":22:28)
#loc3 = loc("/orcd/home/002/osbo/ondemand/fluid-sim/Assets/Scripts/.torch_inductor_cache/7u/c7ud3t54jxmsegr4lv234zwia2aazjofrsbnpuwvlzmkvzwv2bsi.py":25:26)
#loc4 = loc("/orcd/home/002/osbo/ondemand/fluid-sim/Assets/Scripts/.torch_inductor_cache/7u/c7ud3t54jxmsegr4lv234zwia2aazjofrsbnpuwvlzmkvzwv2bsi.py":25:34)
#loc5 = loc("/orcd/home/002/osbo/ondemand/fluid-sim/Assets/Scripts/.torch_inductor_cache/7u/c7ud3t54jxmsegr4lv234zwia2aazjofrsbnpuwvlzmkvzwv2bsi.py":30:40)
#loc6 = loc("/orcd/home/002/osbo/ondemand/fluid-sim/Assets/Scripts/.torch_inductor_cache/7u/c7ud3t54jxmsegr4lv234zwia2aazjofrsbnpuwvlzmkvzwv2bsi.py":30:36)
#loc7 = loc("/orcd/home/002/osbo/ondemand/fluid-sim/Assets/Scripts/.torch_inductor_cache/7u/c7ud3t54jxmsegr4lv234zwia2aazjofrsbnpuwvlzmkvzwv2bsi.py":30:30)
#loc8 = loc("/orcd/home/002/osbo/ondemand/fluid-sim/Assets/Scripts/.torch_inductor_cache/7u/c7ud3t54jxmsegr4lv234zwia2aazjofrsbnpuwvlzmkvzwv2bsi.py":30:46)
#loc9 = loc("/home/osbo/.conda/envs/fluid/lib/python3.12/site-packages/triton/language/standard.py":267:36)
#loc10 = loc("/orcd/home/002/osbo/ondemand/fluid-sim/Assets/Scripts/.torch_inductor_cache/7u/c7ud3t54jxmsegr4lv234zwia2aazjofrsbnpuwvlzmkvzwv2bsi.py":32:24)
#loc11 = loc("/home/osbo/.conda/envs/fluid/lib/python3.12/site-packages/triton/language/standard.py":256:15)
#loc12 = loc("/orcd/home/002/osbo/ondemand/fluid-sim/Assets/Scripts/.torch_inductor_cache/7u/c7ud3t54jxmsegr4lv234zwia2aazjofrsbnpuwvlzmkvzwv2bsi.py":32:27)
#loc13 = loc("/orcd/home/002/osbo/ondemand/fluid-sim/Assets/Scripts/.torch_inductor_cache/7u/c7ud3t54jxmsegr4lv234zwia2aazjofrsbnpuwvlzmkvzwv2bsi.py":33:35)
#loc14 = loc("/orcd/home/002/osbo/ondemand/fluid-sim/Assets/Scripts/.torch_inductor_cache/7u/c7ud3t54jxmsegr4lv234zwia2aazjofrsbnpuwvlzmkvzwv2bsi.py":33:31)
#loc15 = loc("/orcd/home/002/osbo/ondemand/fluid-sim/Assets/Scripts/.torch_inductor_cache/7u/c7ud3t54jxmsegr4lv234zwia2aazjofrsbnpuwvlzmkvzwv2bsi.py":33:25)
#loc16 = loc("/orcd/home/002/osbo/ondemand/fluid-sim/Assets/Scripts/.torch_inductor_cache/7u/c7ud3t54jxmsegr4lv234zwia2aazjofrsbnpuwvlzmkvzwv2bsi.py":33:47)
#loc17 = loc("/orcd/home/002/osbo/ondemand/fluid-sim/Assets/Scripts/.torch_inductor_cache/7u/c7ud3t54jxmsegr4lv234zwia2aazjofrsbnpuwvlzmkvzwv2bsi.py":34:25)
#loc18 = loc("/orcd/home/002/osbo/ondemand/fluid-sim/Assets/Scripts/.torch_inductor_cache/7u/c7ud3t54jxmsegr4lv234zwia2aazjofrsbnpuwvlzmkvzwv2bsi.py":34:36)
#loc19 = loc("/orcd/home/002/osbo/ondemand/fluid-sim/Assets/Scripts/.torch_inductor_cache/7u/c7ud3t54jxmsegr4lv234zwia2aazjofrsbnpuwvlzmkvzwv2bsi.py":34:4)
#loc20 = loc(callsite(#loc9 at #loc10))
#loc21 = loc(callsite(#loc11 at #loc9))
#loc22 = loc(callsite(#loc21 at #loc10))
