#loc = loc("/orcd/home/002/osbo/ondemand/fluid-sim/Assets/Scripts/.torch_inductor_cache/so/csoeqlmkcqzu3nya7pov6urnjxhjxjojdk4rjrae6gfpxnmnwn5h.py":18:0)
#loc1 = loc(unknown)
module {
  tt.func public @triton_(%arg0: !tt.ptr<f32> {tt.divisibility = 16 : i32} loc("/orcd/home/002/osbo/ondemand/fluid-sim/Assets/Scripts/.torch_inductor_cache/so/csoeqlmkcqzu3nya7pov6urnjxhjxjojdk4rjrae6gfpxnmnwn5h.py":18:0), %arg1: !tt.ptr<f32> {tt.divisibility = 16 : i32} loc("/orcd/home/002/osbo/ondemand/fluid-sim/Assets/Scripts/.torch_inductor_cache/so/csoeqlmkcqzu3nya7pov6urnjxhjxjojdk4rjrae6gfpxnmnwn5h.py":18:0), %arg2: i32 {tt.divisibility = 16 : i32} loc("/orcd/home/002/osbo/ondemand/fluid-sim/Assets/Scripts/.torch_inductor_cache/so/csoeqlmkcqzu3nya7pov6urnjxhjxjojdk4rjrae6gfpxnmnwn5h.py":18:0), %arg3: i32 {tt.divisibility = 16 : i32} loc("/orcd/home/002/osbo/ondemand/fluid-sim/Assets/Scripts/.torch_inductor_cache/so/csoeqlmkcqzu3nya7pov6urnjxhjxjojdk4rjrae6gfpxnmnwn5h.py":18:0)) attributes {noinline = false} {
    %c16896_i32 = arith.constant 16896 : i32 loc(#loc1)
    %c16384_i32 = arith.constant 16384 : i32 loc(#loc1)
    %c512_i32 = arith.constant 512 : i32 loc(#loc1)
    %cst = arith.constant dense<3.200000e+01> : tensor<1x1xf32> loc(#loc1)
    %cst_0 = arith.constant dense<8.000000e+00> : tensor<1x32xf32> loc(#loc1)
    %cst_1 = arith.constant dense<512> : tensor<1x32xi32> loc(#loc1)
    %0 = tt.get_program_id x : i32 loc(#loc2)
    %1 = tt.make_range {end = 32 : i32, start = 0 : i32} : tensor<32xi32> loc(#loc3)
    %2 = tt.expand_dims %1 {axis = 0 : i32} : tensor<32xi32> -> tensor<1x32xi32> loc(#loc4)
    %3 = arith.remsi %0, %c512_i32 : i32 loc(#loc5)
    %4 = arith.divsi %0, %c512_i32 : i32 loc(#loc6)
    %5 = arith.muli %2, %cst_1 : tensor<1x32xi32> loc(#loc7)
    %6 = tt.splat %3 : i32 -> tensor<1x32xi32> loc(#loc8)
    %7 = arith.addi %6, %5 : tensor<1x32xi32> loc(#loc8)
    %8 = arith.muli %4, %c16384_i32 : i32 loc(#loc9)
    %9 = tt.splat %8 : i32 -> tensor<1x32xi32> loc(#loc10)
    %10 = arith.addi %7, %9 : tensor<1x32xi32> loc(#loc10)
    %11 = tt.splat %arg0 : !tt.ptr<f32> -> tensor<1x32x!tt.ptr<f32>> loc(#loc11)
    %12 = tt.addptr %11, %10 : tensor<1x32x!tt.ptr<f32>>, tensor<1x32xi32> loc(#loc11)
    %13 = tt.load %12 : tensor<1x32x!tt.ptr<f32>> loc(#loc12)
    %14 = arith.divf %13, %cst_0 : tensor<1x32xf32> loc(#loc13)
    %15 = "tt.reduce"(%14) <{axis = 1 : i32}> ({
    ^bb0(%arg4: f32 loc(unknown), %arg5: f32 loc(unknown)):
      %22 = arith.addf %arg4, %arg5 : f32 loc(#loc26)
      tt.reduce.return %22 : f32 loc(#loc24)
    }) : (tensor<1x32xf32>) -> tensor<1xf32> loc(#loc24)
    %16 = tt.expand_dims %15 {axis = 1 : i32} : tensor<1xf32> -> tensor<1x1xf32> loc(#loc17)
    %17 = arith.divf %16, %cst : tensor<1x1xf32> loc(#loc18)
    %18 = arith.muli %4, %c16896_i32 : i32 loc(#loc19)
    %19 = arith.addi %3, %18 : i32 loc(#loc20)
    %20 = tt.addptr %arg1, %19 : !tt.ptr<f32>, i32 loc(#loc21)
    %21 = tt.splat %20 : !tt.ptr<f32> -> tensor<1x1x!tt.ptr<f32>> loc(#loc21)
    tt.store %21, %17 : tensor<1x1x!tt.ptr<f32>> loc(#loc22)
    tt.return loc(#loc23)
  } loc(#loc)
} loc(#loc)
#loc2 = loc("/orcd/home/002/osbo/ondemand/fluid-sim/Assets/Scripts/.torch_inductor_cache/so/csoeqlmkcqzu3nya7pov6urnjxhjxjojdk4rjrae6gfpxnmnwn5h.py":22:28)
#loc3 = loc("/orcd/home/002/osbo/ondemand/fluid-sim/Assets/Scripts/.torch_inductor_cache/so/csoeqlmkcqzu3nya7pov6urnjxhjxjojdk4rjrae6gfpxnmnwn5h.py":25:26)
#loc4 = loc("/orcd/home/002/osbo/ondemand/fluid-sim/Assets/Scripts/.torch_inductor_cache/so/csoeqlmkcqzu3nya7pov6urnjxhjxjojdk4rjrae6gfpxnmnwn5h.py":25:34)
#loc5 = loc("/orcd/home/002/osbo/ondemand/fluid-sim/Assets/Scripts/.torch_inductor_cache/so/csoeqlmkcqzu3nya7pov6urnjxhjxjojdk4rjrae6gfpxnmnwn5h.py":29:18)
#loc6 = loc("/orcd/home/002/osbo/ondemand/fluid-sim/Assets/Scripts/.torch_inductor_cache/so/csoeqlmkcqzu3nya7pov6urnjxhjxjojdk4rjrae6gfpxnmnwn5h.py":30:20)
#loc7 = loc("/orcd/home/002/osbo/ondemand/fluid-sim/Assets/Scripts/.torch_inductor_cache/so/csoeqlmkcqzu3nya7pov6urnjxhjxjojdk4rjrae6gfpxnmnwn5h.py":32:40)
#loc8 = loc("/orcd/home/002/osbo/ondemand/fluid-sim/Assets/Scripts/.torch_inductor_cache/so/csoeqlmkcqzu3nya7pov6urnjxhjxjojdk4rjrae6gfpxnmnwn5h.py":32:36)
#loc9 = loc("/orcd/home/002/osbo/ondemand/fluid-sim/Assets/Scripts/.torch_inductor_cache/so/csoeqlmkcqzu3nya7pov6urnjxhjxjojdk4rjrae6gfpxnmnwn5h.py":32:53)
#loc10 = loc("/orcd/home/002/osbo/ondemand/fluid-sim/Assets/Scripts/.torch_inductor_cache/so/csoeqlmkcqzu3nya7pov6urnjxhjxjojdk4rjrae6gfpxnmnwn5h.py":32:47)
#loc11 = loc("/orcd/home/002/osbo/ondemand/fluid-sim/Assets/Scripts/.torch_inductor_cache/so/csoeqlmkcqzu3nya7pov6urnjxhjxjojdk4rjrae6gfpxnmnwn5h.py":32:30)
#loc12 = loc("/orcd/home/002/osbo/ondemand/fluid-sim/Assets/Scripts/.torch_inductor_cache/so/csoeqlmkcqzu3nya7pov6urnjxhjxjojdk4rjrae6gfpxnmnwn5h.py":32:59)
#loc13 = loc("/orcd/home/002/osbo/ondemand/fluid-sim/Assets/Scripts/.torch_inductor_cache/so/csoeqlmkcqzu3nya7pov6urnjxhjxjojdk4rjrae6gfpxnmnwn5h.py":34:18)
#loc14 = loc("/home/osbo/.conda/envs/fluid/lib/python3.12/site-packages/triton/language/standard.py":267:36)
#loc15 = loc("/orcd/home/002/osbo/ondemand/fluid-sim/Assets/Scripts/.torch_inductor_cache/so/csoeqlmkcqzu3nya7pov6urnjxhjxjojdk4rjrae6gfpxnmnwn5h.py":36:24)
#loc16 = loc("/home/osbo/.conda/envs/fluid/lib/python3.12/site-packages/triton/language/standard.py":256:15)
#loc17 = loc("/orcd/home/002/osbo/ondemand/fluid-sim/Assets/Scripts/.torch_inductor_cache/so/csoeqlmkcqzu3nya7pov6urnjxhjxjojdk4rjrae6gfpxnmnwn5h.py":36:27)
#loc18 = loc("/orcd/home/002/osbo/ondemand/fluid-sim/Assets/Scripts/.torch_inductor_cache/so/csoeqlmkcqzu3nya7pov6urnjxhjxjojdk4rjrae6gfpxnmnwn5h.py":38:18)
#loc19 = loc("/orcd/home/002/osbo/ondemand/fluid-sim/Assets/Scripts/.torch_inductor_cache/so/csoeqlmkcqzu3nya7pov6urnjxhjxjojdk4rjrae6gfpxnmnwn5h.py":39:37)
#loc20 = loc("/orcd/home/002/osbo/ondemand/fluid-sim/Assets/Scripts/.torch_inductor_cache/so/csoeqlmkcqzu3nya7pov6urnjxhjxjojdk4rjrae6gfpxnmnwn5h.py":39:31)
#loc21 = loc("/orcd/home/002/osbo/ondemand/fluid-sim/Assets/Scripts/.torch_inductor_cache/so/csoeqlmkcqzu3nya7pov6urnjxhjxjojdk4rjrae6gfpxnmnwn5h.py":39:25)
#loc22 = loc("/orcd/home/002/osbo/ondemand/fluid-sim/Assets/Scripts/.torch_inductor_cache/so/csoeqlmkcqzu3nya7pov6urnjxhjxjojdk4rjrae6gfpxnmnwn5h.py":39:49)
#loc23 = loc("/orcd/home/002/osbo/ondemand/fluid-sim/Assets/Scripts/.torch_inductor_cache/so/csoeqlmkcqzu3nya7pov6urnjxhjxjojdk4rjrae6gfpxnmnwn5h.py":39:4)
#loc24 = loc(callsite(#loc14 at #loc15))
#loc25 = loc(callsite(#loc16 at #loc14))
#loc26 = loc(callsite(#loc25 at #loc15))
