#loc = loc("/orcd/home/002/osbo/ondemand/fluid-sim/Assets/Scripts/.torch_inductor_cache/zt/czt5k52gtyncttoiic2wg6gr3sjxyspcnmwia2oepndzh3i2tvm7.py":18:0)
module {
  tt.func public @triton_(%arg0: !tt.ptr<f32> {tt.divisibility = 16 : i32} loc("/orcd/home/002/osbo/ondemand/fluid-sim/Assets/Scripts/.torch_inductor_cache/zt/czt5k52gtyncttoiic2wg6gr3sjxyspcnmwia2oepndzh3i2tvm7.py":18:0), %arg1: !tt.ptr<f32> {tt.divisibility = 16 : i32} loc("/orcd/home/002/osbo/ondemand/fluid-sim/Assets/Scripts/.torch_inductor_cache/zt/czt5k52gtyncttoiic2wg6gr3sjxyspcnmwia2oepndzh3i2tvm7.py":18:0), %arg2: !tt.ptr<f32> {tt.divisibility = 16 : i32} loc("/orcd/home/002/osbo/ondemand/fluid-sim/Assets/Scripts/.torch_inductor_cache/zt/czt5k52gtyncttoiic2wg6gr3sjxyspcnmwia2oepndzh3i2tvm7.py":18:0), %arg3: i32 {tt.divisibility = 16 : i32} loc("/orcd/home/002/osbo/ondemand/fluid-sim/Assets/Scripts/.torch_inductor_cache/zt/czt5k52gtyncttoiic2wg6gr3sjxyspcnmwia2oepndzh3i2tvm7.py":18:0)) attributes {noinline = false} {
    %cst = arith.constant dense<4.000000e+00> : tensor<512xf32> loc(#loc1)
    %cst_0 = arith.constant dense<384> : tensor<512xi32> loc(#loc1)
    %cst_1 = arith.constant dense<256> : tensor<512xi32> loc(#loc1)
    %cst_2 = arith.constant dense<512> : tensor<512xi32> loc(#loc1)
    %cst_3 = arith.constant dense<128> : tensor<512xi32> loc(#loc1)
    %c512_i32 = arith.constant 512 : i32 loc(#loc1)
    %0 = tt.get_program_id x : i32 loc(#loc2)
    %1 = arith.muli %0, %c512_i32 : i32 loc(#loc3)
    %2 = tt.make_range {end = 512 : i32, start = 0 : i32} : tensor<512xi32> loc(#loc4)
    %3 = tt.splat %1 : i32 -> tensor<512xi32> loc(#loc5)
    %4 = arith.addi %3, %2 : tensor<512xi32> loc(#loc5)
    %5 = arith.remsi %4, %cst_3 : tensor<512xi32> loc(#loc6)
    %6 = arith.divsi %4, %cst_3 : tensor<512xi32> loc(#loc7)
    %7 = arith.muli %6, %cst_2 : tensor<512xi32> loc(#loc8)
    %8 = arith.addi %5, %7 : tensor<512xi32> loc(#loc9)
    %9 = tt.splat %arg0 : !tt.ptr<f32> -> tensor<512x!tt.ptr<f32>> loc(#loc10)
    %10 = tt.addptr %9, %8 : tensor<512x!tt.ptr<f32>>, tensor<512xi32> loc(#loc10)
    %11 = tt.load %10 : tensor<512x!tt.ptr<f32>> loc(#loc11)
    %12 = tt.splat %arg1 : !tt.ptr<f32> -> tensor<512x!tt.ptr<f32>> loc(#loc12)
    %13 = tt.addptr %12, %8 : tensor<512x!tt.ptr<f32>>, tensor<512xi32> loc(#loc12)
    %14 = tt.load %13 : tensor<512x!tt.ptr<f32>> loc(#loc13)
    %15 = arith.addi %5, %cst_3 : tensor<512xi32> loc(#loc14)
    %16 = arith.addi %15, %7 : tensor<512xi32> loc(#loc15)
    %17 = tt.addptr %9, %16 : tensor<512x!tt.ptr<f32>>, tensor<512xi32> loc(#loc16)
    %18 = tt.load %17 : tensor<512x!tt.ptr<f32>> loc(#loc17)
    %19 = tt.addptr %12, %16 : tensor<512x!tt.ptr<f32>>, tensor<512xi32> loc(#loc18)
    %20 = tt.load %19 : tensor<512x!tt.ptr<f32>> loc(#loc19)
    %21 = arith.addi %5, %cst_1 : tensor<512xi32> loc(#loc20)
    %22 = arith.addi %21, %7 : tensor<512xi32> loc(#loc21)
    %23 = tt.addptr %9, %22 : tensor<512x!tt.ptr<f32>>, tensor<512xi32> loc(#loc22)
    %24 = tt.load %23 : tensor<512x!tt.ptr<f32>> loc(#loc23)
    %25 = tt.addptr %12, %22 : tensor<512x!tt.ptr<f32>>, tensor<512xi32> loc(#loc24)
    %26 = tt.load %25 : tensor<512x!tt.ptr<f32>> loc(#loc25)
    %27 = arith.addi %5, %cst_0 : tensor<512xi32> loc(#loc26)
    %28 = arith.addi %27, %7 : tensor<512xi32> loc(#loc27)
    %29 = tt.addptr %9, %28 : tensor<512x!tt.ptr<f32>>, tensor<512xi32> loc(#loc28)
    %30 = tt.load %29 : tensor<512x!tt.ptr<f32>> loc(#loc29)
    %31 = tt.addptr %12, %28 : tensor<512x!tt.ptr<f32>>, tensor<512xi32> loc(#loc30)
    %32 = tt.load %31 : tensor<512x!tt.ptr<f32>> loc(#loc31)
    %33 = arith.addf %11, %14 : tensor<512xf32> loc(#loc32)
    %34 = arith.addf %18, %20 : tensor<512xf32> loc(#loc33)
    %35 = arith.addf %33, %34 : tensor<512xf32> loc(#loc34)
    %36 = arith.addf %24, %26 : tensor<512xf32> loc(#loc35)
    %37 = arith.addf %35, %36 : tensor<512xf32> loc(#loc36)
    %38 = arith.addf %30, %32 : tensor<512xf32> loc(#loc37)
    %39 = arith.addf %37, %38 : tensor<512xf32> loc(#loc38)
    %40 = arith.divf %39, %cst : tensor<512xf32> loc(#loc39)
    %41 = tt.splat %arg2 : !tt.ptr<f32> -> tensor<512x!tt.ptr<f32>> loc(#loc40)
    %42 = tt.addptr %41, %4 : tensor<512x!tt.ptr<f32>>, tensor<512xi32> loc(#loc40)
    tt.store %42, %40 : tensor<512x!tt.ptr<f32>> loc(#loc41)
    tt.return loc(#loc42)
  } loc(#loc)
} loc(#loc)
#loc1 = loc(unknown)
#loc2 = loc("/orcd/home/002/osbo/ondemand/fluid-sim/Assets/Scripts/.torch_inductor_cache/zt/czt5k52gtyncttoiic2wg6gr3sjxyspcnmwia2oepndzh3i2tvm7.py":20:28)
#loc3 = loc("/orcd/home/002/osbo/ondemand/fluid-sim/Assets/Scripts/.torch_inductor_cache/zt/czt5k52gtyncttoiic2wg6gr3sjxyspcnmwia2oepndzh3i2tvm7.py":20:33)
#loc4 = loc("/orcd/home/002/osbo/ondemand/fluid-sim/Assets/Scripts/.torch_inductor_cache/zt/czt5k52gtyncttoiic2wg6gr3sjxyspcnmwia2oepndzh3i2tvm7.py":21:36)
#loc5 = loc("/orcd/home/002/osbo/ondemand/fluid-sim/Assets/Scripts/.torch_inductor_cache/zt/czt5k52gtyncttoiic2wg6gr3sjxyspcnmwia2oepndzh3i2tvm7.py":21:23)
#loc6 = loc("/orcd/home/002/osbo/ondemand/fluid-sim/Assets/Scripts/.torch_inductor_cache/zt/czt5k52gtyncttoiic2wg6gr3sjxyspcnmwia2oepndzh3i2tvm7.py":23:18)
#loc7 = loc("/orcd/home/002/osbo/ondemand/fluid-sim/Assets/Scripts/.torch_inductor_cache/zt/czt5k52gtyncttoiic2wg6gr3sjxyspcnmwia2oepndzh3i2tvm7.py":24:20)
#loc8 = loc("/orcd/home/002/osbo/ondemand/fluid-sim/Assets/Scripts/.torch_inductor_cache/zt/czt5k52gtyncttoiic2wg6gr3sjxyspcnmwia2oepndzh3i2tvm7.py":26:40)
#loc9 = loc("/orcd/home/002/osbo/ondemand/fluid-sim/Assets/Scripts/.torch_inductor_cache/zt/czt5k52gtyncttoiic2wg6gr3sjxyspcnmwia2oepndzh3i2tvm7.py":26:36)
#loc10 = loc("/orcd/home/002/osbo/ondemand/fluid-sim/Assets/Scripts/.torch_inductor_cache/zt/czt5k52gtyncttoiic2wg6gr3sjxyspcnmwia2oepndzh3i2tvm7.py":26:30)
#loc11 = loc("/orcd/home/002/osbo/ondemand/fluid-sim/Assets/Scripts/.torch_inductor_cache/zt/czt5k52gtyncttoiic2wg6gr3sjxyspcnmwia2oepndzh3i2tvm7.py":26:46)
#loc12 = loc("/orcd/home/002/osbo/ondemand/fluid-sim/Assets/Scripts/.torch_inductor_cache/zt/czt5k52gtyncttoiic2wg6gr3sjxyspcnmwia2oepndzh3i2tvm7.py":27:30)
#loc13 = loc("/orcd/home/002/osbo/ondemand/fluid-sim/Assets/Scripts/.torch_inductor_cache/zt/czt5k52gtyncttoiic2wg6gr3sjxyspcnmwia2oepndzh3i2tvm7.py":27:46)
#loc14 = loc("/orcd/home/002/osbo/ondemand/fluid-sim/Assets/Scripts/.torch_inductor_cache/zt/czt5k52gtyncttoiic2wg6gr3sjxyspcnmwia2oepndzh3i2tvm7.py":28:36)
#loc15 = loc("/orcd/home/002/osbo/ondemand/fluid-sim/Assets/Scripts/.torch_inductor_cache/zt/czt5k52gtyncttoiic2wg6gr3sjxyspcnmwia2oepndzh3i2tvm7.py":28:42)
#loc16 = loc("/orcd/home/002/osbo/ondemand/fluid-sim/Assets/Scripts/.torch_inductor_cache/zt/czt5k52gtyncttoiic2wg6gr3sjxyspcnmwia2oepndzh3i2tvm7.py":28:30)
#loc17 = loc("/orcd/home/002/osbo/ondemand/fluid-sim/Assets/Scripts/.torch_inductor_cache/zt/czt5k52gtyncttoiic2wg6gr3sjxyspcnmwia2oepndzh3i2tvm7.py":28:52)
#loc18 = loc("/orcd/home/002/osbo/ondemand/fluid-sim/Assets/Scripts/.torch_inductor_cache/zt/czt5k52gtyncttoiic2wg6gr3sjxyspcnmwia2oepndzh3i2tvm7.py":29:30)
#loc19 = loc("/orcd/home/002/osbo/ondemand/fluid-sim/Assets/Scripts/.torch_inductor_cache/zt/czt5k52gtyncttoiic2wg6gr3sjxyspcnmwia2oepndzh3i2tvm7.py":29:52)
#loc20 = loc("/orcd/home/002/osbo/ondemand/fluid-sim/Assets/Scripts/.torch_inductor_cache/zt/czt5k52gtyncttoiic2wg6gr3sjxyspcnmwia2oepndzh3i2tvm7.py":30:36)
#loc21 = loc("/orcd/home/002/osbo/ondemand/fluid-sim/Assets/Scripts/.torch_inductor_cache/zt/czt5k52gtyncttoiic2wg6gr3sjxyspcnmwia2oepndzh3i2tvm7.py":30:42)
#loc22 = loc("/orcd/home/002/osbo/ondemand/fluid-sim/Assets/Scripts/.torch_inductor_cache/zt/czt5k52gtyncttoiic2wg6gr3sjxyspcnmwia2oepndzh3i2tvm7.py":30:30)
#loc23 = loc("/orcd/home/002/osbo/ondemand/fluid-sim/Assets/Scripts/.torch_inductor_cache/zt/czt5k52gtyncttoiic2wg6gr3sjxyspcnmwia2oepndzh3i2tvm7.py":30:52)
#loc24 = loc("/orcd/home/002/osbo/ondemand/fluid-sim/Assets/Scripts/.torch_inductor_cache/zt/czt5k52gtyncttoiic2wg6gr3sjxyspcnmwia2oepndzh3i2tvm7.py":31:30)
#loc25 = loc("/orcd/home/002/osbo/ondemand/fluid-sim/Assets/Scripts/.torch_inductor_cache/zt/czt5k52gtyncttoiic2wg6gr3sjxyspcnmwia2oepndzh3i2tvm7.py":31:52)
#loc26 = loc("/orcd/home/002/osbo/ondemand/fluid-sim/Assets/Scripts/.torch_inductor_cache/zt/czt5k52gtyncttoiic2wg6gr3sjxyspcnmwia2oepndzh3i2tvm7.py":32:37)
#loc27 = loc("/orcd/home/002/osbo/ondemand/fluid-sim/Assets/Scripts/.torch_inductor_cache/zt/czt5k52gtyncttoiic2wg6gr3sjxyspcnmwia2oepndzh3i2tvm7.py":32:43)
#loc28 = loc("/orcd/home/002/osbo/ondemand/fluid-sim/Assets/Scripts/.torch_inductor_cache/zt/czt5k52gtyncttoiic2wg6gr3sjxyspcnmwia2oepndzh3i2tvm7.py":32:31)
#loc29 = loc("/orcd/home/002/osbo/ondemand/fluid-sim/Assets/Scripts/.torch_inductor_cache/zt/czt5k52gtyncttoiic2wg6gr3sjxyspcnmwia2oepndzh3i2tvm7.py":32:53)
#loc30 = loc("/orcd/home/002/osbo/ondemand/fluid-sim/Assets/Scripts/.torch_inductor_cache/zt/czt5k52gtyncttoiic2wg6gr3sjxyspcnmwia2oepndzh3i2tvm7.py":33:31)
#loc31 = loc("/orcd/home/002/osbo/ondemand/fluid-sim/Assets/Scripts/.torch_inductor_cache/zt/czt5k52gtyncttoiic2wg6gr3sjxyspcnmwia2oepndzh3i2tvm7.py":33:53)
#loc32 = loc("/orcd/home/002/osbo/ondemand/fluid-sim/Assets/Scripts/.torch_inductor_cache/zt/czt5k52gtyncttoiic2wg6gr3sjxyspcnmwia2oepndzh3i2tvm7.py":34:18)
#loc33 = loc("/orcd/home/002/osbo/ondemand/fluid-sim/Assets/Scripts/.torch_inductor_cache/zt/czt5k52gtyncttoiic2wg6gr3sjxyspcnmwia2oepndzh3i2tvm7.py":35:18)
#loc34 = loc("/orcd/home/002/osbo/ondemand/fluid-sim/Assets/Scripts/.torch_inductor_cache/zt/czt5k52gtyncttoiic2wg6gr3sjxyspcnmwia2oepndzh3i2tvm7.py":36:18)
#loc35 = loc("/orcd/home/002/osbo/ondemand/fluid-sim/Assets/Scripts/.torch_inductor_cache/zt/czt5k52gtyncttoiic2wg6gr3sjxyspcnmwia2oepndzh3i2tvm7.py":37:18)
#loc36 = loc("/orcd/home/002/osbo/ondemand/fluid-sim/Assets/Scripts/.torch_inductor_cache/zt/czt5k52gtyncttoiic2wg6gr3sjxyspcnmwia2oepndzh3i2tvm7.py":38:19)
#loc37 = loc("/orcd/home/002/osbo/ondemand/fluid-sim/Assets/Scripts/.torch_inductor_cache/zt/czt5k52gtyncttoiic2wg6gr3sjxyspcnmwia2oepndzh3i2tvm7.py":39:20)
#loc38 = loc("/orcd/home/002/osbo/ondemand/fluid-sim/Assets/Scripts/.torch_inductor_cache/zt/czt5k52gtyncttoiic2wg6gr3sjxyspcnmwia2oepndzh3i2tvm7.py":40:20)
#loc39 = loc("/orcd/home/002/osbo/ondemand/fluid-sim/Assets/Scripts/.torch_inductor_cache/zt/czt5k52gtyncttoiic2wg6gr3sjxyspcnmwia2oepndzh3i2tvm7.py":42:20)
#loc40 = loc("/orcd/home/002/osbo/ondemand/fluid-sim/Assets/Scripts/.torch_inductor_cache/zt/czt5k52gtyncttoiic2wg6gr3sjxyspcnmwia2oepndzh3i2tvm7.py":43:25)
#loc41 = loc("/orcd/home/002/osbo/ondemand/fluid-sim/Assets/Scripts/.torch_inductor_cache/zt/czt5k52gtyncttoiic2wg6gr3sjxyspcnmwia2oepndzh3i2tvm7.py":43:37)
#loc42 = loc("/orcd/home/002/osbo/ondemand/fluid-sim/Assets/Scripts/.torch_inductor_cache/zt/czt5k52gtyncttoiic2wg6gr3sjxyspcnmwia2oepndzh3i2tvm7.py":43:4)
