#loc = loc("/orcd/home/002/osbo/ondemand/fluid-sim/Assets/Scripts/.torch_inductor_cache/ui/cuiorygbvtaipq3bmm5wrvq3bj3zrztgqwsh4pdfgkklf5gubff6.py":18:0)
module {
  tt.func public @triton_(%arg0: !tt.ptr<f32> {tt.divisibility = 16 : i32} loc("/orcd/home/002/osbo/ondemand/fluid-sim/Assets/Scripts/.torch_inductor_cache/ui/cuiorygbvtaipq3bmm5wrvq3bj3zrztgqwsh4pdfgkklf5gubff6.py":18:0), %arg1: !tt.ptr<f32> {tt.divisibility = 16 : i32} loc("/orcd/home/002/osbo/ondemand/fluid-sim/Assets/Scripts/.torch_inductor_cache/ui/cuiorygbvtaipq3bmm5wrvq3bj3zrztgqwsh4pdfgkklf5gubff6.py":18:0), %arg2: !tt.ptr<f32> {tt.divisibility = 16 : i32} loc("/orcd/home/002/osbo/ondemand/fluid-sim/Assets/Scripts/.torch_inductor_cache/ui/cuiorygbvtaipq3bmm5wrvq3bj3zrztgqwsh4pdfgkklf5gubff6.py":18:0), %arg3: !tt.ptr<f32> {tt.divisibility = 16 : i32} loc("/orcd/home/002/osbo/ondemand/fluid-sim/Assets/Scripts/.torch_inductor_cache/ui/cuiorygbvtaipq3bmm5wrvq3bj3zrztgqwsh4pdfgkklf5gubff6.py":18:0), %arg4: i32 {tt.divisibility = 16 : i32} loc("/orcd/home/002/osbo/ondemand/fluid-sim/Assets/Scripts/.torch_inductor_cache/ui/cuiorygbvtaipq3bmm5wrvq3bj3zrztgqwsh4pdfgkklf5gubff6.py":18:0)) attributes {noinline = false} {
    %cst = arith.constant dense<-36864> : tensor<256xi32> loc(#loc1)
    %cst_0 = arith.constant dense<-8192> : tensor<256xi32> loc(#loc1)
    %cst_1 = arith.constant dense<0.000000e+00> : tensor<256xf32> loc(#loc1)
    %cst_2 = arith.constant dense<8192> : tensor<256xi64> loc(#loc1)
    %cst_3 = arith.constant dense<36864> : tensor<256xi64> loc(#loc1)
    %cst_4 = arith.constant dense<37120> : tensor<256xi32> loc(#loc1)
    %c256_i32 = arith.constant 256 : i32 loc(#loc1)
    %0 = tt.get_program_id x : i32 loc(#loc2)
    %1 = arith.muli %0, %c256_i32 : i32 loc(#loc3)
    %2 = tt.make_range {end = 256 : i32, start = 0 : i32} : tensor<256xi32> loc(#loc4)
    %3 = tt.splat %1 : i32 -> tensor<256xi32> loc(#loc5)
    %4 = arith.addi %3, %2 : tensor<256xi32> loc(#loc5)
    %5 = arith.cmpi slt, %4, %cst_4 : tensor<256xi32> loc(#loc6)
    %6 = arith.extsi %4 : tensor<256xi32> to tensor<256xi64> loc(#loc7)
    %7 = arith.cmpi slt, %6, %cst_3 : tensor<256xi64> loc(#loc7)
    %8 = arith.cmpi slt, %6, %cst_2 : tensor<256xi64> loc(#loc8)
    %9 = arith.andi %8, %7 : tensor<256xi1> loc(#loc9)
    %10 = tt.splat %arg0 : !tt.ptr<f32> -> tensor<256x!tt.ptr<f32>> loc(#loc10)
    %11 = tt.addptr %10, %4 : tensor<256x!tt.ptr<f32>>, tensor<256xi32> loc(#loc10)
    %12 = arith.andi %9, %5 : tensor<256xi1> loc(#loc11)
    %13 = tt.load %11, %12, %cst_1 evictionPolicy = evict_last : tensor<256x!tt.ptr<f32>> loc(#loc12)
    %14 = arith.cmpi sge, %6, %cst_2 : tensor<256xi64> loc(#loc13)
    %15 = arith.andi %14, %7 : tensor<256xi1> loc(#loc14)
    %16 = arith.addi %4, %cst_0 : tensor<256xi32> loc(#loc15)
    %17 = tt.splat %arg1 : !tt.ptr<f32> -> tensor<256x!tt.ptr<f32>> loc(#loc16)
    %18 = tt.addptr %17, %16 : tensor<256x!tt.ptr<f32>>, tensor<256xi32> loc(#loc16)
    %19 = arith.andi %15, %5 : tensor<256xi1> loc(#loc17)
    %20 = tt.load %18, %19, %cst_1 evictionPolicy = evict_last : tensor<256x!tt.ptr<f32>> loc(#loc18)
    %21 = arith.select %8, %13, %20 : tensor<256xi1>, tensor<256xf32> loc(#loc19)
    %22 = arith.cmpi sge, %6, %cst_3 : tensor<256xi64> loc(#loc20)
    %23 = arith.addi %4, %cst : tensor<256xi32> loc(#loc21)
    %24 = tt.splat %arg2 : !tt.ptr<f32> -> tensor<256x!tt.ptr<f32>> loc(#loc22)
    %25 = tt.addptr %24, %23 : tensor<256x!tt.ptr<f32>>, tensor<256xi32> loc(#loc22)
    %26 = arith.andi %22, %5 : tensor<256xi1> loc(#loc23)
    %27 = tt.load %25, %26, %cst_1 evictionPolicy = evict_last : tensor<256x!tt.ptr<f32>> loc(#loc24)
    %28 = arith.select %7, %21, %27 : tensor<256xi1>, tensor<256xf32> loc(#loc30)
    %29 = tt.splat %arg3 : !tt.ptr<f32> -> tensor<256x!tt.ptr<f32>> loc(#loc27)
    %30 = tt.addptr %29, %4 : tensor<256x!tt.ptr<f32>>, tensor<256xi32> loc(#loc27)
    tt.store %30, %28, %5 : tensor<256x!tt.ptr<f32>> loc(#loc28)
    tt.return loc(#loc29)
  } loc(#loc)
} loc(#loc)
#loc1 = loc(unknown)
#loc2 = loc("/orcd/home/002/osbo/ondemand/fluid-sim/Assets/Scripts/.torch_inductor_cache/ui/cuiorygbvtaipq3bmm5wrvq3bj3zrztgqwsh4pdfgkklf5gubff6.py":20:28)
#loc3 = loc("/orcd/home/002/osbo/ondemand/fluid-sim/Assets/Scripts/.torch_inductor_cache/ui/cuiorygbvtaipq3bmm5wrvq3bj3zrztgqwsh4pdfgkklf5gubff6.py":20:33)
#loc4 = loc("/orcd/home/002/osbo/ondemand/fluid-sim/Assets/Scripts/.torch_inductor_cache/ui/cuiorygbvtaipq3bmm5wrvq3bj3zrztgqwsh4pdfgkklf5gubff6.py":21:36)
#loc5 = loc("/orcd/home/002/osbo/ondemand/fluid-sim/Assets/Scripts/.torch_inductor_cache/ui/cuiorygbvtaipq3bmm5wrvq3bj3zrztgqwsh4pdfgkklf5gubff6.py":21:23)
#loc6 = loc("/orcd/home/002/osbo/ondemand/fluid-sim/Assets/Scripts/.torch_inductor_cache/ui/cuiorygbvtaipq3bmm5wrvq3bj3zrztgqwsh4pdfgkklf5gubff6.py":22:21)
#loc7 = loc("/orcd/home/002/osbo/ondemand/fluid-sim/Assets/Scripts/.torch_inductor_cache/ui/cuiorygbvtaipq3bmm5wrvq3bj3zrztgqwsh4pdfgkklf5gubff6.py":28:18)
#loc8 = loc("/orcd/home/002/osbo/ondemand/fluid-sim/Assets/Scripts/.torch_inductor_cache/ui/cuiorygbvtaipq3bmm5wrvq3bj3zrztgqwsh4pdfgkklf5gubff6.py":30:18)
#loc9 = loc("/orcd/home/002/osbo/ondemand/fluid-sim/Assets/Scripts/.torch_inductor_cache/ui/cuiorygbvtaipq3bmm5wrvq3bj3zrztgqwsh4pdfgkklf5gubff6.py":31:18)
#loc10 = loc("/orcd/home/002/osbo/ondemand/fluid-sim/Assets/Scripts/.torch_inductor_cache/ui/cuiorygbvtaipq3bmm5wrvq3bj3zrztgqwsh4pdfgkklf5gubff6.py":32:30)
#loc11 = loc("/orcd/home/002/osbo/ondemand/fluid-sim/Assets/Scripts/.torch_inductor_cache/ui/cuiorygbvtaipq3bmm5wrvq3bj3zrztgqwsh4pdfgkklf5gubff6.py":32:42)
#loc12 = loc("/orcd/home/002/osbo/ondemand/fluid-sim/Assets/Scripts/.torch_inductor_cache/ui/cuiorygbvtaipq3bmm5wrvq3bj3zrztgqwsh4pdfgkklf5gubff6.py":32:35)
#loc13 = loc("/orcd/home/002/osbo/ondemand/fluid-sim/Assets/Scripts/.torch_inductor_cache/ui/cuiorygbvtaipq3bmm5wrvq3bj3zrztgqwsh4pdfgkklf5gubff6.py":33:19)
#loc14 = loc("/orcd/home/002/osbo/ondemand/fluid-sim/Assets/Scripts/.torch_inductor_cache/ui/cuiorygbvtaipq3bmm5wrvq3bj3zrztgqwsh4pdfgkklf5gubff6.py":34:19)
#loc15 = loc("/orcd/home/002/osbo/ondemand/fluid-sim/Assets/Scripts/.torch_inductor_cache/ui/cuiorygbvtaipq3bmm5wrvq3bj3zrztgqwsh4pdfgkklf5gubff6.py":35:41)
#loc16 = loc("/orcd/home/002/osbo/ondemand/fluid-sim/Assets/Scripts/.torch_inductor_cache/ui/cuiorygbvtaipq3bmm5wrvq3bj3zrztgqwsh4pdfgkklf5gubff6.py":35:31)
#loc17 = loc("/orcd/home/002/osbo/ondemand/fluid-sim/Assets/Scripts/.torch_inductor_cache/ui/cuiorygbvtaipq3bmm5wrvq3bj3zrztgqwsh4pdfgkklf5gubff6.py":35:54)
#loc18 = loc("/orcd/home/002/osbo/ondemand/fluid-sim/Assets/Scripts/.torch_inductor_cache/ui/cuiorygbvtaipq3bmm5wrvq3bj3zrztgqwsh4pdfgkklf5gubff6.py":35:46)
#loc19 = loc("/orcd/home/002/osbo/ondemand/fluid-sim/Assets/Scripts/.torch_inductor_cache/ui/cuiorygbvtaipq3bmm5wrvq3bj3zrztgqwsh4pdfgkklf5gubff6.py":36:33)
#loc20 = loc("/orcd/home/002/osbo/ondemand/fluid-sim/Assets/Scripts/.torch_inductor_cache/ui/cuiorygbvtaipq3bmm5wrvq3bj3zrztgqwsh4pdfgkklf5gubff6.py":39:20)
#loc21 = loc("/orcd/home/002/osbo/ondemand/fluid-sim/Assets/Scripts/.torch_inductor_cache/ui/cuiorygbvtaipq3bmm5wrvq3bj3zrztgqwsh4pdfgkklf5gubff6.py":42:42)
#loc22 = loc("/orcd/home/002/osbo/ondemand/fluid-sim/Assets/Scripts/.torch_inductor_cache/ui/cuiorygbvtaipq3bmm5wrvq3bj3zrztgqwsh4pdfgkklf5gubff6.py":42:31)
#loc23 = loc("/orcd/home/002/osbo/ondemand/fluid-sim/Assets/Scripts/.torch_inductor_cache/ui/cuiorygbvtaipq3bmm5wrvq3bj3zrztgqwsh4pdfgkklf5gubff6.py":42:55)
#loc24 = loc("/orcd/home/002/osbo/ondemand/fluid-sim/Assets/Scripts/.torch_inductor_cache/ui/cuiorygbvtaipq3bmm5wrvq3bj3zrztgqwsh4pdfgkklf5gubff6.py":42:47)
#loc25 = loc("/orcd/home/002/osbo/ondemand/fluid-sim/Assets/Scripts/.torch_inductor_cache/ui/cuiorygbvtaipq3bmm5wrvq3bj3zrztgqwsh4pdfgkklf5gubff6.py":43:34)
#loc26 = loc("/orcd/home/002/osbo/ondemand/fluid-sim/Assets/Scripts/.torch_inductor_cache/ui/cuiorygbvtaipq3bmm5wrvq3bj3zrztgqwsh4pdfgkklf5gubff6.py":38:34)
#loc27 = loc("/orcd/home/002/osbo/ondemand/fluid-sim/Assets/Scripts/.torch_inductor_cache/ui/cuiorygbvtaipq3bmm5wrvq3bj3zrztgqwsh4pdfgkklf5gubff6.py":44:25)
#loc28 = loc("/orcd/home/002/osbo/ondemand/fluid-sim/Assets/Scripts/.torch_inductor_cache/ui/cuiorygbvtaipq3bmm5wrvq3bj3zrztgqwsh4pdfgkklf5gubff6.py":44:37)
#loc29 = loc("/orcd/home/002/osbo/ondemand/fluid-sim/Assets/Scripts/.torch_inductor_cache/ui/cuiorygbvtaipq3bmm5wrvq3bj3zrztgqwsh4pdfgkklf5gubff6.py":44:4)
#loc30 = loc(fused[#loc25, #loc26])
