#loc = loc("/orcd/home/002/osbo/ondemand/fluid-sim/Assets/Scripts/.torch_inductor_cache/zn/cznvbjubixaufw5wgnjococq2g5ecoxev55goxzham5d5izblxdg.py":18:0)
#loc1 = loc(unknown)
module {
  tt.func public @triton_(%arg0: !tt.ptr<f32> {tt.divisibility = 16 : i32} loc("/orcd/home/002/osbo/ondemand/fluid-sim/Assets/Scripts/.torch_inductor_cache/zn/cznvbjubixaufw5wgnjococq2g5ecoxev55goxzham5d5izblxdg.py":18:0), %arg1: !tt.ptr<f32> {tt.divisibility = 16 : i32} loc("/orcd/home/002/osbo/ondemand/fluid-sim/Assets/Scripts/.torch_inductor_cache/zn/cznvbjubixaufw5wgnjococq2g5ecoxev55goxzham5d5izblxdg.py":18:0), %arg2: i32 {tt.divisibility = 16 : i32} loc("/orcd/home/002/osbo/ondemand/fluid-sim/Assets/Scripts/.torch_inductor_cache/zn/cznvbjubixaufw5wgnjococq2g5ecoxev55goxzham5d5izblxdg.py":18:0), %arg3: i32 loc("/orcd/home/002/osbo/ondemand/fluid-sim/Assets/Scripts/.torch_inductor_cache/zn/cznvbjubixaufw5wgnjococq2g5ecoxev55goxzham5d5izblxdg.py":18:0)) attributes {noinline = false} {
    %cst = arith.constant dense<0.000000e+00> : tensor<8x64xf32> loc(#loc1)
    %cst_0 = arith.constant dense<128> : tensor<1x64xi32> loc(#loc1)
    %cst_1 = arith.constant dense<37> : tensor<1x64xi32> loc(#loc1)
    %cst_2 = arith.constant dense<128> : tensor<8x1xi32> loc(#loc1)
    %c8_i32 = arith.constant 8 : i32 loc(#loc1)
    %0 = tt.get_program_id x : i32 loc(#loc2)
    %1 = arith.muli %0, %c8_i32 : i32 loc(#loc3)
    %2 = tt.make_range {end = 8 : i32, start = 0 : i32} : tensor<8xi32> loc(#loc4)
    %3 = tt.expand_dims %2 {axis = 1 : i32} : tensor<8xi32> -> tensor<8x1xi32> loc(#loc5)
    %4 = tt.splat %1 : i32 -> tensor<8x1xi32> loc(#loc6)
    %5 = arith.addi %4, %3 : tensor<8x1xi32> loc(#loc6)
    %6 = arith.cmpi slt, %5, %cst_2 : tensor<8x1xi32> loc(#loc7)
    %7 = tt.make_range {end = 64 : i32, start = 0 : i32} : tensor<64xi32> loc(#loc8)
    %8 = tt.expand_dims %7 {axis = 0 : i32} : tensor<64xi32> -> tensor<1x64xi32> loc(#loc9)
    %9 = arith.cmpi slt, %8, %cst_1 : tensor<1x64xi32> loc(#loc10)
    %10 = arith.muli %8, %cst_0 : tensor<1x64xi32> loc(#loc11)
    %11 = tt.broadcast %5 : tensor<8x1xi32> -> tensor<8x64xi32> loc(#loc12)
    %12 = tt.broadcast %10 : tensor<1x64xi32> -> tensor<8x64xi32> loc(#loc12)
    %13 = arith.addi %11, %12 : tensor<8x64xi32> loc(#loc12)
    %14 = tt.splat %arg0 : !tt.ptr<f32> -> tensor<8x64x!tt.ptr<f32>> loc(#loc13)
    %15 = tt.addptr %14, %13 : tensor<8x64x!tt.ptr<f32>>, tensor<8x64xi32> loc(#loc13)
    %16 = tt.broadcast %9 : tensor<1x64xi1> -> tensor<8x64xi1> loc(#loc14)
    %17 = tt.broadcast %6 : tensor<8x1xi1> -> tensor<8x64xi1> loc(#loc14)
    %18 = arith.andi %16, %17 : tensor<8x64xi1> loc(#loc14)
    %19 = tt.load %15, %18, %cst : tensor<8x64x!tt.ptr<f32>> loc(#loc15)
    %20 = arith.select %18, %19, %cst : tensor<8x64xi1>, tensor<8x64xf32> loc(#loc16)
    %21 = "tt.reduce"(%20) <{axis = 1 : i32}> ({
    ^bb0(%arg4: f32 loc(unknown), %arg5: f32 loc(unknown)):
      %25 = arith.addf %arg4, %arg5 : f32 loc(#loc26)
      tt.reduce.return %25 : f32 loc(#loc24)
    }) : (tensor<8x64xf32>) -> tensor<8xf32> loc(#loc24)
    %22 = tt.expand_dims %21 {axis = 1 : i32} : tensor<8xf32> -> tensor<8x1xf32> loc(#loc20)
    %23 = tt.splat %arg1 : !tt.ptr<f32> -> tensor<8x1x!tt.ptr<f32>> loc(#loc21)
    %24 = tt.addptr %23, %5 : tensor<8x1x!tt.ptr<f32>>, tensor<8x1xi32> loc(#loc21)
    tt.store %24, %22, %6 : tensor<8x1x!tt.ptr<f32>> loc(#loc22)
    tt.return loc(#loc23)
  } loc(#loc)
} loc(#loc)
#loc2 = loc("/orcd/home/002/osbo/ondemand/fluid-sim/Assets/Scripts/.torch_inductor_cache/zn/cznvbjubixaufw5wgnjococq2g5ecoxev55goxzham5d5izblxdg.py":22:28)
#loc3 = loc("/orcd/home/002/osbo/ondemand/fluid-sim/Assets/Scripts/.torch_inductor_cache/zn/cznvbjubixaufw5wgnjococq2g5ecoxev55goxzham5d5izblxdg.py":22:33)
#loc4 = loc("/orcd/home/002/osbo/ondemand/fluid-sim/Assets/Scripts/.torch_inductor_cache/zn/cznvbjubixaufw5wgnjococq2g5ecoxev55goxzham5d5izblxdg.py":23:36)
#loc5 = loc("/orcd/home/002/osbo/ondemand/fluid-sim/Assets/Scripts/.torch_inductor_cache/zn/cznvbjubixaufw5wgnjococq2g5ecoxev55goxzham5d5izblxdg.py":23:44)
#loc6 = loc("/orcd/home/002/osbo/ondemand/fluid-sim/Assets/Scripts/.torch_inductor_cache/zn/cznvbjubixaufw5wgnjococq2g5ecoxev55goxzham5d5izblxdg.py":23:23)
#loc7 = loc("/orcd/home/002/osbo/ondemand/fluid-sim/Assets/Scripts/.torch_inductor_cache/zn/cznvbjubixaufw5wgnjococq2g5ecoxev55goxzham5d5izblxdg.py":24:21)
#loc8 = loc("/orcd/home/002/osbo/ondemand/fluid-sim/Assets/Scripts/.torch_inductor_cache/zn/cznvbjubixaufw5wgnjococq2g5ecoxev55goxzham5d5izblxdg.py":25:26)
#loc9 = loc("/orcd/home/002/osbo/ondemand/fluid-sim/Assets/Scripts/.torch_inductor_cache/zn/cznvbjubixaufw5wgnjococq2g5ecoxev55goxzham5d5izblxdg.py":25:34)
#loc10 = loc("/orcd/home/002/osbo/ondemand/fluid-sim/Assets/Scripts/.torch_inductor_cache/zn/cznvbjubixaufw5wgnjococq2g5ecoxev55goxzham5d5izblxdg.py":27:21)
#loc11 = loc("/orcd/home/002/osbo/ondemand/fluid-sim/Assets/Scripts/.torch_inductor_cache/zn/cznvbjubixaufw5wgnjococq2g5ecoxev55goxzham5d5izblxdg.py":30:40)
#loc12 = loc("/orcd/home/002/osbo/ondemand/fluid-sim/Assets/Scripts/.torch_inductor_cache/zn/cznvbjubixaufw5wgnjococq2g5ecoxev55goxzham5d5izblxdg.py":30:36)
#loc13 = loc("/orcd/home/002/osbo/ondemand/fluid-sim/Assets/Scripts/.torch_inductor_cache/zn/cznvbjubixaufw5wgnjococq2g5ecoxev55goxzham5d5izblxdg.py":30:30)
#loc14 = loc("/orcd/home/002/osbo/ondemand/fluid-sim/Assets/Scripts/.torch_inductor_cache/zn/cznvbjubixaufw5wgnjococq2g5ecoxev55goxzham5d5izblxdg.py":30:54)
#loc15 = loc("/orcd/home/002/osbo/ondemand/fluid-sim/Assets/Scripts/.torch_inductor_cache/zn/cznvbjubixaufw5wgnjococq2g5ecoxev55goxzham5d5izblxdg.py":30:46)
#loc16 = loc("/orcd/home/002/osbo/ondemand/fluid-sim/Assets/Scripts/.torch_inductor_cache/zn/cznvbjubixaufw5wgnjococq2g5ecoxev55goxzham5d5izblxdg.py":32:41)
#loc17 = loc("/home/osbo/.conda/envs/fluid/lib/python3.12/site-packages/triton/language/standard.py":267:36)
#loc18 = loc("/orcd/home/002/osbo/ondemand/fluid-sim/Assets/Scripts/.torch_inductor_cache/zn/cznvbjubixaufw5wgnjococq2g5ecoxev55goxzham5d5izblxdg.py":33:24)
#loc19 = loc("/home/osbo/.conda/envs/fluid/lib/python3.12/site-packages/triton/language/standard.py":256:15)
#loc20 = loc("/orcd/home/002/osbo/ondemand/fluid-sim/Assets/Scripts/.torch_inductor_cache/zn/cznvbjubixaufw5wgnjococq2g5ecoxev55goxzham5d5izblxdg.py":33:27)
#loc21 = loc("/orcd/home/002/osbo/ondemand/fluid-sim/Assets/Scripts/.torch_inductor_cache/zn/cznvbjubixaufw5wgnjococq2g5ecoxev55goxzham5d5izblxdg.py":34:25)
#loc22 = loc("/orcd/home/002/osbo/ondemand/fluid-sim/Assets/Scripts/.torch_inductor_cache/zn/cznvbjubixaufw5wgnjococq2g5ecoxev55goxzham5d5izblxdg.py":34:36)
#loc23 = loc("/orcd/home/002/osbo/ondemand/fluid-sim/Assets/Scripts/.torch_inductor_cache/zn/cznvbjubixaufw5wgnjococq2g5ecoxev55goxzham5d5izblxdg.py":34:4)
#loc24 = loc(callsite(#loc17 at #loc18))
#loc25 = loc(callsite(#loc19 at #loc17))
#loc26 = loc(callsite(#loc25 at #loc18))
