#loc = loc("/orcd/home/002/osbo/ondemand/fluid-sim/Assets/Scripts/.torch_inductor_cache/6s/c6sx5lhad5fb75drc2n3orcrnnjrlzfqbplfhtxbh5sp367kdubk.py":18:0)
#loc1 = loc(unknown)
module {
  tt.func public @triton_(%arg0: !tt.ptr<f32> {tt.divisibility = 16 : i32} loc("/orcd/home/002/osbo/ondemand/fluid-sim/Assets/Scripts/.torch_inductor_cache/6s/c6sx5lhad5fb75drc2n3orcrnnjrlzfqbplfhtxbh5sp367kdubk.py":18:0), %arg1: !tt.ptr<f32> {tt.divisibility = 16 : i32} loc("/orcd/home/002/osbo/ondemand/fluid-sim/Assets/Scripts/.torch_inductor_cache/6s/c6sx5lhad5fb75drc2n3orcrnnjrlzfqbplfhtxbh5sp367kdubk.py":18:0), %arg2: i32 {tt.divisibility = 16 : i32} loc("/orcd/home/002/osbo/ondemand/fluid-sim/Assets/Scripts/.torch_inductor_cache/6s/c6sx5lhad5fb75drc2n3orcrnnjrlzfqbplfhtxbh5sp367kdubk.py":18:0), %arg3: i32 {tt.divisibility = 16 : i32} loc("/orcd/home/002/osbo/ondemand/fluid-sim/Assets/Scripts/.torch_inductor_cache/6s/c6sx5lhad5fb75drc2n3orcrnnjrlzfqbplfhtxbh5sp367kdubk.py":18:0)) attributes {noinline = false} {
    %cst = arith.constant dense<0.000000e+00> : tensor<128x32xf32> loc(#loc1)
    %cst_0 = arith.constant dense<2048> : tensor<128x1xi32> loc(#loc1)
    %cst_1 = arith.constant dense<64> : tensor<1x32xi32> loc(#loc1)
    %cst_2 = arith.constant dense<64> : tensor<128x1xi32> loc(#loc1)
    %cst_3 = arith.constant dense<6976> : tensor<128x1xi32> loc(#loc1)
    %c128_i32 = arith.constant 128 : i32 loc(#loc1)
    %0 = tt.get_program_id x : i32 loc(#loc2)
    %1 = arith.muli %0, %c128_i32 : i32 loc(#loc3)
    %2 = tt.make_range {end = 128 : i32, start = 0 : i32} : tensor<128xi32> loc(#loc4)
    %3 = tt.expand_dims %2 {axis = 1 : i32} : tensor<128xi32> -> tensor<128x1xi32> loc(#loc5)
    %4 = tt.splat %1 : i32 -> tensor<128x1xi32> loc(#loc6)
    %5 = arith.addi %4, %3 : tensor<128x1xi32> loc(#loc6)
    %6 = arith.cmpi slt, %5, %cst_3 : tensor<128x1xi32> loc(#loc7)
    %7 = tt.make_range {end = 32 : i32, start = 0 : i32} : tensor<32xi32> loc(#loc8)
    %8 = tt.expand_dims %7 {axis = 0 : i32} : tensor<32xi32> -> tensor<1x32xi32> loc(#loc9)
    %9 = arith.remsi %5, %cst_2 : tensor<128x1xi32> loc(#loc10)
    %10 = arith.divsi %5, %cst_2 : tensor<128x1xi32> loc(#loc11)
    %11 = arith.muli %8, %cst_1 : tensor<1x32xi32> loc(#loc12)
    %12 = tt.broadcast %9 : tensor<128x1xi32> -> tensor<128x32xi32> loc(#loc13)
    %13 = tt.broadcast %11 : tensor<1x32xi32> -> tensor<128x32xi32> loc(#loc13)
    %14 = arith.addi %12, %13 : tensor<128x32xi32> loc(#loc13)
    %15 = arith.muli %10, %cst_0 : tensor<128x1xi32> loc(#loc14)
    %16 = tt.broadcast %15 : tensor<128x1xi32> -> tensor<128x32xi32> loc(#loc15)
    %17 = arith.addi %14, %16 : tensor<128x32xi32> loc(#loc15)
    %18 = tt.splat %arg0 : !tt.ptr<f32> -> tensor<128x32x!tt.ptr<f32>> loc(#loc16)
    %19 = tt.addptr %18, %17 : tensor<128x32x!tt.ptr<f32>>, tensor<128x32xi32> loc(#loc16)
    %20 = tt.broadcast %6 : tensor<128x1xi1> -> tensor<128x32xi1> loc(#loc17)
    %21 = tt.load %19, %20, %cst : tensor<128x32x!tt.ptr<f32>> loc(#loc17)
    %22 = arith.select %20, %21, %cst : tensor<128x32xi1>, tensor<128x32xf32> loc(#loc18)
    %23 = "tt.reduce"(%22) <{axis = 1 : i32}> ({
    ^bb0(%arg4: f32 loc(unknown), %arg5: f32 loc(unknown)):
      %27 = arith.addf %arg4, %arg5 : f32 loc(#loc28)
      tt.reduce.return %27 : f32 loc(#loc26)
    }) : (tensor<128x32xf32>) -> tensor<128xf32> loc(#loc26)
    %24 = tt.expand_dims %23 {axis = 1 : i32} : tensor<128xf32> -> tensor<128x1xf32> loc(#loc22)
    %25 = tt.splat %arg1 : !tt.ptr<f32> -> tensor<128x1x!tt.ptr<f32>> loc(#loc23)
    %26 = tt.addptr %25, %5 : tensor<128x1x!tt.ptr<f32>>, tensor<128x1xi32> loc(#loc23)
    tt.store %26, %24, %6 : tensor<128x1x!tt.ptr<f32>> loc(#loc24)
    tt.return loc(#loc25)
  } loc(#loc)
} loc(#loc)
#loc2 = loc("/orcd/home/002/osbo/ondemand/fluid-sim/Assets/Scripts/.torch_inductor_cache/6s/c6sx5lhad5fb75drc2n3orcrnnjrlzfqbplfhtxbh5sp367kdubk.py":22:28)
#loc3 = loc("/orcd/home/002/osbo/ondemand/fluid-sim/Assets/Scripts/.torch_inductor_cache/6s/c6sx5lhad5fb75drc2n3orcrnnjrlzfqbplfhtxbh5sp367kdubk.py":22:33)
#loc4 = loc("/orcd/home/002/osbo/ondemand/fluid-sim/Assets/Scripts/.torch_inductor_cache/6s/c6sx5lhad5fb75drc2n3orcrnnjrlzfqbplfhtxbh5sp367kdubk.py":23:36)
#loc5 = loc("/orcd/home/002/osbo/ondemand/fluid-sim/Assets/Scripts/.torch_inductor_cache/6s/c6sx5lhad5fb75drc2n3orcrnnjrlzfqbplfhtxbh5sp367kdubk.py":23:44)
#loc6 = loc("/orcd/home/002/osbo/ondemand/fluid-sim/Assets/Scripts/.torch_inductor_cache/6s/c6sx5lhad5fb75drc2n3orcrnnjrlzfqbplfhtxbh5sp367kdubk.py":23:23)
#loc7 = loc("/orcd/home/002/osbo/ondemand/fluid-sim/Assets/Scripts/.torch_inductor_cache/6s/c6sx5lhad5fb75drc2n3orcrnnjrlzfqbplfhtxbh5sp367kdubk.py":24:21)
#loc8 = loc("/orcd/home/002/osbo/ondemand/fluid-sim/Assets/Scripts/.torch_inductor_cache/6s/c6sx5lhad5fb75drc2n3orcrnnjrlzfqbplfhtxbh5sp367kdubk.py":25:26)
#loc9 = loc("/orcd/home/002/osbo/ondemand/fluid-sim/Assets/Scripts/.torch_inductor_cache/6s/c6sx5lhad5fb75drc2n3orcrnnjrlzfqbplfhtxbh5sp367kdubk.py":25:34)
#loc10 = loc("/orcd/home/002/osbo/ondemand/fluid-sim/Assets/Scripts/.torch_inductor_cache/6s/c6sx5lhad5fb75drc2n3orcrnnjrlzfqbplfhtxbh5sp367kdubk.py":29:18)
#loc11 = loc("/orcd/home/002/osbo/ondemand/fluid-sim/Assets/Scripts/.torch_inductor_cache/6s/c6sx5lhad5fb75drc2n3orcrnnjrlzfqbplfhtxbh5sp367kdubk.py":30:20)
#loc12 = loc("/orcd/home/002/osbo/ondemand/fluid-sim/Assets/Scripts/.torch_inductor_cache/6s/c6sx5lhad5fb75drc2n3orcrnnjrlzfqbplfhtxbh5sp367kdubk.py":32:39)
#loc13 = loc("/orcd/home/002/osbo/ondemand/fluid-sim/Assets/Scripts/.torch_inductor_cache/6s/c6sx5lhad5fb75drc2n3orcrnnjrlzfqbplfhtxbh5sp367kdubk.py":32:36)
#loc14 = loc("/orcd/home/002/osbo/ondemand/fluid-sim/Assets/Scripts/.torch_inductor_cache/6s/c6sx5lhad5fb75drc2n3orcrnnjrlzfqbplfhtxbh5sp367kdubk.py":32:51)
#loc15 = loc("/orcd/home/002/osbo/ondemand/fluid-sim/Assets/Scripts/.torch_inductor_cache/6s/c6sx5lhad5fb75drc2n3orcrnnjrlzfqbplfhtxbh5sp367kdubk.py":32:46)
#loc16 = loc("/orcd/home/002/osbo/ondemand/fluid-sim/Assets/Scripts/.torch_inductor_cache/6s/c6sx5lhad5fb75drc2n3orcrnnjrlzfqbplfhtxbh5sp367kdubk.py":32:30)
#loc17 = loc("/orcd/home/002/osbo/ondemand/fluid-sim/Assets/Scripts/.torch_inductor_cache/6s/c6sx5lhad5fb75drc2n3orcrnnjrlzfqbplfhtxbh5sp367kdubk.py":32:57)
#loc18 = loc("/orcd/home/002/osbo/ondemand/fluid-sim/Assets/Scripts/.torch_inductor_cache/6s/c6sx5lhad5fb75drc2n3orcrnnjrlzfqbplfhtxbh5sp367kdubk.py":34:33)
#loc19 = loc("/home/osbo/.conda/envs/fluid/lib/python3.12/site-packages/triton/language/standard.py":267:36)
#loc20 = loc("/orcd/home/002/osbo/ondemand/fluid-sim/Assets/Scripts/.torch_inductor_cache/6s/c6sx5lhad5fb75drc2n3orcrnnjrlzfqbplfhtxbh5sp367kdubk.py":35:24)
#loc21 = loc("/home/osbo/.conda/envs/fluid/lib/python3.12/site-packages/triton/language/standard.py":256:15)
#loc22 = loc("/orcd/home/002/osbo/ondemand/fluid-sim/Assets/Scripts/.torch_inductor_cache/6s/c6sx5lhad5fb75drc2n3orcrnnjrlzfqbplfhtxbh5sp367kdubk.py":35:27)
#loc23 = loc("/orcd/home/002/osbo/ondemand/fluid-sim/Assets/Scripts/.torch_inductor_cache/6s/c6sx5lhad5fb75drc2n3orcrnnjrlzfqbplfhtxbh5sp367kdubk.py":36:25)
#loc24 = loc("/orcd/home/002/osbo/ondemand/fluid-sim/Assets/Scripts/.torch_inductor_cache/6s/c6sx5lhad5fb75drc2n3orcrnnjrlzfqbplfhtxbh5sp367kdubk.py":36:36)
#loc25 = loc("/orcd/home/002/osbo/ondemand/fluid-sim/Assets/Scripts/.torch_inductor_cache/6s/c6sx5lhad5fb75drc2n3orcrnnjrlzfqbplfhtxbh5sp367kdubk.py":36:4)
#loc26 = loc(callsite(#loc19 at #loc20))
#loc27 = loc(callsite(#loc21 at #loc19))
#loc28 = loc(callsite(#loc27 at #loc20))
