#loc = loc("/orcd/home/002/osbo/ondemand/fluid-sim/Assets/Scripts/.torch_inductor_cache/fl/cfl3gaj2naxjylkdcuulpm4jrffxndzffsx2444wouvth25ttprv.py":18:0)
#loc1 = loc(unknown)
module {
  tt.func public @triton_(%arg0: !tt.ptr<f32> {tt.divisibility = 16 : i32} loc("/orcd/home/002/osbo/ondemand/fluid-sim/Assets/Scripts/.torch_inductor_cache/fl/cfl3gaj2naxjylkdcuulpm4jrffxndzffsx2444wouvth25ttprv.py":18:0), %arg1: !tt.ptr<f32> {tt.divisibility = 16 : i32} loc("/orcd/home/002/osbo/ondemand/fluid-sim/Assets/Scripts/.torch_inductor_cache/fl/cfl3gaj2naxjylkdcuulpm4jrffxndzffsx2444wouvth25ttprv.py":18:0), %arg2: !tt.ptr<f32> {tt.divisibility = 16 : i32} loc("/orcd/home/002/osbo/ondemand/fluid-sim/Assets/Scripts/.torch_inductor_cache/fl/cfl3gaj2naxjylkdcuulpm4jrffxndzffsx2444wouvth25ttprv.py":18:0), %arg3: i32 {tt.divisibility = 16 : i32} loc("/orcd/home/002/osbo/ondemand/fluid-sim/Assets/Scripts/.torch_inductor_cache/fl/cfl3gaj2naxjylkdcuulpm4jrffxndzffsx2444wouvth25ttprv.py":18:0), %arg4: i32 {tt.divisibility = 16 : i32} loc("/orcd/home/002/osbo/ondemand/fluid-sim/Assets/Scripts/.torch_inductor_cache/fl/cfl3gaj2naxjylkdcuulpm4jrffxndzffsx2444wouvth25ttprv.py":18:0)) attributes {noinline = false} {
    %c32_i32 = arith.constant 32 : i32 loc(#loc1)
    %c33_i32 = arith.constant 33 : i32 loc(#loc1)
    %c1536_i32 = arith.constant 1536 : i32 loc(#loc1)
    %cst = arith.constant dense<0.000000e+00> : tensor<1x32xf32> loc(#loc1)
    %0 = tt.get_program_id x : i32 loc(#loc2)
    %1 = arith.cmpi slt, %0, %c1536_i32 : i32 loc(#loc3)
    %2 = tt.splat %1 : i1 -> tensor<1x1xi1> loc(#loc3)
    %3 = tt.make_range {end = 32 : i32, start = 0 : i32} : tensor<32xi32> loc(#loc4)
    %4 = tt.expand_dims %3 {axis = 0 : i32} : tensor<32xi32> -> tensor<1x32xi32> loc(#loc5)
    %5 = arith.muli %0, %c33_i32 : i32 loc(#loc6)
    %6 = tt.splat %5 : i32 -> tensor<1x32xi32> loc(#loc7)
    %7 = arith.addi %4, %6 : tensor<1x32xi32> loc(#loc7)
    %8 = tt.splat %arg0 : !tt.ptr<f32> -> tensor<1x32x!tt.ptr<f32>> loc(#loc8)
    %9 = tt.addptr %8, %7 : tensor<1x32x!tt.ptr<f32>>, tensor<1x32xi32> loc(#loc8)
    %10 = tt.splat %1 : i1 -> tensor<1x32xi1> loc(#loc9)
    %11 = tt.load %9, %10, %cst : tensor<1x32x!tt.ptr<f32>> loc(#loc9)
    %12 = arith.select %10, %11, %cst : tensor<1x32xi1>, tensor<1x32xf32> loc(#loc10)
    %13 = "tt.reduce"(%12) <{axis = 1 : i32}> ({
    ^bb0(%arg5: f32 loc(unknown), %arg6: f32 loc(unknown)):
      %22 = arith.addf %arg5, %arg6 : f32 loc(#loc24)
      tt.reduce.return %22 : f32 loc(#loc22)
    }) : (tensor<1x32xf32>) -> tensor<1xf32> loc(#loc22)
    %14 = tt.expand_dims %13 {axis = 1 : i32} : tensor<1xf32> -> tensor<1x1xf32> loc(#loc14)
    %15 = arith.muli %0, %c32_i32 : i32 loc(#loc15)
    %16 = tt.splat %15 : i32 -> tensor<1x32xi32> loc(#loc16)
    %17 = arith.addi %4, %16 : tensor<1x32xi32> loc(#loc16)
    %18 = tt.splat %arg2 : !tt.ptr<f32> -> tensor<1x32x!tt.ptr<f32>> loc(#loc17)
    %19 = tt.addptr %18, %17 : tensor<1x32x!tt.ptr<f32>>, tensor<1x32xi32> loc(#loc17)
    tt.store %19, %11, %10 : tensor<1x32x!tt.ptr<f32>> loc(#loc18)
    %20 = tt.addptr %arg1, %0 : !tt.ptr<f32>, i32 loc(#loc19)
    %21 = tt.splat %20 : !tt.ptr<f32> -> tensor<1x1x!tt.ptr<f32>> loc(#loc19)
    tt.store %21, %14, %2 : tensor<1x1x!tt.ptr<f32>> loc(#loc20)
    tt.return loc(#loc21)
  } loc(#loc)
} loc(#loc)
#loc2 = loc("/orcd/home/002/osbo/ondemand/fluid-sim/Assets/Scripts/.torch_inductor_cache/fl/cfl3gaj2naxjylkdcuulpm4jrffxndzffsx2444wouvth25ttprv.py":22:28)
#loc3 = loc("/orcd/home/002/osbo/ondemand/fluid-sim/Assets/Scripts/.torch_inductor_cache/fl/cfl3gaj2naxjylkdcuulpm4jrffxndzffsx2444wouvth25ttprv.py":24:21)
#loc4 = loc("/orcd/home/002/osbo/ondemand/fluid-sim/Assets/Scripts/.torch_inductor_cache/fl/cfl3gaj2naxjylkdcuulpm4jrffxndzffsx2444wouvth25ttprv.py":25:26)
#loc5 = loc("/orcd/home/002/osbo/ondemand/fluid-sim/Assets/Scripts/.torch_inductor_cache/fl/cfl3gaj2naxjylkdcuulpm4jrffxndzffsx2444wouvth25ttprv.py":25:34)
#loc6 = loc("/orcd/home/002/osbo/ondemand/fluid-sim/Assets/Scripts/.torch_inductor_cache/fl/cfl3gaj2naxjylkdcuulpm4jrffxndzffsx2444wouvth25ttprv.py":30:39)
#loc7 = loc("/orcd/home/002/osbo/ondemand/fluid-sim/Assets/Scripts/.torch_inductor_cache/fl/cfl3gaj2naxjylkdcuulpm4jrffxndzffsx2444wouvth25ttprv.py":30:36)
#loc8 = loc("/orcd/home/002/osbo/ondemand/fluid-sim/Assets/Scripts/.torch_inductor_cache/fl/cfl3gaj2naxjylkdcuulpm4jrffxndzffsx2444wouvth25ttprv.py":30:30)
#loc9 = loc("/orcd/home/002/osbo/ondemand/fluid-sim/Assets/Scripts/.torch_inductor_cache/fl/cfl3gaj2naxjylkdcuulpm4jrffxndzffsx2444wouvth25ttprv.py":30:45)
#loc10 = loc("/orcd/home/002/osbo/ondemand/fluid-sim/Assets/Scripts/.torch_inductor_cache/fl/cfl3gaj2naxjylkdcuulpm4jrffxndzffsx2444wouvth25ttprv.py":32:33)
#loc11 = loc("/home/osbo/.conda/envs/fluid/lib/python3.12/site-packages/triton/language/standard.py":267:36)
#loc12 = loc("/orcd/home/002/osbo/ondemand/fluid-sim/Assets/Scripts/.torch_inductor_cache/fl/cfl3gaj2naxjylkdcuulpm4jrffxndzffsx2444wouvth25ttprv.py":33:24)
#loc13 = loc("/home/osbo/.conda/envs/fluid/lib/python3.12/site-packages/triton/language/standard.py":256:15)
#loc14 = loc("/orcd/home/002/osbo/ondemand/fluid-sim/Assets/Scripts/.torch_inductor_cache/fl/cfl3gaj2naxjylkdcuulpm4jrffxndzffsx2444wouvth25ttprv.py":33:27)
#loc15 = loc("/orcd/home/002/osbo/ondemand/fluid-sim/Assets/Scripts/.torch_inductor_cache/fl/cfl3gaj2naxjylkdcuulpm4jrffxndzffsx2444wouvth25ttprv.py":34:34)
#loc16 = loc("/orcd/home/002/osbo/ondemand/fluid-sim/Assets/Scripts/.torch_inductor_cache/fl/cfl3gaj2naxjylkdcuulpm4jrffxndzffsx2444wouvth25ttprv.py":34:31)
#loc17 = loc("/orcd/home/002/osbo/ondemand/fluid-sim/Assets/Scripts/.torch_inductor_cache/fl/cfl3gaj2naxjylkdcuulpm4jrffxndzffsx2444wouvth25ttprv.py":34:25)
#loc18 = loc("/orcd/home/002/osbo/ondemand/fluid-sim/Assets/Scripts/.torch_inductor_cache/fl/cfl3gaj2naxjylkdcuulpm4jrffxndzffsx2444wouvth25ttprv.py":34:46)
#loc19 = loc("/orcd/home/002/osbo/ondemand/fluid-sim/Assets/Scripts/.torch_inductor_cache/fl/cfl3gaj2naxjylkdcuulpm4jrffxndzffsx2444wouvth25ttprv.py":35:25)
#loc20 = loc("/orcd/home/002/osbo/ondemand/fluid-sim/Assets/Scripts/.torch_inductor_cache/fl/cfl3gaj2naxjylkdcuulpm4jrffxndzffsx2444wouvth25ttprv.py":35:36)
#loc21 = loc("/orcd/home/002/osbo/ondemand/fluid-sim/Assets/Scripts/.torch_inductor_cache/fl/cfl3gaj2naxjylkdcuulpm4jrffxndzffsx2444wouvth25ttprv.py":35:4)
#loc22 = loc(callsite(#loc11 at #loc12))
#loc23 = loc(callsite(#loc13 at #loc11))
#loc24 = loc(callsite(#loc23 at #loc12))
