#loc = loc("/orcd/home/002/osbo/ondemand/fluid-sim/Assets/Scripts/.torch_inductor_cache/pj/cpjtfsi7zffvnbgxumq5vnqw2efc4d6mmu5gywznj3uujq5e7gct.py":18:0)
module {
  tt.func public @triton_(%arg0: !tt.ptr<f32> {tt.divisibility = 16 : i32} loc("/orcd/home/002/osbo/ondemand/fluid-sim/Assets/Scripts/.torch_inductor_cache/pj/cpjtfsi7zffvnbgxumq5vnqw2efc4d6mmu5gywznj3uujq5e7gct.py":18:0), %arg1: !tt.ptr<f32> {tt.divisibility = 16 : i32} loc("/orcd/home/002/osbo/ondemand/fluid-sim/Assets/Scripts/.torch_inductor_cache/pj/cpjtfsi7zffvnbgxumq5vnqw2efc4d6mmu5gywznj3uujq5e7gct.py":18:0), %arg2: !tt.ptr<f32> {tt.divisibility = 16 : i32} loc("/orcd/home/002/osbo/ondemand/fluid-sim/Assets/Scripts/.torch_inductor_cache/pj/cpjtfsi7zffvnbgxumq5vnqw2efc4d6mmu5gywznj3uujq5e7gct.py":18:0), %arg3: !tt.ptr<f32> {tt.divisibility = 16 : i32} loc("/orcd/home/002/osbo/ondemand/fluid-sim/Assets/Scripts/.torch_inductor_cache/pj/cpjtfsi7zffvnbgxumq5vnqw2efc4d6mmu5gywznj3uujq5e7gct.py":18:0), %arg4: !tt.ptr<f32> {tt.divisibility = 16 : i32} loc("/orcd/home/002/osbo/ondemand/fluid-sim/Assets/Scripts/.torch_inductor_cache/pj/cpjtfsi7zffvnbgxumq5vnqw2efc4d6mmu5gywznj3uujq5e7gct.py":18:0), %arg5: i32 {tt.divisibility = 16 : i32} loc("/orcd/home/002/osbo/ondemand/fluid-sim/Assets/Scripts/.torch_inductor_cache/pj/cpjtfsi7zffvnbgxumq5vnqw2efc4d6mmu5gywznj3uujq5e7gct.py":18:0)) attributes {noinline = false} {
    %cst = arith.constant dense<16384> : tensor<1024xi32> loc(#loc1)
    %cst_0 = arith.constant dense<128> : tensor<1024xi32> loc(#loc1)
    %cst_1 = arith.constant dense<8320> : tensor<1024xi32> loc(#loc1)
    %cst_2 = arith.constant dense<906880> : tensor<1024xi32> loc(#loc1)
    %c1024_i32 = arith.constant 1024 : i32 loc(#loc1)
    %0 = tt.get_program_id x : i32 loc(#loc2)
    %1 = arith.muli %0, %c1024_i32 : i32 loc(#loc3)
    %2 = tt.make_range {end = 1024 : i32, start = 0 : i32} : tensor<1024xi32> loc(#loc4)
    %3 = tt.splat %1 : i32 -> tensor<1024xi32> loc(#loc5)
    %4 = arith.addi %3, %2 : tensor<1024xi32> loc(#loc5)
    %5 = arith.cmpi slt, %4, %cst_2 : tensor<1024xi32> loc(#loc6)
    %6 = arith.divsi %4, %cst_1 : tensor<1024xi32> loc(#loc7)
    %7 = arith.remsi %4, %cst_1 : tensor<1024xi32> loc(#loc8)
    %8 = arith.remsi %4, %cst_0 : tensor<1024xi32> loc(#loc9)
    %9 = tt.splat %arg1 : !tt.ptr<f32> -> tensor<1024x!tt.ptr<f32>> loc(#loc10)
    %10 = tt.addptr %9, %4 : tensor<1024x!tt.ptr<f32>>, tensor<1024xi32> loc(#loc10)
    %11 = tt.load %10, %5 : tensor<1024x!tt.ptr<f32>> loc(#loc11)
    %12 = arith.muli %6, %cst : tensor<1024xi32> loc(#loc12)
    %13 = arith.addi %7, %12 : tensor<1024xi32> loc(#loc13)
    %14 = tt.splat %arg2 : !tt.ptr<f32> -> tensor<1024x!tt.ptr<f32>> loc(#loc14)
    %15 = tt.addptr %14, %13 : tensor<1024x!tt.ptr<f32>>, tensor<1024xi32> loc(#loc14)
    %16 = tt.load %15, %5 : tensor<1024x!tt.ptr<f32>> loc(#loc15)
    %17 = tt.splat %arg3 : !tt.ptr<f32> -> tensor<1024x!tt.ptr<f32>> loc(#loc16)
    %18 = tt.addptr %17, %8 : tensor<1024x!tt.ptr<f32>>, tensor<1024xi32> loc(#loc16)
    %19 = tt.load %18, %5 evictionPolicy = evict_last : tensor<1024x!tt.ptr<f32>> loc(#loc17)
    %20 = tt.splat %arg0 : !tt.ptr<f32> -> tensor<1024x!tt.ptr<f32>> loc(#loc18)
    %21 = tt.addptr %20, %4 : tensor<1024x!tt.ptr<f32>>, tensor<1024xi32> loc(#loc18)
    %22 = tt.load %21, %5 : tensor<1024x!tt.ptr<f32>> loc(#loc19)
    %23 = tt.splat %arg4 : !tt.ptr<f32> -> tensor<1024x!tt.ptr<f32>> loc(#loc20)
    %24 = tt.addptr %23, %8 : tensor<1024x!tt.ptr<f32>>, tensor<1024xi32> loc(#loc20)
    %25 = tt.load %24, %5 evictionPolicy = evict_last : tensor<1024x!tt.ptr<f32>> loc(#loc21)
    %26 = arith.addf %16, %19 : tensor<1024xf32> loc(#loc22)
    %27 = arith.addf %11, %26 : tensor<1024xf32> loc(#loc23)
    %28 = arith.addf %22, %25 : tensor<1024xf32> loc(#loc24)
    %29 = arith.addf %27, %28 : tensor<1024xf32> loc(#loc25)
    tt.store %21, %29, %5 : tensor<1024x!tt.ptr<f32>> loc(#loc26)
    tt.return loc(#loc27)
  } loc(#loc)
} loc(#loc)
#loc1 = loc(unknown)
#loc2 = loc("/orcd/home/002/osbo/ondemand/fluid-sim/Assets/Scripts/.torch_inductor_cache/pj/cpjtfsi7zffvnbgxumq5vnqw2efc4d6mmu5gywznj3uujq5e7gct.py":20:28)
#loc3 = loc("/orcd/home/002/osbo/ondemand/fluid-sim/Assets/Scripts/.torch_inductor_cache/pj/cpjtfsi7zffvnbgxumq5vnqw2efc4d6mmu5gywznj3uujq5e7gct.py":20:33)
#loc4 = loc("/orcd/home/002/osbo/ondemand/fluid-sim/Assets/Scripts/.torch_inductor_cache/pj/cpjtfsi7zffvnbgxumq5vnqw2efc4d6mmu5gywznj3uujq5e7gct.py":21:36)
#loc5 = loc("/orcd/home/002/osbo/ondemand/fluid-sim/Assets/Scripts/.torch_inductor_cache/pj/cpjtfsi7zffvnbgxumq5vnqw2efc4d6mmu5gywznj3uujq5e7gct.py":21:23)
#loc6 = loc("/orcd/home/002/osbo/ondemand/fluid-sim/Assets/Scripts/.torch_inductor_cache/pj/cpjtfsi7zffvnbgxumq5vnqw2efc4d6mmu5gywznj3uujq5e7gct.py":22:21)
#loc7 = loc("/orcd/home/002/osbo/ondemand/fluid-sim/Assets/Scripts/.torch_inductor_cache/pj/cpjtfsi7zffvnbgxumq5vnqw2efc4d6mmu5gywznj3uujq5e7gct.py":24:20)
#loc8 = loc("/orcd/home/002/osbo/ondemand/fluid-sim/Assets/Scripts/.torch_inductor_cache/pj/cpjtfsi7zffvnbgxumq5vnqw2efc4d6mmu5gywznj3uujq5e7gct.py":25:18)
#loc9 = loc("/orcd/home/002/osbo/ondemand/fluid-sim/Assets/Scripts/.torch_inductor_cache/pj/cpjtfsi7zffvnbgxumq5vnqw2efc4d6mmu5gywznj3uujq5e7gct.py":26:18)
#loc10 = loc("/orcd/home/002/osbo/ondemand/fluid-sim/Assets/Scripts/.torch_inductor_cache/pj/cpjtfsi7zffvnbgxumq5vnqw2efc4d6mmu5gywznj3uujq5e7gct.py":27:30)
#loc11 = loc("/orcd/home/002/osbo/ondemand/fluid-sim/Assets/Scripts/.torch_inductor_cache/pj/cpjtfsi7zffvnbgxumq5vnqw2efc4d6mmu5gywznj3uujq5e7gct.py":27:35)
#loc12 = loc("/orcd/home/002/osbo/ondemand/fluid-sim/Assets/Scripts/.torch_inductor_cache/pj/cpjtfsi7zffvnbgxumq5vnqw2efc4d6mmu5gywznj3uujq5e7gct.py":28:42)
#loc13 = loc("/orcd/home/002/osbo/ondemand/fluid-sim/Assets/Scripts/.torch_inductor_cache/pj/cpjtfsi7zffvnbgxumq5vnqw2efc4d6mmu5gywznj3uujq5e7gct.py":28:36)
#loc14 = loc("/orcd/home/002/osbo/ondemand/fluid-sim/Assets/Scripts/.torch_inductor_cache/pj/cpjtfsi7zffvnbgxumq5vnqw2efc4d6mmu5gywznj3uujq5e7gct.py":28:30)
#loc15 = loc("/orcd/home/002/osbo/ondemand/fluid-sim/Assets/Scripts/.torch_inductor_cache/pj/cpjtfsi7zffvnbgxumq5vnqw2efc4d6mmu5gywznj3uujq5e7gct.py":28:48)
#loc16 = loc("/orcd/home/002/osbo/ondemand/fluid-sim/Assets/Scripts/.torch_inductor_cache/pj/cpjtfsi7zffvnbgxumq5vnqw2efc4d6mmu5gywznj3uujq5e7gct.py":29:30)
#loc17 = loc("/orcd/home/002/osbo/ondemand/fluid-sim/Assets/Scripts/.torch_inductor_cache/pj/cpjtfsi7zffvnbgxumq5vnqw2efc4d6mmu5gywznj3uujq5e7gct.py":29:35)
#loc18 = loc("/orcd/home/002/osbo/ondemand/fluid-sim/Assets/Scripts/.torch_inductor_cache/pj/cpjtfsi7zffvnbgxumq5vnqw2efc4d6mmu5gywznj3uujq5e7gct.py":30:34)
#loc19 = loc("/orcd/home/002/osbo/ondemand/fluid-sim/Assets/Scripts/.torch_inductor_cache/pj/cpjtfsi7zffvnbgxumq5vnqw2efc4d6mmu5gywznj3uujq5e7gct.py":30:39)
#loc20 = loc("/orcd/home/002/osbo/ondemand/fluid-sim/Assets/Scripts/.torch_inductor_cache/pj/cpjtfsi7zffvnbgxumq5vnqw2efc4d6mmu5gywznj3uujq5e7gct.py":31:30)
#loc21 = loc("/orcd/home/002/osbo/ondemand/fluid-sim/Assets/Scripts/.torch_inductor_cache/pj/cpjtfsi7zffvnbgxumq5vnqw2efc4d6mmu5gywznj3uujq5e7gct.py":31:35)
#loc22 = loc("/orcd/home/002/osbo/ondemand/fluid-sim/Assets/Scripts/.torch_inductor_cache/pj/cpjtfsi7zffvnbgxumq5vnqw2efc4d6mmu5gywznj3uujq5e7gct.py":32:18)
#loc23 = loc("/orcd/home/002/osbo/ondemand/fluid-sim/Assets/Scripts/.torch_inductor_cache/pj/cpjtfsi7zffvnbgxumq5vnqw2efc4d6mmu5gywznj3uujq5e7gct.py":33:18)
#loc24 = loc("/orcd/home/002/osbo/ondemand/fluid-sim/Assets/Scripts/.torch_inductor_cache/pj/cpjtfsi7zffvnbgxumq5vnqw2efc4d6mmu5gywznj3uujq5e7gct.py":34:18)
#loc25 = loc("/orcd/home/002/osbo/ondemand/fluid-sim/Assets/Scripts/.torch_inductor_cache/pj/cpjtfsi7zffvnbgxumq5vnqw2efc4d6mmu5gywznj3uujq5e7gct.py":35:18)
#loc26 = loc("/orcd/home/002/osbo/ondemand/fluid-sim/Assets/Scripts/.torch_inductor_cache/pj/cpjtfsi7zffvnbgxumq5vnqw2efc4d6mmu5gywznj3uujq5e7gct.py":36:39)
#loc27 = loc("/orcd/home/002/osbo/ondemand/fluid-sim/Assets/Scripts/.torch_inductor_cache/pj/cpjtfsi7zffvnbgxumq5vnqw2efc4d6mmu5gywznj3uujq5e7gct.py":36:4)
