#loc = loc("/orcd/home/002/osbo/ondemand/fluid-sim/Assets/Scripts/.torch_inductor_cache/to/ctos6usj7iwkjopcek2vq73bwmy6nynj6esfxwamgipeyymmexcv.py":18:0)
module {
  tt.func public @triton_(%arg0: !tt.ptr<f32> {tt.divisibility = 16 : i32} loc("/orcd/home/002/osbo/ondemand/fluid-sim/Assets/Scripts/.torch_inductor_cache/to/ctos6usj7iwkjopcek2vq73bwmy6nynj6esfxwamgipeyymmexcv.py":18:0), %arg1: !tt.ptr<f32> {tt.divisibility = 16 : i32} loc("/orcd/home/002/osbo/ondemand/fluid-sim/Assets/Scripts/.torch_inductor_cache/to/ctos6usj7iwkjopcek2vq73bwmy6nynj6esfxwamgipeyymmexcv.py":18:0), %arg2: !tt.ptr<f32> {tt.divisibility = 16 : i32} loc("/orcd/home/002/osbo/ondemand/fluid-sim/Assets/Scripts/.torch_inductor_cache/to/ctos6usj7iwkjopcek2vq73bwmy6nynj6esfxwamgipeyymmexcv.py":18:0), %arg3: i32 {tt.divisibility = 16 : i32} loc("/orcd/home/002/osbo/ondemand/fluid-sim/Assets/Scripts/.torch_inductor_cache/to/ctos6usj7iwkjopcek2vq73bwmy6nynj6esfxwamgipeyymmexcv.py":18:0)) attributes {noinline = false} {
    %cst = arith.constant dense<394752> : tensor<1024xi32> loc(#loc1)
    %cst_0 = arith.constant dense<1536> : tensor<1024xi32> loc(#loc1)
    %cst_1 = arith.constant dense<1024> : tensor<1024xi32> loc(#loc1)
    %cst_2 = arith.constant dense<131584> : tensor<1024xi32> loc(#loc1)
    %cst_3 = arith.constant dense<8> : tensor<1024xi32> loc(#loc1)
    %cst_4 = arith.constant dense<16448> : tensor<1024xi32> loc(#loc1)
    %cst_5 = arith.constant dense<257> : tensor<1024xi32> loc(#loc1)
    %cst_6 = arith.constant dense<64> : tensor<1024xi32> loc(#loc1)
    %cst_7 = arith.constant dense<789504> : tensor<1024xi32> loc(#loc1)
    %c1024_i32 = arith.constant 1024 : i32 loc(#loc1)
    %0 = tt.get_program_id x : i32 loc(#loc2)
    %1 = arith.muli %0, %c1024_i32 : i32 loc(#loc3)
    %2 = tt.make_range {end = 1024 : i32, start = 0 : i32} : tensor<1024xi32> loc(#loc4)
    %3 = tt.splat %1 : i32 -> tensor<1024xi32> loc(#loc5)
    %4 = arith.addi %3, %2 : tensor<1024xi32> loc(#loc5)
    %5 = arith.cmpi slt, %4, %cst_7 : tensor<1024xi32> loc(#loc6)
    %6 = arith.remsi %4, %cst_6 : tensor<1024xi32> loc(#loc7)
    %7 = arith.divsi %4, %cst_6 : tensor<1024xi32> loc(#loc8)
    %8 = arith.remsi %7, %cst_5 : tensor<1024xi32> loc(#loc9)
    %9 = arith.divsi %4, %cst_4 : tensor<1024xi32> loc(#loc10)
    %10 = arith.remsi %9, %cst_3 : tensor<1024xi32> loc(#loc11)
    %11 = arith.divsi %4, %cst_2 : tensor<1024xi32> loc(#loc12)
    %12 = arith.addi %6, %cst_1 : tensor<1024xi32> loc(#loc13)
    %13 = arith.muli %10, %cst_6 : tensor<1024xi32> loc(#loc14)
    %14 = arith.addi %12, %13 : tensor<1024xi32> loc(#loc15)
    %15 = arith.muli %8, %cst_0 : tensor<1024xi32> loc(#loc16)
    %16 = arith.addi %14, %15 : tensor<1024xi32> loc(#loc17)
    %17 = arith.muli %11, %cst : tensor<1024xi32> loc(#loc18)
    %18 = arith.addi %16, %17 : tensor<1024xi32> loc(#loc19)
    %19 = tt.splat %arg0 : !tt.ptr<f32> -> tensor<1024x!tt.ptr<f32>> loc(#loc20)
    %20 = tt.addptr %19, %18 : tensor<1024x!tt.ptr<f32>>, tensor<1024xi32> loc(#loc20)
    %21 = tt.load %20, %5 : tensor<1024x!tt.ptr<f32>> loc(#loc21)
    %22 = tt.splat %arg1 : !tt.ptr<f32> -> tensor<1024x!tt.ptr<f32>> loc(#loc22)
    %23 = tt.addptr %22, %14 : tensor<1024x!tt.ptr<f32>>, tensor<1024xi32> loc(#loc22)
    %24 = tt.load %23, %5 evictionPolicy = evict_last : tensor<1024x!tt.ptr<f32>> loc(#loc23)
    %25 = arith.addf %21, %24 : tensor<1024xf32> loc(#loc24)
    %26 = tt.splat %arg2 : !tt.ptr<f32> -> tensor<1024x!tt.ptr<f32>> loc(#loc25)
    %27 = tt.addptr %26, %4 : tensor<1024x!tt.ptr<f32>>, tensor<1024xi32> loc(#loc25)
    tt.store %27, %25, %5 : tensor<1024x!tt.ptr<f32>> loc(#loc26)
    tt.return loc(#loc27)
  } loc(#loc)
} loc(#loc)
#loc1 = loc(unknown)
#loc2 = loc("/orcd/home/002/osbo/ondemand/fluid-sim/Assets/Scripts/.torch_inductor_cache/to/ctos6usj7iwkjopcek2vq73bwmy6nynj6esfxwamgipeyymmexcv.py":20:28)
#loc3 = loc("/orcd/home/002/osbo/ondemand/fluid-sim/Assets/Scripts/.torch_inductor_cache/to/ctos6usj7iwkjopcek2vq73bwmy6nynj6esfxwamgipeyymmexcv.py":20:33)
#loc4 = loc("/orcd/home/002/osbo/ondemand/fluid-sim/Assets/Scripts/.torch_inductor_cache/to/ctos6usj7iwkjopcek2vq73bwmy6nynj6esfxwamgipeyymmexcv.py":21:36)
#loc5 = loc("/orcd/home/002/osbo/ondemand/fluid-sim/Assets/Scripts/.torch_inductor_cache/to/ctos6usj7iwkjopcek2vq73bwmy6nynj6esfxwamgipeyymmexcv.py":21:23)
#loc6 = loc("/orcd/home/002/osbo/ondemand/fluid-sim/Assets/Scripts/.torch_inductor_cache/to/ctos6usj7iwkjopcek2vq73bwmy6nynj6esfxwamgipeyymmexcv.py":22:21)
#loc7 = loc("/orcd/home/002/osbo/ondemand/fluid-sim/Assets/Scripts/.torch_inductor_cache/to/ctos6usj7iwkjopcek2vq73bwmy6nynj6esfxwamgipeyymmexcv.py":23:18)
#loc8 = loc("/orcd/home/002/osbo/ondemand/fluid-sim/Assets/Scripts/.torch_inductor_cache/to/ctos6usj7iwkjopcek2vq73bwmy6nynj6esfxwamgipeyymmexcv.py":24:20)
#loc9 = loc("/orcd/home/002/osbo/ondemand/fluid-sim/Assets/Scripts/.torch_inductor_cache/to/ctos6usj7iwkjopcek2vq73bwmy6nynj6esfxwamgipeyymmexcv.py":24:26)
#loc10 = loc("/orcd/home/002/osbo/ondemand/fluid-sim/Assets/Scripts/.torch_inductor_cache/to/ctos6usj7iwkjopcek2vq73bwmy6nynj6esfxwamgipeyymmexcv.py":25:20)
#loc11 = loc("/orcd/home/002/osbo/ondemand/fluid-sim/Assets/Scripts/.torch_inductor_cache/to/ctos6usj7iwkjopcek2vq73bwmy6nynj6esfxwamgipeyymmexcv.py":25:29)
#loc12 = loc("/orcd/home/002/osbo/ondemand/fluid-sim/Assets/Scripts/.torch_inductor_cache/to/ctos6usj7iwkjopcek2vq73bwmy6nynj6esfxwamgipeyymmexcv.py":26:20)
#loc13 = loc("/orcd/home/002/osbo/ondemand/fluid-sim/Assets/Scripts/.torch_inductor_cache/to/ctos6usj7iwkjopcek2vq73bwmy6nynj6esfxwamgipeyymmexcv.py":28:37)
#loc14 = loc("/orcd/home/002/osbo/ondemand/fluid-sim/Assets/Scripts/.torch_inductor_cache/to/ctos6usj7iwkjopcek2vq73bwmy6nynj6esfxwamgipeyymmexcv.py":28:46)
#loc15 = loc("/orcd/home/002/osbo/ondemand/fluid-sim/Assets/Scripts/.torch_inductor_cache/to/ctos6usj7iwkjopcek2vq73bwmy6nynj6esfxwamgipeyymmexcv.py":28:43)
#loc16 = loc("/orcd/home/002/osbo/ondemand/fluid-sim/Assets/Scripts/.torch_inductor_cache/to/ctos6usj7iwkjopcek2vq73bwmy6nynj6esfxwamgipeyymmexcv.py":28:58)
#loc17 = loc("/orcd/home/002/osbo/ondemand/fluid-sim/Assets/Scripts/.torch_inductor_cache/to/ctos6usj7iwkjopcek2vq73bwmy6nynj6esfxwamgipeyymmexcv.py":28:53)
#loc18 = loc("/orcd/home/002/osbo/ondemand/fluid-sim/Assets/Scripts/.torch_inductor_cache/to/ctos6usj7iwkjopcek2vq73bwmy6nynj6esfxwamgipeyymmexcv.py":28:72)
#loc19 = loc("/orcd/home/002/osbo/ondemand/fluid-sim/Assets/Scripts/.torch_inductor_cache/to/ctos6usj7iwkjopcek2vq73bwmy6nynj6esfxwamgipeyymmexcv.py":28:65)
#loc20 = loc("/orcd/home/002/osbo/ondemand/fluid-sim/Assets/Scripts/.torch_inductor_cache/to/ctos6usj7iwkjopcek2vq73bwmy6nynj6esfxwamgipeyymmexcv.py":28:30)
#loc21 = loc("/orcd/home/002/osbo/ondemand/fluid-sim/Assets/Scripts/.torch_inductor_cache/to/ctos6usj7iwkjopcek2vq73bwmy6nynj6esfxwamgipeyymmexcv.py":28:78)
#loc22 = loc("/orcd/home/002/osbo/ondemand/fluid-sim/Assets/Scripts/.torch_inductor_cache/to/ctos6usj7iwkjopcek2vq73bwmy6nynj6esfxwamgipeyymmexcv.py":29:30)
#loc23 = loc("/orcd/home/002/osbo/ondemand/fluid-sim/Assets/Scripts/.torch_inductor_cache/to/ctos6usj7iwkjopcek2vq73bwmy6nynj6esfxwamgipeyymmexcv.py":29:52)
#loc24 = loc("/orcd/home/002/osbo/ondemand/fluid-sim/Assets/Scripts/.torch_inductor_cache/to/ctos6usj7iwkjopcek2vq73bwmy6nynj6esfxwamgipeyymmexcv.py":30:18)
#loc25 = loc("/orcd/home/002/osbo/ondemand/fluid-sim/Assets/Scripts/.torch_inductor_cache/to/ctos6usj7iwkjopcek2vq73bwmy6nynj6esfxwamgipeyymmexcv.py":31:25)
#loc26 = loc("/orcd/home/002/osbo/ondemand/fluid-sim/Assets/Scripts/.torch_inductor_cache/to/ctos6usj7iwkjopcek2vq73bwmy6nynj6esfxwamgipeyymmexcv.py":31:36)
#loc27 = loc("/orcd/home/002/osbo/ondemand/fluid-sim/Assets/Scripts/.torch_inductor_cache/to/ctos6usj7iwkjopcek2vq73bwmy6nynj6esfxwamgipeyymmexcv.py":31:4)
