#loc = loc("/orcd/home/002/osbo/ondemand/fluid-sim/Assets/Scripts/.torch_inductor_cache/tc/ctc4lw2vzgxyzdg3ecmiz6hiubjpbuyx2qhlkjz7u2jh55d3quyu.py":18:0)
module {
  tt.func public @triton_(%arg0: !tt.ptr<f32> {tt.divisibility = 16 : i32} loc("/orcd/home/002/osbo/ondemand/fluid-sim/Assets/Scripts/.torch_inductor_cache/tc/ctc4lw2vzgxyzdg3ecmiz6hiubjpbuyx2qhlkjz7u2jh55d3quyu.py":18:0), %arg1: !tt.ptr<f32> {tt.divisibility = 16 : i32} loc("/orcd/home/002/osbo/ondemand/fluid-sim/Assets/Scripts/.torch_inductor_cache/tc/ctc4lw2vzgxyzdg3ecmiz6hiubjpbuyx2qhlkjz7u2jh55d3quyu.py":18:0), %arg2: i32 {tt.divisibility = 16 : i32} loc("/orcd/home/002/osbo/ondemand/fluid-sim/Assets/Scripts/.torch_inductor_cache/tc/ctc4lw2vzgxyzdg3ecmiz6hiubjpbuyx2qhlkjz7u2jh55d3quyu.py":18:0)) attributes {noinline = false} {
    %cst = arith.constant dense<2.000000e+00> : tensor<256xf32> loc(#loc1)
    %cst_0 = arith.constant dense<3.200000e+01> : tensor<256xf32> loc(#loc1)
    %cst_1 = arith.constant dense<1024> : tensor<256xi32> loc(#loc1)
    %cst_2 = arith.constant dense<512> : tensor<256xi32> loc(#loc1)
    %c256_i32 = arith.constant 256 : i32 loc(#loc1)
    %0 = tt.get_program_id x : i32 loc(#loc2)
    %1 = arith.muli %0, %c256_i32 : i32 loc(#loc3)
    %2 = tt.make_range {end = 256 : i32, start = 0 : i32} : tensor<256xi32> loc(#loc4)
    %3 = tt.splat %1 : i32 -> tensor<256xi32> loc(#loc5)
    %4 = arith.addi %3, %2 : tensor<256xi32> loc(#loc5)
    %5 = arith.remsi %4, %cst_2 : tensor<256xi32> loc(#loc6)
    %6 = arith.divsi %4, %cst_2 : tensor<256xi32> loc(#loc7)
    %7 = arith.muli %6, %cst_1 : tensor<256xi32> loc(#loc8)
    %8 = arith.addi %5, %7 : tensor<256xi32> loc(#loc9)
    %9 = tt.splat %arg0 : !tt.ptr<f32> -> tensor<256x!tt.ptr<f32>> loc(#loc10)
    %10 = tt.addptr %9, %8 : tensor<256x!tt.ptr<f32>>, tensor<256xi32> loc(#loc10)
    %11 = tt.load %10 : tensor<256x!tt.ptr<f32>> loc(#loc11)
    %12 = arith.addi %5, %cst_2 : tensor<256xi32> loc(#loc12)
    %13 = arith.addi %12, %7 : tensor<256xi32> loc(#loc13)
    %14 = tt.addptr %9, %13 : tensor<256x!tt.ptr<f32>>, tensor<256xi32> loc(#loc14)
    %15 = tt.load %14 : tensor<256x!tt.ptr<f32>> loc(#loc15)
    %16 = arith.divf %11, %cst_0 : tensor<256xf32> loc(#loc16)
    %17 = arith.divf %15, %cst_0 : tensor<256xf32> loc(#loc17)
    %18 = arith.addf %16, %17 : tensor<256xf32> loc(#loc18)
    %19 = arith.divf %18, %cst : tensor<256xf32> loc(#loc19)
    %20 = tt.splat %arg1 : !tt.ptr<f32> -> tensor<256x!tt.ptr<f32>> loc(#loc20)
    %21 = tt.addptr %20, %4 : tensor<256x!tt.ptr<f32>>, tensor<256xi32> loc(#loc20)
    tt.store %21, %19 : tensor<256x!tt.ptr<f32>> loc(#loc21)
    tt.return loc(#loc22)
  } loc(#loc)
} loc(#loc)
#loc1 = loc(unknown)
#loc2 = loc("/orcd/home/002/osbo/ondemand/fluid-sim/Assets/Scripts/.torch_inductor_cache/tc/ctc4lw2vzgxyzdg3ecmiz6hiubjpbuyx2qhlkjz7u2jh55d3quyu.py":20:28)
#loc3 = loc("/orcd/home/002/osbo/ondemand/fluid-sim/Assets/Scripts/.torch_inductor_cache/tc/ctc4lw2vzgxyzdg3ecmiz6hiubjpbuyx2qhlkjz7u2jh55d3quyu.py":20:33)
#loc4 = loc("/orcd/home/002/osbo/ondemand/fluid-sim/Assets/Scripts/.torch_inductor_cache/tc/ctc4lw2vzgxyzdg3ecmiz6hiubjpbuyx2qhlkjz7u2jh55d3quyu.py":21:36)
#loc5 = loc("/orcd/home/002/osbo/ondemand/fluid-sim/Assets/Scripts/.torch_inductor_cache/tc/ctc4lw2vzgxyzdg3ecmiz6hiubjpbuyx2qhlkjz7u2jh55d3quyu.py":21:23)
#loc6 = loc("/orcd/home/002/osbo/ondemand/fluid-sim/Assets/Scripts/.torch_inductor_cache/tc/ctc4lw2vzgxyzdg3ecmiz6hiubjpbuyx2qhlkjz7u2jh55d3quyu.py":23:18)
#loc7 = loc("/orcd/home/002/osbo/ondemand/fluid-sim/Assets/Scripts/.torch_inductor_cache/tc/ctc4lw2vzgxyzdg3ecmiz6hiubjpbuyx2qhlkjz7u2jh55d3quyu.py":24:20)
#loc8 = loc("/orcd/home/002/osbo/ondemand/fluid-sim/Assets/Scripts/.torch_inductor_cache/tc/ctc4lw2vzgxyzdg3ecmiz6hiubjpbuyx2qhlkjz7u2jh55d3quyu.py":26:41)
#loc9 = loc("/orcd/home/002/osbo/ondemand/fluid-sim/Assets/Scripts/.torch_inductor_cache/tc/ctc4lw2vzgxyzdg3ecmiz6hiubjpbuyx2qhlkjz7u2jh55d3quyu.py":26:36)
#loc10 = loc("/orcd/home/002/osbo/ondemand/fluid-sim/Assets/Scripts/.torch_inductor_cache/tc/ctc4lw2vzgxyzdg3ecmiz6hiubjpbuyx2qhlkjz7u2jh55d3quyu.py":26:30)
#loc11 = loc("/orcd/home/002/osbo/ondemand/fluid-sim/Assets/Scripts/.torch_inductor_cache/tc/ctc4lw2vzgxyzdg3ecmiz6hiubjpbuyx2qhlkjz7u2jh55d3quyu.py":26:47)
#loc12 = loc("/orcd/home/002/osbo/ondemand/fluid-sim/Assets/Scripts/.torch_inductor_cache/tc/ctc4lw2vzgxyzdg3ecmiz6hiubjpbuyx2qhlkjz7u2jh55d3quyu.py":27:36)
#loc13 = loc("/orcd/home/002/osbo/ondemand/fluid-sim/Assets/Scripts/.torch_inductor_cache/tc/ctc4lw2vzgxyzdg3ecmiz6hiubjpbuyx2qhlkjz7u2jh55d3quyu.py":27:42)
#loc14 = loc("/orcd/home/002/osbo/ondemand/fluid-sim/Assets/Scripts/.torch_inductor_cache/tc/ctc4lw2vzgxyzdg3ecmiz6hiubjpbuyx2qhlkjz7u2jh55d3quyu.py":27:30)
#loc15 = loc("/orcd/home/002/osbo/ondemand/fluid-sim/Assets/Scripts/.torch_inductor_cache/tc/ctc4lw2vzgxyzdg3ecmiz6hiubjpbuyx2qhlkjz7u2jh55d3quyu.py":27:53)
#loc16 = loc("/orcd/home/002/osbo/ondemand/fluid-sim/Assets/Scripts/.torch_inductor_cache/tc/ctc4lw2vzgxyzdg3ecmiz6hiubjpbuyx2qhlkjz7u2jh55d3quyu.py":29:18)
#loc17 = loc("/orcd/home/002/osbo/ondemand/fluid-sim/Assets/Scripts/.torch_inductor_cache/tc/ctc4lw2vzgxyzdg3ecmiz6hiubjpbuyx2qhlkjz7u2jh55d3quyu.py":30:18)
#loc18 = loc("/orcd/home/002/osbo/ondemand/fluid-sim/Assets/Scripts/.torch_inductor_cache/tc/ctc4lw2vzgxyzdg3ecmiz6hiubjpbuyx2qhlkjz7u2jh55d3quyu.py":31:18)
#loc19 = loc("/orcd/home/002/osbo/ondemand/fluid-sim/Assets/Scripts/.torch_inductor_cache/tc/ctc4lw2vzgxyzdg3ecmiz6hiubjpbuyx2qhlkjz7u2jh55d3quyu.py":33:18)
#loc20 = loc("/orcd/home/002/osbo/ondemand/fluid-sim/Assets/Scripts/.torch_inductor_cache/tc/ctc4lw2vzgxyzdg3ecmiz6hiubjpbuyx2qhlkjz7u2jh55d3quyu.py":34:25)
#loc21 = loc("/orcd/home/002/osbo/ondemand/fluid-sim/Assets/Scripts/.torch_inductor_cache/tc/ctc4lw2vzgxyzdg3ecmiz6hiubjpbuyx2qhlkjz7u2jh55d3quyu.py":34:36)
#loc22 = loc("/orcd/home/002/osbo/ondemand/fluid-sim/Assets/Scripts/.torch_inductor_cache/tc/ctc4lw2vzgxyzdg3ecmiz6hiubjpbuyx2qhlkjz7u2jh55d3quyu.py":34:4)
