#loc = loc("/orcd/home/002/osbo/ondemand/fluid-sim/Assets/Scripts/.torch_inductor_cache/xt/cxtfnkkbxg2geyewusodso546vvmqys44lfrkgrc3nf3ovg6y46g.py":18:0)
module {
  tt.func public @triton_(%arg0: !tt.ptr<f32> {tt.divisibility = 16 : i32} loc("/orcd/home/002/osbo/ondemand/fluid-sim/Assets/Scripts/.torch_inductor_cache/xt/cxtfnkkbxg2geyewusodso546vvmqys44lfrkgrc3nf3ovg6y46g.py":18:0), %arg1: !tt.ptr<f32> {tt.divisibility = 16 : i32} loc("/orcd/home/002/osbo/ondemand/fluid-sim/Assets/Scripts/.torch_inductor_cache/xt/cxtfnkkbxg2geyewusodso546vvmqys44lfrkgrc3nf3ovg6y46g.py":18:0), %arg2: i32 {tt.divisibility = 16 : i32} loc("/orcd/home/002/osbo/ondemand/fluid-sim/Assets/Scripts/.torch_inductor_cache/xt/cxtfnkkbxg2geyewusodso546vvmqys44lfrkgrc3nf3ovg6y46g.py":18:0)) attributes {noinline = false} {
    %cst = arith.constant dense<132> : tensor<256xi32> loc(#loc1)
    %cst_0 = arith.constant dense<4.000000e+00> : tensor<256xf32> loc(#loc1)
    %cst_1 = arith.constant dense<2060> : tensor<256xi32> loc(#loc1)
    %cst_2 = arith.constant dense<1544> : tensor<256xi32> loc(#loc1)
    %cst_3 = arith.constant dense<1028> : tensor<256xi32> loc(#loc1)
    %cst_4 = arith.constant dense<2064> : tensor<256xi32> loc(#loc1)
    %cst_5 = arith.constant dense<512> : tensor<256xi32> loc(#loc1)
    %cst_6 = arith.constant dense<4> : tensor<256xi32> loc(#loc1)
    %cst_7 = arith.constant dense<13952> : tensor<256xi32> loc(#loc1)
    %c256_i32 = arith.constant 256 : i32 loc(#loc1)
    %0 = tt.get_program_id x : i32 loc(#loc2)
    %1 = arith.muli %0, %c256_i32 : i32 loc(#loc3)
    %2 = tt.make_range {end = 256 : i32, start = 0 : i32} : tensor<256xi32> loc(#loc4)
    %3 = tt.splat %1 : i32 -> tensor<256xi32> loc(#loc5)
    %4 = arith.addi %3, %2 : tensor<256xi32> loc(#loc5)
    %5 = arith.cmpi slt, %4, %cst_7 : tensor<256xi32> loc(#loc6)
    %6 = arith.remsi %4, %cst_6 : tensor<256xi32> loc(#loc7)
    %7 = arith.divsi %4, %cst_6 : tensor<256xi32> loc(#loc8)
    %8 = arith.addi %6, %cst_5 : tensor<256xi32> loc(#loc9)
    %9 = arith.muli %7, %cst_4 : tensor<256xi32> loc(#loc10)
    %10 = arith.addi %8, %9 : tensor<256xi32> loc(#loc11)
    %11 = tt.splat %arg0 : !tt.ptr<f32> -> tensor<256x!tt.ptr<f32>> loc(#loc12)
    %12 = tt.addptr %11, %10 : tensor<256x!tt.ptr<f32>>, tensor<256xi32> loc(#loc12)
    %13 = tt.load %12, %5 : tensor<256x!tt.ptr<f32>> loc(#loc13)
    %14 = arith.addi %6, %cst_3 : tensor<256xi32> loc(#loc14)
    %15 = arith.addi %14, %9 : tensor<256xi32> loc(#loc15)
    %16 = tt.addptr %11, %15 : tensor<256x!tt.ptr<f32>>, tensor<256xi32> loc(#loc16)
    %17 = tt.load %16, %5 : tensor<256x!tt.ptr<f32>> loc(#loc17)
    %18 = arith.addi %6, %cst_2 : tensor<256xi32> loc(#loc18)
    %19 = arith.addi %18, %9 : tensor<256xi32> loc(#loc19)
    %20 = tt.addptr %11, %19 : tensor<256x!tt.ptr<f32>>, tensor<256xi32> loc(#loc20)
    %21 = tt.load %20, %5 : tensor<256x!tt.ptr<f32>> loc(#loc21)
    %22 = arith.addi %6, %cst_1 : tensor<256xi32> loc(#loc22)
    %23 = arith.addi %22, %9 : tensor<256xi32> loc(#loc23)
    %24 = tt.addptr %11, %23 : tensor<256x!tt.ptr<f32>>, tensor<256xi32> loc(#loc24)
    %25 = tt.load %24, %5 : tensor<256x!tt.ptr<f32>> loc(#loc25)
    %26 = arith.addf %13, %17 : tensor<256xf32> loc(#loc26)
    %27 = arith.addf %26, %21 : tensor<256xf32> loc(#loc27)
    %28 = arith.addf %27, %25 : tensor<256xf32> loc(#loc28)
    %29 = arith.divf %28, %cst_0 : tensor<256xf32> loc(#loc29)
    %30 = arith.muli %7, %cst : tensor<256xi32> loc(#loc30)
    %31 = arith.addi %6, %30 : tensor<256xi32> loc(#loc31)
    %32 = tt.splat %arg1 : !tt.ptr<f32> -> tensor<256x!tt.ptr<f32>> loc(#loc32)
    %33 = tt.addptr %32, %31 : tensor<256x!tt.ptr<f32>>, tensor<256xi32> loc(#loc32)
    tt.store %33, %29, %5 : tensor<256x!tt.ptr<f32>> loc(#loc33)
    tt.return loc(#loc34)
  } loc(#loc)
} loc(#loc)
#loc1 = loc(unknown)
#loc2 = loc("/orcd/home/002/osbo/ondemand/fluid-sim/Assets/Scripts/.torch_inductor_cache/xt/cxtfnkkbxg2geyewusodso546vvmqys44lfrkgrc3nf3ovg6y46g.py":20:28)
#loc3 = loc("/orcd/home/002/osbo/ondemand/fluid-sim/Assets/Scripts/.torch_inductor_cache/xt/cxtfnkkbxg2geyewusodso546vvmqys44lfrkgrc3nf3ovg6y46g.py":20:33)
#loc4 = loc("/orcd/home/002/osbo/ondemand/fluid-sim/Assets/Scripts/.torch_inductor_cache/xt/cxtfnkkbxg2geyewusodso546vvmqys44lfrkgrc3nf3ovg6y46g.py":21:36)
#loc5 = loc("/orcd/home/002/osbo/ondemand/fluid-sim/Assets/Scripts/.torch_inductor_cache/xt/cxtfnkkbxg2geyewusodso546vvmqys44lfrkgrc3nf3ovg6y46g.py":21:23)
#loc6 = loc("/orcd/home/002/osbo/ondemand/fluid-sim/Assets/Scripts/.torch_inductor_cache/xt/cxtfnkkbxg2geyewusodso546vvmqys44lfrkgrc3nf3ovg6y46g.py":22:21)
#loc7 = loc("/orcd/home/002/osbo/ondemand/fluid-sim/Assets/Scripts/.torch_inductor_cache/xt/cxtfnkkbxg2geyewusodso546vvmqys44lfrkgrc3nf3ovg6y46g.py":23:18)
#loc8 = loc("/orcd/home/002/osbo/ondemand/fluid-sim/Assets/Scripts/.torch_inductor_cache/xt/cxtfnkkbxg2geyewusodso546vvmqys44lfrkgrc3nf3ovg6y46g.py":24:20)
#loc9 = loc("/orcd/home/002/osbo/ondemand/fluid-sim/Assets/Scripts/.torch_inductor_cache/xt/cxtfnkkbxg2geyewusodso546vvmqys44lfrkgrc3nf3ovg6y46g.py":25:36)
#loc10 = loc("/orcd/home/002/osbo/ondemand/fluid-sim/Assets/Scripts/.torch_inductor_cache/xt/cxtfnkkbxg2geyewusodso546vvmqys44lfrkgrc3nf3ovg6y46g.py":25:47)
#loc11 = loc("/orcd/home/002/osbo/ondemand/fluid-sim/Assets/Scripts/.torch_inductor_cache/xt/cxtfnkkbxg2geyewusodso546vvmqys44lfrkgrc3nf3ovg6y46g.py":25:42)
#loc12 = loc("/orcd/home/002/osbo/ondemand/fluid-sim/Assets/Scripts/.torch_inductor_cache/xt/cxtfnkkbxg2geyewusodso546vvmqys44lfrkgrc3nf3ovg6y46g.py":25:30)
#loc13 = loc("/orcd/home/002/osbo/ondemand/fluid-sim/Assets/Scripts/.torch_inductor_cache/xt/cxtfnkkbxg2geyewusodso546vvmqys44lfrkgrc3nf3ovg6y46g.py":25:53)
#loc14 = loc("/orcd/home/002/osbo/ondemand/fluid-sim/Assets/Scripts/.torch_inductor_cache/xt/cxtfnkkbxg2geyewusodso546vvmqys44lfrkgrc3nf3ovg6y46g.py":26:37)
#loc15 = loc("/orcd/home/002/osbo/ondemand/fluid-sim/Assets/Scripts/.torch_inductor_cache/xt/cxtfnkkbxg2geyewusodso546vvmqys44lfrkgrc3nf3ovg6y46g.py":26:43)
#loc16 = loc("/orcd/home/002/osbo/ondemand/fluid-sim/Assets/Scripts/.torch_inductor_cache/xt/cxtfnkkbxg2geyewusodso546vvmqys44lfrkgrc3nf3ovg6y46g.py":26:30)
#loc17 = loc("/orcd/home/002/osbo/ondemand/fluid-sim/Assets/Scripts/.torch_inductor_cache/xt/cxtfnkkbxg2geyewusodso546vvmqys44lfrkgrc3nf3ovg6y46g.py":26:54)
#loc18 = loc("/orcd/home/002/osbo/ondemand/fluid-sim/Assets/Scripts/.torch_inductor_cache/xt/cxtfnkkbxg2geyewusodso546vvmqys44lfrkgrc3nf3ovg6y46g.py":27:37)
#loc19 = loc("/orcd/home/002/osbo/ondemand/fluid-sim/Assets/Scripts/.torch_inductor_cache/xt/cxtfnkkbxg2geyewusodso546vvmqys44lfrkgrc3nf3ovg6y46g.py":27:43)
#loc20 = loc("/orcd/home/002/osbo/ondemand/fluid-sim/Assets/Scripts/.torch_inductor_cache/xt/cxtfnkkbxg2geyewusodso546vvmqys44lfrkgrc3nf3ovg6y46g.py":27:30)
#loc21 = loc("/orcd/home/002/osbo/ondemand/fluid-sim/Assets/Scripts/.torch_inductor_cache/xt/cxtfnkkbxg2geyewusodso546vvmqys44lfrkgrc3nf3ovg6y46g.py":27:54)
#loc22 = loc("/orcd/home/002/osbo/ondemand/fluid-sim/Assets/Scripts/.torch_inductor_cache/xt/cxtfnkkbxg2geyewusodso546vvmqys44lfrkgrc3nf3ovg6y46g.py":28:37)
#loc23 = loc("/orcd/home/002/osbo/ondemand/fluid-sim/Assets/Scripts/.torch_inductor_cache/xt/cxtfnkkbxg2geyewusodso546vvmqys44lfrkgrc3nf3ovg6y46g.py":28:43)
#loc24 = loc("/orcd/home/002/osbo/ondemand/fluid-sim/Assets/Scripts/.torch_inductor_cache/xt/cxtfnkkbxg2geyewusodso546vvmqys44lfrkgrc3nf3ovg6y46g.py":28:30)
#loc25 = loc("/orcd/home/002/osbo/ondemand/fluid-sim/Assets/Scripts/.torch_inductor_cache/xt/cxtfnkkbxg2geyewusodso546vvmqys44lfrkgrc3nf3ovg6y46g.py":28:54)
#loc26 = loc("/orcd/home/002/osbo/ondemand/fluid-sim/Assets/Scripts/.torch_inductor_cache/xt/cxtfnkkbxg2geyewusodso546vvmqys44lfrkgrc3nf3ovg6y46g.py":29:18)
#loc27 = loc("/orcd/home/002/osbo/ondemand/fluid-sim/Assets/Scripts/.torch_inductor_cache/xt/cxtfnkkbxg2geyewusodso546vvmqys44lfrkgrc3nf3ovg6y46g.py":30:18)
#loc28 = loc("/orcd/home/002/osbo/ondemand/fluid-sim/Assets/Scripts/.torch_inductor_cache/xt/cxtfnkkbxg2geyewusodso546vvmqys44lfrkgrc3nf3ovg6y46g.py":31:18)
#loc29 = loc("/orcd/home/002/osbo/ondemand/fluid-sim/Assets/Scripts/.torch_inductor_cache/xt/cxtfnkkbxg2geyewusodso546vvmqys44lfrkgrc3nf3ovg6y46g.py":33:18)
#loc30 = loc("/orcd/home/002/osbo/ondemand/fluid-sim/Assets/Scripts/.torch_inductor_cache/xt/cxtfnkkbxg2geyewusodso546vvmqys44lfrkgrc3nf3ovg6y46g.py":34:35)
#loc31 = loc("/orcd/home/002/osbo/ondemand/fluid-sim/Assets/Scripts/.torch_inductor_cache/xt/cxtfnkkbxg2geyewusodso546vvmqys44lfrkgrc3nf3ovg6y46g.py":34:31)
#loc32 = loc("/orcd/home/002/osbo/ondemand/fluid-sim/Assets/Scripts/.torch_inductor_cache/xt/cxtfnkkbxg2geyewusodso546vvmqys44lfrkgrc3nf3ovg6y46g.py":34:25)
#loc33 = loc("/orcd/home/002/osbo/ondemand/fluid-sim/Assets/Scripts/.torch_inductor_cache/xt/cxtfnkkbxg2geyewusodso546vvmqys44lfrkgrc3nf3ovg6y46g.py":34:47)
#loc34 = loc("/orcd/home/002/osbo/ondemand/fluid-sim/Assets/Scripts/.torch_inductor_cache/xt/cxtfnkkbxg2geyewusodso546vvmqys44lfrkgrc3nf3ovg6y46g.py":34:4)
