#loc = loc("/orcd/home/002/osbo/ondemand/fluid-sim/Assets/Scripts/.torch_inductor_cache/qj/cqjdjwsvfinyvdtrf3fraiiyc7ux3er2ih4ukuwvjbkljqlsuvkt.py":18:0)
#loc1 = loc(unknown)
module {
  tt.func public @triton_(%arg0: !tt.ptr<f32> {tt.divisibility = 16 : i32} loc("/orcd/home/002/osbo/ondemand/fluid-sim/Assets/Scripts/.torch_inductor_cache/qj/cqjdjwsvfinyvdtrf3fraiiyc7ux3er2ih4ukuwvjbkljqlsuvkt.py":18:0), %arg1: !tt.ptr<f32> {tt.divisibility = 16 : i32} loc("/orcd/home/002/osbo/ondemand/fluid-sim/Assets/Scripts/.torch_inductor_cache/qj/cqjdjwsvfinyvdtrf3fraiiyc7ux3er2ih4ukuwvjbkljqlsuvkt.py":18:0), %arg2: i32 {tt.divisibility = 16 : i32} loc("/orcd/home/002/osbo/ondemand/fluid-sim/Assets/Scripts/.torch_inductor_cache/qj/cqjdjwsvfinyvdtrf3fraiiyc7ux3er2ih4ukuwvjbkljqlsuvkt.py":18:0), %arg3: i32 loc("/orcd/home/002/osbo/ondemand/fluid-sim/Assets/Scripts/.torch_inductor_cache/qj/cqjdjwsvfinyvdtrf3fraiiyc7ux3er2ih4ukuwvjbkljqlsuvkt.py":18:0)) attributes {noinline = false} {
    %c132096_i32 = arith.constant 132096 : i32 loc(#loc1)
    %c16512_i32 = arith.constant 16512 : i32 loc(#loc1)
    %c129_i32 = arith.constant 129 : i32 loc(#loc1)
    %c1024_i32 = arith.constant 1024 : i32 loc(#loc1)
    %c128_i32 = arith.constant 128 : i32 loc(#loc1)
    %c8_i32 = arith.constant 8 : i32 loc(#loc1)
    %cst = arith.constant dense<129> : tensor<1x256xi32> loc(#loc1)
    %cst_0 = arith.constant dense<0.000000e+00> : tensor<1x256xf32> loc(#loc1)
    %0 = tt.get_program_id x : i32 loc(#loc2)
    %1 = tt.make_range {end = 256 : i32, start = 0 : i32} : tensor<256xi32> loc(#loc3)
    %2 = tt.expand_dims %1 {axis = 0 : i32} : tensor<256xi32> -> tensor<1x256xi32> loc(#loc4)
    %3 = arith.remsi %0, %c8_i32 : i32 loc(#loc5)
    %4 = arith.divsi %0, %c8_i32 : i32 loc(#loc6)
    %5 = arith.remsi %4, %c128_i32 : i32 loc(#loc7)
    %6 = arith.divsi %0, %c1024_i32 : i32 loc(#loc8)
    %7 = arith.cmpi slt, %2, %cst : tensor<1x256xi32> loc(#loc9)
    %8 = arith.muli %5, %c129_i32 : i32 loc(#loc10)
    %9 = tt.splat %8 : i32 -> tensor<1x256xi32> loc(#loc11)
    %10 = arith.addi %2, %9 : tensor<1x256xi32> loc(#loc11)
    %11 = arith.muli %3, %c16512_i32 : i32 loc(#loc12)
    %12 = tt.splat %11 : i32 -> tensor<1x256xi32> loc(#loc13)
    %13 = arith.addi %10, %12 : tensor<1x256xi32> loc(#loc13)
    %14 = arith.muli %6, %c132096_i32 : i32 loc(#loc14)
    %15 = tt.splat %14 : i32 -> tensor<1x256xi32> loc(#loc15)
    %16 = arith.addi %13, %15 : tensor<1x256xi32> loc(#loc15)
    %17 = tt.splat %arg0 : !tt.ptr<f32> -> tensor<1x256x!tt.ptr<f32>> loc(#loc16)
    %18 = tt.addptr %17, %16 : tensor<1x256x!tt.ptr<f32>>, tensor<1x256xi32> loc(#loc16)
    %19 = tt.load %18, %7, %cst_0 evictionPolicy = evict_last : tensor<1x256x!tt.ptr<f32>> loc(#loc17)
    %20 = arith.addf %19, %cst_0 : tensor<1x256xf32> loc(#loc18)
    %21 = arith.select %7, %20, %cst_0 : tensor<1x256xi1>, tensor<1x256xf32> loc(#loc19)
    %22 = "tt.reduce"(%21) <{axis = 1 : i32}> ({
    ^bb0(%arg4: f32 loc(unknown), %arg5: f32 loc(unknown)):
      %26 = arith.addf %arg4, %arg5 : f32 loc(#loc29)
      tt.reduce.return %26 : f32 loc(#loc27)
    }) : (tensor<1x256xf32>) -> tensor<1xf32> loc(#loc27)
    %23 = tt.expand_dims %22 {axis = 1 : i32} : tensor<1xf32> -> tensor<1x1xf32> loc(#loc23)
    %24 = tt.addptr %arg1, %0 : !tt.ptr<f32>, i32 loc(#loc24)
    %25 = tt.splat %24 : !tt.ptr<f32> -> tensor<1x1x!tt.ptr<f32>> loc(#loc24)
    tt.store %25, %23 : tensor<1x1x!tt.ptr<f32>> loc(#loc25)
    tt.return loc(#loc26)
  } loc(#loc)
} loc(#loc)
#loc2 = loc("/orcd/home/002/osbo/ondemand/fluid-sim/Assets/Scripts/.torch_inductor_cache/qj/cqjdjwsvfinyvdtrf3fraiiyc7ux3er2ih4ukuwvjbkljqlsuvkt.py":21:28)
#loc3 = loc("/orcd/home/002/osbo/ondemand/fluid-sim/Assets/Scripts/.torch_inductor_cache/qj/cqjdjwsvfinyvdtrf3fraiiyc7ux3er2ih4ukuwvjbkljqlsuvkt.py":24:25)
#loc4 = loc("/orcd/home/002/osbo/ondemand/fluid-sim/Assets/Scripts/.torch_inductor_cache/qj/cqjdjwsvfinyvdtrf3fraiiyc7ux3er2ih4ukuwvjbkljqlsuvkt.py":24:33)
#loc5 = loc("/orcd/home/002/osbo/ondemand/fluid-sim/Assets/Scripts/.torch_inductor_cache/qj/cqjdjwsvfinyvdtrf3fraiiyc7ux3er2ih4ukuwvjbkljqlsuvkt.py":25:18)
#loc6 = loc("/orcd/home/002/osbo/ondemand/fluid-sim/Assets/Scripts/.torch_inductor_cache/qj/cqjdjwsvfinyvdtrf3fraiiyc7ux3er2ih4ukuwvjbkljqlsuvkt.py":26:20)
#loc7 = loc("/orcd/home/002/osbo/ondemand/fluid-sim/Assets/Scripts/.torch_inductor_cache/qj/cqjdjwsvfinyvdtrf3fraiiyc7ux3er2ih4ukuwvjbkljqlsuvkt.py":26:25)
#loc8 = loc("/orcd/home/002/osbo/ondemand/fluid-sim/Assets/Scripts/.torch_inductor_cache/qj/cqjdjwsvfinyvdtrf3fraiiyc7ux3er2ih4ukuwvjbkljqlsuvkt.py":27:20)
#loc9 = loc("/orcd/home/002/osbo/ondemand/fluid-sim/Assets/Scripts/.torch_inductor_cache/qj/cqjdjwsvfinyvdtrf3fraiiyc7ux3er2ih4ukuwvjbkljqlsuvkt.py":32:25)
#loc10 = loc("/orcd/home/002/osbo/ondemand/fluid-sim/Assets/Scripts/.torch_inductor_cache/qj/cqjdjwsvfinyvdtrf3fraiiyc7ux3er2ih4ukuwvjbkljqlsuvkt.py":34:44)
#loc11 = loc("/orcd/home/002/osbo/ondemand/fluid-sim/Assets/Scripts/.torch_inductor_cache/qj/cqjdjwsvfinyvdtrf3fraiiyc7ux3er2ih4ukuwvjbkljqlsuvkt.py":34:40)
#loc12 = loc("/orcd/home/002/osbo/ondemand/fluid-sim/Assets/Scripts/.torch_inductor_cache/qj/cqjdjwsvfinyvdtrf3fraiiyc7ux3er2ih4ukuwvjbkljqlsuvkt.py":34:57)
#loc13 = loc("/orcd/home/002/osbo/ondemand/fluid-sim/Assets/Scripts/.torch_inductor_cache/qj/cqjdjwsvfinyvdtrf3fraiiyc7ux3er2ih4ukuwvjbkljqlsuvkt.py":34:51)
#loc14 = loc("/orcd/home/002/osbo/ondemand/fluid-sim/Assets/Scripts/.torch_inductor_cache/qj/cqjdjwsvfinyvdtrf3fraiiyc7ux3er2ih4ukuwvjbkljqlsuvkt.py":34:71)
#loc15 = loc("/orcd/home/002/osbo/ondemand/fluid-sim/Assets/Scripts/.torch_inductor_cache/qj/cqjdjwsvfinyvdtrf3fraiiyc7ux3er2ih4ukuwvjbkljqlsuvkt.py":34:64)
#loc16 = loc("/orcd/home/002/osbo/ondemand/fluid-sim/Assets/Scripts/.torch_inductor_cache/qj/cqjdjwsvfinyvdtrf3fraiiyc7ux3er2ih4ukuwvjbkljqlsuvkt.py":34:34)
#loc17 = loc("/orcd/home/002/osbo/ondemand/fluid-sim/Assets/Scripts/.torch_inductor_cache/qj/cqjdjwsvfinyvdtrf3fraiiyc7ux3er2ih4ukuwvjbkljqlsuvkt.py":34:77)
#loc18 = loc("/orcd/home/002/osbo/ondemand/fluid-sim/Assets/Scripts/.torch_inductor_cache/qj/cqjdjwsvfinyvdtrf3fraiiyc7ux3er2ih4ukuwvjbkljqlsuvkt.py":36:23)
#loc19 = loc("/orcd/home/002/osbo/ondemand/fluid-sim/Assets/Scripts/.torch_inductor_cache/qj/cqjdjwsvfinyvdtrf3fraiiyc7ux3er2ih4ukuwvjbkljqlsuvkt.py":37:38)
#loc20 = loc("/home/osbo/.conda/envs/fluid/lib/python3.12/site-packages/triton/language/standard.py":267:36)
#loc21 = loc("/orcd/home/002/osbo/ondemand/fluid-sim/Assets/Scripts/.torch_inductor_cache/qj/cqjdjwsvfinyvdtrf3fraiiyc7ux3er2ih4ukuwvjbkljqlsuvkt.py":38:25)
#loc22 = loc("/home/osbo/.conda/envs/fluid/lib/python3.12/site-packages/triton/language/standard.py":256:15)
#loc23 = loc("/orcd/home/002/osbo/ondemand/fluid-sim/Assets/Scripts/.torch_inductor_cache/qj/cqjdjwsvfinyvdtrf3fraiiyc7ux3er2ih4ukuwvjbkljqlsuvkt.py":38:28)
#loc24 = loc("/orcd/home/002/osbo/ondemand/fluid-sim/Assets/Scripts/.torch_inductor_cache/qj/cqjdjwsvfinyvdtrf3fraiiyc7ux3er2ih4ukuwvjbkljqlsuvkt.py":39:25)
#loc25 = loc("/orcd/home/002/osbo/ondemand/fluid-sim/Assets/Scripts/.torch_inductor_cache/qj/cqjdjwsvfinyvdtrf3fraiiyc7ux3er2ih4ukuwvjbkljqlsuvkt.py":39:36)
#loc26 = loc("/orcd/home/002/osbo/ondemand/fluid-sim/Assets/Scripts/.torch_inductor_cache/qj/cqjdjwsvfinyvdtrf3fraiiyc7ux3er2ih4ukuwvjbkljqlsuvkt.py":39:4)
#loc27 = loc(callsite(#loc20 at #loc21))
#loc28 = loc(callsite(#loc22 at #loc20))
#loc29 = loc(callsite(#loc28 at #loc21))
